time_series_forecasting/saved_models/FeedForwardRegressionModel/19-03-2024-220746_NO1_epoch_2.pt (torch, 26979 bytes, 3 tensors)

dense1.weight f4 [64, 96]
000000 50 78 0b 3d b9 5d 04 bd c1 88 38 bd 43 03 1f bc
       0.034050286 -0.032315943 -0.045052294 -0.0097053675
000010 5c d9 c9 bd 26 7c 23 bc 2b a0 00 3d ee 9c 0c 3c
       -0.09855911 -0.00997833 0.031402748 0.008582337
000020 58 03 69 bc c0 0e d7 3d e0 c0 69 bd 99 26 c5 3b
       -0.014221989 0.1050086 -0.057068706 0.006016564
000030 6a 4e c4 3d 2d 9e 88 bd bd a9 97 bd b5 37 74 3d
       0.09585269 -0.06670795 -0.07405422 0.05962344
000040 f2 3f 5c bd 6e 55 73 3c d1 52 82 bd 25 ce a8 3d
       -0.05377192 0.014851911 -0.06363452 0.08242444
000050 9e b5 56 3d 08 85 c0 bc f0 e2 9e 3d 8d cf cf 3d
       0.052419297 -0.023500934 0.07758129 0.10147009
000060 93 f1 4e 3d c2 17 61 bd 20 13 8b 3d c2 bb a8 bc
       0.050523352 -0.054954298 0.06790757 -0.020597342
000070 2c cd 48 3d d0 fa ac 3d bf 72 24 bd 32 7f cd 3d
       0.049023792 0.08446276 -0.040148493 0.10034026
000080 af 5d 99 bd 6e 1a b9 bd 6d 73 9e 3b 22 fc 8c bb
       -0.07488572 -0.09038244 0.004835537 -0.0043025175
000090 44 89 a7 bc fb e0 f4 3b 37 8b 5a 3b 2d 3b b7 3d
       -0.020451196 0.007473109 0.0033347139 0.08946834
0000a0 27 ea 54 bc d7 d5 9a 3d 36 75 82 bd cc eb e4 bc
       -0.012995279 0.07560318 -0.063700125 -0.027944468
0000b0 73 be 67 3d 83 ae a8 3c 8a 24 0d bd f3 29 81 bd
       0.05657811 0.020591026 -0.034458674 -0.06306829
0000c0 4f 23 83 3d 04 25 b5 bd 7c 88 9b 3c e3 d1 ca bc
       0.06403219 -0.08844951 0.01898598 -0.024758285
0000d0 68 e0 c3 bd 7b 3a ce bb ef bf c6 bd e4 fb 99 3c
       -0.095642865 -0.0062935925 -0.09704577 0.018796869
0000e0 90 89 a6 3d 50 cb 97 bd 6e 22 5c bd ec 15 10 3d
       0.08131707 -0.07411826 -0.053743772 0.035177156
0000f0 68 26 10 bd 19 fb bf 3d 9d 10 4d bd fa 42 c3 bd
       -0.035192877 0.09374065 -0.05006467 -0.09534259
000100 b6 9e 90 bd e0 31 a0 3d 25 66 33 3c 46 af a3 bd
       -0.07061522 0.07822013 0.010949646 -0.07992415
000110 4a 52 67 bd f9 36 8d bd e9 37 ff bc bc 6c 3a bc
       -0.05647496 -0.06895251 -0.03115459 -0.011378463
000120 3f 22 49 3d 51 c1 b1 bc 6a f1 73 bd 0b df c9 bb
       0.049104925 -0.021698626 -0.059556402 -0.006160622
000130 16 c9 61 3d f8 b2 90 3d b7 ce 58 bb 1c 89 db 3d
       0.05512341 0.070653856 -0.0033082196 0.10719511
000140 0e 3f 80 3d 7f 65 36 3d 98 bb 36 bd c2 a1 bd bc
       0.06262027 0.044530388 -0.044612497 -0.023148421
000150 24 c6 a5 bd 5f 77 3e 3c d4 ab 05 bd 17 9c ab bd
       -0.08094433 0.01162514 -0.03263457 -0.08379381
000160 36 29 b8 bd dc 9c 93 bd 5d 55 14 bc fa 16 29 3b
       -0.08992235 -0.07207653 -0.009053555 0.0025801049
000170 c1 6d a1 bd ee d6 c6 3d 36 ad 5e bd 1c 0d 30 bd
       -0.07882262 0.09708963 -0.054364406 -0.042981252
000180 82 7b 85 bc df 42 85 3d 05 11 9b bd ac b7 75 bc
       -0.016294245 0.06506895 -0.075716056 -0.014997404
000190 53 a3 fb bb b7 6b 6a bc 47 b9 13 3d cd 7e c3 3a
       -0.007679382 -0.014307908 0.036065366 0.0014915109
0001a0 d8 fc 4b bd 8a 9d 6f 3d 0f 89 e3 bd 6a 5c 15 3d
       -0.049801677 0.05849985 -0.11110126 0.036465086
0001b0 d7 9a f0 3d 11 96 9e 3d e2 cc ba bc 28 7e e8 3c
       0.11748283 0.07743467 -0.022802774 0.028380468
0001c0 50 f4 b6 3d c7 1c 3d 3d ad 03 8d bc ee 39 90 3d
       0.08933318 0.046170022 -0.017213667 0.07042299
0001d0 b3 13 cb 3d cd ca 8f bd 34 88 11 3d 86 6a 76 bc
       0.09915867 -0.07021103 0.035530284 -0.015040046
0001e0 b0 64 2a 3d 67 db 51 bc 40 85 12 3d 2b 25 9f 3d
       0.04159993 -0.012808657 0.03577161 0.07770761
0001f0 f9 0a b9 bd 40 40 84 3d 62 a6 79 3d 74 04 4e bd
       -0.09035296 0.06457567 0.06094969 -0.050297216
000200 17 83 c0 3d 1c 86 99 bd 4e df 89 3d c5 e7 f7 3b
       0.094000034 -0.074962825 0.06732045 0.007565471
000210 3f 70 cd 3d 6d 7e 90 bd ce 20 84 bd 16 4a a8 3d
       0.10031175 -0.07055364 -0.064515695 0.08217256
000220 ce bb 27 3c d5 57 c5 bd 52 d5 bc bd 09 8b 14 bc
       0.010237647 -0.09635893 -0.09220375 -0.009066352
000230 e1 db 08 bc 34 94 db bd 88 f4 94 bc 47 45 6a bc
       -0.0083532045 -0.10721627 -0.018183008 -0.014298744
000240 bf 64 02 bd 8c 86 ff bc 7b 9c 2d bd f3 3a dd bd
       -0.03183436 -0.031192087 -0.04238556 -0.10802259
000250 63 5b ba 3d 5c 92 59 3c 77 7b df 3b 2b fd e2 bc
       0.09099462 0.013279524 0.006820138 -0.02770861
000260 51 35 a4 3d 6a 00 a2 3d c7 94 d6 3c 02 ab 8b 3c
       0.08017982 0.07910235 0.02619399 0.017049316
000270 d8 26 26 3c 7e 43 89 3d 3b 48 85 bd 3d df bf bc
       0.010141097 0.06702326 -0.065079175 -0.023421878
000280 a1 dc b7 bd 07 4c 96 bd ae c9 13 3c b5 6c 7e 3d
       -0.089776285 -0.0733872 0.009020252 0.06211539
000290 13 f5 0b ba 96 d8 69 bd 85 5c 9f 3d 1c 09 91 bd
       -0.0005338948 -0.057091318 0.077813186 -0.070818156
0002a0 f0 79 9d bd 55 d6 e7 3c 7a d0 01 bb 73 48 14 bd
       -0.07689273 0.028300444 -0.00198081 -0.036201905
0002b0 92 03 10 bd c3 97 ab 3d ed f4 f3 3d a1 2f 02 3c
       -0.035159655 0.083785556 0.1191195 0.007945926
0002c0 7d 16 54 bc 89 25 8c bd 1c 08 59 3d 01 cd ae bc
       -0.012944815 -0.06843097 0.05298625 -0.021337988
0002d0 56 2b a0 3d 00 30 25 3d cf b7 0d bd db a5 ad 3c
       0.07820766 0.04032898 -0.03459912 0.02119725
0002e0 3f 43 3c bc c3 c7 8a bd 86 d4 9f 3b ee 04 ef bd
       -0.011490642 -0.06776383 0.0048776297 -0.11670862
0002f0 df 4a ad bc 4a fe e9 bd ea da 8e 3d 63 63 70 3c
       -0.021153865 -0.11425455 0.06975348 0.014672133
000300 62 cc 0f 3e db 3c 8a bd f4 14 a8 3d aa bd fa 3b
       0.1404281 -0.067498885 0.082071215 0.0076520042
000310 cd 9d 2c bc da 1c c7 3d 8d 30 70 bd a7 40 96 3d
       -0.0105356695 0.097223 -0.05864005 0.0733655
000320 07 2e a8 3d 30 4e 84 3d ad c5 bb bd dd 7b a9 3d
       0.08211904 0.064602256 -0.09168563 0.08275578
000330 83 9e 93 3d ae 4f 38 3d 1d 8d b7 3b a1 5b 9b 3b
       0.07207968 0.044997863 0.005601539 0.0047411476
000340 f1 fa 36 bd 25 02 3d 3c ac 6c a9 3d d3 7f 5d 3d
       -0.04467291 0.011536156 0.08272681 0.05407698
000350 8a 01 48 bc 28 3c be 3d 92 a0 63 3d 59 46 21 bd
       -0.012207398 0.09288818 0.055573054 -0.03937373
000360 82 7a af 3d 16 31 e2 3a d3 e8 b6 3d 37 92 62 bc
       0.085682884 0.001725706 0.089311264 -0.013828806
000370 98 e5 57 bd 49 d5 bd 3d 8a 26 b3 3c 85 bb 85 bd
       -0.052709192 0.092691965 0.021868963 -0.06529907
000380 d4 be f1 3d 54 d9 7b bd 16 ef ce 3c 69 39 42 bd
       0.11803976 -0.061486557 0.02526049 -0.04741803
000390 c7 f8 fa 3b 11 ce 08 bc 2c 16 26 bb 80 9a 28 bd
       0.007659051 -0.008349911 -0.0025342805 -0.041162968
0003a0 8d e9 6e bd 67 9c bc bd 76 df 38 3d 30 2b 21 bd
       -0.0583282 -0.09209519 0.045134984 -0.039347827
0003b0 28 bd 3c bd be ac d6 3c 7e 94 9a 3c 6b 76 83 bb
       -0.04607883 0.026205417 0.018869635 -0.0040119193
0003c0 c6 f3 dd 3c 1f d7 6e 3d 2c 38 4b 3c 5c be 5e 3d
       0.02709378 0.058310624 0.012403529 0.05438076
0003d0 45 f1 90 3c 5d f4 ba bd 27 8b d7 bd 49 7c 0a bd
       0.017693171 -0.0912864 -0.10524588 -0.033809934
0003e0 a0 67 e0 3c 78 9f a7 3d 33 84 79 3b ca a6 d0 bb
       0.027393162 0.08184713 0.0038073182 -0.006367539
0003f0 d9 65 82 3d c3 01 36 bd 63 84 3b bc d3 2d 39 3d
       0.06367082 -0.044435274 -0.011445138 0.045209717

dense1.bias f4 [64]
000000 31 9c 6a 3d ef 32 64 3d 3d 17 0c be 9b c8 52 bc
       0.057277862 0.055712637 -0.1368074 -0.012865211
000010 b7 49 90 3d 93 93 8f bd a2 78 9c 3c 04 61 01 3d
       0.0704531 -0.070105694 0.019100491 0.031586662
000020 aa d6 f0 3c 3f b8 78 3d d5 fc a0 bc 0a cf b9 3d
       0.029399235 0.060722586 -0.01965181 0.09072693
000030 30 e0 61 bd d3 5a 89 bc c5 11 68 3d 71 19 58 3d
       -0.055145442 -0.016766941 0.05665757 0.052758638
000040 ee 3f 86 3b 59 20 83 bd a9 42 07 be 47 dd b3 3a
       0.0040969765 -0.06402654 -0.13209023 0.0013722562
000050 36 9e 70 bd 3f 6d 10 3d c8 ad db 3d a7 43 01 bc
       -0.05874463 0.035260435 0.107265055 -0.007889665
000060 b8 3c d3 3d 7b 1c d0 3c 1f 8b 26 3d 59 46 26 bd
       0.103143156 0.025404206 0.04066002 -0.040594433
000070 f8 7c 25 3d 80 36 aa 3c 56 1f 1e bd 83 fe 8e 3d
       0.040402383 0.02077794 -0.038604103 0.06982138
000080 03 cf 0a bd 00 b2 eb 3d 71 8b ad 3d 74 8c 80 bd
       -0.033888828 0.1150856 0.08473862 -0.06276789
000090 49 2b bc bd f6 82 a7 3c b4 a9 9e bd c0 62 90 bb
       -0.091879435 0.02044819 -0.07747212 -0.004406303
0000a0 b2 f9 46 bd 6b 4b 2f 3d ee b0 5a bc 0c 18 6e 3c
       -0.04857797 0.042796534 -0.013347847 0.0145321
0000b0 eb aa a3 bd e6 1e 30 3d ce 95 34 3d db 04 d6 3c
       -0.079915844 0.042998217 0.044088177 0.026125362
0000c0 89 5c a5 3d 87 96 8a bd 64 53 09 bd ac a2 0d 3c
       0.0807429 -0.06766992 -0.033526793 0.008644741
0000d0 d4 fe 86 3d 70 28 3c 3d 33 fb 22 bd a4 4f f8 3c
       0.06591573 0.045937 -0.039790343 0.030311413
0000e0 b6 9e bf bd e4 71 96 3c b5 0b 0c bd 07 0f db 3c
       -0.093564436 0.018364854 -0.034190852 0.026740564
0000f0 f3 0f 02 3c db cb 9c 3c d8 76 fc bc 82 e4 b7 bd
       0.007938373 0.019140175 -0.030818388 -0.08979131

dense2.weight f4 [1, 64]
000000 4c ca d4 bd 4c f9 50 3d 0b af de 3d 96 17 7e bd
       -0.103901476 0.051018998 0.108732305 -0.062034212
000010 8e d5 ef 3d 0b 63 12 3d ef 34 53 bd 32 87 89 bd
       0.11710654 0.035738986 -0.051564153 -0.067152396
000020 48 55 79 3d 8e 4e 07 3d 47 65 62 3d 14 87 0e bd
       0.060872346 0.0330339 0.055272367 -0.03479679
000030 c9 9f e8 3d 51 f7 ee 3d ad d8 ce 3d cb eb bb bd
       0.113586016 0.116682656 0.100999214 -0.09175833
000040 8b 4d c7 bd 7d d9 ea 3d 25 70 99 3d e8 9f 0b 3e
       -0.09731587 0.11467264 0.07492093 0.13635218
000050 38 b4 9c 3d 09 0f 69 3d 0e d3 df bd dc 46 36 3d
       0.076515615 0.056899104 -0.10928927 0.04450117
000060 08 4b 4b bd 8e 94 83 bd 9a 2f ad 3d ed 40 ad 3d
       -0.049632102 -0.06424819 0.08456345 0.08459649
000070 c0 c4 83 3d a4 52 f4 bd cc fe c0 bd c5 03 55 3d
       0.064340115 -0.11929825 -0.09423599 0.052005548
000080 4e 62 6b 3d a6 82 ff bc f0 87 4f bd 1f 7c 9a 3d
       0.057466798 -0.031190228 -0.05066675 0.075432055
000090 de 80 d1 bd e0 72 de bc bc a1 7f 3d c5 d7 93 3d
       -0.102296576 -0.027154386 0.0624101 0.07218889
0000a0 68 f8 94 3d a4 8d 0a 3e 8c e4 c0 bd 07 0a 1f 3e
       0.07273942 0.13530594 -0.09418592 0.15531169
0000b0 dc d1 d1 bd d2 a6 dd bd 70 33 45 3d 7f 33 34 bd
       -0.102451056 -0.10822834 0.048144758 -0.043994423
0000c0 82 28 cd bd dd 29 40 3d b6 52 e5 bd 1d 52 82 bd
       -0.10017492 0.046914924 -0.111974165 -0.06363318
0000d0 dc d9 aa 3d e2 4b bd 3d ed dc 95 bd af a6 71 bd
       0.08342335 0.09242989 -0.07317529 -0.058996852
0000e0 a7 85 00 be 9c 79 eb bd d0 37 29 bd c2 62 8d bd
       -0.12550984 -0.114978045 -0.041312993 -0.06903602
0000f0 d0 77 9e 3d cb 95 cb bd 11 00 fa bc fc 85 9d bd
       0.07737696 -0.0994068 -0.03051761 -0.07691571
