time_series_forecasting/saved_models/FeedForwardRegressionModel/19-03-2024-220551_NO1_epoch_1.pt (torch, 26979 bytes, 3 tensors)

dense1.weight f4 [64, 96]
000000 8c 2f 49 3d 0b cb 02 bd 22 73 0d bd 9b 43 b6 bc
       0.04911761 -0.031931918 -0.034533627 -0.022249034
000010 da 5d b9 bd 44 a7 4b bc 40 c2 43 3d 9a 80 cd b9
       -0.09051104 -0.012430016 0.047792673 -0.00039196463
000020 3f 9b 8b bc 96 d7 ce 3d 29 94 1d bd 8d 5a b0 39
       -0.0170418 0.100997135 -0.038471375 0.00033636802
000030 e6 bb b1 3d f9 39 93 bd 91 85 61 bd dc b5 5c 3d
       0.08678417 -0.07188792 -0.05505902 0.053884372
000040 2e a2 82 bd ed 9b 10 3c 52 45 38 bd 32 1b 98 3d
       -0.063785896 0.008826238 -0.044987984 0.07427062
000050 27 de 2f 3d c7 c7 f8 bc c9 97 c3 3d 1d 65 bb 3d
       0.04293647 -0.030368699 0.09550435 0.09150145
000060 f7 bb 28 3d 87 02 7c bd dc b2 ad 3d 3c 74 05 bd
       0.041194882 -0.061525848 0.0848138 -0.032581553
000070 ed 5d 2f 3d db 27 a0 3d e1 ad c9 bc f3 2b bb 3d
       0.042814184 0.07820102 -0.024619045 0.09139242
000080 bd 2c 9c bd de a4 c4 bd 5c e3 96 3c 13 94 36 bc
       -0.07625721 -0.096017584 0.01841896 -0.011143702
000090 bb ed 87 bc 0e 54 44 3b 3e ca 64 3c 47 f6 ab 3d
       -0.01659285 0.0029957327 0.013964234 0.08396583
0000a0 85 43 d4 bb af 06 94 3d 32 f1 6c bd a6 b7 0c bd
       -0.0064777755 0.07227837 -0.05784721 -0.03435483
0000b0 36 ca 84 3d 92 45 9a 3c aa ea 13 bd 0e 0c 8c bd
       0.06483881 0.018832002 -0.036112465 -0.06838237
0000c0 38 af 90 3d 8b 3b b6 bd 11 ba 0a 3c 5d c4 f8 bc
       0.0706467 -0.08898076 0.008467213 -0.03036707
0000d0 ec 7e bc bd ab 8f ca bb f5 50 e8 bd 59 dc 68 3c
       -0.09203896 -0.0061816773 -0.11343566 0.014212691
0000e0 54 65 ab 3d 7d 26 96 bd a3 27 94 bd b8 bf 01 3d
       0.08368936 -0.0733156 -0.072341226 0.031676978
0000f0 44 a3 0d bd 03 50 c3 3d 4e 6f 8d bd 3f 08 c4 bd
       -0.03457953 0.095367454 -0.06905995 -0.09571885
000100 4f 19 94 bd 80 9a a5 3d dd 35 fc bb 13 fe 9b bd
       -0.0723139 0.08086109 -0.0076968507 -0.0761682
000110 26 a1 72 bd 86 70 86 bd af 05 49 bd e6 20 7f bb
       -0.059235714 -0.06564431 -0.049077686 -0.003892952
000120 ed 18 43 3d 45 e6 91 bc 7a 98 9c bd 5c 17 e5 ba
       0.047631193 -0.017809996 -0.0764627 -0.0017478275
000130 be 7b 5b 3d 8a 8d 99 3d 7b 51 9a bc 81 2b d6 3d
       0.053584807 0.074976996 -0.018837681 0.104575165
000140 16 67 77 3d 90 a0 46 3d e2 5e 6e bd 03 bc cf bc
       0.060401045 0.048492968 -0.058195956 -0.025358206
000150 88 ad a7 bd 47 e7 59 3c ba 35 31 bd 3d 5f a0 bd
       -0.08187395 0.01329977 -0.04326413 -0.07830665
000160 29 e5 b7 bd 01 e1 99 bd 60 3a 74 bc 6a 85 7a 3c
       -0.08979256 -0.07513619 -0.014906496 0.015290597
000170 10 33 9f bd 4b fd b2 3d 16 e7 57 bd dd b9 c4 bc
       -0.07773411 0.08739718 -0.052710615 -0.024014408
000180 19 80 0b bd a5 46 5c 3d 22 c5 83 bd 30 07 a7 bc
       -0.03405771 0.05377831 -0.064340845 -0.02038917
000190 48 36 ad bc ad b6 a9 bc 66 cd 4d 3d ae 10 2f bb
       -0.021144047 -0.02071699 0.05024471 -0.0026712823
0001a0 38 83 5f bd 68 a4 61 3d 6f e3 c4 bd f8 24 00 3d
       -0.0545685 0.05508843 -0.09613692 0.031285256
0001b0 72 a4 f3 3d e3 01 9b 3d 8e 72 0d bc 69 90 c1 3c
       0.118966 0.07568719 -0.008633269 0.02362843
0001c0 eb 39 be 3d 1c 15 3a 3d 81 cb 98 bb 8c cd 8b 3d
       0.09288391 0.045430288 -0.0046629314 0.06826314
0001d0 37 87 d3 3d 3a 20 8f bd aa d4 3c 3d 7f aa 7d bc
       0.103285246 -0.069885686 0.04610125 -0.015482544
0001e0 e1 c9 3c 3d b9 71 3e bc 68 ed 34 3d aa fc 9c 3d
       0.046090964 -0.011623793 0.04417172 0.07665379
0001f0 e1 dc b2 bd a3 4a 89 3d 8c 33 89 3d 38 8f 5a bd
       -0.087335356 0.06703689 0.06699285 -0.05335924
000200 50 5d c2 3d fb 65 92 bd b9 de 90 3d ce 6a 97 3b
       0.09490454 -0.071483575 0.07073731 0.0046208864
000210 5b a0 ca 3d e7 0d 88 bd 73 56 83 bd 60 e6 a1 3d
       0.09893867 -0.06643277 -0.06412973 0.07905269
000220 b2 51 e6 3b 57 8e bc bd 8d 5e c3 bd 6b 6f 4e bc
       0.007028782 -0.09206837 -0.095395185 -0.012599806
000230 c1 3f 5b bc 29 93 d3 bd 7e c2 d0 bc bb 13 96 bc
       -0.013381899 -0.10330803 -0.025483366 -0.018319955
000240 ba 9d 18 bd a6 fc e8 bc 3a 34 5c bd 62 b1 e1 bd
       -0.037259795 -0.028440785 -0.053760745 -0.11020161
000250 6e 4d b0 3d 67 de 6b 3c bb 25 f1 bb 4f e4 01 bd
       0.086085185 0.014396287 -0.007359234 -0.031711873
000260 04 3a 9b 3d 25 f7 a0 3d 79 fc 37 3c fe 08 33 3c
       0.07579425 0.07859639 0.011229628 0.010927437
000270 fd f3 ff 3b a7 41 85 3d 21 4d a2 bd 83 80 01 bd
       0.007811068 0.06506663 -0.079248674 -0.0316167
000280 a1 eb b6 bd d4 42 9d bd 9c 5f 67 bb f1 ff 52 3d
       -0.089316614 -0.07678762 -0.003530479 0.051513616
000290 db 8b 98 3b 46 3f 7c bd 51 b6 89 3d ac a4 9d bd
       0.004655344 -0.06158378 0.06724227 -0.07697424
0002a0 79 11 95 bd 25 6e bf 3c cd 14 2a bc c9 c6 0a bd
       -0.07278723 0.02336795 -0.010380936 -0.033880983
0002b0 41 a7 02 bd fd 5f a3 3d 94 94 e7 3d ad 08 64 3c
       -0.031897787 0.07977293 0.11307636 0.013918084
0002c0 64 07 39 bc e7 f8 8d bd 46 09 4b 3d 17 b1 86 bc
       -0.011293266 -0.0693224 0.04956939 -0.016441865
0002d0 7f 54 95 3d 42 44 3b 3d 58 4c 0f bd 9a b8 a6 3c
       0.07291507 0.045719393 -0.034984916 0.020351697
0002e0 fd 2c c0 bc d0 ab 59 bd 62 34 04 3c 15 12 fa bd
       -0.023458952 -0.05314237 0.00806913 -0.1221048
0002f0 51 e4 1b bd ca db b4 bd 5f ce 9d 3d 15 cd b2 3b
       -0.038059536 -0.08830984 0.07705378 0.0054565766
000300 1c 5e f3 3d f4 27 9e bd b0 43 ae 3d 23 ab b7 bb
       0.11883184 -0.07722464 0.08509004 -0.005605118
000310 68 b1 c8 bc 38 91 bc 3d 9f 65 6a bd 4b 0a 78 3d
       -0.024498656 0.09207386 -0.05722582 0.06055669
000320 d2 62 a4 3d 4d e6 7d 3d 7a 83 bc bd ce e6 8e 3d
       0.08026661 0.06198721 -0.09204765 0.06977616
000330 c2 0f 9f 3d bb 52 32 3d 5b 25 64 3b 78 39 dc bb
       0.077666774 0.04353593 0.0034812305 -0.006720718
000340 c1 4f 19 bd ee 4e 29 3c bd ea a1 3d 17 6a 42 3d
       -0.037429575 0.01033376 0.07906101 0.047464456
000350 4e a7 c5 bb 5a 02 bc 3d 03 b1 4f 3d cd f1 29 bd
       -0.006031907 0.09180136 0.05070592 -0.041490365
000360 2a 65 b9 3d f1 60 00 3a 64 48 ab 3d ae 01 5c bc
       0.09052499 0.0004897258 0.08363417 -0.013428135
000370 fa 6f 53 bd fd c6 bc 3d b5 24 81 3c 81 87 87 bd
       -0.05162046 0.092176415 0.015764574 -0.06617642
000380 cb 60 ed 3d 7c 39 7b bd d4 5a 9c 3c 4f ae 44 bd
       0.115907274 -0.06133412 0.019086279 -0.048017796
000390 0f aa 01 3b 2c 81 00 bc cb 3b 0a bc e4 59 2b bd
       0.00197852 -0.007843297 -0.008437107 -0.041833773
0003a0 8b 43 85 bd ee c4 bb bd 3f 34 23 3d 81 82 24 bd
       -0.065070234 -0.09168421 0.039844748 -0.04016352
0003b0 96 cd 57 bd 9c f4 d2 3c eb 41 6e 3c 46 a1 c9 bb
       -0.052686296 0.025751404 0.014542083 -0.0061532585
0003c0 0f 26 b9 3c b5 78 66 3d 3d c2 19 3c ef 2a 5d 3d
       0.022601156 0.05626746 0.009384689 0.053996023
0003d0 af 37 83 3c 3e d3 c2 bd 9b 70 da bd 1a 32 15 bd
       0.016017763 -0.095129475 -0.10666009 -0.036424734
0003e0 e5 84 ea 3c f4 b1 9c 3d b2 9e 88 3b 9f 5b 32 bc
       0.028627822 0.07651129 0.0041693086 -0.010886102
0003f0 59 c1 8b 3d 1a c4 51 bd 22 c7 18 bc a7 66 1f 3d
       0.068239875 -0.051212408 -0.009324821 0.038916256

dense1.bias f4 [64]
000000 c3 7d 9c 3d cc ca 31 3d f6 48 e7 bd c2 b9 7a bc
       0.07641175 0.043406293 -0.11293213 -0.015303077
000010 d7 8c 94 3d 89 dd 8c bd 0c 82 af 3c 85 9f 65 3d
       0.072534256 -0.06878192 0.021424316 0.056060333
000020 96 cf 03 3d 73 15 83 3d 78 4d 10 bc d5 01 b2 3d
       0.03218039 0.064005755 -0.0088075325 0.08691756
000030 d4 0b 5f bd 1a 44 8f bc 06 49 7b 3d 2c 32 99 3d
       -0.05445464 -0.017488528 0.061348937 0.07480273
000040 f5 dd 23 bc ed 3f 7c bd 9d de fe bd 77 bd 3c 3c
       -0.010001649 -0.061584402 -0.12444804 0.011519781
000050 eb 83 47 bd 98 51 19 3d 8f 1b df 3d 32 f1 35 bc
       -0.04870979 0.03743133 0.10893928 -0.011104869
000060 f2 4f d9 3d 9c 96 d9 3c ec 09 66 3d 84 3d c9 bc
       0.106109515 0.026561074 0.056161806 -0.024565466
000070 78 b2 13 3d 93 73 0b 3d 4c fe 16 bd 89 9a 94 3d
       0.036058873 0.034045767 -0.03686361 0.07256038
000080 0b 92 e9 bc b4 b9 eb 3d 12 84 ab 3d d7 ba 6d bd
       -0.028512022 0.115100294 0.083748 -0.058039512
000090 e1 ff af bd 06 7f ab 3c 13 fb 9b bd c1 07 2b bb
       -0.08593727 0.020934593 -0.07616248 -0.002609715
0000a0 f1 04 48 bd 97 cd 05 3d ac 64 62 bc 66 af 14 3b
       -0.048832837 0.03266677 -0.013817947 0.0022687553
0000b0 d9 96 6e bd 7e 6f 89 3d 58 18 4e 3d 5c b4 06 3d
       -0.05824933 0.067107186 0.050316185 0.032886848
0000c0 4d d2 ca 3d 51 3f 8b bd b0 e7 23 b6 b3 46 17 3c
       0.09903393 -0.06799186 -2.4423753e-06 0.009233165
0000d0 65 81 7b 3d dc 58 1d 3d 7a 6a 1b bd 04 42 33 3d
       0.061402697 0.03841482 -0.03794334 0.04376413
0000e0 54 1e 9f bd 96 0f 65 3c 59 d6 51 3b 8a 69 d7 3c
       -0.077694565 0.013980767 0.003201863 0.026295442
0000f0 3d ab 57 3c 2e 27 f0 3c b1 05 63 bd e4 e9 8e bd
       0.013163385 0.029315557 -0.05542535 -0.06978205

dense2.weight f4 [1, 64]
000000 7a 58 e0 bd 07 9b 30 3d f7 91 c2 3d 73 db 5d bd
       -0.109543756 0.043116596 0.09500497 -0.05416436
000010 67 80 e8 3d 86 61 07 3d b1 78 55 bd 16 8d 7f bd
       0.11352616 0.03305199 -0.052117053 -0.06239041
000020 9e bb 80 3d 4d 52 f8 3c a1 9d 20 3d 27 ec 09 bd
       0.06285785 0.030312682 0.039212827 -0.033672478
000030 e0 0a e1 3d b6 d5 eb 3d c0 9c c7 3d 1b 79 b2 bd
       0.10988402 0.115153715 0.097466946 -0.08714505
000040 6f a1 b6 bd 9a 1a e6 3d 1b a6 9a 3d c6 97 09 3e
       -0.0891751 0.112355426 0.07551213 0.13436803
000050 5e 48 9c 3d 79 55 60 3d 1b 2a ec bd 6d 0a 37 3d
       0.076309904 0.054769013 -0.115314685 0.044687677
000060 3e 0f 59 bd 11 a7 7e bd 6e 8c be 3d e8 83 a4 3d
       -0.05299305 -0.062171046 0.093041286 0.080329716
000070 fc 76 81 3d d4 8e e1 bd df 62 b3 bd 93 50 49 3d
       0.063215226 -0.110135704 -0.087590925 0.049149107
000080 73 df 63 3d 91 38 00 bd 1e 04 52 bd 4b e8 9c 3d
       0.05563302 -0.031303946 -0.051273458 0.07661494
000090 f2 e6 d1 bd c0 c3 e5 bc 50 f8 74 3d 9f ef 92 3d
       -0.102491274 -0.028047442 0.05980712 0.0717461
0000a0 49 8a 91 3d a9 23 f9 3d f6 f4 c8 bd f7 9f 0d 3e
       0.07106454 0.12165005 -0.098123476 0.13830553
0000b0 38 f5 cf bd 21 68 ed bd 26 d5 46 3d 65 21 3b bd
       -0.10154194 -0.11592127 0.048543118 -0.045686144
0000c0 19 06 b5 bd 56 f0 25 3d 29 ae f3 bd 00 0c 8c bd
       -0.08839054 0.040512405 -0.11898453 -0.06838226
0000d0 35 ce a2 3d 5b 0b b5 3d 33 e8 9b bd 4e 33 59 bd
       0.07949487 0.088400565 -0.07612648 -0.053027444
0000e0 8b 89 c2 bd d8 b7 e9 bd df 3d 38 bd 06 7a 86 bd
       -0.094988905 -0.114120185 -0.04498088 -0.06566243
0000f0 55 74 a3 3d b0 af c4 bd d0 17 c4 bc b9 c2 3c bd
       0.07981173 -0.09603822 -0.023937136 -0.04608414
