time_series_forecasting/saved_models/FeedForwardRegressionModel/19-03-2024-215852_NO1_epoch_1.pt (torch, 35783 bytes, 5 tensors)

dense1.weight f4 [64, 96]
0	0x3da1f67e	0.07908343
1	0x3d92a32f	0.07160031
2	0x3d9e6848	0.07734734
3	0x3bd0def0	0.0063742325
4	0x3cb8e8ef	0.022572009
5	0xbcc061bf	-0.023484109
6	0xbdb1b243	-0.08676579
7	0x3da43eb1	0.0801977
8	0x3e043592	0.1291106
9	0x3daa86f3	0.08326521
10	0x3cf50209	0.029908197
11	0x3db902dc	0.090337485
12	0xbc6e449f	-0.014542728
13	0x3d0b31c4	0.033983007
14	0x3d45df74	0.048308805
15	0xbdaac235	-0.08337823
16	0xbd847eb7	-0.064694814
17	0x3d9d333a	0.07675786
18	0x3d1f46c3	0.038885843
19	0x3d41adff	0.047285076
20	0x3d15e14b	0.03659181
21	0xbd46709e	-0.048447244
22	0xbc125337	-0.008930973
23	0xbd6f0852	-0.058357544
24	0xbd832f43	-0.06405499
25	0x3d8a656d	0.06757627
26	0xbd8a4de1	-0.067531355
27	0xbdaf8279	-0.085698076
28	0x3d48ccb4	0.049023345
29	0xbd97b89c	-0.07408258
30	0xbb5fb73b	-0.0034136313
31	0x3de6b6eb	0.112653576
32	0xbdb3b5ec	-0.08774933
33	0x3b882323	0.0041545792
34	0xbc5ab11c	-0.01334789
35	0xbcdcc4c4	-0.026949294
36	0x3d392388	0.0451999
37	0x3c639b32	0.013891982
38	0x3da4f4e3	0.08054521
39	0xbc44eea5	-0.012019788
40	0x3d708607	0.05872157
41	0x3dd57f0f	0.10424625
42	0x3dc090e9	0.094026394
43	0xbd9b3f1d	-0.07580397
44	0xbd723d70	-0.059140623
45	0xbcebef42	-0.02880061
46	0xbd3d66a1	-0.046240453
47	0x3d36f630	0.044668376
48	0xbced8df8	-0.02899836
49	0x3d26af89	0.040694747
50	0x3d97b46f	0.07407462
51	0x3d0c794a	0.034295358
52	0xbcc02429	-0.023454743
53	0xbda283cb	-0.07935294
54	0xbc1d3de6	-0.009597277
55	0xba1a086d	-0.00058758893
56	0x3de11b8a	0.10991581
57	0x3d5ecf47	0.054396894
58	0x3a634026	0.00086689217
59	0xbd8a3e3c	-0.067501515
60	0x3da603ff	0.08106231
61	0x3cca1938	0.024670228
62	0x3da07e7d	0.07836626
63	0x3d8270a0	0.06369138
64	0x3d870492	0.065926686
65	0xbce8cabf	-0.02841699
66	0xbd8da867	-0.06916886
67	0x3d8d0c6f	0.06887137
68	0xbc8de8f7	-0.017323
69	0xbdbba08a	-0.0916148
70	0xbb23c69f	-0.0024990214
71	0x3d3cc668	0.046087652
72	0x3c2bb595	0.010480304
73	0xbdad2928	-0.084551156
74	0x3cba2ad9	0.02272551
75	0xbd1fb1a5	-0.038987774
76	0xbbce73b5	-0.0063004144
77	0xbbb8fa7b	-0.005645094
78	0x3de8cd4f	0.113672845
79	0xbd7d6df0	-0.061872423
80	0x3d10a998	0.035317987
81	0xbd1ea88a	-0.03873495
82	0x3d943b75	0.07237903
83	0x3d83383b	0.064072095
84	0xbcae067c	-0.021243326
85	0xbddea985	-0.10872177
86	0x3b91c628	0.004448671
87	0xbdc6f05e	-0.09713815
88	0x3d81b10b	0.063325964
89	0xbe13c788	-0.14431584
90	0x3d03b3cf	0.0321539
91	0xbd6fcdb3	-0.05854578
92	0x3c0ee1ed	0.008720857
93	0xbd2886c8	-0.041144162
94	0x3d575407	0.05257037
95	0xbb7f7989	-0.0038982353
96	0xbe0de83f	-0.13858126
97	0xbdc2f6a9	-0.09519703
98	0xbd23b04d	-0.039963055
99	0x3d7c3f52	0.061583824
100	0xbc89bdce	-0.016814139
101	0x3b6abef2	0.0035819379
102	0x3da357af	0.07975709
103	0x3cd9c22e	0.02658185
104	0xbdcdb319	-0.10043926
105	0x3cb14005	0.021636972
106	0xbd28e5ef	-0.041234907
107	0x3db16883	0.08662512
108	0x3d929a93	0.07158389
109	0xbdd70673	-0.10499277
110	0x3de36b6b	0.11104473
111	0x3d02e3c9	0.031955514
112	0xbd0d7620	-0.03453648
113	0xbdf3499a	-0.11879273
114	0x3cb4d610	0.02207473
115	0x3d07e18d	0.033174086
116	0x3cff1461	0.031137647
117	0xbd0f2236	-0.034944735
118	0xbcca9919	-0.024731206
119	0x3d3fcb46	0.046824716
120	0x3dfa7080	0.12228489
121	0xbdb60aae	-0.08888756
122	0xbd482c69	-0.048870478
123	0x3c46a1b3	0.012123513
124	0xbd386386	-0.045016788
125	0x3d2aa152	0.041657753
126	0xbcd3a3e1	-0.02583498
127	0xbd411c58	-0.04714617
128	0x3cbf356d	0.023340905
129	0xbd96ef18	-0.07369822
130	0xbbffc341	-0.0078052585
131	0xbb933c31	-0.0044932594
132	0x3dce292e	0.10066448
133	0x3ce0dd15	0.02744917
134	0xbd91b738	-0.07115024
135	0x3bd2b921	0.0064307605
136	0x3dbdc770	0.09266555
137	0x3d806bf9	0.06270594
138	0x3d9c7064	0.07638624
139	0x3d08449c	0.033268556
140	0xbd6945ad	-0.056951214
141	0x3cfabd98	0.030607983
142	0x3dab4657	0.08363026
143	0x3d7ad6e6	0.0612401
144	0xbd3a4167	-0.04547253
145	0xbd219a3d	-0.039453734
146	0xbc529f3b	-0.012855346
147	0x3cbc9b31	0.02302322
148	0xbd93a64a	-0.072094515
149	0xbd9e1c78	-0.07720274
150	0xbd8eaffb	-0.06967159
151	0x3d70ad39	0.058758948
152	0xbc102037	-0.008796743
153	0x3cb21c1e	0.021741923
154	0xbd051581	-0.03249121
155	0xbcd5a7f4	-0.026081063
156	0xbd3455da	-0.044027187
157	0xbd4a3e55	-0.04937585
158	0xbd60662f	-0.05478495
159	0xbcbc94ce	-0.023020174
160	0x3d231f51	0.039824788
161	0x3d35822d	0.0443136
162	0xbd48302f	-0.048874076
163	0xbdb2b979	-0.08726782
164	0xbd0047ea	-0.031318583
165	0xbcb07a02	-0.021542553
166	0xbd026423	-0.03183378
167	0xbd2df413	-0.042469095
168	0xbdbeade0	-0.09310508
169	0x3d9384fa	0.07203098
170	0xbdbd1dfa	-0.09234233
171	0xbc67829a	-0.014130259
172	0xbdc4d60b	-0.09611138
173	0xbd134f6e	-0.035964422
174	0xbd8cba69	-0.068714924
175	0xbd9a6a84	-0.075398475
176	0xbd8222d1	-0.06354297
177	0x3df664a2	0.12030913
178	0x3c524075	0.012832751
179	0x3ca9ff15	0.020751515
180	0x3d3c559e	0.04598009
181	0xbbab53c3	-0.005228491
182	0xbdc6f74c	-0.09715137
183	0x3b21f97d	0.0024715357
184	0x3b880829	0.0041513634
185	0x3dd2c499	0.10291404
186	0xbdaa1752	-0.08305229
187	0xbd082af8	-0.033244103
188	0xbe051895	-0.12997659
189	0x3c594847	0.013261861
190	0xbd377ba0	-0.044795632
191	0xbc193b70	-0.00935255
192	0x3d05b146	0.032639764
193	0xbd78112a	-0.060563244
194	0xbdbceeff	-0.092252724
195	0x3d22dcff	0.03976154
196	0x3e0e518b	0.13898294
197	0xbd97197c	-0.07377908
198	0x3ba16f2b	0.0049265823
199	0x3dbe5504	0.09293559
200	0x3ce49ead	0.027907694
201	0xbda2ef84	-0.0795584
202	0xbcdea266	-0.027177047
203	0x3de2aec4	0.1106849
204	0x3d3bf3b3	0.045886707
205	0x3d844609	0.06458671
206	0xbdec9186	-0.11551194
207	0x3dd5234a	0.104071215
208	0xbb7651ab	-0.00375853
209	0xbda697cf	-0.08134424
210	0x3b9826ba	0.0046432884
211	0xbd7349e9	-0.059396658
212	0xbd1d4ae2	-0.038401492
213	0xbd7ae7e0	-0.06125629
214	0xbd1ce199	-0.038301084
215	0x3b882a40	0.004155427
216	0x3d25db6d	0.040492464
217	0x3cf0dbac	0.029401623
218	0xbd91c34a	-0.071173266
219	0xbd2fb01f	-0.04289257
220	0x3ca9d51d	0.020731503
221	0xbd9df964	-0.07713583
222	0xbd44f074	-0.048080876
223	0x3d4fac0b	0.050701182
224	0x3c2aed9f	0.01043263
225	0x3d76f2bb	0.06029008
226	0x3d84f2bd	0.06491611
227	0xbdb1ce8e	-0.08681975
228	0x3a37c72e	0.0007010576
229	0xbc639c67	-0.01389227
230	0x3cd498f3	0.025951838
231	0xbd5254d9	-0.05135045
232	0xbd623bf8	-0.055232972
233	0x3da8e74a	0.0824724
234	0xbc02aed1	-0.00797625
235	0xbc88d81d	-0.016704613
236	0xbd81c884	-0.063370734
237	0xbdd22d00	-0.10262489
238	0xbd40cc49	-0.04706982
239	0xbd86dcb5	-0.06585065
240	0x3ce7258c	0.028216146
241	0xbd724b10	-0.059153616
242	0x3de59f6c	0.11212048
243	0x3d993925	0.074816026
244	0x3ddcb37f	0.10776424
245	0xbd4241bd	-0.047425974
246	0xbd22941f	-0.03969204
247	0x3dbf8626	0.09351759
248	0xbd5e7d53	-0.054318737
249	0x3d8c6a88	0.06856257
250	0x3d09ea01	0.03367043
251	0xbc5c40df	-0.013443201
252	0x3c80737a	0.015680064
253	0xbdb33333	-0.0875
254	0xbc4b46f6	-0.012407055
255	0xbd1bdfef	-0.038055357

dense1.bias f4 [64]
0	0x3cc6c23f	0.024262546
1	0x3d997292	0.07492556
2	0xbdaa2bef	-0.08309161
3	0x3d89d826	0.0673068
4	0xbc796229	-0.015221157
5	0x3ddcbeb4	0.10778561
6	0x3dc448b0	0.095841765
7	0x3dac73fd	0.084205605
8	0x3cb1c9b8	0.021702632
9	0x3d1637be	0.036674254
10	0x3dadd29d	0.08487437
11	0x3c96a577	0.018389447
12	0xbb84c174	-0.0040513817
13	0x3d5435e9	0.051809225
14	0xbd28bacc	-0.04119377
15	0xbc38f952	-0.011289911
16	0x3c101799	0.008794689
17	0xbd82b6e5	-0.063825406
18	0x3d9139e6	0.070911214
19	0x3dbbe8cb	0.09175261
20	0xbd46bb4f	-0.048518475
21	0xbbf92907	-0.007603768
22	0xbd49f3e0	-0.049304843
23	0x3d4abece	0.04949837
24	0x3d4fd499	0.05073986
25	0xbd46b968	-0.04851666
26	0xbc69beca	-0.014266679
27	0x3d9b74b5	0.075906195
28	0x3cc34afc	0.023839466
29	0x3dada90d	0.084795095
30	0x3d49cda7	0.04926839
31	0x3de6833b	0.11255499
32	0x3d99d71b	0.07511731
33	0x3da40811	0.08009351
34	0xbcd6036c	-0.026124679
35	0x3d90a9b0	0.07063615
36	0xbdc12428	-0.094307244
37	0x3db85243	0.09000065
38	0xbd9df915	-0.07713524
39	0x3dd43a38	0.10362667
40	0x3d1718c2	0.036888845
41	0x3d1bc2f4	0.03802772
42	0x3d84ad96	0.064784214
43	0xbd90fa33	-0.07078972
44	0x3d1b96d0	0.037985623
45	0x3da9ec2f	0.082970016
46	0x3b132792	0.0022454006
47	0x3d58a376	0.052890263
48	0xbd1a09ba	-0.037606932
49	0x3cf48fc0	0.029853702
50	0xbdc5b610	-0.09653866
51	0x3d63754e	0.055531792
52	0xbda1a580	-0.07892895
53	0x3df2f317	0.11862772
54	0xbcde88f1	-0.027164908
55	0x3c224a17	0.00990536
56	0xbd2c50ff	-0.04206943
57	0x3da7eb5e	0.081991896
58	0xbd34bfae	-0.044128112
59	0x3b819f4d	0.0039557577
60	0x3cef8289	0.029237049
61	0xbd202a4f	-0.03910285
62	0x3ce6cdd8	0.028174326
63	0x3de221fc	0.11041638

dense2.weight f4 [32, 64]
0	0x3d8e3135	0.06942979
1	0xbdfba178	-0.12286657
2	0xbdad265a	-0.084545806
3	0x3dc0f291	0.09421266
4	0xbd812979	-0.063067384
5	0xbdb3759c	-0.087626666
6	0xbc47f1f7	-0.012203685
7	0xbdc95e9d	-0.09832499
8	0xbd10c6aa	-0.03534571
9	0x3d3b531a	0.04573355
10	0x3d5f249f	0.054478284
11	0xbd8708c2	-0.06593467
12	0x3dc46062	0.09588696
13	0xbddeb1f4	-0.108737856
14	0xbdf34982	-0.11879255
15	0xbdc80c32	-0.09767951
16	0xbdf09d46	-0.117487475
17	0x3d971fa2	0.0737908
18	0x3d13f573	0.03612275
19	0xbd13974d	-0.036032964
20	0xbd300c66	-0.042980574
21	0x3d2e7116	0.042588316
22	0xbd9ba289	-0.075993605
23	0x3da3d352	0.079992905
24	0xbdd5bca3	-0.1043637
25	0xbd984db9	-0.074366994
26	0x3d4dfc4e	0.050289445
27	0xbd70c695	-0.058783133
28	0x3d173af5	0.03692146
29	0xbd100bf8	-0.035167664
30	0xbd365fc8	-0.044524938
31	0xbc045baa	-0.008078495
32	0xbd6644b2	-0.056217857
33	0xbc7a9b44	-0.015295807
34	0xbd85d46e	-0.06534658
35	0x3cf25112	0.029579673
36	0x3d2a1f0c	0.041533515
37	0xbd4157c4	-0.04720284
38	0xbe173ae9	-0.14768566
39	0x3c59a841	0.013284744
40	0x3dedf309	0.11618621
41	0x3cebd256	0.02878682
42	0x3d3bc28c	0.04583983
43	0xbad31016	-0.0016102816
44	0xbcc04fa2	-0.023475472
45	0xbc3a0c2a	-0.011355439
46	0x3cec6b74	0.028859831
47	0xbc0ec7aa	-0.008714596
48	0x3c548a38	0.012972407
49	0x3d80a7fa	0.06282039
50	0x3cdf7199	0.027275847
51	0xbdaec0e3	-0.08532884
52	0xbdf5c271	-0.119999774
53	0xbde5861d	-0.11207221
54	0x3d36c33b	0.04461978
55	0x3c309d44	0.010779683
56	0x3d80094d	0.06251774
57	0x3d4bf9b7	0.049798694
58	0xbddee67b	-0.108838044
59	0xbc8d6469	-0.017259793
60	0xbe2f4a2e	-0.17118141
61	0x3db7c993	0.08973994
62	0xbdac7561	-0.08420826
63	0x3ca16b42	0.019704465
64	0x3d9edf27	0.07757407
65	0xbe11d469	-0.14241184
66	0xbb0dcfde	-0.002163879
67	0xbc9a4d66	-0.018835735
68	0xbe0cd437	-0.13752829
69	0x3cb7af75	0.022422532
70	0xbe064059	-0.13110484
71	0xbe067f6d	-0.13134547
72	0x3cc3b512	0.023890052
73	0xbdb07753	-0.08616509
74	0x3dbfd51c	0.09366819
75	0xbd114281	-0.035463814
76	0xbd9f51d1	-0.07779277
77	0x3d5a99ec	0.053369448
78	0xbd9367f2	-0.0719756
79	0xbd691ff7	-0.05691525
80	0xbd9b545f	-0.07584452
81	0x3e12c71c	0.14333767
82	0xbd33e58e	-0.043920092
83	0x3c0c2e54	0.008555967
84	0xbe059d70	-0.13048339
85	0x3e03f885	0.12887771
86	0x3b4bb3ad	0.0031082437
87	0xbcbd1d67	-0.02308531
88	0xbe149e74	-0.1451357
89	0xbddd5464	-0.10807112
90	0x3a930911	0.0011217912
91	0x3d8f97c8	0.07011372
92	0x3b80b235	0.003927494
93	0xbda5c8e9	-0.08094961
94	0xbe0bca48	-0.13651383
95	0x3d8f9dc6	0.07012515
96	0x3d8bafd9	0.0682065
97	0x3d52450d	0.051335383
98	0xbdc35ff5	-0.09539787
99	0x3e091d74	0.13390142
100	0x3cc49c20	0.024000227
101	0xbda37812	-0.07981886
102	0x3d538b53	0.05164654
103	0xbd3c5ab3	-0.045984935
104	0xbca2fdd0	-0.019896418
105	0xbda22524	-0.0791724
106	0xbe10f6f3	-0.14156704
107	0xbda7ac91	-0.08187211
108	0xbcd05270	-0.025429934
109	0xbe1598cb	-0.14609067
110	0xbda248de	-0.079240546
111	0xbda59b3a	-0.08086248
112	0xbcc986fe	-0.024600502
113	0x3d127948	0.035760194
114	0xbda2bc61	-0.07946087
115	0xbd6dd6ea	-0.058066286
116	0x3db4fbd1	0.08837093
117	0xbdd1e647	-0.10249
118	0xbd5c7032	-0.053817935
119	0x3c318d65	0.010836934
120	0xbde67ccf	-0.11254274
121	0xbcff6662	-0.03117675
122	0xbe004be8	-0.12528956
123	0xbe019694	-0.12655097
124	0xbd8f4eba	-0.06997438
125	0x3e0cc389	0.13746466
126	0xbcd6cc79	-0.026220547
127	0xbd11410d	-0.035462428
128	0xbd8d210e	-0.0689107
129	0x3c824d4d	0.015906
130	0x3e187a11	0.14890315
131	0x3ddd84b0	0.10816324
132	0xbdc0e84e	-0.094193086
133	0x3c9a32a7	0.018822981
134	0xbe082e8a	-0.13299003
135	0x3d034c2e	0.032055072
136	0x3d40d701	0.047080044
137	0xbba034bf	-0.0048891003
138	0xbd25ba00	-0.040460587
139	0xbd864dce	-0.06557809
140	0x3d4df96f	0.050286707
141	0xbd265cfb	-0.040616017
142	0x3d7ea0fc	0.062165245
143	0xbded1231	-0.11575735
144	0x3c3d8ead	0.011569661
145	0xbdb999ba	-0.09062524
146	0xbcff8a69	-0.031193929
147	0xbdd5bb3f	-0.10436105
148	0x3d0f1da4	0.034940377
149	0x3bbb8d89	0.0057236594
150	0x3da8d9d6	0.08244674
151	0x3da38263	0.07983854
152	0x3d96fcc2	0.073724285
153	0x3d120bfc	0.03565596
154	0x3c8f984b	0.017528674
155	0x3d32de96	0.043669306
156	0xbbcb7a34	-0.006209636
157	0x3cf51cb6	0.029920917
158	0xbc860641	-0.016360404
159	0xbc9474c5	-0.018122086
160	0xbdb9a06f	-0.090638034
161	0x3df18f11	0.11794866
162	0xbd7ae68b	-0.06125502
163	0xbd4d0364	-0.05005206
164	0x3c6562b0	0.01400058
165	0xbd337720	-0.04381478
166	0xbc16895d	-0.009188023
167	0x3db70cef	0.08938014
168	0xbd19b887	-0.037529495
169	0xbc8aba22	-0.016934458
170	0xbe0c6842	-0.13711646
171	0x3e18fb88	0.14939702
172	0xbe11b4c9	-0.1422912
173	0x3cb27603	0.021784788
174	0x3d48e9ef	0.04905122
175	0x3d70a0e3	0.058747184
176	0xbd767e0f	-0.060178813
177	0xbd63dc46	-0.05562999
178	0x3e022373	0.12708835
179	0x3ddce82a	0.10786469
180	0x3bfbb3bf	0.0076813395
181	0xbdf63605	-0.12022022
182	0x3bfa4bae	0.0076384163
183	0xbd2786de	-0.040900104
184	0xbe198274	-0.1499117
185	0xbda73ccb	-0.08165892
186	0xbd8a9e40	-0.06768465
187	0x3d947c6c	0.07250294
188	0x3d8b3648	0.06797463
189	0xbdd567a6	-0.1042016
190	0xbc6c59b5	-0.014425685
191	0xbd602f44	-0.054732576
192	0xbd97ce98	-0.074124515
193	0xbd87e49a	-0.06635399
194	0xbcfb4c9f	-0.030676184
195	0xbd745f2a	-0.059661068
196	0xbd630eb2	-0.055433936
197	0x3d892e66	0.06698303
198	0xbdec73fd	-0.115455605
199	0x3d18a0a2	0.037262566
200	0x3e02a429	0.12757935
201	0xbda6c43e	-0.08142899
202	0xbce4e0bb	-0.027939191
203	0x3ddddc86	0.10833077
204	0xbc167bd5	-0.009184797
205	0x3de7372c	0.1128982
206	0xbd3a177f	-0.045432564
207	0x3d54fb95	0.05199774
208	0x3e09c58a	0.13454261
209	0xbdac3c36	-0.08409922
210	0xbd9de2dc	-0.077092856
211	0x3da378dc	0.079820365
212	0xbd2ee36d	-0.04269736
213	0x3cbe9f14	0.023269214
214	0x3d399c14	0.045314863
215	0x3b8563da	0.004070741
216	0x3d69d92b	0.057091873
217	0xbdb9226d	-0.09039769
218	0xbcd3d706	-0.025859367
219	0xbd554a81	-0.052073006
220	0x3db23858	0.08702153
221	0xbd17655c	-0.0369619
222	0x3de7c697	0.11317175
223	0x3daa945e	0.0832908
224	0x3d056acc	0.032572553
225	0x3da41ea5	0.080136575
226	0x3cf4bce5	0.029875228
227	0xbd352b4d	-0.044230748
228	0xbda640e1	-0.081178434
229	0xbdb4cf7e	-0.088286385
230	0x3df6a825	0.1204379
231	0xbdb97e31	-0.09057272
232	0xbd89dc0b	-0.06731423
233	0xbe03247f	-0.12806891
234	0x3d5b8acd	0.053599168
235	0xbd8011ad	-0.062533714
236	0x3d9b7b53	0.075918816
237	0xbd8421e6	-0.06451778
238	0xbd74226b	-0.059603136
239	0xbd83981f	-0.06425499
240	0x3c8e1b30	0.017346948
241	0xbcd34595	-0.025790015
242	0xbe049b9b	-0.12949984
243	0x3e112646	0.14174756
244	0x3c976e43	0.018485194
245	0x3d4bb846	0.049736284
246	0x3dcbbf01	0.099485405
247	0xbdc4552c	-0.09586558
248	0xbc117605	-0.008878236
249	0x3b23a8de	0.002497248
250	0x3bdc1be7	0.0067171934
251	0x3d2942ad	0.041323353
252	0x3e0a71b9	0.13519944
253	0xbda358cf	-0.07975923
254	0x3d7b8c89	0.06141332
255	0xbd9073e0	-0.070533514

dense2.bias f4 [32]
0	0x3dcf2104	0.10113719
1	0x3d15748e	0.03648811
2	0xbc754abf	-0.014971434
3	0x3e206878	0.15664852
4	0xbdabe8f4	-0.08394042
5	0xbd9f40de	-0.07776044
6	0xbce39a1e	-0.02778345
7	0x3ce798a6	0.02827103
8	0x3dd71aeb	0.10503181
9	0xbd73882b	-0.05945603
10	0x3db7a12f	0.0896629
11	0x3cd1439a	0.02554493
12	0x3b890a86	0.0041821627
13	0x3abc09b8	0.0014346158
14	0x3df54b95	0.11977307
15	0xbd7c2ce0	-0.061566234
16	0xbe05023b	-0.12989132
17	0xbc42b9a1	-0.011885078
18	0x3da404b8	0.080087125
19	0x3da41dbc	0.08013484
20	0x3e1a7a20	0.1508565
21	0xbdd34227	-0.10315352
22	0x3d9de015	0.07708756
23	0x3d9adf2a	0.075620964
24	0x3b358130	0.002769541
25	0xb9a854dd	-0.00032106685
26	0xbdbd4f50	-0.09243643
27	0x3cf4b384	0.029870756
28	0x3decb5bd	0.11558101
29	0x3d8b33a8	0.06796962
30	0x3ca23ea0	0.019805253
31	0x3c685d88	0.014182456

dense3.weight f4 [1, 32]
0	0x3e545b0b	0.20737855
1	0x3e09ae3a	0.13445368
2	0x3e2d4dee	0.16924259
3	0xbdf119cd	-0.11772499
4	0x3e1e1692	0.15438297
5	0xbe3ca4ea	-0.18422285
6	0x3dba3aa8	0.09093219
7	0x3e173cee	0.14769337
8	0x3d5d7234	0.05406399
9	0x3e3300b8	0.17480743
10	0x3e43c552	0.1911824
11	0xbe3e981c	-0.18612713
12	0x3e013e13	0.12621336
13	0x3e03c28c	0.12867182
14	0xbd1c6a43	-0.038187277
15	0xbe12d6a7	-0.14339696
16	0x3dc4f9c4	0.096179515
17	0x3e0cfae7	0.13767587
18	0xbcb2eafa	-0.021840561
19	0xbd146aaa	-0.036234535
20	0xbe21924c	-0.15778464
21	0x3df0525e	0.1173446
22	0x3e06e8c0	0.13174725
23	0x3e19c3b4	0.15016061
24	0xbcdf89bf	-0.027287362
25	0x3e1503d9	0.14552249
26	0x3ddbf4fb	0.10740086
27	0xbe1ee98d	-0.1551878
28	0xbe2b8e56	-0.16753516
29	0x3d072996	0.032998644
30	0x3d154f60	0.03645265
31	0x3e3fcd30	0.18730617
