time_series_forecasting/saved_models/FeedForwardRegressionModel/20-03-2024-142518_NO1_epoch_1.pt (torch, 26979 bytes, 3 tensors)

dense1.weight f4 [64, 96]
00000000: 23bf 46bc 53b5 a13d f119 643d 22b5 583c
00000010: 6f1e e93d 0a0a 8ebc 6234 8abc 26d0 963c
00000020: bcc5 d63d 9933 a4bb 6090 52bd 3231 6fbd
00000030: 95cf 893d 0c6d 38bd 4fb0 92bd 3567 a5bc
00000040: 9a7c f6bc 6874 b9bc 2b6e 403d 10fd 76bd
00000050: 7e35 8fbd 7cbb 173d 8580 39bd f5ca 04bd
00000060: 1f7b bdbd 4996 09bd 2b4e 833c 4ed4 683d
00000070: 7ec3 d33d 0573 8abd a1bc 02bd c648 563d
00000080: 63b4 7cbd 2713 083c bf59 13bd cee8 683d
00000090: 6ced 34bd 34cc 8a3d d179 cb3b 5ffc 493d
000000a0: 9989 b63d 8ecb 98bd 42b3 29bd d25f 2dbd
000000b0: 9685 553d c53c 8b3d 757b 833d 136b 74bd
000000c0: b7b0 00bc 4a69 093d e7c4 c73d ad15 13bd
000000d0: e32d 653d 0990 bfbd 0f98 6c3d 97e0 863d
000000e0: 4eb1 90bd 0e25 c93d e4d7 90bd 53bf 3f3d
000000f0: 5b06 2cbd 21dc 79bd 04c5 663d 6bbd 8ab9
00000100: c144 47bd 2b08 8f3d 8941 dd3c 0795 8c3d
00000110: 85ed b1bc 113b bbbd 403f 92bd 2b39 babd
00000120: 316b e73b 928f 33bb 8c66 7d3c 9d80 5abd
00000130: 75a3 aabd eb46 b0bd f368 5dbd 32c5 a23d
00000140: 63ae 53bd 96d9 f4bd 0f2f bebd 6fa1 16bd
00000150: bfc1 89bd 876e c1bb 0be8 863b cfa7 87bd
00000160: a177 613d f2de 783d 1a88 8d3d b381 b43d
00000170: 8154 d53d 28b1 babd bd49 963d 46d9 1bbd
00000180: f271 383d 6d8d e6bc 0d70 80bd fde7 ef3d
00000190: ba9a ab3d 3900 3abc 228c 4c3d c3e2 ae3d
000001a0: 5a35 bd3c e18f dd3d 1cde 46bc a2ab 32bd
000001b0: 4b84 e83d 4932 80bd e7d5 8bbd acff c13d
000001c0: 253d 3d3d eeea 883c 48e5 7dbd 076e 0a3c
000001d0: ea81 c73d 8b4f 263d 55a2 cdba 8f35 f6bc
000001e0: 54b3 9a3d abf3 e33c 81f3 b23d 944b 9dbd
000001f0: 5568 c6bd 6467 bb3d c376 17bd 15cd 9e3c
00000200: 90e7 c43d 3042 9d3d 6e48 51bc 9adb d33b
00000210: 6df1 75bd e85f 3cbc feb5 933a 8ebb a1bd
00000220: a763 173d b86b cfbc 753a 3f3c 162b 9f3c
00000230: 6af5 003d bfc9 9d3d 4011 28bc 310f 963d
00000240: 1e01 8c3d da44 80bd ebd6 3e3d ca25 b5bd
00000250: 4dd7 0e3c c4d9 983d 304d e8ba 182a 573c
00000260: 2d88 1c3d c9ef 41bd 12db cfbc 43c5 3cbc
00000270: 4da6 8d3d b457 7fbb cbeb ca3d 61ac a63d
00000280: 6ff9 d13d 9343 c4bd 2e35 d73d 1ed6 a1bd
00000290: c94b 4f3d 592a 5cbd fe6d 7d3d e47f 463d
000002a0: 7a46 aa3d 1a25 28bd 5c7c 1cbd 3443 f93b
000002b0: 14dd 043c eb39 b7bd f6de 413b b856 9ebd
000002c0: 4152 a03a b9df 7abb 12d5 143d 27a2 8abd
000002d0: 5caa e73d f8fc c1bd 7fd5 2f3c 3896 edbd
000002e0: d4b6 11bd 1f58 91bd c261 363d ac12 003d
000002f0: e3b1 0e3d fa19 9dbd 190a 093d 177a 51bd
00000300: 0dfc 7fbc 198e 293d ca79 f3bb 7ef3 8fbd
00000310: bdbb 56bd c26f 8abd 349a 57bd 5a2a 583d
00000320: a789 aabd b1be 7f3d 2a92 803d aed3 e7bd
00000330: 8fb1 45bc 0a21 1abd 87a9 2b3d 65bf 933d
00000340: 7f66 9cbd 370d aabd 58a8 bb3d 69e3 c8bd
00000350: 245a 683d 99cf 953c a641 623d 700c 43bd
00000360: c2da b23d bc96 59bd 9454 a23d e898 debd
00000370: d6b4 833d abc7 bdbd efcd 92bd 2407 063d
00000380: 5a79 cdbd 8ec0 c5bd 3d35 d63d 782b 58bc
00000390: b6e4 063d e150 80bd e2ef 823c 1764 a6bd
000003a0: 5343 54bc 77af 6f3d f3a4 21bc 04c0 423d
000003b0: 5393 cdbd daba 41bd f0ae 483d d30d 723d
000003c0: 92fe 8b3c bdee 48bc 3b2f 9cbc 8c4f 943d
000003d0: c680 0a3c 7264 89bd ac74 593d 0b30 d1bd
000003e0: c1ef 97bd 29a2 b03d 5f43 43bd a1c2 f7bd
000003f0: ea47 e2bd a85f a4bd 359d e23b c615 ca3c
-0.0121305315 0.07895913 0.055688802 0.013226779 0.11382758 -0.017338771 -0.016870681 0.0184098
0.104869336 -0.0050110337 -0.051407218 -0.058396526 0.06729046 -0.04502587 -0.071625344 -0.020190815
-0.030088712 -0.022638515 0.046980064 -0.060299933 -0.06992625 0.037044033 -0.04528858 -0.032420117
-0.09251999 -0.03359059 0.016028484 0.056843095 0.103400216 -0.067602195 -0.03191817 0.052315496
-0.061695468 0.0083053475 -0.03597426 0.056862645 -0.044171736 0.0677723 0.00620959 0.049312945
0.089129634 -0.074607 -0.04143072 -0.04232771 0.05212935 0.067987 0.06420032 -0.059672426
-0.007854632 0.033547677 0.09754353 -0.035909344 0.055951964 -0.093536444 0.057762202 0.06585806
-0.07065068 0.09821521 -0.07072428 0.04681332 -0.04199825 -0.061000947 0.056340232 -0.00026462539
-0.048649553 0.0698398 0.027008789 0.06864362 -0.021719703 -0.091421254 -0.0714097 -0.09092935
0.0070623388 -0.0027398807 0.015466344 -0.05334531 -0.08331958 -0.086072765 -0.054055165 0.07947768
-0.05167998 -0.11955564 -0.092863195 -0.03677505 -0.06726407 -0.0059030685 0.004117017 -0.06623804
0.055045728 0.060759492 0.06910725 0.08813801 0.104165085 -0.09115821 0.07338283 -0.038049005
0.04503054 -0.028143609 -0.06271372 0.1171417 0.08379121 -0.011352592 0.04993833 0.08539345
0.02309673 0.10818458 -0.012137916 -0.043620713 0.11353358 -0.06259591 -0.06827908 0.09472594
0.04620089 0.016713586 -0.061986238 0.008449084 0.09741576 0.0406032 -0.0015688638 -0.030054836
0.075537354 0.02782615 0.08737851 -0.07680431 -0.096878685 0.091505796 -0.036978494 0.0193849
0.096144795 0.0767864 -0.012773616 0.0064653875 -0.060044695 -0.011497475 0.0011269448 -0.07897101
0.03696027 -0.025319919 0.011671652 0.019429725 0.031484045 0.07704496 -0.010258019 0.07327116
0.068361506 -0.062631324 0.04659168 -0.08845098 0.008718324 0.074634105 -0.0017723199 0.0131325945
0.038215805 -0.047347818 -0.025373016 -0.01152164 0.06916485 -0.0038962187 0.09908255 0.081383474
0.10252654 -0.09583201 0.1050819 -0.07902168 0.050609384 -0.053751323 0.061872475 0.04846181
0.083142236 -0.041051008 -0.038204536 0.007606888 0.00810935 -0.08946594 0.0029582358 -0.07731384
0.0012231545 -0.0038280322 0.036336012 -0.06769209 0.1131179 -0.09472078 0.010732054 -0.116009176
-0.03557475 -0.07096886 0.044526823 0.031267807 0.034837615 -0.0767097 0.033456896 -0.051141825
-0.015624058 0.04139528 -0.00743029 -0.07028864 -0.052425135 -0.06759597 -0.052637294 0.052774765
-0.08327036 0.062437717 0.062778786 -0.113196716 -0.012066259 -0.037629165 0.04190972 0.0721424
-0.07636737 -0.08303302 0.091629684 -0.09809 0.05672659 0.018287467 0.05523839 -0.047619283
0.08733131 -0.053122267 0.07926288 -0.10869008 0.06430976 -0.09266599 -0.07168185 0.032721654
-0.100329116 -0.096558675 0.10459373 -0.0131939575 0.03293296 -0.062654264 0.015983526 -0.081245594
-0.0129555045 0.058516946 -0.009865987 0.0475464 -0.100378655 -0.047297336 0.04899496 0.059095215
0.017089162 -0.012263951 -0.01906549 0.07241735 0.008453554 -0.067086115 0.053089783 -0.102142416
-0.07418776 0.086246796 -0.047671672 -0.120976694 -0.11048873 -0.080260575 0.006915713 0.024668586

dense1.bias f4 [64]
00000000: dddc a13d 9cae 293d 6e00 91bd b4bd 163d
00000010: d8a7 413d ba88 603d 2826 93bd 2c1b 063c
00000020: 5db9 a2bc 1a34 653d b4f2 b2bd 107d b6bd
00000030: 9e9e 173d 3b1b f83c 45b6 81bd acf5 753d
00000040: bd0e e0bb b629 99bc 3b46 8abc e2e4 01bd
00000050: 05eb 873d d25d fd3c 379f 443b 0a35 733d
00000060: 4aa1 a63d 1ac7 37bd dfc7 823d 164f f33b
00000070: cc96 813d 5c0a 8abd 3b45 c23d ff57 a6bd
00000080: 5891 383d 9884 51bc 2b2a ce3d a538 893b
00000090: 5e65 0f3e e3f1 14bd b653 7ebc 91b3 cdbc
000000a0: 7b48 bbbb 1a5a 883d 92cc ba3d 2284 893d
000000b0: a0c8 623d ceee 60bd 6d0f 7f3d af66 c4bc
000000c0: 6dde 71bd 3fd3 e03b 92e8 95bd 51fc cfbd
000000d0: 5902 ffbd 89d9 1f3d 17b5 bcbc f8e4 78bd
000000e0: afca a9bd cd5d 11bd fd63 29ba 30ce 15bc
000000f0: e55d ccbc 3a8e 22bc 6d8e 5b3d c53b 58bd
0.079034545 0.041426286 -0.0708016 0.03680201 0.04727921 0.054817893 -0.07185012 0.008185189
-0.019863779 0.05595789 -0.08737698 -0.089105725 0.037016504 0.030286422 -0.06333593 0.060048744
-0.0068376944 -0.018696647 -0.016879192 -0.03171242 0.06636623 0.030928526 0.0030002126 0.059376754
0.08136232 -0.044867612 0.06385779 0.0074251993 0.0632759 -0.06740257 0.09485861 -0.08122253
0.045060486 -0.0127879605 0.10066637 0.0041876608 0.14003512 -0.036363494 -0.015522888 -0.025110038
-0.0057154275 0.066578105 0.0912105 0.067146555 0.055367112 -0.054915242 0.06227057 -0.023974745
-0.059050012 0.00686112 -0.0731975 -0.101555474 -0.1245162 0.039025817 -0.02303557 -0.060765237
-0.08290612 -0.035489846 -0.0006461738 -0.009143397 -0.024947116 -0.009921605 0.053602625 -0.052791376

dense2.weight f4 [1, 64]
00000000: 4269 e03d e30f 1e3d c4d2 cabd f114 c03d
00000010: d32d d9bd b8eb ac3d f500 37bd 9ef2 c7bd
00000020: 7b51 e7bd 14dd 8ebd 4f67 98bd 69e9 ca3d
00000030: 8c10 cbbd fc15 da3d a025 c43d 8241 a13c
00000040: 0f1a e5bd 87ec 8d3d cd60 cabc 0d50 c5bd
00000050: b430 8bbd a3f5 753d eb4e a6bd dffc 633d
00000060: 4600 1bbd a6a7 9ebd a93f 993d b5d8 43bd
00000070: 6ab9 aabd eab7 ca3d 485b 033d 6995 91bd
00000080: a0b0 283d ff6c 8dbd 6738 7ebd 93e5 99bd
00000090: 2cc6 333d 2370 a6bd 22e8 183d 9be5 f4bd
000000a0: dfe4 f6bc 64e2 05bd d7e6 9b3d 614f 96bd
000000b0: 9173 513d 5a22 8dbd fbae 79bd 96f7 a33d
000000c0: c9f3 dcbd c348 653d 7966 773d 269a b23d
000000d0: d73d b4bd b089 45bd ac08 5f3d 14c5 e6bd
000000e0: fca9 af3d 868f f63d d8db 34bd 20cd a0bd
000000f0: c80e 4b3d 3a87 f23d 9756 7b3d 3e6b 743d
0.10957576 0.03858937 -0.099034816 0.09378994 -0.106044434 0.08443397 -0.044678647 -0.097630724
-0.11294838 -0.06975761 -0.074415796 0.09907801 -0.099152654 0.106487244 0.09577489 0.019684557
-0.11186611 0.0692988 -0.024704361 -0.09634409 -0.06796399 0.06004871 -0.08120521 0.05566108
-0.037842058 -0.0774682 0.07482845 -0.04781409 -0.08336146 0.0989836 0.032069474 -0.07108576
0.041184068 -0.06905555 -0.06206551 -0.07514491 0.043890163 -0.08126857 0.037330754 -0.11957856
-0.030138431 -0.032686606 0.076123886 -0.07339359 0.051135603 -0.06891318 -0.06095789 0.08006208
-0.10788686 0.055977594 0.06040046 0.08720808 -0.088008575 -0.048227012 0.05445163 -0.112680584
0.08577344 0.12039094 -0.04415497 -0.078516245 0.049574643 0.11842199 0.061361875 0.059672587
