time_series_forecasting/saved_models/CNNForecastingModel/17-03-2024-163449_NO1_epoch_2.pt (torch, 257707 bytes, 7 tensors)

conv1.weight f4 [64, 2, 3]
-0.18480061 -0.10631666 0.31317213 -0.3280488 -0.14738591 0.31783706 0.3968935 0.14390841
-0.26592037 -0.2817746 -0.26031286 0.36828998 0.20907815 0.16856582 0.16227119 -0.35642058
-0.2010133 -0.11302725 0.026886081 0.19936016 -0.35964578 0.1217679 0.25426587 -0.33582664
0.3654198 -0.3190244 -0.21400575 0.2087405 -0.29938966 -0.17869346 -0.16975734 0.3038247
-0.4195571 -0.1289576 0.13443488 0.04305682 -0.32947925 -0.12230884 0.17611687 -0.36777633
0.066967264 0.36334795 -0.22250901 0.024555515 -0.3623075 0.12522615 -0.25916222 -0.25219452
-0.17952214 0.023797411 -0.18454178 -0.26250422 -0.28684878 -0.034551952 0.2836015 0.19217566
0.39529562 -0.38148242 -0.30265176 -0.13578631 0.06405584 -0.15404762 -0.07190818 0.37499183
-0.1641297 0.2464505 0.27784255 0.25757155 0.10555368 0.16387363 0.08537241 -0.15757424
-0.033818845 0.23826171 -0.0007526366 -0.10302183 -0.043153875 0.039197475 -0.18655601 -0.0486879
-0.3678836 -0.05358922 0.097616024 -0.25899705 0.21121536 0.14610612 0.1766182 -0.15307637
0.38521683 -0.33497307 0.33335114 0.12153408 0.058797732 -0.15504692 -0.014642649 -0.32205966
0.2390141 -0.38534176 -0.37424514 -0.22475621 -0.2920117 -0.06905769 0.372625 -0.39264137
0.34165397 0.32113087 0.15240169 0.20656373 0.15435404 0.10310927 -0.19653063 0.2632261
0.2055929 0.2862441 -0.20041923 -0.32284218 -0.018626912 0.35289916 0.0201022 -0.18552868
-0.09415157 -0.34961224 0.27139333 0.14370278 -0.038208235 0.20587683 -0.0149897365 0.15350747
-0.08446182 -0.32419798 0.21677674 -0.35171905 -0.35516092 -0.10705906 0.055409685 0.22037013
-0.1943011 -0.207287 0.051671024 -0.39918837 0.32622212 0.30343512 0.2570716 -0.31097504
0.18374467 0.27126202 -0.23360512 -0.12344519 -0.2878823 -0.372032 0.08677432 -0.17978847
0.26669028 0.39617828 0.13716781 -0.11565026 0.008770778 -0.318352 -0.23239414 -0.17402202
-0.16293006 -0.22033042 -0.20095311 0.27855805 0.18015835 -0.28795713 -0.04683001 -0.23359208
0.2255447 0.032456845 0.17832078 -0.05617204 -0.08828186 -0.08159876 0.33819932 -0.1381178
0.31362003 -0.17642201 -0.22118558 -0.39455765 0.3606368 0.35411158 -0.11369947 -0.029877806
-0.011984845 0.23783685 -0.31418836 -0.11435905 0.17030056 0.41330522 0.29423505 -0.11606951
0.30374223 -0.15904069 0.11533675 -0.07587503 0.30101678 -0.28232804 -0.1929446 -0.27524614
0.33641455 0.31928045 0.24924777 0.37185073 0.2603559 -0.06855295 -0.055878133 -0.35213214
-0.1458026 0.45014626 -0.09374317 0.05367905 -0.4122373 0.21346164 -0.22102706 0.09580969
-0.043793473 0.10778495 -0.03513715 -0.24159336 -0.2015339 -0.22929026 -0.05104894 -0.29881704
0.25971618 -0.1100934 -0.0762269 -0.42254332 0.07079878 -0.18683065 0.12010523 -0.22560176
-0.32807496 0.037334323 -0.05391345 -0.084072985 0.24003056 -0.30785373 0.21305464 -0.36552024
-0.37999478 0.25750658 -0.28764823 0.22398187 -0.27574423 -0.24215002 0.093133464 0.26416427
-0.21847545 0.3304013 0.2883661 0.14751709 -0.014884639 -0.24404389 0.36924788 -0.04815539
00000000: 5f3c 3dbe 8dbc d9bd 1958 a03e 03f6 a7be
00000010: 55ec 16be 8abb a23e a035 cb3e ba5c 133e
00000020: b726 88be c344 90be ba47 85be 8190 bc3e
00000030: 9518 563e 859c 2c3e 6b2a 263e c27c b6be
00000040: 6ed6 4dbe d57a e7bd 3340 dc3c 1225 4c3e
00000050: 7e23 b8be 7361 f93d 232f 823e 78f1 abbe
00000060: 4e18 bb3e 2b57 a3be 5324 5bbe 12c0 553e
00000070: 9a49 99be 6bfb 36be ded4 2dbe e98e 9b3e
00000080: 30d0 d6be 760d 04be 4ca9 093e 595c 303d
00000090: 81b1 a8be 0f7d fabd fb57 343e 2e4d bcbe
000000a0: 2226 893d be08 ba3e 67d9 63be a628 c93c
000000b0: 5e80 b9be 493b 003e e9b0 84be a41f 81be
000000c0: a7d4 37be caf2 c23c 85f8 3cbe f466 86be
000000d0: d8dd 92be 5986 0dbd 3734 913e b2c9 443e
000000e0: 3064 ca3e aa51 c3be 2cf5 9abe 910b 0bbe
000000f0: b52f 833d a9be 1dbe 9944 93bd eefe bf3e
00000100: 9e11 28be 855d 7c3e 6141 8e3e 6be0 833e
00000110: 872c d83d 7dce 273e bbd7 ae3d 245b 21be
00000120: a185 0abd e1fa 733e 964c 45ba 1cfd d2bd
00000130: 1ec2 30bd 888d 203d 8a08 3fbe f76c 47bd
00000140: 3d5b bcbe 5f80 5bbd e9ea c73d 439b 84be
00000150: d748 583e d89c 153e 67db 343e 0dc0 1cbe
00000160: 243b c53e 9781 abbe 00ad aa3e dce6 f83d
00000170: e4d5 703d 9fc4 1ebe b9e7 6fbc 01e5 a4be
00000180: 1dc0 743e 844b c5be 0f9d bfbe 7e26 66be
00000190: 8f82 95be 1e6e 8dbd b4c8 be3e 4a08 c9be
000001a0: 45ed ae3e 446b a43e 300f 1c3e 7185 533e
000001b0: fc0e 1e3e f42a d33d 533f 49be 92c5 863e
000001c0: f286 523e 968e 923e b33a 4dbe 924b a5be
000001d0: 7797 98bc 33af b43e 5ead a43c 3bfb 3dbe
000001e0: 8ad2 c0bd 6000 b3be 11f4 8a3e d226 133e
000001f0: 3d80 1cbd 60d1 523e 8397 75bc 1031 1d3e
00000200: 52fa acbd 47fd a5be b9fa 5d3e 8514 b4be
00000210: a7d7 b5be c841 dbbd 44f5 623d b5a8 613e
00000220: def6 46be 0b43 54be ffa4 533d 6b62 ccbe
00000230: 9606 a73e d95b 9b3e e49e 833e 1f38 9fbe
00000240: 9027 3c3e dbe2 8a3e 2e36 6fbe d5d0 fcbd
00000250: 4f65 93be fa7a bebe bcb6 b13d 781a 38be
00000260: a18b 883e e1d7 ca3e b875 0c3e 0bda ecbd
00000270: 4fb3 0f3c 09ff a2be bbf8 6dbe d432 32be
00000280: 23d7 26be 4c9e 61be a7c6 4dbe 299f 8e3e
00000290: 6e7b 383e 1e6f 93be d3d0 3fbd c332 6fbe
000002a0: 31f5 663e 78f1 043d b999 363e a714 66bd
000002b0: 1fcd b4bd 401d a7bd 7628 ad3e c16e 0dbe
000002c0: ce92 a03e f9a7 34be 797e 62be 7603 cabe
000002d0: 63a5 b83e 1d4e b53e 45db e8bd 4dc2 f4bc
000002e0: 155c 44bc 818b 733e 4cdd a0be 1435 eabd
000002f0: 4563 2e3e be9c d33e faa5 963e dab5 edbd
00000300: 1a84 9b3e 90db 22be ad35 ec3d 5e64 9bbd
00000310: df1e 9a3e 4d8d 90be 4593 45be 10ed 8cbe
00000320: 873e ac3e ba78 a33e cf3a 7f3e 3863 be3e
00000330: 5e4d 853e 7d65 8cbd 78e0 64bd aa4a b4be
00000340: 474d 15be 9279 e63e 6bfc bfbd 90de 5b3d
00000350: c410 d3be b095 5a3e eb54 62be df37 c43d
00000360: c960 33bd 5bbe dc3d f9eb 0fbd 4064 77be
00000370: e75e 4ebe 11cb 6abe b118 51bd 8cfe 98be
00000380: 85f9 843e a678 e1bd d91c 9cbd 9957 d8be
00000390: f3fe 903d 8950 3fbe bbf9 f53d 2604 67be
000003a0: 71f9 a7be e0eb 183d 5ad4 5cbd 752e acbd
000003b0: 92ca 753e 019f 9dbe ff2a 5a3e 7825 bbbe
000003c0: ad8e c2be e7d7 833e a146 93be 815b 653e
000003d0: 592e 8dbe 2df6 77be c2bc be3d 8a40 873e
000003e0: 07b8 5fbe 5c2a a93e b9a4 933e b80e 173e
000003f0: b3de 73bc a4e6 79be 0f0e bd3e 963e 45bd

conv1.bias f4 [64]
0.19516382 -0.27175248 -0.29429692 -0.0050771716 0.044770014 -0.123169705 -0.022802016 -0.00019910636
0.047812924 0.35843626 -0.16249286 0.1847881 0.2773449 -0.0837103 -0.064425446 0.15861428
0.016365852 -0.19899425 0.10603168 0.19295047 -0.031182954 -0.08631632 -0.029585522 -0.026574414
0.2214522 -0.009838015 0.25804546 -0.15642112 0.19372033 -0.10324746 -0.34922537 -0.32055828
0.07837679 -0.13639599 0.20143765 0.34698534 -0.3734657 0.14363354 -0.16462764 0.23868662
0.17894939 -0.1881821 -0.13462894 0.33695528 -0.15539946 -0.20584819 0.089623556 0.115758285
0.08766365 0.12717664 0.33720767 0.049836498 0.08871924 0.21491545 0.24218382 -0.19561587
-0.26179504 0.26546013 0.40510267 -0.307554 -0.23499471 -0.108300984 -0.29444957 -0.059401058
00000000: 06d9 473e 2423 8bbe 16ae 96be 675e a6bb
00000010: c360 373d 6640 fcbd 4bcb babc 35c7 50b9
00000020: 7cd7 433d f584 b73e 8764 26be 1739 3d3e
00000030: 2700 8e3e 4e70 abbd 7df1 83bd c86b 223e
00000040: ae11 863c 26c5 4bbe 2327 d93d cf94 453e
00000050: 6573 ffbc 9cc6 b0bd 565d f2bc 96b2 d9bc
00000060: 5ec4 623e a02f 21bc 891e 843e dc2c 20be
00000070: 9f5e 463e 6873 d3bd abcd b2be 3720 a4be
00000080: 0384 a03d 64ab 0bbe ac45 4e3e 10a8 b13e
00000090: e536 bfbe ac14 133e 2694 28be 446a 743e
000000a0: 823e 373e cfb2 40be 2bdc 09be 6785 ac3e
000000b0: 0921 1fbe dec9 52be 8e8c b73d ae12 ed3d
000000c0: 0089 b33d 983a 023e 7ca6 ac3e 5b21 4c3d
000000d0: 6fb2 b53d cc12 5c3e 09ff 773e 874f 48be
000000e0: 000a 86be 64ea 873e 9e69 cf3e b877 9dbe
000000f0: 74a2 70be e8cc ddbd 18c2 96be 864e 73bd

conv2.weight f4 [128, 64, 3]
-0.0527343 -0.0018495625 -0.0044328114 0.007024051 0.042851474 -0.06688887 0.038003623 0.07618633
-0.0078054057 -0.024954217 0.044443723 -0.054856814 -0.053704266 -0.01681342 0.05787978 0.043627553
-0.017370101 0.045843523 -0.01798159 -0.0467687 -0.003876007 -0.025645083 0.028707787 -0.052914318
-0.014277539 0.043248415 0.044352207 0.015841614 0.013563119 -0.0025154543 0.052280206 -0.052771013
-0.02701919 -0.0016045745 0.05676981 0.018960966 -0.066431634 -0.032870032 0.028773362 0.03454873
0.065914504 -0.036283378 0.048531048 0.020219848 0.013737257 0.04243457 -0.0043732803 0.016793221
0.09066811 0.088290684 0.044322625 0.052555792 -0.012744661 -0.07855602 0.063326426 0.028644117
-0.042727288 0.06839456 -0.010877882 0.021221988 -0.019334598 -0.020626228 -0.011823729 0.041929398
-0.055691253 -0.026272712 0.0037572493 0.033871666 0.012001017 0.014855459 -0.039035268 -0.027606234
-0.009480784 0.075062476 0.035009272 -0.08304402 -0.05751298 -0.040467657 -0.008934413 -0.014690814
0.035663147 0.02151597 0.07112743 0.018941317 0.01213484 0.012194076 -0.06807923 0.064450175
-0.047058288 -0.0112143895 -0.011923621 -0.0010050784 0.04325351 -0.04224341 0.024949964 -0.041870046
0.011469506 -0.045466144 -0.00081658486 -0.007394767 0.024998393 0.03543183 0.013727401 -0.021241771
-0.021615064 -0.044003695 -0.044122647 -0.07092575 0.006035443 0.07180993 0.020821683 0.020840872
0.035560682 -0.04536296 -0.02739833 -0.03769159 -0.055085935 0.02028817 -0.02441996 -0.027474334
-0.007320813 -0.043055482 -0.06494501 0.044946287 0.07731825 0.026697977 0.020934979 -0.0326305
0.06241946 -0.01945766 0.049561724 -0.06578417 0.06540716 0.034052815 -0.018659338 -0.03382816
0.061178774 -0.002732451 -0.02992456 -0.029561738 -0.037181944 -0.008137381 0.01895774 0.0055812886
0.050164334 -0.0746423 0.011503982 0.03877626 -0.04238708 -0.010537454 0.02423732 0.081152685
-0.07157483 -0.08020265 -0.012635693 -0.00023394886 -0.04627175 0.03738595 0.03555877 0.0035557114
0.060279977 -0.06050464 -0.021280658 -0.013493578 -0.0644667 0.046430588 -0.0047421246 0.05234249
-0.047217604 -0.015445908 -0.024873104 -0.06146561 -0.020171167 0.017231809 0.015950317 -0.05189599
0.037177905 -0.0015659598 0.11816559 -0.063562065 -0.04713951 0.037099935 -0.014210449 0.0020826785
-0.029429112 -0.054840878 -0.07129628 -0.0451037 0.026171193 0.010015875 0.01881522 0.0071003647
-0.0725817 -0.00342257 -0.039876577 -0.023653604 0.0654171 0.0029255676 0.051028535 0.061228883
0.028603408 0.022883156 -0.060111962 -0.0068609025 -0.08902379 -0.09619329 -0.056164205 -0.037790503
0.012249829 -0.016093437 -0.07102618 -0.060486298 -0.03476468 -0.026425477 -0.0665778 -0.05102275
-0.1491696 0.0076362686 -0.016779406 0.060297817 0.00043302978 0.006942445 -0.0017495296 -0.04726437
-0.04566177 -0.031474836 0.08550771 0.065192655 -0.016626175 -0.00056796765 0.0066370736 -0.015271276
0.025303584 0.008772816 0.04002643 0.0154608935 0.0037877476 -0.018382382 -0.0016677193 0.01973825
-0.057420645 -0.039074674 -0.093133904 0.00072914606 0.027997324 0.052295275 -0.058857117 0.02163965
0.022632038 -0.035952657 0.0039760647 0.055331666 -0.032925732 0.04390697 0.0054082684 -0.065556064
00000000: ecff 57bd 056d f2ba 1e41 91bb 032a e63b
00000010: 0785 2f3d 08fd 88bd b0a9 1b3d 9407 9c3d
00000020: 7dc4 ffbb c96c ccbc 9f0a 363d 8ab1 60bd
00000030: 01f9 5bbd 4cbc 89bc 5913 6d3d ceb2 323d
00000040: be4b 8ebc 6bc6 3b3d 214e 93bc 8990 3fbd
00000050: 9b04 7ebb a315 d2bc 982c eb3c afbc 58bd
00000060: 57ec 69bc 4025 313d a9aa 353d 46c6 813c
00000070: d837 5e3c 52da 24bb c523 563d 6b26 58bd
00000080: 5957 ddbc 9650 d2ba 7687 683d 0754 9b3c
00000090: 4f0d 88bd baa2 06bd 1db6 eb3c f882 0d3d
000000a0: 2ffe 863d e19d 14bd 7ec8 463d 18a4 a53c
000000b0: 3b12 613c dfcf 2d3d bc4d 8fbb f091 893c
000000c0: 34b0 b93d bfd1 b43d a48b 353d be44 573d
000000d0: fcce 50bc fbe1 a0bd 49b1 813d 11a7 ea3c
000000e0: cf02 2fbd 7212 8c3d 2539 32bc bcd9 ad3c
000000f0: 9763 9ebc 56f8 a8bc 50b8 41bc 29be 2b3d
00000100: 831c 64bd df39 d7bc 2f3c 763b 04bd 0a3d
00000110: ea9f 443c 5064 733c 72e3 1fbd 7826 e2bc
00000120: 4a55 1bbc 5bba 993d e265 0f3d fc12 aabd
00000130: bb92 6bbd 6ac1 25bd a561 12bc bdb1 70bc
00000140: 8513 123d 4242 b03c 42ab 913d d22a 9b3c
00000150: 35d1 463c a9c9 473c 206d 8bbd 74fe 833d
00000160: 31c0 40bd 8fbc 37bc 4b5b 43bc d6bc 83ba
00000170: 982a 313d 6d07 2dbd de63 cc3c ed7f 2bbd
00000180: 98ea 3b3c b53a 3abd 1510 56ba cd4f f2bb
00000190: 6ec9 cc3c f720 113d e5e8 603c 3903 aebc
000001a0: 1312 b1bc 383d 34bd f3b9 34bd 8541 91bd
000001b0: f7c4 c53b 1611 933d 3c92 aa3c 7aba aa3c
000001c0: 14a8 113d 83ce 39bd 7672 e0bc 7f62 1abd
000001d0: caa1 61bd 6033 a63c 5e0c c8bc db11 e1bc
000001e0: 6ee3 efbb f25a 30bd e401 85bd 9919 383d
000001f0: 0859 9e3d b7b5 da3c d57f ab3c 8fa7 05bd
00000200: 8cab 7f3d ac65 9fbc 3c01 4b3d dab9 86bd
00000210: 30f4 853d f77a 0b3d 78db 98bc 668f 0abd
00000220: 9896 7a3d ec12 33bb 5a24 f5bc 752b f2bc
00000230: 184c 18bd a652 05bc 434d 9b3c 3ee3 b63b
00000240: 1e79 4d3d 10de 98bd 337b 3c3c dbd3 1e3d
00000250: 139e 2dbd 49a5 2cbc 588d c63c 6133 a63d
00000260: d395 92bd 4941 a4bd f005 4fbc 2b50 75b9
00000270: 7287 3dbd 0322 193d 13a6 113d f006 693b
00000280: 23e8 763d b7d3 77bd c654 aebc 2b14 5dbc
00000290: 1e07 84bd 002e 3e3d d363 9bbb 1465 563d
000002a0: 3f67 41bd d510 7dbc aec2 cbbc 5dc3 7bbd
000002b0: 013e a5bc b929 8d3c 3daa 823c e490 54bd
000002c0: dc47 183d e440 cdba cd00 f23d d42c 82bd
000002d0: 5c15 41bd 1af6 173d f1d2 68bc 8c7d 083b
000002e0: 5215 f1bc d4a0 60bd c903 92bd a8be 38bd
000002f0: f864 d63c a019 243c 6022 9a3c 2daa e83b
00000300: b7a5 94bd 324d 60bb 9f55 23bd 34c5 c1bc
00000310: 67f9 853d e1ba 3f3b 4c03 513d 23cb 7a3d
00000320: b251 ea3c 7575 bb3c f637 76bd 6cd1 e0bb
00000330: 1b52 b6bd fd00 c5bd 700c 66bd 37ca 1abd
00000340: 82b3 483c 62d6 83bc 2d76 91bd 7bc0 77bd
00000350: 6965 0ebd 3e7a d8bc f159 88bd 3bfd 50bd
00000360: eabf 18be aa39 fa3b f774 89bc d8fa 763d
00000370: 4608 e339 737d e33b 7950 e5ba 4998 41bd
00000380: d607 3bbd c2eb 00bd ab1e af3d ba83 853d
00000390: 9e33 88bc aae3 14ba cf7b d93b 6034 7abc
000003a0: 7649 cf3c dbbb 0f3c c1f2 233d b04f 7d3c
000003b0: dc3b 783b a696 96bc 6097 daba 1cb2 a13c
000003c0: e931 6bbd c40c 20bd fdbc bebd 2a24 3f3a
000003d0: a55a e53c 9233 563d 2914 71bd a345 b13c
000003e0: d366 b93c 1843 13bd a649 823b 75a3 623d
000003f0: 22dd 06bd ccd7 333d d837 b13b 4242 86bd

conv2.bias f4 [128]
-0.03898616 -0.0016833621 0.05756005 0.0695736 -0.023511147 0.050750263 0.060758688 -0.02604796
-0.015261629 0.0004653826 0.066924185 -0.027569098 0.027762676 0.028317448 -0.040208217 -0.0053176037
-0.052591093 -0.0008217642 0.058644127 0.004743964 -0.06269385 0.04650025 -0.0065938686 -0.014552708
0.061356958 -0.013999346 -0.01972222 0.04736502 0.004910079 -0.014631584 0.016877005 0.010130007
-0.06517533 -0.032910768 0.004938527 0.057033237 -0.04534744 0.06318634 -0.008487082 -0.048783805
0.012594576 -0.033378817 0.04508667 0.012272549 0.03944223 -0.0041761757 -0.05522945 -0.020087706
-0.04944461 -0.049773723 0.039906714 0.016910993 -0.043258395 0.011972636 0.0433323 0.05539454
-0.044743698 -0.06863384 -0.053719316 0.060439076 0.023668328 0.049568452 0.0050291037 0.026573267
-0.0021397315 -0.015633367 -0.056880932 0.038884453 -0.029516028 0.008053411 -0.068893895 0.035757918
-0.0024233395 -0.0036087742 -0.037280012 0.038006097 -0.040511034 -0.01930294 -0.06294493 -0.0013638769
-0.028394507 -0.054942958 -0.05964538 -0.049460217 -0.05117446 0.041258078 -0.05280392 -0.0317406
-0.068313904 -0.01954961 -0.029430382 0.009203982 -0.018888954 -0.037128206 0.027284453 -0.045005683
0.005079162 0.06491891 -0.026842384 0.06755868 -0.06846901 0.054376952 0.046173096 0.06268906
-0.04898128 0.02590463 -0.012891057 -0.068411134 -0.012579872 -0.027189787 -0.03978144 0.038860034
-0.02174502 0.019404192 -0.041322533 0.06708205 -0.019895786 -0.051442087 -0.056047995 0.045133784
-0.030255968 0.015076576 0.016271811 -0.012766079 0.028460087 -0.06968884 -0.048842877 0.036484458
00000000: f4af 1fbd 42a4 dcba 16c4 6b3d 9b7c 8e3d
00000010: 739a c0bc 82df 4f3d 1ade 783d 8862 d5bc
00000020: e90b 7abc 98fe f339 8c0f 893d 97d8 e1bc
00000030: 8d6e e33c fef9 e73c 5fb1 24bd 4b3f aebb
00000040: c269 57bd a96b 57ba d334 703d 4173 9b3b
00000050: a265 80bd 0c77 3e3d 6111 d8bb 7b6e 6ebc
00000060: 6f51 7b3d 835d 65bc 7e90 a1bc d301 423d
00000070: bae4 a03b 50b9 6fbc a541 8a3c 54f8 253c
00000080: a57a 85bd 71cd 06bd 5ed3 a13b af9b 693d
00000090: 3dbe 39bd d767 813d 670d 0bbc 87d1 47bd
000000a0: 7b59 4e3c 3ab8 08bd cdac 383d cd12 493c
000000b0: 2d8e 213d 4dd8 88bb 4738 62bd f98e a4bc
000000c0: 6e86 4abd 88df 4bbd 3975 233d ec88 8a3c
000000d0: b72f 31bd e028 443c 367d 313d 63e5 623d
000000e0: 2b45 37bd e68f 8cbd c908 5cbd f78e 773d
000000f0: 15e4 c13c 4a08 4b3d 2ecb a43b 2eb0 d93c
00000100: bd3a 0cbb 8c11 80bc fbfb 68bd 4e45 1f3d
00000110: 99cb f1bc 74f2 033c 3e18 8dbd e576 123d
00000120: e4d0 1ebb 2f81 6cbb edb2 18bd 48ac 1b3d
00000130: e6ee 25bd 3321 9ebc 45e9 80bd 1dc4 b2ba
00000140: 999b e8bc de0b 61bd b74e 74bd cc96 4abd
00000150: 509c 51bd 3bfe 283d ec48 58bd 6e02 02bd
00000160: 29e8 8bbd 8126 a0bc fc17 f1bc 4ccc 163c
00000170: 02bd 9abc bf13 18bd a583 df3c e157 38bd
00000180: 196f a63b 35f4 843d 8fe4 dbbc 355c 8a3d
00000190: 7b39 8cbd 5eba 5e3d 0020 3d3d 1f63 803d
000001a0: 98a0 48bd f235 d43c 0335 53bc 231b 8cbd
000001b0: cf1b 4ebc 1ebd debc ddf1 22bd b32b 1f3d
000001c0: 9d22 b2bc 8af5 9e3c d141 29bd 5062 893d
000001d0: 7dfc a2bc f0b4 52bd 9592 65bd 34de 383d
000001e0: 5ddb f7bc be03 773c 764c 853c d128 51bc
000001f0: 2125 e93c 06b9 8ebd 780f 48bd ba70 153d

dense1.weight f4 [50, 768]
0.0067163785 -0.014475882 -0.029296279 -0.003833788 -0.0026899832 -0.0021101667 0.035959847 0.038534816
-0.011080511 -0.028233415 -0.019583432 -0.008600736 0.025607636 -0.027311457 -0.017394766 0.0054288195
-0.005602369 -0.033172347 0.0075388527 0.014933804 0.005426745 0.031793468 0.001308339 0.0115728825
0.012302542 0.040414166 0.0040780962 -0.020245342 -0.023315238 -0.13241206 0.016191669 -0.027169026
-0.01780095 -0.019773899 0.03128464 0.025507504 -0.012441099 0.03346047 0.029341329 0.010962463
-0.020454925 -0.002640677 0.040554978 -0.0033352994 -0.032125324 0.023159863 0.026143296 0.029479392
-0.040133543 -0.021471053 0.0010631927 -0.03724447 -0.014515381 0.02640175 -0.015572358 -0.022171361
-0.021354593 0.039037522 -0.012161324 -0.016217861 0.019792078 -0.009546844 0.01649675 0.030121053
-0.00344318 0.03659577 0.0016045548 0.009832743 0.0024465146 0.036872134 -0.0023317924 -0.019502798
-0.051576015 -0.024270808 -0.015340194 0.0055259024 -0.0015489811 -0.029405432 -0.01830349 -0.00048445823
0.027046852 0.012015249 0.017692665 -0.008791384 0.02202475 -0.011019819 0.035274122 0.0006488232
-0.0021853542 0.0027674525 0.046041016 -0.0066320286 -0.014996773 0.03161576 0.00782077 0.0009067391
-0.0059526353 0.025209714 0.002742309 -0.033474926 -0.047646403 -0.021789461 0.02686397 0.011923704
0.00037616977 0.0011171484 -0.007037164 -0.025169333 0.008702766 -0.016597662 -0.020075513 0.00058879115
0.020132883 0.007314796 0.039468095 -0.0130158095 -0.02154442 0.02171559 0.019801626 0.010276319
-0.0045497227 0.017677002 0.008079881 -0.019356683 -0.04743592 -0.025086435 -0.059807107 0.019646447
0.0006033872 0.031814978 0.04411846 -0.029871007 -0.018283205 -0.03659732 0.010865156 -0.015160009
-0.020917945 -0.052794848 0.05685745 0.027884623 0.03665231 0.0032898036 0.016380295 0.033789262
0.05040443 0.02559089 0.022516863 0.022329576 -0.020145055 0.0021293792 -0.043731987 -0.018647797
-0.022018328 -0.02269321 0.029048277 0.010738736 -0.016711075 -0.019226791 -0.012106595 0.0033492278
-0.0100301085 0.06664633 -0.0032183244 0.0134872515 -0.0036826641 -0.024201514 -0.020110387 -0.020148098
0.016434647 0.037484497 -0.017839788 0.041514207 0.0047424026 0.041598767 0.05902028 0.029708305
-0.012384571 0.016071342 0.02245928 0.022111626 0.01462323 0.030936562 0.028448997 0.01097592
-0.01611045 0.026976416 0.024047926 -0.0052684625 -0.005330992 -0.0141233625 0.010057303 0.03385045
-0.006664051 0.023845658 -0.012644731 -0.032462314 0.014675385 0.0027784137 0.019968424 -0.022563707
-0.025783135 0.006888401 -0.0065127728 -0.039051756 -0.022794314 0.014775569 0.0070373383 0.010148362
0.01119977 0.04646767 0.047870036 0.00031472434 -0.0036094156 0.030603703 0.01421774 0.0018235141
0.0014133394 -0.026131433 -0.007895161 -0.011553197 -0.009533662 -0.0034010669 0.079974614 0.042053904
0.031539258 -0.0009136726 0.029381044 0.038598828 0.03515404 0.011417889 0.019232899 -0.007144481
0.016081784 0.014069895 0.024037778 0.013513465 0.023797099 0.022753425 0.0065248413 -0.016413674
0.045386948 -0.012333079 0.0043656453 0.049174163 0.019406362 0.014695212 -0.0015001297 0.011144155
-0.01729903 0.005808424 -0.027657192 0.011653092 -0.00039587475 0.023081638 0.027726056 0.0068351883
00000000: 1115 dc3b 402c 6dbc c0fe efbc 4a40 7bbb
00000010: 6e4a 30bb b94a 0abb a24a 133d afd6 1d3d
00000020: 088b 35bc c349 e7bc 6f6d a0bc 1aea 0cbc
00000030: 1bc7 d13c 47bc dfbc 787f 8ebc 3de4 b13b
00000040: 1494 b7bb badf 07bd 7b08 f73b eaac 743c
00000050: d6d2 b13b de39 023d 927c ab3a 309c 3d3c
00000060: 9a90 493c 5389 253d 8da1 853b 8fd9 a5bc
00000070: 99ff bebc 0797 07be 64a4 843c 9491 debc
00000080: 4cd3 91bc dffc a1bc 5324 003d 1df5 d03c
00000090: c0d5 4bbc d90d 093d 3a5d f03c e79b 333c
000000a0: 1691 a7bc 350f 2dbb fa1c 263d 0a95 5abb
000000b0: d895 03bd c1b9 bd3c 772a d63c c47e f13c
000000c0: 1263 24bd 10e4 afbc d45a 8b3a a88d 18bd
000000d0: ecd1 6dbc 7c48 d83c 3423 7fbc b7a0 b5bc
000000e0: d4ef aebc cfe5 1f3d 4a40 47bc 52db 84bc
000000f0: ff22 a23c 5e6a 1cbc 3124 873c 6dc0 f63c
00000100: f9a6 61bb 72e5 153d ed4f d23a 8319 213c
00000110: b455 203b 3c07 173d fcd0 18bb 55c4 9fbc
00000120: 5f41 53bd 93d3 c6bc 7055 7bbc a112 b53b
00000130: 2e07 cbba a9e3 f0bc 33f1 95bc e2fe fdb9
00000140: 5c91 dd3c 9bdb 443c 35f0 903c bd09 10bc
00000150: 406d b43c 798c 34bc 997b 103d ca15 2a3a
00000160: 2938 0fbb 265e 353b 8195 3c3d 7d51 d9bb
00000170: 06b5 75bc 877f 013d b022 003c 3bb2 6d3a
00000180: 530e c3bb 9a84 ce3c 4fb8 333b 011d 09bd
00000190: e028 43bd d07f b2bc d411 dc3c a45b 433c
000001a0: a738 c539 486d 923a 0398 e6bb eb2f cebc
000001b0: 0c96 0e3c d2f7 87bc 6775 a4bc 1b59 1a3a
000001c0: b7ed a43c f5b0 ef3b 4ca9 213d 4340 55bc
000001d0: ec7d b0bc e5e4 b13c 0537 a23c 025e 283c
000001e0: d715 95bb 5ccf 903c 7a61 043c e891 9ebc
000001f0: 2b4c 42bd 1182 cdbc 4cf8 74bd 96f1 a03c
00000200: a12c 1e3a 6c50 023d 8fb5 343d 0bb4 f4bc
00000210: a9c6 95bc 12e7 15bd c403 323c b061 78bc
00000220: 1c5c abbc 693f 58bd 5ce3 683d 4b6e e43c
00000230: bc20 163d bf99 573b f82f 863c 9c66 0a3d
00000240: e074 4e3d fca3 d13c 4975 b83c 84ec b63c
00000250: 3e07 a5bc 0e8d 0b3b 5020 33bd 44c3 98bc
00000260: c85f b4bc 1ce7 b9bc a7f6 ed3c 86f1 2f3c
00000270: aae5 88bc 8181 9dbc bd5a 46bc b87e 5b3b
00000280: 5355 24bc df7d 883d 86ea 52bb a2f9 5c3c
00000290: da58 71bb 4142 c6bc 8abe a4bc a00d a5bc
000002a0: f4a1 863c 5889 193d bf24 92bc cd0a 2a3d
000002b0: 2866 9b3b 7863 2a3d 40bf 713d d55e f33c
000002c0: a8e8 4abc 0ca8 833c 86fc b73c 7123 b53c
000002d0: 4696 6f3c ac6e fd3c df0d e93c 58d4 333c
000002e0: 10fa 83bc a5fd dc3c 2800 c53c 11a3 acbb
000002f0: 9aaf aebb ad65 67bc 63c7 243c c5a6 0a3d
00000300: 1d5e dabb f857 c33c d92b 4fbc 34f7 04bd
00000310: 0771 703c 0c16 363b d294 a33c 86d7 b8bc
00000320: 2737 d3bc 19b8 e13b 1969 d5bb bcf4 1fbd
00000330: 24bb babc 3a15 723c 7999 e63b 5145 263c
00000340: 3d7f 373c e254 3e3d 5f13 443d 9601 a539
00000350: f28b 6cbb 9eb4 fa3c 86f1 683c fb02 ef3a
00000360: cd3f b93a 9611 d6bc b55a 01bc 9f49 3dbc
00000370: 1433 1cbc 6fe4 5ebb bbc9 a33d b740 2c3d
00000380: 4f2f 013d 8883 6fba 84b0 f03c ce19 1e3d
00000390: affd 0f3d 1912 3b3c 508e 9d3c 401c eabb
000003a0: f2bd 833c 6b85 663c e0ea c43c 9567 5d3c
000003b0: 22f2 c23c 6465 ba3c 56ce d53b f875 86bc
000003c0: aae7 393d af10 4abc b00d 8f3b d96a 493d
000003d0: 17fa 9e3c 30c4 703c 00a0 c4ba f995 363c
000003e0: b2b6 8dbc 9854 be3b 5691 e2bc 9cec 3e3c
000003f0: 698d cfb9 b415 bd3c c121 e33c b7f9 df3b

dense1.bias f4 [50]
-0.012815229 0.025688244 0.04543205 -0.002880618 0.0030107107 0.055500574 0.051052462 0.04350825
0.027110923 -0.0048863958 0.04367826 0.028749274 0.012103944 -0.0005306271 -0.0025172182 0.03970773
0.049945768 0.049413517 0.010223397 0.023973111 0.024424762 0.04303527 0.02212337 -0.004795652
-0.019006735 0.0014166785 0.023155553 0.056121387 0.025772056 0.026949264 0.0162051 0.024727542
0.049643412 0.03757182 0.0068214326 0.029220276 0.00069750374 -0.0027609856 -0.0012647308 0.018263608
-0.0017449299 0.02852582 0.0051788525 0.039081123 0.045094598 -0.0018406238 0.015186535 0.018229654
0.03876195 0.016594958
00000000: f7f6 51bc 2770 d23c f516 3a3d c0c8 3cbb
00000010: 584f 453b 9254 633d 631c 513d b535 323d
00000020: ba17 de3c 0f1e a0bb fae7 323d 9983 eb3c
00000030: 9f4f 463c c819 0bba eaf7 24bb 93a4 223d
00000040: ef93 4c3d d465 4a3d 0980 273c 4263 c43c
00000050: 7016 c83c c045 303d 123c b53c d824 9dbb
00000060: 03b4 9bbc d8af b93a b7b0 bd3c 8adf 653d
00000070: eb1f d33c b4c4 dc3c 8fc0 843c 6a91 ca3c
00000080: e456 4b3d e9e4 193d 5386 df3b 5c5f ef3c
00000090: afd8 363a a7f1 34bb 53c5 a5ba 909d 953c
000000a0: 22b6 e4ba fbae e93c 5db3 a93b 8713 203d
000000b0: 1db5 383d 1641 f1ba f2d0 783c 5b56 953c
000000c0: dac4 1e3d 26f2 873c

dense2.weight f4 [1, 50]
0.113799706 0.10673346 0.06602356 -0.04830378 0.045045964 -0.12111465 -0.021863379 0.14265986
-0.14375015 0.101766266 -0.1179742 0.022575112 0.088459596 -0.088942714 0.06437628 -0.045348004
-0.12106002 0.036516976 -0.1017744 -0.046724364 0.055771675 0.020434437 0.1435498 -0.12057907
-0.01744546 0.14536944 -0.11001281 -0.0217379 -0.112762295 -0.14153393 -0.082351506 0.047458917
0.06339116 -0.08560294 0.066444054 0.074060366 0.031862564 -0.08765469 0.07944845 0.04424597
-0.13254088 0.111588284 0.070221476 -0.08253083 -0.08756178 -0.032347154 0.12783739 -0.08321522
-0.0902934 -0.0980563
00000000: d20f e93d 1397 da3d 5c37 873d 2fda 45bd
00000010: 1e82 383d f50a f8bd d41a b3bc 6d15 123e
00000020: 3d33 13be d56a d03d 759c f1bd 71ef b83c
00000030: 4e2a b53d 9927 b6bd b6d7 833d d4be 39bd
00000040: 51ee f7bd d392 153d 196f d0bd 0c62 3fbd
00000050: d770 643d 1f66 a73c b8fe 123e 29f2 f6bd
00000060: c8e9 8ebc badb 143e 654e e1bd ae13 b2bc
00000070: ebef e6bd 45ee 10be e8a7 a8bd 4864 423d
00000080: 39d3 813d 9850 afbd d213 883d f6ac 973d
00000090: 5282 023d 4d84 b3bd deb5 a23d 433b 353d
000000a0: ccb8 07be 6688 e43d 47d0 8f3d ec05 a9bd
000000b0: 9753 b3bd 737e 04bd cee7 023e be6c aabd
000000c0: bfeb b8bd bed1 c8bd
