time_series_forecasting/saved_models/CNNForecastingModel/17-03-2024-163249_NO1_epoch_1.pt (torch, 257707 bytes, 7 tensors)

conv1.weight f4 [64, 2, 3]
-0.17762478 -0.10330923 0.31429523 -0.3278939 -0.14548981 0.3102383 0.3946752 0.14288977
-0.26741245 -0.27409872 -0.25486314 0.3682207 0.21059507 0.16883887 0.16187218 -0.35445565
-0.19744581 -0.11284482 0.025426306 0.20072778 -0.35629308 0.12068006 0.2514357 -0.33713025
0.35890636 -0.32123697 -0.21623012 0.19937497 -0.30281603 -0.1734595 -0.16828068 0.30849013
-0.40801933 -0.13382666 0.122394875 0.03100592 -0.3305389 -0.12381047 0.17411125 -0.3650316
0.06809671 0.36110938 -0.22981599 0.016148193 -0.3672807 0.11822204 -0.2653304 -0.251122
-0.18082377 0.02294977 -0.18496512 -0.25950566 -0.28350586 -0.036699012 0.2859673 0.19342624
0.39485154 -0.38075837 -0.30018145 -0.13460414 0.0636808 -0.15401661 -0.070031315 0.37393835
-0.16509897 0.24690616 0.28804255 0.26269737 0.10623004 0.15933523 0.081801176 -0.15602502
-0.03558584 0.23411416 -0.007154985 -0.098051734 -0.039507754 0.038422387 -0.19068006 -0.049591985
-0.3663547 -0.051436923 0.09428943 -0.26293463 0.21693988 0.14953282 0.17630798 -0.1579039
0.38544244 -0.32818377 0.33560702 0.12456026 0.060560778 -0.15437517 -0.013043749 -0.32093975
0.23650588 -0.3851793 -0.37381402 -0.21808967 -0.28458282 -0.06960849 0.37216023 -0.39453053
0.33748263 0.31773192 0.1483015 0.21185897 0.15171309 0.103937715 -0.19182849 0.2638156
0.20392455 0.28707963 -0.20136385 -0.32152557 -0.014397605 0.35214803 0.019170934 -0.18489337
-0.09404151 -0.34900084 0.27279964 0.14066535 -0.041087676 0.20575882 -0.014399894 0.15429586
-0.08434841 -0.32257134 0.21669827 -0.35327718 -0.3513916 -0.108161725 0.051177822 0.21387903
-0.19493835 -0.2092051 0.06250973 -0.3936306 0.33011466 0.29295868 0.2560224 -0.30899462
0.18665282 0.27299508 -0.23338681 -0.12136147 -0.2839159 -0.3704407 0.09545278 -0.17564042
0.26634425 0.38872615 0.138571 -0.11088187 0.009133957 -0.31802005 -0.23218521 -0.1709968
-0.15839323 -0.22674437 -0.19855785 0.27948532 0.18074797 -0.28740332 -0.04340415 -0.2341424
0.23254098 0.03302238 0.1733956 -0.048681248 -0.07645511 -0.07332488 0.34090522 -0.13621397
0.31526604 -0.17645185 -0.21909605 -0.39454246 0.35928708 0.35293603 -0.1144826 -0.032851476
-0.015681336 0.23373502 -0.31363732 -0.11223298 0.17337334 0.41140687 0.29242706 -0.11669283
0.30404168 -0.15786229 0.11672376 -0.07446915 0.30075663 -0.27953088 -0.19613259 -0.2781868
0.33561936 0.31557953 0.24417245 0.37450466 0.2720036 -0.053244047 -0.030759139 -0.35261828
-0.16984639 0.40850207 -0.09561216 0.052306242 -0.40808395 0.20919743 -0.22537263 0.088285655
-0.044067875 0.1067776 -0.035761397 -0.23797506 -0.19680133 -0.22691852 -0.049786545 -0.3021864
0.25265458 -0.105114095 -0.063313745 -0.4146162 0.07082106 -0.1883672 0.11893984 -0.22360764
-0.32426855 0.037589658 -0.05111318 -0.08461966 0.2346908 -0.31043214 0.2168875 -0.3606516
-0.37944227 0.25686663 -0.2891764 0.22147886 -0.2753962 -0.23993105 0.09137301 0.2649438
-0.21535674 0.32721302 0.2856135 0.14891848 -0.015482104 -0.24567847 0.36660817 -0.049348775
00000000: 45e3 35be ca93 d3bd 4eeb a03e b6e1 a7be
00000010: 48fb 14be 8ed7 9e3e de12 ca3e b251 123e
00000020: 49ea 88be ab56 8cbe 6c7d 82be 6c87 bc3e
00000030: 3ca6 573e 19e4 2c3e d2c1 253e 367b b5be
00000040: 3c2f 4abe 2f1b e7bd d44a d03c 958b 4d3e
00000050: 0c6c b6be 1b27 f73d 2ebc 803e 569c acbe
00000060: 93c2 b73e 2c79 a4be 6e6b 5dbe f428 4c3e
00000070: b40a 9bbe 5e9f 31be c551 2cbe 6bf2 9d3e
00000080: e9e7 d0be db09 09be 2aaa fa3d 2100 fe3c
00000090: 653c a9be 5890 fdbd 384a 323e 6ce5 babe
000000a0: 4a76 8b3d 54e3 b83e e254 6bbe 3749 843c
000000b0: 370c bcbe 661e f23d 63d9 87be 1093 80be
000000c0: de29 39be 2801 bc3c 7f67 3dbe eddd 84be
000000d0: ae27 91be b451 16bd 4e6a 923e 8711 463e
000000e0: fb29 ca3e c3f2 c2be 62b1 99be abd5 09be
000000f0: 146b 823d 88b6 1dbe 946c 8fbd d974 bf3e
00000100: b40f 29be f8d4 7c3e 507a 933e 4580 863e
00000110: 238f d93d c628 233e 6087 a73d 06c5 1fbe
00000120: 75c2 11bd 9fbb 6f3e 5d74 eabb 59cf c8bd
00000130: e2d2 21bd cb60 1d3d a241 43be f720 4bbd
00000140: d892 bbbe 86af 52bd d11a c13d 5e9f 86be
00000150: 7d25 5e3e 221f 193e 148a 343e 8fb1 21be
00000160: b658 c53e b407 a8be afd4 ab3e 7319 ff3d
00000170: 940e 783d 8614 1ebe 73b5 55bc 3752 a4be
00000180: 992e 723e 3936 c5be 8d64 bfbe e652 5fbe
00000190: d7b4 91be e58e 8ebd c98b be3e e8ff c9be
000001a0: 86ca ac3e c2ad a23e 59dc 173e 8ff1 583e
000001b0: ad5a 1b3e 4cdd d43d b06e 44be d712 873e
000001c0: 99d1 503e 1afc 923e 5332 4ebe 009f a4be
000001d0: efe3 6bbc bf4c b43e 5d0c 9d3c b054 3dbe
000001e0: d698 c0bd 3db0 b2be 65ac 8b3e 940a 103e
000001f0: 8d4b 28bd 71b2 523e 88ed 6bbc bcff 1d3e
00000200: dcbe acbd 1228 a5be 27e6 5d3e bfe0 b4be
00000210: 9ae9 b3be e583 ddbd d69f 513d 1b03 5b3e
00000220: eb9d 47be dd39 56be 1a05 803d f389 c9be
00000230: ca04 a93e aefe 953e 5e15 833e 8b34 9ebe
00000240: eb21 3f3e 03c6 8b3e f4fc 6ebe 5d8c f8bd
00000250: 6d5d 91be 67aa bdbe bf7c c33d 15db 33be
00000260: 465e 883e 1d07 c73e 8ee5 0d3e 0916 e3bd
00000270: 98a6 153c 86d3 a2be f6c1 6dbe c919 2fbe
00000280: d631 22be ad2f 68be c052 4bbe b318 8f3e
00000290: ff15 393e 8726 93be 8dc8 31bd 06c3 6fbe
000002a0: 391f 6e3e 7a42 073d 9e8e 313e fd65 47bd
000002b0: 7f94 9cbd 5b2b 96bd 218b ae3e ad7b 0bbe
000002c0: 8d6a a13e cbaf 34be b75a 60be 7801 cabe
000002d0: 7af4 b73e 08b4 b43e da75 eabd 458f 06bd
000002e0: 2576 80bc 3c58 6f3e 1295 a0be 68da e5bd
000002f0: c888 313e eca3 d23e 00b9 953e a7fc eebd
00000300: 5aab 9b3e a7a6 21be de0c ef3d 4883 98bd
00000310: c6fc 993e ac1e 8fbe fbd6 48be 806e 8ebe
00000320: 4dd6 ab3e a493 a13e 5808 7a3e 13bf bf3e
00000330: 0e44 8b3e 6e16 5abd 97fa fbbc 628a b4be
00000340: 36ec 2dbe 2f27 d13e 4fd0 c3bd 123f 563d
00000350: 61f0 d0be da37 563e 15c8 66be 1ccf b43d
00000360: 8480 34bd 37ae da3d 8b7a 12bd bcaf 73be
00000370: 4a86 49be 545d 68be faec 4bbd 2db8 9abe
00000380: f15b 813e 0f46 d7bd a3aa 81bd 9348 d4be
00000390: a20a 913d 55e3 40be bb96 f33d 67f9 64be
000003a0: 8706 a6be 9df7 193d 0e5c 51bd 134d adbd
000003b0: c952 703e f6f0 9ebe c217 5e3e 54a7 b8be
000003c0: 4246 c2be 0684 833e ee0e 94be 5bcb 623e
000003d0: bb00 8dbe 7cb0 75be c621 bb3d b7a6 873e
000003e0: 7a86 5cbe 7788 a73e ef3b 923e 167e 183e
000003f0: a7a8 7dbc 2393 7bbe 11b4 bb3e f121 4abd

conv1.bias f4 [64]
0.18984474 -0.27860203 -0.292663 -0.0063211434 0.05226814 -0.13940382 -0.02519661 0.009898815
0.049703024 0.35928124 -0.16507424 0.18920992 0.27605635 -0.08709883 -0.06122305 0.16506593
0.01741103 -0.20775111 0.10596255 0.1915059 -0.03279853 -0.084655434 -0.03331152 -0.035976086
0.22503865 -0.028158192 0.26599813 -0.15117918 0.19769788 -0.10067769 -0.3529051 -0.32568225
0.066566 -0.13982612 0.19326589 0.35135052 -0.37434828 0.14384739 -0.16401093 0.23465727
0.17898865 -0.19346802 -0.13747187 0.33367392 -0.16838576 -0.21771166 0.091683865 0.1021353
0.078989424 0.12950331 0.33849663 0.046648152 0.092217304 0.21696338 0.24138078 -0.19765283
-0.26768443 0.26662222 0.40796673 -0.3348256 -0.24003096 -0.10979145 -0.2992037 -0.059477802
00000000: a966 423e eda4 8ebe edd7 95be 9821 cfbb
00000010: 1e17 563d e0bf 0ebe 1f69 cebc a42e 223c
00000020: 6695 4b3d b6f3 b73e 3909 29be 3fc0 413e
00000030: 4257 8d3e df60 b2bd 05c5 7abd 0b07 293e
00000040: 94a1 8e3c b5bc 54be e502 d93d 1f1a 443e
00000050: c057 06bd d45f adbd a971 08bd a95b 13bd
00000060: 8870 663e 02ac e6bc e830 883e b7ce 1abe
00000070: 5071 4a3e 1b30 cebd faaf b4be d3bf a6be
00000080: c153 883d 942e 0fbe 7ee7 453e 37e4 b33e
00000090: 94aa bfbe bb4c 133e 7bf2 27be ff49 703e
000000a0: cd48 373e 7b1c 46be 6dc5 0cbe 4fd7 aa3e
000000b0: 516d 2cbe ceef 5ebe c0c4 bb3d 502c d13d
000000c0: 35c5 a13d 849c 043e 6e4f ad3e 2212 3f3d
000000d0: 6ddc bc3d a62b 5e3e 862c 773e 8165 4abe
000000e0: ef0d 89be b582 883e 04e1 d03e 436e abbe
000000f0: adca 75be 57da e0bd 3a31 99be ff9e 73bd

conv2.weight f4 [128, 64, 3]
-0.051654488 -0.001039221 -0.004786981 0.0073879613 0.042211182 -0.06647296 0.037984166 0.075830825
-0.007910977 -0.016928336 0.012069844 -0.042745907 -0.054676082 -0.021404147 0.05969314 0.02208482
-0.056021232 0.060498707 -0.03337205 -0.05691871 0.0030580729 -0.033017617 0.013503059 -0.053007264
-0.016397776 0.039686013 0.043069944 0.01749748 0.014700618 -0.0016760024 0.049891997 -0.062673405
-0.018521318 0.0018894066 0.060813025 0.021486007 -0.06343404 -0.03010272 0.030362595 0.029190773
0.039394304 -0.026117941 0.05113595 0.02329804 0.015363755 0.044061206 -0.0031348737 0.017880453
0.08746834 0.08338477 0.042848483 0.058613848 -0.0060052415 -0.069789894 0.060072042 0.018198784
-0.03426638 0.068714395 -0.025418933 0.031189179 -0.020331636 -0.026520042 -0.0033944424 0.041669063
-0.056856573 -0.027054109 0.0027138426 0.018451942 0.014596045 0.03315061 -0.04849411 -0.017695758
-0.008446315 0.075351015 0.035773184 -0.06689693 -0.052560702 -0.03034031 -0.010280877 -0.019497003
0.035894286 0.021616662 0.070481814 0.018188981 0.014320373 0.014086191 -0.066751905 0.06484061
-0.047137067 -0.010964521 -0.010073029 0.0024531474 0.045569196 -0.036616985 0.015042078 -0.032706182
0.014374097 -0.042598207 0.00120688 -0.007475416 0.018033937 0.04373334 0.014174811 -0.020350808
-0.020387748 -0.049117517 -0.056303017 -0.0623286 0.0027091433 0.06700129 0.018761324 0.021306673
0.034788083 -0.04588974 -0.03001496 -0.04176467 -0.0570546 0.022171786 -0.023348983 -0.027153373
-0.0063812085 -0.04788661 -0.062314037 0.044684105 0.068453975 0.03483079 0.030565085 -0.025484167
0.068615116 -0.016774403 0.05317914 -0.05861516 0.062054127 0.027877554 -0.017680265 -0.045920044
0.037988804 0.0076486263 -0.030112782 -0.030939974 -0.038383655 0.002095303 0.026583716 0.010476818
0.052989557 -0.071660005 0.014341832 0.03846018 -0.058870617 0.00013608403 0.020417554 0.06676873
-0.061919384 -0.073634796 -0.0055108415 0.00086320593 -0.046837572 0.03563059 0.034987055 0.0029651527
0.04529692 -0.050558995 -0.014271986 -0.016702387 -0.056066617 0.045416586 -0.007039254 0.05063033
-0.040568903 -0.022500172 -0.016246386 -0.06213514 -0.021559902 0.02001954 0.020353142 -0.047207315
0.040116925 5.7188667e-05 0.06827658 -0.050617404 -0.04469498 0.039974973 -0.014671011 0.0025898346
-0.0289707 -0.053843446 -0.06908704 -0.041215483 0.02822594 0.021383401 0.032458473 0.016977033
-0.059930775 -0.008092567 -0.040424697 -0.00291724 0.067380734 0.009260625 0.052808393 0.061237596
0.03392592 0.024868337 -0.068107106 -0.0044259857 -0.029550532 -0.06466608 -0.0449619 -0.021154838
0.010144805 -0.015842909 -0.049130872 -0.057960466 -0.033024684 -0.01819554 -0.07846102 -0.0777932
-0.11398313 0.028738156 -0.0064777485 0.05683463 -0.0041315197 0.009744319 0.012704033 -0.044730105
-0.045017682 -0.03875571 0.07796176 0.06761659 -0.018641306 -0.008034209 0.007028259 -0.005161337
0.018452324 -0.0026143154 0.034586612 0.011560499 0.0073798173 -0.022861218 -0.005823321 0.0233047
-0.021695226 -0.053930897 -0.07606022 0.0081654815 0.025127348 0.060226563 -0.04529637 0.020430915
0.02653885 -0.02369735 0.00270313 0.051189113 -0.018512886 0.044620134 0.004301485 -0.06485112
00000000: a893 53bd 7836 88ba 1bdc 9cbb b616 f23b
00000010: a2e5 2c3d fa22 88bd 4995 1b3d 314d 9b3d
00000020: 0b9d 01bc 4bad 8abc 98c0 453c 5516 2fbd
00000030: 07f4 5fbd c057 afbc cb80 743d 39eb b43c
00000040: 8576 65bd 7ecd 773d 21b1 08bd 9823 69bd
00000050: f369 483b 7b3d 07bd ef3b 5d3c 251e 59bd
00000060: a154 86bc cd8d 223d 1c6a 303d e056 8f3c
00000070: dcda 703c 4fad dbba 8d5b 4c3d ea5a 80bd
00000080: 05ba 97bc f7a5 f73a 1417 793d 6c03 b03c
00000090: b5e9 81bd fb99 f6bc faba f83c 7d21 ef3c
000000a0: ec5b 213d 4bf5 d5bc ee73 513d 88db be3c
000000b0: 42b8 7b3c 8679 343d 7472 4dbb 077a 923c
000000c0: 9a22 b33d a2c5 aa3d e481 2f3d 1315 703d
000000d0: 9ec7 c4bb 01ee 8ebd 1a0e 763d 9e15 953c
000000e0: e75a 0cbd 22ba 8c3d 5e3b d0bc 7380 ff3c
000000f0: 888e a6bc 8f40 d9bc 4b75 5ebb 2ead 2a3d
00000100: 70e2 68bd 94a0 ddbc b9da 313b 8728 973c
00000110: 4024 6f3c efc8 073d c3a1 46bd b2f6 90bc
00000120: 6a62 0abc a251 9a3d e786 123d 4201 89bd
00000130: e449 57bd 3e8c f8bc 2071 28bc 2eb8 9fbc
00000140: e305 133d 6d15 b13c c558 903d 0f01 953c
00000150: ff9f 6a3c c4c9 663c 39b5 88bd 27cb 843d
00000160: cc12 41bd 89a4 33bc 5909 25bc fcc4 203b
00000170: c4a6 3a3d b1fb 15bd 0c73 763c ebf6 05bd
00000180: 5581 6b3c 757b 2ebd 2c30 9e3a 56f4 f4bb
00000190: e8bb 933c bb21 333d 773d 683c bdb6 a6bc
000001a0: 3504 a7bc 732f 49bd fe9d 66bd 464c 7fbd
000001b0: e28b 313b f937 893d 59b1 993c 558b ae3c
000001c0: f37d 0e3d e1f6 3bbd efe1 f5bc 6e11 2bbd
000001d0: 16b2 69bd 9ba1 b53c 5e46 bfbc c070 debc
000001e0: 7519 d1bb c024 44bd 013d 7fbd ae06 373d
000001f0: 9931 8c3d bbaa 0e3d a163 fa3c 2cc4 d0bc
00000200: 1586 8c3d 796a 89bc 5fd2 593d 7316 70bd
00000210: 782c 7e3d 785f e43c 34d6 90bc a816 3cbd
00000220: 269a 1b3d 54a1 fa3b 15af f6bc d475 fdbc
00000230: 2e38 1dbd 5a51 093b 18c6 d93c f6a6 2b3c
00000240: 940b 593d 7bc2 92bd 01fa 6a3c 6c88 1d3d
00000250: 5122 71bd c7b1 0e39 b742 a73c 0bbe 883d
00000260: 2e9f 7dbd d7cd 96bd 4a94 b4bb c548 623a
00000270: c1d8 3fbd 62f1 113d 964e 0f3d 0253 423b
00000280: 4389 393d f316 4fbd 0cd5 69bc 72d3 88bc
00000290: 1ca6 65bd be06 3a3d 8ba9 e6bb c061 4f3d
000002a0: 942b 26bd 4852 b8bc 2417 85bc 6b81 7ebd
000002b0: 649e b0bc 0500 a43c a2bb a63c 755c 41bd
000002c0: a551 243d dddd 6f38 97d4 8b3d 3254 4fbd
000002d0: 1512 37bd ccbc 233d ae5e 70bc 37ba 293b
000002e0: f653 edbc f28a 5cbd 827d 8dbd 91d1 28bd
000002f0: 163a e73c 3e2c af3c 2df3 043d 6b13 8b3c
00000300: f979 75bd b096 04bc 5e94 25bd 2a2f 3fbb
00000310: e9fe 893d e0b9 173c 9d4d 583d 46d4 7a3d
00000320: e8f5 0a3d afb8 cb3c bd7b 8bbd dc07 91bb
00000330: f513 f2bc a66f 84bd f829 38bd e94c adbc
00000340: 6536 263c fdc8 81bc 743d 49bd f467 6dbd
00000350: e444 07bd d00e 95bc 2cb0 a0bd 0b52 9fbd
00000360: fd6f e9bd 486c eb3c 4b43 d4bb 6ecb 683d
00000370: b361 87bb a3a6 1f3c 9424 503c ea36 37bd
00000380: 7664 38bd 4fbe 1ebd 6aaa 9f3d 917a 8a3d
00000390: a7b5 98bc eaa1 03bc 4f4d e63b 6f20 a9bb
000003a0: 5429 973c ef54 2bbb b1aa 0d3d 3f68 3d3c
000003b0: 65d2 f13b 7347 bbbc 8fd1 bebb 80e9 be3c
000003c0: 30ba b1bc a5e6 5cbd 76c5 9bbd 83c8 053c
000003d0: ded7 cd3c 21b0 763d b088 39bd bc5e a73c
000003e0: 0168 d93c f220 c2bc ff26 313b adab 513d
000003f0: 56a8 97bc 9ac3 363d 79f3 8c3b aad0 84bd

conv2.bias f4 [128]
-0.036690526 -0.009256846 0.060250226 0.070942275 -0.023172986 0.052144777 0.063886456 -0.027753733
-0.012719519 0.0032852977 0.069371745 -0.026560348 0.02936722 0.028958064 -0.038907234 -0.0069180024
-0.052475195 -0.0016474427 0.06334758 0.0062950174 -0.06438722 0.048090518 -0.0037115624 -0.013807963
0.06187389 -0.010532764 -0.020239891 0.04664197 0.0001348216 -0.0125611825 0.017675728 0.014646393
-0.06447298 -0.035103735 0.009145695 0.05892992 -0.042101685 0.066198274 -0.009318887 -0.050181754
0.017394675 -0.033378817 0.0479961 0.017223515 0.040629152 -0.00024561223 -0.05668367 -0.016809454
-0.051300514 -0.0525225 0.037478805 0.016579602 -0.045731526 0.015212337 0.045295965 0.052358452
-0.040381756 -0.06693672 -0.05358822 0.063040376 0.026191883 0.053378817 0.0060807425 0.027335081
-0.0041347113 -0.016637076 -0.053511083 0.0422188 -0.027627474 0.011088926 -0.069026664 0.037006773
-0.0036963124 -0.002865771 -0.036726616 0.03916019 -0.03948896 -0.020360433 -0.061728828 0.00093128666
-0.028768595 -0.05389368 -0.05853958 -0.045478605 -0.04676757 0.044448506 -0.05098804 -0.034942485
-0.06724591 -0.016041044 -0.027936243 0.010012056 -0.018330283 -0.035310246 0.030828469 -0.04316476
0.0059267255 0.06806392 -0.026161626 0.06854219 -0.06998775 0.05461725 0.050376475 0.06473205
-0.047218006 0.028623385 -0.01523782 -0.06652987 -0.0076853298 -0.027419856 -0.03773462 0.041447204
-0.020480705 0.019930229 -0.040318213 0.06824486 -0.020815589 -0.05054003 -0.05710804 0.04329014
-0.032033913 0.014674031 0.013768897 -0.010281419 0.02962279 -0.067627534 -0.049396895 0.038484205
00000000: ce48 16bd 07aa 17bc f1c8 763d 2f4a 913d
00000010: 46d5 bdbc c395 553d e7d6 823d cc5b e3bc
00000020: 8865 50bc 264e 573b c612 8e3d 1695 d9bc
00000030: 8693 f03c 7639 ed3c 315d 1fbd 69b0 e2bb
00000040: 3bf0 56bd 01ef d7ba 60bc 813d 6f46 ce3b
00000050: 72dd 83bd 90fa 443d af3d 73bb cb3a 62bc
00000060: 7a6f 7d3d 9d91 2cbc 21ce a5bc a60b 3f3d
00000070: e65e 0d39 6bcd 4dbc b0cc 903c 6df7 6f3c
00000080: 690a 84bd efc8 0fbd d3d7 153c 8060 713d
00000090: d172 2cbd f692 873d 3fae 18bc 628b 4dbd
000000a0: 477f 8e3c 3ab8 08bd 8f97 443d 5418 8d3c
000000b0: c16a 263d 84c5 80b9 232d 68bd fbb3 89bc
000000c0: 7d20 52bd d521 57bd 6083 193d f2d1 873c
000000d0: fb50 3bbd 2a3d 793c 4388 393d d175 563d
000000e0: 5767 25bd 1e16 89bd 527f 5bbd 501b 813d
000000f0: 5c90 d63c bfa3 5a3d f740 c73b d2ed df3c
00000100: 797c 87bb 7a4a 88bc 702e 5bbd 9fed 2c3d
00000110: 0353 e2bc 54ae 353c da5d 8dbd 6a94 173d
00000120: d53d 72bb a9cf 3bbb a66e 16bd 6f66 203d
00000130: 2dbf 21bd ecca a6bc 5ed7 7cbd 9721 743a
00000140: 1eac ebbc 9fbf 5cbd 33c7 6fbd c647 3abd
00000150: 5a8f 3fbd a30f 363d d6d8 50bd da1f 0fbd
00000160: 39b8 89bd 8268 83bc 8cda e4bc 9b09 243c
00000170: 6429 96bc 7aa1 10bd fc8b fc3c 88cd 30bd
00000180: fa34 c23b 1965 8b3d e850 d6bc d95f 8c3d
00000190: bd55 8fbd 56b6 5f3d 9057 4e3d 3d92 843d
000001a0: ab67 41bd 977b ea3c 0da8 79bc d040 88bd
000001b0: 38d5 fbbb 9b9f e0bc 9e8f 1abd 8bc4 293d
000001c0: 27c7 a7bc b844 a33c b624 25bd f6c3 8b3d
000001d0: 7485 aabc 1003 4fbd 1fea 69bd 0051 313d
000001e0: fe35 03bd 596b 703c f196 613c 6673 28bc
000001f0: 7eab f23c 4e80 8abd 6654 4abd 9da1 1d3d

dense1.weight f4 [50, 768]
0.01873422 -0.009389693 -0.02565477 0.0060698977 0.0050239777 -0.01378288 0.036231264 0.043660987
-0.012914448 -0.03441745 -0.022950677 -0.0015699195 0.02685922 -0.029626822 -0.017149735 0.0039369473
-0.009642307 -0.03219261 0.0064976853 0.012865951 0.00474086 0.030452166 0.0003308859 0.01266792
0.018829886 0.036461342 0.0041291434 -0.019624751 -0.018204762 -0.09354102 0.017934812 -0.02969732
-0.01882719 -0.022265851 0.0309671 0.02793587 -0.012743392 0.03149292 0.02999857 0.008732089
-0.02295971 -0.005216137 0.042565413 -0.0073124277 -0.033579003 0.022370568 0.023647074 0.03143219
-0.031055309 -0.019211 0.006165839 -0.03175708 -0.0071716094 0.019993743 -0.0064230044 -0.022176227
-0.021281699 0.031720087 -0.015861707 -0.019304806 0.019818963 -0.010227026 0.009624136 0.025078883
-0.0023818887 0.03222475 0.0015997568 0.010571789 0.0022900503 0.03556332 -0.0026670157 -0.019820694
-0.044949714 -0.024813369 -0.011217755 0.014089899 0.00437549 -0.019500881 -0.00577768 0.004509888
0.023151807 0.0069576805 0.019387314 -0.005320809 0.02248033 -0.012850843 0.03422507 -0.001483999
-0.0039781956 -0.0024728402 0.04348148 -0.0062699188 -0.015647557 0.032534808 0.006445579 0.002409028
0.0046441965 0.02838624 0.009999078 -0.022141367 -0.040401474 -0.0066516516 0.027706433 0.012815096
0.00021013287 0.00016629805 -0.008623628 -0.024789805 0.006141496 -0.016373053 -0.021208318 -0.0008648011
0.019025022 0.0018297648 0.040089466 -0.013277476 -0.02090254 0.022276774 0.01809464 0.012396932
0.00659458 0.02469487 0.014579916 -0.009514169 -0.0408304 -0.006369564 -0.06567073 0.024262173
-0.006943488 0.022619415 0.043494668 -0.028151236 -0.012395675 -0.033914376 0.01725258 -0.016032076
-0.017832836 -0.034814946 0.057113606 0.027039059 0.03414224 -0.002320587 0.011016146 0.03400628
0.047693804 0.022917444 0.0214205 0.020197554 -0.023690043 0.0019651875 -0.036771197 -0.014848215
-0.023336964 -0.014350401 0.029830173 -0.002936812 -0.015500549 -0.019404707 -0.0144152315 -0.0010772991
-0.014319063 0.060590833 -0.010229931 0.013378093 -0.009217496 -0.026734892 -0.018270118 -0.02267917
0.018212864 0.03621099 -0.017522344 0.039449822 0.0049014967 0.03741248 0.060922243 0.032040853
-0.016023258 0.014053634 0.01772023 0.02148094 0.014860201 0.029072331 0.028802581 0.009199198
-0.017017549 0.027586468 0.023932386 -0.009199972 -0.0062798597 -0.016069539 0.008100074 0.031691898
-0.005576342 0.021115027 -0.015305276 -0.03221889 0.0136297615 -0.0015016113 0.025920263 -0.015054065
-0.021073682 0.0073547945 -0.00074416265 -0.0119331665 -0.025826879 0.01707754 0.0063090827 0.008645186
0.011727059 0.04443592 0.048986338 -0.0012501893 -0.004337779 0.026307723 0.010757985 0.0027590878
-0.0039363354 -0.027010523 -0.008577635 -0.019969977 -0.009870374 -0.00065627584 0.07699713 0.04121279
0.030838447 0.0011922721 0.02112583 0.039655853 0.03595861 0.009968882 0.018298885 -0.007648947
0.01562611 0.0134123145 0.01981249 0.0054676207 0.021619128 0.010192506 0.012515315 -0.019461166
0.04866265 -0.013273068 0.0022866423 0.04131949 0.009380552 0.016679473 -0.0015001297 0.011144155
-0.01729903 0.005808424 -0.027657192 0.011653092 -0.0016958422 0.019571796 0.026362767 0.005005583
00000000: 8278 993c 3ad7 19bc f429 d2bc fee5 c63b
00000010: 2ea0 a43b 97d1 61bc 3c67 143d ddd5 323d
00000020: 1f97 53bc 50f9 0cbd 0f03 bcbc c2c5 cdba
00000030: de07 dc3c f3b3 f2bc 9a7d 8cbc 8201 813b
00000040: c4fa 1dbc 66dc 03bd 89ea d43b b6cb 523c
00000050: 3759 9b3b d276 f93c c17a ad39 1c8d 4f3c
00000060: 2241 9a3c 7d58 153d c44d 873b 16c4 a0bc
00000070: 2722 95bc 6f92 bfbd 07ec 923c cb47 f3bc
00000080: 7b3b 9abc e066 b6bc b7ae fd3c c4d9 e43c
00000090: a9c9 50bc b8fe 003d 90bf f53c 0911 0f3c
000000a0: 0016 bcbc 21ec aabb 1259 2e3d 179d efbb
000000b0: 238a 09bd 7b42 b73c 82b7 c13c 0abf 003d
000000c0: b467 febc 6360 9dbc ce0a ca3b b613 02bd
000000d0: d2ff eabb ebc9 a33c 1178 d2bb ebaa b5bc
000000e0: f556 aebc ecec 013d 69f0 81bc 1d25 9ebc
000000f0: 615b a23c 428f 27bc 8dae 1d3c 3b72 cd3c
00000100: 7619 1cbb 19fe 033d eeae d13a 4c35 2d3c
00000110: ab14 163b d8aa 113d 19c9 2ebb 025f a2bc
00000120: 311d 38bd 6845 cbbc adca 37bc 52d9 663c
00000130: 4560 8f3b 50c0 9fbc b152 bdbb afc7 933b
00000140: dca8 bd3c 41fd e33b 25d2 9e3c 2e5a aebb
00000150: ab28 b83c 588c 52bc 962f 0c3d be82 c2ba
00000160: 865b 82bb 600f 22bb a319 323d e473 cdbb
00000170: 4e2f 80bc 3843 053d 7035 d33b c8e0 1d3b
00000180: 582e 983b 438a e83c 2cd3 233c d061 b5bc
00000190: 047c 25bd 19f6 d9bb 9af8 e23c 69f6 513c
000001a0: 1d57 5c39 4b60 2e39 1e4a 0dbc fd13 cbbc
000001b0: 9a3e c93b c820 86bc 11bd adbc d2b3 62ba
000001c0: 5dda 9b3c b8d4 ef3a da34 243d c589 59bc
000001d0: ce3b abbc c87d b63c 363b 943c 801c 4b3c
000001e0: 5917 d83b e54c ca3c 9ae0 6e3c 51e1 1bbc
000001f0: c73d 27bd c7b7 d0bb 607e 86bd 77c1 c63c
00000200: 3386 e3bb 5a4c b93c 7727 323d 6c9d e6bc
00000210: 3b17 4bbc cde9 0abd 4855 8d3c b355 83bc
00000220: 2b16 92bc 1e9a 0ebd f5ef 693d 0481 dd3c
00000230: bcd8 0b3d fd14 18bb 117d 343c 2b4a 0b3d
00000240: 945a 433d 5dbd bb3c 0b7a af3c 5775 a53c
00000250: 9f11 c2bc 60ca 003b 659d 16bd ed45 73bc
00000260: 292d bfbc f21d 6bbc 685e f43c 8777 40bb
00000270: 04f6 7dbc 9ff6 9ebc dd2d 6cbc 2934 8dba
00000280: 819a 6abc 182e 783d 719b 27bc ca2f 5b3c
00000290: fb04 17bc 2203 dbbc 37ab 95bc abc9 b9bc
000002a0: 2533 953c fa51 143d 058b 8fbc 2396 213d
000002b0: bc9c a03b d43d 193d 9a89 793d 453d 033d
000002c0: 3543 83bc 3741 663c 042a 913c ccf8 af3c
000002d0: 3378 733c 1929 ee3c 64f3 eb3c 3cb8 163c
000002e0: 6368 8bbc 04fd e13c da0d c43c 7bbb 16bc
000002f0: 48c7 cdbb 44a4 83bc 2cb6 043c 5dcf 013d
00000300: bfb9 b6bb 6cf9 ac3c fbc2 7abc f4f7 03bd
00000310: 5d4f 5f3c b7d1 c4ba bb56 d43c 53a5 76bc
00000320: b7a2 acbc 7d00 f13b e913 43ba 5483 43bc
00000330: e492 d3bc 32e6 8b3c 6cbc ce3b 8aa4 0d3c
00000340: da22 403c 7002 363d e6a5 483d 64dd a3ba
00000350: ed23 8ebb 4b83 d73c 4242 303c d0d1 343b
00000360: 60fc 80bb 2c45 ddbc 3589 0cbc 1498 a3bc
00000370: 59b7 21bc ed09 2cba acb0 9d3d bece 283d
00000380: e9a0 fc3c 0346 9c3a 1410 ad3c 2d6e 223d
00000390: 5649 133d 8654 233c 8be7 953c 05a4 fabb
000003a0: 5402 803c 53bf 5b3c ce4d a23c ba29 b33b
000003b0: 991a b13c 78fe 263c 090d 4d3c 066d 9fbc
000003c0: 7d52 473d 4877 59bc 7edb 153b a03e 293d
000003d0: e3b0 193c 64a3 883c 00a0 c4ba f995 363c
000003e0: b2b6 8dbc 9854 be3b 5691 e2bc 9cec 3e3c
000003f0: 0647 deba 0855 a03c bbf6 d73c e005 a43b

dense1.bias f4 [50]
-0.022272544 0.016317029 0.036616147 -0.017615579 -0.008347728 0.04176459 0.033728573 0.034305245
0.013116736 -0.014899845 0.029054051 0.019095704 0.0021240541 -0.011147044 -0.009145504 0.031816877
0.034710616 0.039443105 0.004063448 0.012419513 0.015799161 0.030438794 0.013658073 -0.019095637
-0.023238476 -0.009239864 0.010320672 0.0435707 0.016044062 0.014935983 -0.0022547524 0.0150927855
0.04134107 0.02214614 -0.0031595172 0.02266559 -0.010112296 -0.015334365 -0.0074145785 0.0078034787
-0.020053789 0.018551886 -0.0018349978 0.024167132 0.02933348 -0.017023167 0.005912393 0.008762542
0.025675304 -0.004454707
00000000: e974 b6bc 4aab 853c d0fa 153d 8c4e 90bc
00000010: e9c4 08bc 5911 2b3d f926 0a3d a883 0c3d
00000020: 94e7 563c 7b1e 74bc c302 ee3c 986e 9c3c
00000030: b733 0b3b 17a2 36bc 06d7 15bc 6a52 023d
00000040: b82c 0e3d 188f 213d ac26 853b 377b 4b3c
00000050: 3e6d 813c c75a f93c 1cc6 5f3c 746e 9cbc
00000060: 9e5e bebc cc62 17bc 0918 293c 3177 323d
00000070: d66e 833c 0eb6 743c 78c4 13bb bb47 773c
00000080: 4155 293d d26b b53c e70f 4fbb 30ad b93c
00000090: 0bae 25bc fd3c 7bbc fef5 f2bb 53b4 ff3b
000000a0: d847 a4bc 20fa 973c 4f84 f0ba 26fa c53c
000000b0: c44c f03c 2b74 8bbc bfbc c13b c490 0f3c
000000c0: 0455 d23c caf8 91bb

dense2.weight f4 [1, 50]
0.11202085 0.10330828 0.061681803 -0.045778565 0.041189067 -0.11901583 -0.017542558 0.14027461
-0.14243682 0.099181175 -0.1150883 0.019643886 0.08549517 -0.08789686 0.062208623 -0.046398263
-0.11759448 0.032720834 -0.10298472 -0.040853985 0.052684326 0.015975213 0.14148436 -0.11982364
-0.018480197 0.14155017 -0.10715189 -0.019857448 -0.11078508 -0.14059035 -0.06695365 0.044005726
0.05878085 -0.082019 0.06362659 0.071173206 0.028015533 -0.07901804 0.07800429 0.039449364
-0.13189454 0.108747765 0.06843831 -0.07997812 -0.08151407 -0.030297488 0.12464709 -0.08221823
-0.08501755 -0.09054271
00000000: 306b e53d 4b93 d33d 0fa6 7c3d 4e82 3bbd
00000010: deb5 283d 92be f3bd 69b5 8fbc 26a4 0f3e
00000020: f5da 11be 801f cb3d 6ab3 ebbd 37ec a03c
00000030: 1718 af3d 4503 b4bd 78ce 7e3d 1b0c 3ebd
00000040: 60d5 f0bd 4806 063d a7e9 d2bd 8256 27bd
00000050: 85cb 573d 73de 823c 47e1 103e 1966 f5bd
00000060: c863 97bc 87f2 103e 7372 dbbd 16ac a2bc
00000070: 4ae3 e2bd ebf6 0fbe ff1e 89bd 593f 343d
00000080: 30c4 703d 94f9 a7bd a84e 823d 42c3 913d
00000090: d580 e53c 36d4 a1bd b7c0 9f3d a895 213d
000000a0: 5d0f 07be 26b7 de3d 6229 8c3d 92cb a3bd
000000b0: d9f0 a6bd 7032 f8bc f946 ff3d 0862 a8bd
000000c0: ae1d aebd 756e b9bd
