time_series_forecasting/saved_models/CNNForecastingModel/17-03-2024-164057_NO1_epoch_1.pt (torch, 257707 bytes, 7 tensors)

conv1.weight f4 [64, 2, 3]
0	0xbeac3649	-0.33635166
1	0xbdd58899	-0.104264446
2	0x3e2dca22	0.16971639
3	0xbdd3143a	-0.10306592
4	0x3cc451c5	0.023964772
5	0x3eac98da	0.33710366
6	0xbe125f62	-0.14294198
7	0x3e983057	0.2972438
8	0xbd6b0443	-0.05737711
9	0x3e344e89	0.17608084
10	0x3bdcf797	0.006743382
11	0x3eb3bb4c	0.35103834
12	0xbec0b50a	-0.37638122
13	0xbec04eed	-0.37560216
14	0xbc82d662	-0.015971366
15	0xbec2908b	-0.38000903
16	0x3d8d9da7	0.069148354
17	0x3ec984b9	0.39359072
18	0xbe9330a8	-0.2874806
19	0xbd7ea429	-0.062168274
20	0x3ec66fa5	0.38757053
21	0xbd4c31c8	-0.049852163
22	0x3ca3dba9	0.020002203
23	0xbe35a1da	-0.17737523
24	0x3d873552	0.06601967
25	0x3ea0797d	0.31342688
26	0x3e5ed5fa	0.21761313
27	0x3ead9efc	0.33910358
28	0xbe8fe968	-0.28107762
29	0xbdf2f3a2	-0.118628755
30	0x3eaa8071	0.33301118
31	0x3d7aa978	0.061196774
32	0x3eb0e1ab	0.3454717
33	0xbea22814	-0.31671202
34	0x3e3e77fb	0.18600456
35	0x3d2338c2	0.03984905
36	0x3e16ab7d	0.14713855
37	0xbe5cbcfb	-0.21556465
38	0x3e11742e	0.14204475
39	0x3da441ff	0.080204
40	0xbcea6eff	-0.02861738
41	0xbe995d78	-0.29954123
42	0x3e9881cc	0.29786527
43	0x3e86903b	0.26281914
44	0xbe86c315	-0.2632071
45	0x3e77907a	0.24176207
46	0xbec38592	-0.38187844
47	0x3e1133b5	0.14179881
48	0xbd2ce4db	-0.04221044
49	0xbeaf2acd	-0.34212342
50	0x3ca1bcfd	0.019743437
51	0x3ebd22b5	0.36940542
52	0xbe0c60de	-0.13708827
53	0xbe6b2204	-0.22962195
54	0xbe0f03d6	-0.13966307
55	0xbe7a19ba	-0.24423876
56	0x3e555b18	0.20835531
57	0xbea8d637	-0.32975933
58	0x3e48b045	0.19598491
59	0xbd6ad6b8	-0.057333678
60	0x3e97107f	0.29504773
61	0xbe0f4ee0	-0.13994932
62	0x3e4bd31b	0.19904749
63	0x3d6a8c34	0.057262614
64	0x3e0eb74b	0.13937108
65	0x3d71f3bf	0.059070345
66	0x3cc92e18	0.024558112
67	0x3d8cc08e	0.068726644
68	0xbd1bd269	-0.03804246
69	0x3e7d14a8	0.24714911
70	0xbe879de8	-0.2648766
71	0xbe76b832	-0.24093702
72	0xbdb567db	-0.088576995
73	0x3ec75e08	0.38938928
74	0xbe910e87	-0.28331396
75	0x3e812bdc	0.25228775
76	0x3ea79187	0.32728216
77	0xbea43df1	-0.32078508
78	0xbe5d1bea	-0.2159268
79	0x3e1278b1	0.14303853
80	0x3cbab4f6	0.022791367
81	0x3e098559	0.13429774
82	0x3db75620	0.08951974
83	0x3eabedad	0.3357977
84	0x3e27cc1d	0.16386457
85	0x3e4f754d	0.2025959
86	0xbe585d67	-0.2112938
87	0x3e1307ab	0.14358394
88	0x3e5c9fa5	0.21545275
89	0x3eb8bc4b	0.36081156
90	0xbeb22dba	-0.34800512
91	0x3e46ef51	0.1942723
92	0x3e46c63e	0.19411561
93	0xbe9b41be	-0.30323595
94	0xbeb13869	-0.3461335
95	0xbe8b8a83	-0.27254114
96	0xbdfdcde3	-0.123927854
97	0x3e3b6833	0.18301468
98	0x3e8ad3e3	0.27114782
99	0xbe46a22f	-0.19397806
100	0xbc8c99af	-0.017163126
101	0x3e3011f7	0.17194353
102	0xbea8ab41	-0.32943156
103	0xbe15e296	-0.14637217
104	0xbdbf6493	-0.09345355
105	0x3e84e5b1	0.2595649
106	0x3e6d8097	0.23193584
107	0xbd3881ff	-0.04504585
108	0xbd4f0b08	-0.05054763
109	0xbe8d3669	-0.27580574
110	0xbec4eff2	-0.38464314
111	0x3ea73724	0.32659256
112	0xbe7f2bbd	-0.24919029
113	0x3e510b6c	0.20414513
114	0xbe81eb1f	-0.25374696
115	0xbe3df58c	-0.185507
116	0xbe5ff7ce	-0.21871874
117	0x3e628dfc	0.22124475
118	0x3e591b23	0.21201758
119	0xbd755f2e	-0.059905224
120	0xbeb882a2	-0.36037165
121	0x3e926118	0.28589702
122	0x3e3b7e7c	0.18309969
123	0xbd9b2461	-0.07575298
124	0xbd3adc64	-0.045620337
125	0xbe50f72f	-0.20406793
126	0x3e80c537	0.25150463
127	0x3e133a9a	0.14377823
128	0xbe542eda	-0.20720997
129	0x3e236cec	0.15959519
130	0x3ead0ee8	0.33800435
131	0x3e96db1e	0.29464048
132	0x3db16b25	0.08663014
133	0xbec44d4c	-0.38340223
134	0x3d0682a8	0.032839447
135	0x3e5cd342	0.21564963
136	0xbeb82eb5	-0.35973135
137	0x3e831b58	0.256068
138	0xbe9e989d	-0.3097581
139	0xbea04973	-0.31306037
140	0xbe9567ea	-0.29180843
141	0x3ec8f910	0.3925252
142	0xbe7f40dd	-0.24927087
143	0xbcf11e48	-0.029433385
144	0x3eaf6088	0.34253335
145	0xbdb5e212	-0.0888101
146	0xbd4be1a1	-0.049775723
147	0x3e807173	0.25086555
148	0xbeb03341	-0.34414104
149	0xbe3b5699	-0.18294753
150	0x3d55a311	0.052157465
151	0xbe13e256	-0.14441809
152	0x3e024c53	0.12724428
153	0xbe19b2de	-0.15009639
154	0x3ecadccb	0.39621577
155	0xbd2a8649	-0.04163197
156	0xbe87698a	-0.26447707
157	0xbe655942	-0.2239733
158	0x3dd8a2d2	0.105779305
159	0x3e911f36	0.28344125
160	0x3e805084	0.2506143
161	0xbe626ea1	-0.22112514
162	0x3e5959bd	0.21225639
163	0xbe9c3352	-0.30507904
164	0x3eb8c030	0.36084127
165	0x3d924bf4	0.07143393
166	0x3e9569ff	0.2918243
167	0x3ec84068	0.39111638
168	0xbe6b39ee	-0.22971317
169	0xbebcfe7d	-0.3691291
170	0xbd082c3b	-0.033245306
171	0xbed3f8e0	-0.41400814
172	0xbe1c03a8	-0.1523577
173	0x3e2e5e1d	0.17028089
174	0xbebe9836	-0.37225503
175	0xbeb9dfce	-0.36303562
176	0xbcafac18	-0.021444365
177	0xbebb1266	-0.36537474
178	0x3d850803	0.06495669
179	0x3e97f857	0.29681656
180	0x3e20cbac	0.15702695
181	0xbe047b14	-0.12937576
182	0x3dd9c4ad	0.10633216
183	0xbdf9436f	-0.12171065
184	0xbd2b39af	-0.04180306
185	0x3e969562	0.29410845
186	0x3ea63b19	0.32466963
187	0x3e39bd2e	0.18138573
188	0xbd628457	-0.05530199
189	0x3def7978	0.1169309
190	0xbe642959	-0.22281398
191	0xbea7956a	-0.3273118
192	0x3e9a8691	0.3018079
193	0xbe4357d4	-0.19076473
194	0x3eb7f9cf	0.35932776
195	0xbd495fe2	-0.049163707
196	0xbe0b19cc	-0.1358406
197	0x3eb2e81e	0.34942716
198	0x3e901507	0.28141043
199	0x3e9df272	0.30849034
200	0xbe02fa07	-0.1279069
201	0x3ece52e7	0.40297624
202	0x3e77eb46	0.24210843
203	0x3d84e3c2	0.06488754
204	0xbb12076d	-0.0022282258
205	0x3e3cca75	0.18436606
206	0xbe315783	-0.1731854
207	0xbd2c0c42	-0.042003877
208	0xbe760f4a	-0.2402927
209	0xbe45d56a	-0.19319692
210	0xbdff9489	-0.12479503
211	0x3d4ab26b	0.04948656
212	0xbe4efadf	-0.20212887
213	0x3eb471d8	0.35243106
214	0xbe82886b	-0.25494704
215	0x3e72b290	0.23700929
216	0x3ccef63e	0.025263902
217	0xbea6e0dd	-0.32593432
218	0xbe026ee3	-0.12737612
219	0xbd143f3c	-0.036193117
220	0xbdd15706	-0.102216765
221	0x3c6a4915	0.014299651
222	0x3e31857a	0.17336074
223	0xbe0f76d0	-0.14010167
224	0xbeb3c4a2	-0.35110956
225	0x3de7ec15	0.11324326
226	0x3e6dfd2b	0.23241107
227	0x3d8e116b	0.06936916
228	0xbeb0168f	-0.3439221
229	0x3da3524f	0.079746835
230	0xbec4ebc6	-0.3846113
231	0x3e98bc1a	0.2983101
232	0xbe3824d0	-0.17982793
233	0x3e7118e3	0.2354465
234	0xbe286ea7	-0.1644846
235	0x3e859791	0.26092198
236	0xbcb1011e	-0.021606978
237	0x3ea0c32d	0.31398907
238	0xbdce32fb	-0.100683175
239	0x3e159afe	0.14609906
240	0x3ecd2bf5	0.400726
241	0x3ea1b773	0.31585273
242	0xbc06e466	-0.008233165
243	0x3d83c26a	0.06433566
244	0x3df5439c	0.11975786
245	0x3dd11407	0.10208898
246	0x3e0e722b	0.13910739
247	0xbea640b1	-0.3247123
248	0x3e8879a6	0.2665531
249	0x3e460846	0.19339094
250	0xba739f5e	-0.0009293462
251	0x3e146950	0.14493299
252	0xbe7739b8	-0.24143112
253	0x3e2d0544	0.1689654
254	0xbeb0a6f7	-0.34502384
255	0x3ec8b1db	0.39198193

conv1.bias f4 [64]
0	0x3ec2e429	0.38064697
1	0x3e04618d	0.12927838
2	0x3e9ad17e	0.30237955
3	0x3e944a69	0.2896302
4	0x3e43b01a	0.19110146
5	0xbe6680b7	-0.22510038
6	0xbcdc630c	-0.026902698
7	0xbe2aeb3d	-0.16691299
8	0x3cb55ef4	0.022140004
9	0x3ebf3a31	0.37349084
10	0x3e90a647	0.2825186
11	0xbe24279b	-0.16030733
12	0xbe8171bc	-0.25282085
13	0x3c09fc1a	0.008421922
14	0x3eacbbde	0.3373708
15	0x3e444fbb	0.1917104
16	0xbead8d01	-0.3389664
17	0xbe245d3e	-0.16051194
18	0x3eb1a1c8	0.34693742
19	0x3ea4cd21	0.3218775
20	0x3e75995e	0.23984286
21	0x3dd59cbd	0.10430286
22	0x3e88782c	0.26654184
23	0x3e9aba0a	0.30220062
24	0x3dd3107c	0.103058785
25	0xbdcd38c9	-0.100205965
26	0x3e893841	0.2680073
27	0x3e80bc59	0.25143698
28	0x3e732015	0.23742707
29	0xbe04ce94	-0.12969428
30	0x3e31fd70	0.17381835
31	0x3ea21ba0	0.316617
32	0x3c8a96ba	0.016917575
33	0x3e83cf52	0.2574411
34	0xbea8b68b	-0.3295177
35	0xbe4e5f29	-0.20153488
36	0xbe207252	-0.1566861
37	0x3e8998b0	0.26874304
38	0xbe56db9e	-0.20982215
39	0x3e99ec7b	0.30063233
40	0x3daa6ed0	0.08321917
41	0x3e45e11d	0.19324155
42	0xbeaa8dcb	-0.33311304
43	0xbdf48e43	-0.11941197
44	0x3e04af2b	0.12957446
45	0xbd350ccd	-0.04420166
46	0xbecb525c	-0.39711273
47	0x3d333c8a	0.043758906
48	0x3e615985	0.22006805
49	0xbdb7efae	-0.08981262
50	0x3e9a100d	0.3009037
51	0xbeb48a83	-0.35261926
52	0x3ea237fe	0.31683344
53	0x3e377774	0.17916662
54	0xbdda36ad	-0.1065496
55	0xbd1f566b	-0.038900774
56	0x3dfd54ba	0.12369676
57	0x3e1ecebe	0.15508553
58	0xbdd3684d	-0.10322628
59	0xbea433ce	-0.32070774
60	0xbe8eecdd	-0.27915087
61	0x3e79ca06	0.24393472
62	0xbea2afce	-0.31774753
63	0x3e41efd8	0.1893915

conv2.weight f4 [128, 64, 3]
0	0xba9a07c1	-0.0011751578
1	0xbc9d947e	-0.019235846
2	0xbd20ff65	-0.039306063
3	0xbd84ff7f	-0.064940445
4	0x3d8760b4	0.066102415
5	0x3d5bc815	0.05365761
6	0xbc855471	-0.016275616
7	0xbcd7a4c9	-0.026323693
8	0xbba4cfbf	-0.005029648
9	0x3d20fe7c	0.039305195
10	0x3d59f02f	0.053207573
11	0xbd0aa7b7	-0.03385135
12	0xbd5a8901	-0.053353313
13	0x3d444662	0.047918685
14	0xbc33738e	-0.010952843
15	0x3d888f8a	0.06668003
16	0x3d83ba37	0.06432002
17	0xbd7973e4	-0.060901538
18	0xbc67f60a	-0.014157781
19	0xbcaf59d4	-0.021405138
20	0x3d63a1bd	0.055574168
21	0x3d82789b	0.0637066
22	0x3c707230	0.014675662
23	0xbd6add14	-0.057339743
24	0x3db8e58a	0.09028156
25	0xbb3df976	-0.0028987802
26	0xbdb208ce	-0.086930856
27	0x3cb455c5	0.022013554
28	0x3d0512e4	0.03248872
29	0x3d8e98fb	0.069627725
30	0x3d4d6f2a	0.050154842
31	0xb8712f70	-5.7503057e-05
32	0xbd7a8ed0	-0.061171353
33	0x3d6049fb	0.054758053
34	0xbc838a4d	-0.016057158
35	0xbd486333	-0.04892273
36	0xbcbec46d	-0.023287022
37	0x3cb07dfa	0.021544445
38	0xb9b3e21a	-0.0003431
39	0x3c616862	0.013757797
40	0x3ce36fc3	0.027763253
41	0x3b2b8b49	0.002617555
42	0x3cabb579	0.020960556
43	0x3c89328e	0.01674774
44	0xbdb7e390	-0.08978951
45	0x3a95bbf7	0.0011423816
46	0xbd1b56bd	-0.037924517
47	0x3d89083a	0.06691022
48	0xbd5c1486	-0.05373051
49	0x3a9766ac	0.0011550984
50	0xbd891ef7	-0.06695359
51	0x3d491b39	0.049098227
52	0xbd08a15d	-0.033357013
53	0x3ca2f89c	0.019893937
54	0xbd819deb	-0.063289486
55	0xbd70dc72	-0.058803983
56	0xbd97d0cf	-0.07412874
57	0xbceac2ef	-0.028657405
58	0xbcf0c8b4	-0.029392578
59	0x3d0a4d89	0.03376535
60	0x3cb39e93	0.0219262
61	0xbd870cc5	-0.065942325
62	0x3d81abfb	0.06331631
63	0x3d2d5c6b	0.042324465
64	0x3ceb558b	0.028727314
65	0x3bf16a3e	0.0073674014
66	0xbd09bdce	-0.033628277
67	0xbbfca493	-0.0077100485
68	0x3d2a5604	0.041585937
69	0xb893824a	-7.0337745e-05
70	0xbb0d7dbe	-0.002158984
71	0xbda5f8e5	-0.081041135
72	0xbd252c95	-0.04032572
73	0x3c9217bf	0.017833589
74	0xbd213776	-0.039359532
75	0xbd21fb36	-0.039546214
76	0x3ca27560	0.01983136
77	0xbd305255	-0.043047268
78	0xbbcfc37f	-0.0063404436
79	0xbd933778	-0.07188314
80	0x3cd73fba	0.026275504
81	0xba985afe	-0.0011623797
82	0xbc21f6b9	-0.009885483
83	0xbd91fc7b	-0.07128235
84	0x3d3dcda4	0.046338692
85	0x3b1f30e2	0.002429061
86	0xbd4e5d3d	-0.050381888
87	0x3c70f514	0.014706869
88	0x3cee5aaf	0.029095976
89	0xbd1a8e61	-0.03773344
90	0x3cf1f758	0.029536888
91	0xbd610c46	-0.054943345
92	0x3c8537b4	0.016261913
93	0x3c0a6a82	0.008448245
94	0x3d56e933	0.05246849
95	0x3d68604e	0.05673247
96	0xbd06a6c3	-0.03287388
97	0xbc0095d2	-0.00784822
98	0xbc688032	-0.01419072
99	0x3bfef835	0.0077810534
100	0x3d017095	0.031601507
101	0x3d526d00	0.05137348
102	0x3d778ba8	0.06043592
103	0xbd07f7b7	-0.033195224
104	0x3d7b2be0	0.06132114
105	0x3d674767	0.05646458
106	0xbc1c2ebd	-0.009532628
107	0xbd4232c4	-0.047411695
108	0xbbf9a65b	-0.007618708
109	0xb8d7839e	-0.000102765145
110	0x3d30631a	0.04306326
111	0x3c82d8f0	0.015972584
112	0x3d01335f	0.031543132
113	0xbd4729ce	-0.048623852
114	0xb9a024e2	-0.00030545058
115	0xbcde5bad	-0.027143324
116	0x3bb58d20	0.005540505
117	0x3d70ed25	0.05881991
118	0xbd4729d2	-0.048623867
119	0xbd21c8a9	-0.039498005
120	0x3b11789b	0.002219713
121	0xbd18eade	-0.03733336
122	0xbd8f96b2	-0.07011165
123	0xbc96f921	-0.01842934
124	0xbd757b59	-0.059932087
125	0xbcf3bb62	-0.029752437
126	0x3d8ea053	0.06964173
127	0xbd59ef9f	-0.053207036
128	0xbd9b5b4e	-0.07585774
129	0x3d8adfb9	0.06780953
130	0x3cbd0485	0.023073444
131	0xbcb66208	-0.022263542
132	0xbd6b9981	-0.05751944
133	0xbce868c5	-0.02837027
134	0xbcb026f1	-0.021502944
135	0xbcd08a6e	-0.025456633
136	0x3d88d66c	0.06681523
137	0x3d27834c	0.0408967
138	0x3c310f9d	0.010806945
139	0xbcae89f1	-0.02130601
140	0xbd634eee	-0.055495195
141	0xbcb2cc2d	-0.021825874
142	0xbd4be189	-0.049775634
143	0xbd6f3af9	-0.05840585
144	0x3d0f6ba2	0.035014756
145	0xbd9bf816	-0.07615678
146	0xbd7677a2	-0.060172684
147	0x3d90b252	0.07065262
148	0x3d15a61b	0.036535364
149	0xbcc5fa35	-0.02416716
150	0x3d253f99	0.040343855
151	0x3d636bcd	0.05552273
152	0x3d23fcc1	0.040035967
153	0xbb8dcf9c	-0.0043277275
154	0x3d2761af	0.040864643
155	0xbd6d20ab	-0.057892483
156	0x3c63c1d4	0.013901193
157	0x3bdebbfe	0.0067973128
158	0xbd025ae6	-0.03182497
159	0xbc908d86	-0.017645609
160	0x3bdd8cbd	0.006761162
161	0x3d79d459	0.060993526
162	0xbcf51c2d	-0.029920662
163	0xb8b04d03	-8.4066785e-05
164	0x3d33d5b7	0.043904986
165	0xbce16254	-0.027512707
166	0xbd6b5881	-0.05745745
167	0xbc73343b	-0.014843996
168	0xbd2de9ff	-0.042459484
169	0x3d535c00	0.05160141
170	0xbd7c1aa7	-0.061548855
171	0x3d441318	0.04786977
172	0x3d8cd702	0.06876947
173	0xbba6e761	-0.0050935005
174	0x3c78b379	0.015179508
175	0x3d95f638	0.07322353
176	0x3d904e3c	0.07046172
177	0xbd2efc3c	-0.04272102
178	0x3c2f8b02	0.010714294
179	0x3cc1569e	0.023600873
180	0x3dd7e409	0.10541541
181	0x3d0f39ee	0.034967355
182	0x3cd851c4	0.026406176
183	0x3bd4e9be	0.006497591
184	0xbd04512f	-0.032303985
185	0x3d0c3ba5	0.03423657
186	0xbccb81f9	-0.02484225
187	0x3c783ae4	0.015150759
188	0x3d185bc9	0.03719691
189	0x3d8eb6c7	0.06968456
190	0x3d0b891e	0.034066312
191	0xbd39377a	-0.045218922
192	0x3d470e61	0.048597697
193	0xbd93381b	-0.07188436
194	0x3b64ff33	0.003494215
195	0xbd2200a9	-0.03955141
196	0xbd9bf2d2	-0.07614674
197	0x3d9a6b69	0.07540018
198	0x3c7d0370	0.015442714
199	0x3d388f02	0.045058258
200	0x3d3428df	0.04398429
201	0xbb01b235	-0.0019790058
202	0x3d680616	0.05664643
203	0xbd52094e	-0.051278405
204	0xbd55c585	-0.052190322
205	0x3b6b81de	0.0035935561
206	0xbd8d1d8d	-0.06890402
207	0x3a6b33fc	0.0008972285
208	0xbd695d15	-0.056973536
209	0x3d73dbde	0.059535854
210	0x3d5ccb72	0.053904958
211	0x3d5eba10	0.05437666
212	0x3ccd690f	0.02507451
213	0x3d86929d	0.06570933
214	0x3d90a1c3	0.070621036
215	0xbd6f099a	-0.058358766
216	0xbd0059a5	-0.03133549
217	0xbcf46c18	-0.0298367
218	0xb9fb1aa0	-0.00047894288
219	0xbcfd0bcd	-0.030889416
220	0xbd634b5e	-0.055491798
221	0x3d56a91b	0.052407365
222	0x3d7b8cad	0.061413456
223	0xbc475e8b	-0.012168537
224	0x3d4dab58	0.050212234
225	0xbd0e4a8f	-0.034739073
226	0xbd6e3fcd	-0.058166314
227	0x3d399c9e	0.045315377
228	0xbd882327	-0.0664733
229	0xbd3ee986	-0.046609424
230	0xbd826521	-0.06366945
231	0xbd82c903	-0.06385996
232	0xbd649626	-0.055807255
233	0x3ca0785e	0.019588646
234	0xbd4fd814	-0.050743178
235	0xbd8074ba	-0.06272264
236	0x3ba4bb94	0.005027244
237	0x3d64ae6a	0.055830397
238	0x3bb4a82c	0.0055132117
239	0xbd65ae39	-0.056074355
240	0x3d323aa5	0.04351296
241	0xbd680540	-0.05664563
242	0x3d0705fb	0.032964688
243	0xbd2dffa9	-0.042480145
244	0xbd43e378	-0.047824353
245	0x3d70decb	0.058806222
246	0x3d617f67	0.05505314
247	0xbd3b88c7	-0.045784738
248	0x3d3fb72b	0.046805542
249	0xbc59c825	-0.013292347
250	0xbcd9f140	-0.026604295
251	0xbc61b1bc	-0.013775285
252	0x3d66470a	0.056220092
253	0xbc8455dd	-0.016154224
254	0x3d70b875	0.058769662
255	0xbdb55aa2	-0.088551775

conv2.bias f4 [128]
0	0xbcce6f94	-0.025199689
1	0x3d50e0e5	0.050995726
2	0xbd4f012d	-0.05053823
3	0x3d67f428	0.05662933
4	0x3cb31f57	0.02186553
5	0x3c706fbf	0.01467508
6	0xbd4c4b7e	-0.049876682
7	0x3d7d3e31	0.06182689
8	0x3d102569	0.035191927
9	0xbd284104	-0.04107763
10	0x3cb1b067	0.02169056
11	0xbb8e55a0	-0.0043437034
12	0x3d0c6d5f	0.034283992
13	0xbd82947b	-0.06375977
14	0x3d1859e8	0.037195116
15	0xb9b8128f	-0.00035109042
16	0x3d7bd9bd	0.06148695
17	0xbd8d7dda	-0.0690877
18	0x3d16e756	0.036841713
19	0x3cb0b266	0.021569442
20	0x3c5a3b81	0.013319851
21	0x3d1058ec	0.035241053
22	0x3d8e1292	0.06937136
23	0xb9526486	-0.00020064609
24	0x3d78bfbf	0.06072974
25	0xbd1c0873	-0.038093995
26	0xbc3d1444	-0.011540476
27	0x3d10195a	0.035180427
28	0xbd4f92c7	-0.050677087
29	0x3d24b1c4	0.040208593
30	0x3d74fdf6	0.05981251
31	0xbcd3efc8	-0.025871173
32	0xbd7dc296	-0.06195315
33	0x3cf86fa6	0.030326676
34	0x3d18193d	0.037133444
35	0x3d33d5ab	0.04390494
36	0x3d675b1c	0.056483373
37	0xbc3c52c3	-0.011494341
38	0xbd61cf87	-0.055129554
39	0x3cc530f8	0.024071202
40	0x3d3dca17	0.046335306
41	0xbce3cdda	-0.027808119
42	0x3c90d085	0.017677555
43	0xbd7015b7	-0.05861446
44	0x3d2d9a7c	0.042383656
45	0xbbd02d44	-0.0063530523
46	0x3cd04170	0.025421828
47	0xbcf47845	-0.029842505
48	0x3d056ce9	0.032574568
49	0x3d45f485	0.048328895
50	0x3d8149cc	0.06312904
51	0x3d50c657	0.0509704
52	0x394fbb42	0.00019810817
53	0xbd5a541e	-0.053302877
54	0xbcb2dc7b	-0.021833649
55	0xbd3f29cc	-0.04667072
56	0x3ce96a81	0.028493168
57	0xbba43131	-0.005010747
58	0x3ca9af2f	0.020713417
59	0x3d951b21	0.07280565
60	0xbd468f36	-0.04847642
61	0x3c77690a	0.015100727
62	0x3d8b54c8	0.0680328
63	0xbd073f95	-0.03301962
64	0xbd7dbaf5	-0.061945874
65	0xbd05edf3	-0.03269763
66	0xbd1d3da0	-0.03838885
67	0x3d72257a	0.05911777
68	0xbd72f14b	-0.059312146
69	0x3d499e36	0.049223147
70	0x3c45db94	0.012076277
71	0x3d82b061	0.06381298
72	0x3d202ae4	0.039103404
73	0x3d37c9e8	0.044870287
74	0xbce992e3	-0.028512424
75	0x3d223e8a	0.039610423
76	0x3d575c14	0.052578047
77	0x3b32757b	0.0027230668
78	0x3d729e89	0.059233222
79	0x3d1606f2	0.036627717
80	0x3d35d221	0.044389848
81	0x3cf04252	0.029328499
82	0x3d416748	0.047217637
83	0xbce34700	-0.027743816
84	0x3d999f90	0.07501137
85	0x3d0abb19	0.033869836
86	0x3d93a752	0.07209648
87	0xbd71bc37	-0.059017386
88	0x3d528dc0	0.051404715
89	0x3d1e8a45	0.038706083
90	0xbd40a6cf	-0.04703408
91	0xbcee9493	-0.02912358
92	0xbce7aa26	-0.028279375
93	0xbcd7f042	-0.026359681
94	0xbc3f6974	-0.011682857
95	0xbd4c5ab8	-0.049891204
96	0x3a16bd1b	0.0005750225
97	0x3d396133	0.045258712
98	0xbd48e12d	-0.04904287
99	0x3c33da01	0.010977269
100	0xbd4b7624	-0.049673215
101	0x3d210c3d	0.039318312
102	0x3bda1b16	0.006656061
103	0xbcf9c8a9	-0.03049119
104	0xbcda3de3	-0.026640838
105	0xbd4cba80	-0.049982548
106	0x3afde36b	0.0019370144
107	0xbd2ed303	-0.042681705
108	0x3c10d712	0.008840339
109	0x3d8273ab	0.06369718
110	0x3cc34406	0.023836147
111	0x3d6f370b	0.058402102
112	0xbc501974	-0.012701381
113	0x3d825908	0.063646376
114	0x3c6e56b6	0.014547041
115	0x3d3988d0	0.04529649
116	0x3d70b509	0.0587664
117	0x3be9a8a7	0.0071307006
118	0xbd163998	-0.03667602
119	0xbd0713ac	-0.032977745
120	0x3d20c6c0	0.039252043
121	0x3cd321e6	0.025773
122	0x3ccd21da	0.025040556
123	0x3c305a8b	0.010763775
124	0xbd1b0c2a	-0.037853397
125	0x3ca5edd5	0.020255009
126	0x3d5982cb	0.05310325
127	0x3d370aaf	0.044687923

dense1.weight f4 [50, 768]
0	0xbcca34be	-0.024683353
1	0xbba7ed0e	-0.0051246947
2	0x3c207231	0.00979285
3	0xbbabfdbf	-0.0052487548
4	0x3ca81878	0.02051948
5	0x3d2b187d	0.0417714
6	0x3ceaf7ac	0.028682552
7	0x3b4fda35	0.0031715755
8	0x3c9e47fc	0.019321434
9	0xbc89dc8c	-0.016828798
10	0xbcdedbbd	-0.027204389
11	0xbcc40b2a	-0.023931105
12	0xba3d4bab	-0.0007221053
13	0xbc1a66c5	-0.009423916
14	0x3c516216	0.012779733
15	0xbaf39dc4	-0.0018586447
16	0xbd078c00	-0.0330925
17	0x3c64b0a9	0.013958135
18	0xbb9ee7fd	-0.0048494325
19	0xbca105ad	-0.019656027
20	0xbcf83fe5	-0.030303905
21	0xbbdfc408	-0.0068287887
22	0xbc6bb516	-0.014386436
23	0xbd297271	-0.041368905
24	0xbd2afaae	-0.041742973
25	0xbbb0087e	-0.005372106
26	0x3c9a68bc	0.01884877
27	0xbd026747	-0.031836774
28	0x3bf7bfda	0.0075607123
29	0x3bcbf158	0.006223839
30	0xbd4be9df	-0.049783584
31	0xbce8fc20	-0.028440535
32	0xbd228a2a	-0.039682545
33	0xbb213d0a	-0.0024603033
34	0xbc8f431a	-0.017488051
35	0xbd73b3cc	-0.05949764
36	0x3d2e258f	0.042516287
37	0x3c7b6608	0.01534415
38	0xbc54bf2f	-0.012985035
39	0x3d0b6026	0.03402724
40	0x3bae94eb	0.005327811
41	0x3cee8aaf	0.029118864
42	0x3d1d1874	0.0383534
43	0x3cebf2ca	0.028802294
44	0xbc955f9b	-0.018234065
45	0x3ca58c99	0.020208644
46	0xbb758851	-0.0037465284
47	0x3c9f7ce9	0.019468741
48	0x3ce71bbd	0.028211469
49	0xbc52daf4	-0.012869585
50	0x3c95e233	0.018296337
51	0xbd0bad85	-0.034101028
52	0xbcd1a8b4	-0.02559314
53	0x39dbbe5b	0.0004191276
54	0xbc968e15	-0.018378297
55	0xbcb47440	-0.022028089
56	0x3c81ded8	0.01585333
57	0x3ad0adc2	0.0015920924
58	0x3ce48e94	0.027900018
59	0xbcd445d0	-0.025912195
60	0x3cc97728	0.024592951
61	0x3d3347e1	0.04376972
62	0xbc6882b3	-0.014191317
63	0xbc4fb9cb	-0.012678574
64	0x3ce659c9	0.028118985
65	0xbc2064c5	-0.00978965
66	0xba53fa4a	-0.0008086307
67	0xbcb62292	-0.022233281
68	0xbbd75b69	-0.0065721762
69	0x3c951a9a	0.018201161
70	0x3caac91f	0.020847855
71	0x3c2ca2af	0.010536834
72	0x3cc0140d	0.023447061
73	0x3b4b57f7	0.0031027773
74	0xbc0265fb	-0.007958884
75	0xbcb3dc32	-0.021955583
76	0x39b0cc33	0.00033721476
77	0xbd33a461	-0.043857936
78	0xb9391fc0	-0.00017654803
79	0xbc86158e	-0.0163677
80	0xba9add97	-0.0011815306
81	0xbc9f53b2	-0.019449089
82	0x3c9b0020	0.018920958
83	0xbc9d6a27	-0.019215656
84	0x3b80acfd	0.003926872
85	0x3d1d5152	0.03840763
86	0x3a8001ac	0.0009766123
87	0x3cd1caba	0.025609363
88	0x3c9f9011	0.019477876
89	0x3cf785d7	0.030215187
90	0xbbaa341e	-0.005194201
91	0x3cdb0b9f	0.02673894
92	0xbbeb2ddc	-0.0071770977
93	0xbc764928	-0.01503209
94	0x3c63bdb5	0.01390021
95	0xbd2028a5	-0.03910126
96	0x3c6c1211	0.014408604
97	0xbb9a6b99	-0.0047125337
98	0x3c2f40a1	0.010696561
99	0xbc9cd324	-0.019143648
100	0xbb847bf6	-0.0040430976
101	0xbd06c514	-0.032902792
102	0xbc401b5e	-0.011725275
103	0xbce9f8ef	-0.028561084
104	0xbd115ae4	-0.03548707
105	0xbc7c4454	-0.01539715
106	0xbc9c171f	-0.019053994
107	0x3c845ee4	0.016158529
108	0xbd26e4ce	-0.04074555
109	0x3c08c87e	0.008348582
110	0xbc5c59ca	-0.013449142
111	0xbc92d2ce	-0.017922785
112	0x3c915e52	0.01774517
113	0xbc15cdf1	-0.009143339
114	0x3c5b8698	0.013398789
115	0x3ce25b69	0.027631478
116	0x3c984c5e	0.018591102
117	0x3aed7aa8	0.001811822
118	0xbc739fa1	-0.0148696015
119	0xbd3994ce	-0.045307927
120	0xbc1abf3b	-0.009445007
121	0x3d245473	0.0401196
122	0x3ce38e82	0.027777914
123	0xbbc9dd43	-0.0061604097
124	0x3cf158dc	0.029461317
125	0xbae3bbc3	-0.0017374683
126	0x3c98c0b8	0.018646583
127	0x3cf371b9	0.029717313
128	0x3c309cf2	0.010779606
129	0x3c99a9bb	0.018757692
130	0xbce079fb	-0.027401915
131	0xbc917fa4	-0.01776106
132	0xbc29749e	-0.010342745
133	0x3d033eae	0.032042198
134	0x3c87a270	0.016556948
135	0xbc1dc229	-0.009628811
136	0x3c9405cf	0.018069176
137	0x3cd5018f	0.02600172
138	0xbc543b05	-0.0129535245
139	0xbd01ab2a	-0.031657375
140	0x3d0ddb83	0.03463317
141	0xbadc2f39	-0.0016798741
142	0xbce3ae69	-0.027793126
143	0xbcbd6241	-0.02311814
144	0xbc39a07f	-0.011329769
145	0x3c8106dd	0.015750343
146	0x3bfc8907	0.0077067646
147	0x3d213707	0.03935912
148	0xbc4de249	-0.012566158
149	0x3cd96283	0.026536232
150	0x3c891a8a	0.016736288
151	0x3cbce375	0.023057679
152	0x3c0a3426	0.008435285
153	0x3ca612ce	0.020272639
154	0xbce3a8b9	-0.027790414
155	0xbd17a12d	-0.037018944
156	0x3cbe7e52	0.023253594
157	0xbbab6e46	-0.0052316515
158	0x3ca140b6	0.019684177
159	0xbbcde90a	-0.006283884
160	0x3c427feb	0.011871318
161	0x3d035304	0.03206159
162	0x3cb5e99a	0.022206116
163	0x3d0cb4d6	0.034352146
164	0xbd08e23b	-0.033418875
165	0xbc8503f7	-0.016237242
166	0xbcb7e263	-0.022446817
167	0x3d07922c	0.033098385
168	0x3d2b31fc	0.041795716
169	0x3d09a605	0.033605594
170	0xbcf0c2c2	-0.029389743
171	0xbb576d25	-0.0032871452
172	0x3c0f24ed	0.008736831
173	0x3b49685e	0.0030732374
174	0x3c7dbb25	0.015486513
175	0x3c14de15	0.009086152
176	0xba2eefff	-0.00066733354
177	0x3d046ef0	0.03233236
178	0xbd003066	-0.031296156
179	0xbd2cea18	-0.042215437
180	0x3c57617a	0.013145799
181	0xbc71c692	-0.0147568155
182	0x3c129df8	0.0089487955
183	0x3aed9991	0.0018127431
184	0x3d329b2f	0.043605026
185	0x3c276ff5	0.010219564
186	0x3d36c0bd	0.044617403
187	0xbd044fdf	-0.032302734
188	0x3cfad47e	0.030618902
189	0xbcdcf1be	-0.02697074
190	0xbca8cc21	-0.020605149
191	0xbcad6e21	-0.021170678
192	0x3cab8c61	0.020940961
193	0xbd01df7f	-0.031707283
194	0x3bca4476	0.006172712
195	0x3d0b6756	0.034034096
196	0x3b6f7986	0.003654094
197	0x3d2a45db	0.041570526
198	0xbb0b46c1	-0.002125189
199	0x3cbb2515	0.02284483
200	0x3cc672e2	0.024224702
201	0xbcc7082d	-0.02429589
202	0x3ceba1a0	0.028763592
203	0x3bcf9e29	0.006335993
204	0xbd0931f1	-0.033494893
205	0x3c5d8d58	0.0135224685
206	0xbc53b0b5	-0.012920548
207	0xbcaea1bb	-0.021317353
208	0x3c8d1139	0.017220126
209	0xb9c117e6	-0.00036829634
210	0xbc50617a	-0.012718553
211	0x3ca733ee	0.020410504
212	0xbce4ee53	-0.027945673
213	0x3bcb1151	0.0061971326
214	0x3abf53b2	0.0014597087
215	0xbcbc504f	-0.022987513
216	0xbcccda5e	-0.02500647
217	0x3cd94eaf	0.026526777
218	0x3c29e512	0.010369556
219	0x3cbbff60	0.02294892
220	0x3cdc102a	0.026863176
221	0x3b0188b2	0.0019765315
222	0x3c579ee8	0.013160445
223	0xbc88c635	-0.016696075
224	0xbcb1fc7f	-0.021726845
225	0xba5b9e43	-0.000837777
226	0x3ce86de8	0.02837272
227	0xbbaacd6e	-0.0052124774
228	0x3c350884	0.011049394
229	0x3c2b6056	0.01045998
230	0xbcd43774	-0.025905348
231	0x3c8c85d7	0.017153664
232	0xbc68b451	-0.014203147
233	0xbc83568b	-0.016032478
234	0x3a88ecbe	0.0010446531
235	0x3d3a5cfc	0.045498833
236	0x3d0e1f95	0.034698088
237	0xbcc0f31e	-0.023553427
238	0xbc070a21	-0.008242161
239	0xbd3226cb	-0.043494027
240	0xbc5f5772	-0.013631688
241	0xbd089e2f	-0.03335398
242	0xbd1f3f11	-0.038878504
243	0xbcb22392	-0.021745477
244	0x3cdcdd0f	0.026960878
245	0xbc730adf	-0.014834135
246	0x39991e35	0.0002920494
247	0x3d06ed9f	0.032941457
248	0xbce153fb	-0.027505865
249	0xbbabb120	-0.005239621
250	0x3addbf46	0.0016917966
251	0x3c8b4008	0.016998306
252	0x3c986d2b	0.018606743
253	0xbd11c4ec	-0.03558819
254	0x3c751cf0	0.0149605125
255	0xbcd20377	-0.025636418

dense1.bias f4 [50]
0	0x3cdb798b	0.026791355
1	0x3c8c343a	0.017114747
2	0x3d3b6f80	0.04576063
3	0x3c7f498b	0.015581499
4	0x3aeeb916	0.0018213119
5	0xbb40d5e9	-0.0029424375
6	0x3cf4fda4	0.029906102
7	0x3cbdf41c	0.02318769
8	0x3d08aa7e	0.03336572
9	0x3cfdb6d0	0.03097096
10	0x3cba7847	0.02276243
11	0x3cf19364	0.029489227
12	0x3be5f6c1	0.0070179407
13	0x3d08935e	0.033343665
14	0x3cd1678c	0.02556207
15	0x3cc1e7f7	0.02367018
16	0x3b7aab7a	0.003824918
17	0x3c481a87	0.012213356
18	0x3c761055	0.015018542
19	0x3d23eb47	0.0400193
20	0x3c83704b	0.016044756
21	0x3bc8a58f	0.0061232517
22	0xbc6ee7fb	-0.014581676
23	0x3c96b88c	0.018398546
24	0xbbfacbef	-0.0076537053
25	0x3d25f036	0.040512286
26	0x3d2998a2	0.041405328
27	0x3c388bdb	0.011263813
28	0xbc6ab3eb	-0.014325122
29	0x3b3593f3	0.0027706593
30	0x3c36d44b	0.011159013
31	0xbb3a290a	-0.002840581
32	0x3b95fad2	0.0045770193
33	0xbcc17fbb	-0.023620477
34	0xbc36d49e	-0.01115909
35	0x3ca430d5	0.020042816
36	0xbb975058	-0.004617732
37	0x3cd8c6a1	0.026461901
38	0x3d375bd8	0.044765323
39	0xbc4cd9c0	-0.0125030875
40	0x3cfadf33	0.030624008
41	0x3c68cd5c	0.014209118
42	0xbbb4d130	-0.005518101
43	0x3d0255ec	0.031820223
44	0x3d478db2	0.048719116
45	0x3ce0eb74	0.027456023
46	0x3c0d17bc	0.008611616
47	0x3d229568	0.039693266
48	0x3cf35a68	0.029706195
49	0x3c9ffa07	0.019528402

dense2.weight f4 [1, 50]
0	0xbd8a2c03	-0.06746676
1	0x3d963e03	0.073360465
2	0xbc71897b	-0.014742251
3	0x3ddec973	0.10878267
4	0x3d2922c0	0.041292906
5	0x3d255ab6	0.04036971
6	0x3dc51b8d	0.096243955
7	0xbd9b471b	-0.07581922
8	0xbcb03012	-0.021507297
9	0x3d187613	0.03722198
10	0xbd7aab7a	-0.06119869
11	0x3d860d01	0.06545449
12	0x3d79a457	0.060947742
13	0xbdeeea1f	-0.11665749
14	0xbd4b968b	-0.049704116
15	0xbddd177c	-0.10795495
16	0x3da4430e	0.08020602
17	0x3d8093cd	0.06278191
18	0xbd100d4e	-0.03516894
19	0x3e07bb78	0.13255107
20	0xbe09bf88	-0.1345197
21	0xbe12b152	-0.14325455
22	0x3e0b74e7	0.13618813
23	0xbd593661	-0.053030375
24	0xbdbeaa47	-0.093098216
25	0x3d8031c5	0.06259493
26	0xbdae1bab	-0.08501371
27	0xbdc12d38	-0.09432453
28	0xbe114fe5	-0.14190634
29	0x3de76125	0.11297826
30	0x3df53460	0.1197288
31	0x3ce9d258	0.028542683
32	0xbda63be8	-0.08116895
33	0x3ddc614b	0.10760745
34	0xbd9c9035	-0.07644693
35	0xbd392c56	-0.045208298
36	0xbd8415dc	-0.06449482
37	0x3d3ff79d	0.046867
38	0xbdf5701c	-0.11984274
39	0xbd76ed08	-0.060284644
40	0x3cdb23e9	0.026750522
41	0x3e0a8a74	0.13529378
42	0x3d28c19e	0.041200273
43	0x3d56c3fe	0.052433006
44	0x3ce3fe93	0.027831351
45	0x3e105b03	0.14097218
46	0xbe0da846	-0.13833722
47	0xbd9527f8	-0.07283014
48	0xbcf249a5	-0.029576132
49	0x3debd97d	0.11516092
