time_series_forecasting/saved_models/CNNForecastingModel/17-03-2024-162449_NO1_epoch_2.pt (torch, 257707 bytes, 7 tensors)

conv1.weight f4 [64, 2, 3]
000000 f7 8b 92 be d9 ea a2 3d 3e ff 89 3e e7 d6 88 be
       -0.2862241 0.0795495 0.26952547 -0.26726457
000010 71 1f a6 be 61 20 bc 3e 44 db 1e 3e 34 35 81 3d
       -0.32445863 0.36743453 0.1551333 0.06308976
000020 85 ae f8 bd 1b 5d 03 3d 45 3c f0 bd 0f 4a 9c 3e
       -0.12142662 0.032071214 -0.117302455 0.30525252
000030 da b1 3c be e5 83 9f be 43 17 50 be 1b c2 82 bd
       -0.1842722 -0.31155315 -0.20321374 -0.06384679
000040 23 db 6e be e3 ae 36 3d 88 69 94 be 74 10 be be
       -0.23325782 0.04460038 -0.28986764 -0.37121928
000050 db ee 8f be d7 94 07 be e8 2e 9c be a6 85 8a 3e
       -0.2811192 -0.13240372 -0.30504537 0.2705509
000060 70 cb 44 3e 98 ff 0e be 23 68 8d 3d ba 56 f1 3b
       0.1921823 -0.13964689 0.06904628 0.007365075
000070 8f 85 31 be ae b2 2e be 83 d8 c3 3e 37 7a d8 bd
       -0.17336105 -0.17060348 0.38251123 -0.10570186
000080 d0 fd fb 3c 17 ce 8f be a4 56 bf be f0 f7 d8 3e
       0.030760676 -0.28086922 -0.3737079 0.4237666
000090 17 c9 b0 3c a7 26 a0 3e d5 99 c0 be f4 dc 3d 3e
       0.021580262 0.3127949 -0.37617365 0.18541318
0000a0 b3 46 d0 be 6c f3 1b be 81 81 89 be 91 6f 9a 3e
       -0.4067894 -0.15229577 -0.26856616 0.30163243
0000b0 34 6c 91 be 89 4b c6 3e 8d 3e 12 3e 18 b4 1d be
       -0.28402865 0.38729504 0.14281674 -0.15400732
0000c0 bc 47 c7 be 18 24 11 be 9c 2d 98 3b f6 b6 52 bd
       -0.38921916 -0.14173925 0.004644109 -0.051444016
0000d0 3a ed 41 3e 99 1f 65 be f1 06 c2 3d de 4d 16 be
       0.18938151 -0.22375335 0.0947398 -0.14678141
0000e0 28 3d 29 be 34 80 09 3e 61 27 85 3e 1e df b6 be
       -0.16527236 0.13427812 0.26006606 -0.357171
0000f0 cb 07 53 be 43 cb d6 bc c0 60 89 be fb 6c a9 3d
       -0.20608442 -0.02621997 -0.26831627 0.082727395
000100 f8 cc 92 be 1e c1 aa be 1e 71 93 be a6 5d 02 bd
       -0.28672004 -0.33350462 -0.2879724 -0.03182759
000110 94 61 74 3e 8e b4 65 be c8 02 2b bd 2f a1 d2 be
       0.23865348 -0.22432157 -0.0417507 -0.41138598
000120 40 fc b8 bd 6a 1a c9 bd 06 18 c9 bd bc c3 3f 3e
       -0.09032488 -0.09819491 -0.09819035 0.1872701
000130 8f b2 64 bc e0 ec d0 bd 03 14 b5 bd ff cb 58 3d
       -0.013958587 -0.1020143 -0.088417076 0.05292892
000140 5f 02 46 3e a4 29 a2 3e d1 4f 4d be e5 e2 2e be
       0.19336842 0.31672394 -0.20049979 -0.17078741
000150 dd 25 69 3d 5a c9 87 be e4 e3 5f 3e 21 d6 66 3e
       0.056920875 -0.26520807 0.21864277 0.22542621
000160 b8 33 77 be 48 60 44 3e c5 cf e2 3d 69 b8 80 be
       -0.24140823 0.19177353 0.11074785 -0.25140694
000170 72 af 2c be 41 25 55 3d c3 5d 1e 3d 45 00 de bd
       -0.16863802 0.05203748 0.038663637 -0.10839895
000180 1c 38 96 3e f1 df c6 3d a7 a3 42 be 16 b9 ae 3e
       0.29339683 0.09710682 -0.19007741 0.34125584
000190 b6 18 e6 3d 1e e0 4a 3e 8c c8 57 3d 76 4e 05 bd
       0.11235182 0.19812056 0.05268149 -0.03254553
0001a0 c2 29 c2 be 9e 91 7c be 00 5f 09 be 53 86 b5 be
       -0.37922484 -0.24664924 -0.13415146 -0.35454044
0001b0 eb aa 1c 3e 87 cb a3 be ff 00 3a bc c4 82 82 ba
       0.15299575 -0.31991217 -0.011352777 -0.0009957184
0001c0 cf 0d 19 be 8f f4 83 bd 9f f3 c2 3e 89 0d 8f 3e
       -0.14946674 -0.0644313 0.38076493 0.27940014
0001d0 eb f5 b5 3a 01 b1 53 be 91 e4 80 3d fa 47 d1 be
       0.0013882493 -0.2067299 0.062935956 -0.40875226
0001e0 15 a1 f7 bd dc fe a8 3e 0e 7b f0 be 6b 6c 36 be
       -0.12091271 0.33006942 -0.46968883 -0.17814796
0001f0 07 a3 53 bc 8d 49 f1 3e 08 6f e5 3a 3c 0c 0b be
       -0.012917287 0.47126427 0.0017504403 -0.13578886
000200 d1 c8 b6 3e 1f b3 94 3a af 40 cc be 98 53 aa be
       0.35700086 0.0011344886 -0.398931 -0.33266902
000210 34 46 a2 bd ee e3 e6 3c 50 f5 c2 be 69 97 48 be
       -0.079235464 0.028184857 -0.38077784 -0.19589008
000220 7f 04 13 3e 67 b0 97 be 77 d9 a2 3e f7 e0 ae 3e
       0.14357184 -0.29626772 0.31806538 0.3415601
000230 ee 66 c8 3d e5 5a 9f 3d 0c 74 1a 3e d9 a5 85 3e
       0.09785257 0.07781009 0.15083331 0.26103094
000240 2b ad 94 3e 61 97 70 bd 44 0a ae 3e 3f 50 99 bd
       0.29038367 -0.058738116 0.33992207 -0.07486009
000250 c3 88 e4 3d 24 9e e6 bd 6a 80 15 be 0f c6 65 3d
       0.11158898 -0.11260632 -0.14599767 0.056097087
000260 50 7a b8 be f1 5a 40 3d dd b7 80 bd b8 c1 88 3d
       -0.36030817 0.04696173 -0.06285069 0.06677574
000270 65 e6 bd be d5 a3 d0 3e 73 62 55 3e bf 15 e6 bd
       -0.3708984 0.40749994 0.20838337 -0.112346165
000280 53 90 68 bd 85 19 f7 bd 4c e3 72 3d 96 1f 31 bd
       -0.056778263 -0.12065414 0.0592988 -0.043243013
000290 a0 92 5e 3e 5b 10 3f be c6 ca ad 3e 9e 92 71 3e
       0.2173562 -0.18658583 0.33943766 0.23591086
0002a0 64 83 80 be c6 e5 a6 bd 79 1a 86 3e 94 5f ce 3a
       -0.25100243 -0.081492946 0.26192072 0.0015745037
0002b0 26 4c 92 3e 8e 84 03 3e 39 58 58 be 18 8a 80 be
       0.28573722 0.12843534 -0.21127404 -0.25105357
0002c0 2f 98 52 3e 28 97 79 bd 48 8a 04 3d 2f 34 8d 3e
       0.20565866 -0.06093517 0.032358438 0.27578875
0002d0 f5 23 40 3c b6 a0 9a 3e 7f 23 19 be aa ce a7 bd
       0.011727323 0.30200738 -0.14954947 -0.08193715
0002e0 bc 16 d9 3d cf a3 1d 3e 7a 92 39 bd 56 24 cb be
       0.10600039 0.1539452 -0.045305707 -0.3967616
0002f0 9f b9 99 be 17 10 04 be 0d c2 85 be 10 8e d5 be
       -0.3002443 -0.12896763 -0.26124611 -0.41709948
000300 b9 00 03 bc 36 98 7d 3e 06 bd 7f be d6 62 b9 3e
       -0.007995778 0.24765095 -0.2497445 0.36208218
000310 a9 0c 4a be fd c5 72 3d d6 fb ab 3e 1a f8 c7 3e
       -0.19731392 0.059270848 0.33590573 0.39056474
000320 4a 4e de bd 0f c0 2b 3e fd c9 8f 3e 06 ac e0 3c
       -0.10854776 0.16772483 0.28083792 0.027425777
000330 c9 46 91 be d9 1c 23 be 2f 74 c9 be fa 66 b7 be
       -0.28374317 -0.15928973 -0.39346454 -0.35820752
000340 5f cd 6c bb c8 82 38 bd 9c 13 4b be 15 37 35 3e
       -0.0036133153 -0.045046598 -0.19831699 0.17696793
000350 e5 f2 c8 be e4 26 79 3e 34 e6 a5 3e 50 ec b1 3e
       -0.39247814 0.24331242 0.32402194 0.34750605
000360 af ce bf 3e a4 7c 9b 3e 32 6b d3 3d aa e8 84 3e
       0.37462375 0.3036853 0.1032318 0.2595876
000370 83 1e 20 be f2 de 96 be 9a 7c ad bc e1 42 91 3e
       -0.1563664 -0.2946697 -0.021177579 0.28371337
000380 98 36 ab 3e 59 4b bb 3e d9 c7 a4 be 74 49 d2 bd
       0.3344009 0.36580923 -0.32183722 -0.10267916
000390 3e 5f a3 3e 1d bc f6 3d 98 b8 ad 3e b4 7b f2 3d
       0.31908602 0.120475985 0.33929896 0.11840001
0003a0 c6 0d a6 be 8a 02 cc be a6 eb 8d 3d 7a 07 9c 3d
       -0.32432383 -0.39845687 0.06929712 0.076186135
0003b0 8a 8b 74 bd 61 b7 8e 3e c0 43 a6 3d 75 c4 15 be
       -0.059703387 0.27874282 0.08118391 -0.14625724
0003c0 de c4 a6 be 1e 39 48 3c 9f 47 0b 3e e2 4f c3 3e
       -0.32572073 0.012220649 0.1360154 0.38146883
0003d0 09 aa 6f 3e d1 d7 b3 bd e6 f3 a4 be 3c 37 82 3d
       0.23404707 -0.08781398 -0.3221733 0.06358191
0003e0 6a 6d 8b 3d bc 8e 57 3e af 4a 4b 3e bf fb 64 be
       0.068079785 0.21050543 0.19852708 -0.22361659
0003f0 f4 b5 39 3e 0b 78 94 3e 17 f4 18 3e 73 85 7b be
       0.18135816 0.28997836 0.14936863 -0.24562626

conv1.bias f4 [64]
000000 0a 56 22 bd 3b 3c 99 bd ee 0c bb 3e b0 d7 ef bb
       -0.039632834 -0.07482191 0.36533302 -0.007319413
000010 75 d0 07 be 70 3a 2c be 54 e2 12 be f7 8a ba be
       -0.13263114 -0.16819167 -0.1434415 -0.36434147
000020 0f ac b7 3e 68 c0 7f 3e fb a7 1d 3e ad 8c 72 be
       0.35873458 0.24975741 0.1539611 -0.23686476
000030 e6 5b d9 3c ca bd 3e be 96 2d 32 be 2e f0 4b be
       0.026533078 -0.18627086 -0.17400202 -0.1991584
000040 a7 df 64 be 8f 8c 7b be 5a 00 92 3e 32 80 ed bd
       -0.22350942 -0.24565338 0.28515893 -0.11596717
000050 5f 14 75 be ba da 71 3d 9e 8c 64 3e 36 28 dd bd
       -0.23933552 0.059046485 0.22319266 -0.10798685
000060 a4 21 02 be a6 7c 80 3e 58 ad a8 be 8c c4 99 bd
       -0.12708145 0.250951 -0.3294475 -0.075081915
000070 fb 06 e8 3d 1a cd 23 3e ca d0 94 3e 04 38 b0 3d
       0.113294564 0.15996209 0.29065543 0.08604434
000080 13 3e 75 bd b2 97 76 be 35 38 87 3e 22 d2 6f bd
       -0.05987365 -0.24081305 0.2641007 -0.058550008
000090 bb c1 a2 be 70 e1 c2 3e 86 ff c5 3e fe 3d 20 bd
       -0.3178843 0.3806262 0.3867151 -0.03912162
0000a0 65 70 96 be 33 10 a3 bc fd 75 13 3e fc 9a 97 be
       -0.29382625 -0.019905185 0.14400478 -0.2961043
0000b0 5d ff a5 3e 01 29 be be 64 d0 95 3e f9 23 8e be
       0.3242139 -0.37140658 0.29260552 -0.2776182
0000c0 52 d8 67 3e bc b8 91 be a7 ac 36 3e ee 19 da 3d
       0.22641113 -0.28461254 0.17839299 0.10649477
0000d0 93 cf 63 be 20 95 12 3e 51 e9 1c be a2 1b ab be
       -0.22247152 0.14314699 -0.15323378 -0.3341952
0000e0 4d 51 1e 3e 6a b3 36 be 26 b7 10 3e 5a 00 ff bd
       0.15460701 -0.17841879 0.14132366 -0.12451239
0000f0 1f af 99 bd fd 83 9f be b0 6c 68 bd 6d d4 97 3c
       -0.07504105 -0.31155387 -0.056744277 0.01853391

conv2.weight f4 [128, 64, 3]
000000 10 1d 1d 3d 3f bb ef 3c c9 38 3f bd eb 6b 45 bd
       0.038357794 0.02926409 -0.046685014 -0.04819862
000010 ef 46 c5 3b 42 20 45 bc 06 f9 22 3d 02 6d 79 3c
       0.006020419 -0.012031617 0.03978827 0.015223743
000020 a5 5f bc 3a 41 e0 18 3b 36 c5 25 bd 9c ca 58 3d
       0.0014371766 0.0023327025 -0.040471278 0.0529276
000030 67 6d 23 3d a2 fa 17 3d 51 01 86 bb df 41 fa bc
       0.039899256 0.037104256 -0.0040895124 -0.030548988
000040 de 54 cb 3c ce b0 83 bd a4 cd ab 3c c4 ea 2e 3c
       0.024820741 -0.06430207 0.02097208 0.01067609
000050 b2 32 8b 3c f8 bb c2 bc 34 6c b0 bc ea 14 14 bd
       0.016991947 -0.023771271 -0.02153597 -0.036152758
000060 b6 dd 1e 3d 02 14 24 3d c8 fc 12 3d bf 03 b3 3c
       0.03878566 0.040058143 0.035885602 0.021852372
000070 48 88 f7 3c af 78 c6 bc a4 4b 41 3d 8d 1c 48 3c
       0.030216351 -0.024227468 0.047191277 0.012213838
000080 f4 b4 87 bd a0 9e 2f bd b7 bf 77 3d d7 6f 7e 3d
       -0.06626311 -0.042875886 0.060485568 0.062118378
000090 99 45 05 3d bd e6 5a bd ff eb 3e bd f6 dc 83 bc
       0.032537077 -0.053442705 -0.046611782 -0.016096573
0000a0 2e a1 2b 3d e8 6e 8b bd af b2 84 bc 1b 83 f0 3c
       0.04190176 -0.06808263 -0.016198484 0.029359391
0000b0 2b e3 af 3b 2a 81 c4 ba 7c 75 70 bd 56 d5 d9 bc
       0.0053676567 -0.0014992107 -0.05870579 -0.026590984
0000c0 02 12 83 3d 71 d2 00 3d c9 c1 94 3d 4b 81 11 3d
       0.06399919 0.031450693 0.07263524 0.035523694
0000d0 7e 26 47 bd f6 e1 ca 3c d2 c0 65 3d 40 b4 c7 bc
       -0.048620693 0.02476595 0.05609209 -0.024377942
0000e0 3b df fd 3b e8 65 1d 3d 4b 65 d0 bb 22 a4 67 3c
       0.0077475584 0.038427263 -0.0063597313 0.014138253
0000f0 40 9a 0d 39 97 59 7b bd 0e 9b d3 3c 66 cc b9 3c
       0.0001350427 -0.061364736 0.025830772 0.022680473
000100 f6 28 13 3d ac 18 2f 3d f0 58 a2 bb 18 95 bc bc
       0.035927735 0.04274814 -0.00495445 -0.023020312
000110 33 43 51 3d a0 da 52 bd 61 ff 81 3c cf db cb 3b
       0.051089477 -0.05147803 0.015868844 0.0062212716
000120 59 f7 91 3d 79 bd 42 bd 97 f4 47 bc db 50 f4 3c
       0.07127256 -0.047543976 -0.012204311 0.029823711
000130 44 f1 f7 ba d4 d6 b8 bc d6 e4 87 bd d2 11 f6 3c
       -0.0018916507 -0.022563376 -0.06635444 0.030037794
000140 19 98 5a bc a4 fd 19 3d b4 5d 93 3d 80 74 aa 3c
       -0.013341927 0.037595406 0.07195607 0.020807505
000150 fc 95 92 bd 31 6c 40 37 63 20 42 3d ea a0 8f bc
       -0.071575135 1.1469282e-05 0.047394168 -0.017532784
000160 8d e5 96 3b e8 9d f9 bc 5a b6 20 bc 1f 02 fb 3c
       0.0046050013 -0.030470803 -0.009809101 0.03064066
000170 be de 5f 3c 78 e4 b0 bc 91 9e dc bc 3d 4f 35 bd
       0.013663946 -0.021593317 -0.02693108 -0.04426502
000180 79 70 97 3d ef 2e 6f bc 2f 2d 70 3c 63 02 58 3d
       0.07394499 -0.014598592 0.01465921 0.05273665
000190 22 32 a0 3c 09 b7 56 bc 98 a8 13 3d cd 13 91 3c
       0.019555155 -0.013105162 0.036049455 0.017709637
0001a0 87 12 3b bc 00 00 20 bb 4a ba d8 bc 1a 0b 16 3d
       -0.0114179915 -0.0024414062 -0.026456017 0.03663168
0001b0 2c 82 46 3d a3 37 12 3d df 89 68 3b 58 1e 34 39
       0.048463985 0.03569759 0.0035482568 0.00017177442
0001c0 16 c2 29 bd f0 b3 c5 3c 3a 5c 1f bd 42 e4 84 bd
       -0.04144486 0.024133652 -0.038906313 -0.06488849
0001d0 47 eb 42 bd 7e a0 8f bd 82 09 ed 3c 01 fd f5 bb
       -0.04758766 -0.07013033 0.028935198 -0.007506967
0001e0 2f fd cd bc 35 10 7a 3c 5c 1d 62 3c 68 db b5 3b
       -0.025145141 0.015262653 0.013800945 0.005549837
0001f0 84 15 f6 bb 0c e3 0e bd 2f 43 08 3d 03 9a 6e bb
       -0.007509889 -0.034884498 0.033267196 -0.0036407716
000200 69 71 53 bd 9b e9 4e 3b 72 b9 44 3d 8c f4 30 3d
       -0.05162183 0.0031572345 0.048028417 0.043201968
000210 08 f7 06 bd b7 db f8 3c ba c1 fa bc d1 3c c8 3c
       -0.03295043 0.030378206 -0.030609954 0.024443062
000220 21 87 b2 bc 71 c4 23 bc 07 90 17 3c b5 8c 61 bc
       -0.02179295 -0.009995566 0.009250647 -0.013766457
000230 2e e0 3a 3d 98 4e 5a bd ac 70 53 3d 7c a4 b6 3c
       0.04562395 -0.05329761 0.051621124 0.02229523
000240 67 4e b4 3c cf 29 75 bd b4 e0 77 3d f6 75 8b bc
       0.022010041 -0.059854325 0.060517028 -0.017024022
000250 b2 21 1d 3d 78 aa 1f 3d ac 26 86 3b d0 e1 70 3d
       0.038362212 0.03898093 0.0040939655 0.0588091
000260 9d 5c 3f 3b 72 d8 23 3d fd 59 93 bb 8f 8c e8 bc
       0.002919949 0.04000134 -0.0044968114 -0.028387336
000270 6d 91 07 3d 26 4d da 3c fd f9 8e bd 94 53 58 bd
       0.033097673 0.026648115 -0.06981275 -0.05281408
000280 69 74 68 bc 99 c4 02 3d 0d 26 87 3d 6b 1e 96 bd
       -0.014187911 0.03192577 0.065990545 -0.073300205
000290 db 1e a8 bd 8a 2f 39 3d fd f6 ab 3c 5d db b2 bd
       -0.0820901 0.045211352 0.020991797 -0.087332465
0002a0 b0 cb 58 3b cc 47 bf 3a a1 27 98 bc 93 e2 68 3d
       0.0033080392 0.0014593541 -0.018573584 0.056856703
0002b0 68 a9 37 bc c8 c6 50 bb 35 1e bb bb 45 22 af 3d
       -0.011209823 -0.0031856764 -0.005710388 0.08551458
0002c0 8f 78 6c 3d 6c 71 99 3d fd 29 65 bc 09 73 cc 3c
       0.05773216 0.07492337 -0.013987062 0.024957197
0002d0 49 ce 5f bd 13 75 16 3d 62 f6 72 3d 8f 25 8d 3d
       -0.05464009 0.036732744 0.059317 0.06891929
0002e0 fa 7b 8a ba cf cf 4e bd a5 8e 92 bd 5d 26 7e 3d
       -0.0010565512 -0.05049115 -0.071561135 0.062048305
0002f0 07 51 70 3d 60 24 37 3d c0 74 89 3d 94 03 31 3d
       0.058671024 0.044712424 0.067117214 0.043216303
000300 14 67 40 3d 65 09 7e 3c da b4 36 bc d1 7f 0b bd
       0.046973303 0.0155051695 -0.011151517 -0.034057442
000310 42 6f 4a 3d bb 24 92 bd c7 83 27 bc 84 04 75 bd
       0.04942251 -0.07135912 -0.010224289 -0.05981876
000320 69 dc 33 3d 9b 92 a3 bd 81 6f e3 3c d6 b6 5e bc
       0.04391137 -0.07986947 0.02776313 -0.013593396
000330 ce b5 8d bd dd c5 56 bd 8b 17 02 3d 09 d8 3e bd
       -0.06919442 -0.05243479 0.031760734 -0.046592746
000340 ed da a9 bd 1d f2 6d 3d a4 e2 56 3c 9a 0d 80 bd
       -0.0829371 0.058092225 0.013115559 -0.06252594
000350 8d bd 0f bc fe 5a 7f bd d3 56 a9 3d 40 48 b6 3c
       -0.00877322 -0.062342636 0.082685135 0.022251248
000360 88 99 7d 3d 9f e5 86 3d c1 d9 6d bc 8e 5f 2b bd
       0.061913997 0.065867655 -0.014517249 -0.041839175
000370 7a 99 30 3d 0e fe f8 3c 53 a7 ae 3b b0 ab ac bc
       0.043115117 0.03039458 0.005330005 -0.02107796
000380 f9 fa cf bc 39 8e c9 bc 4d 64 67 bc 02 dc f7 3b
       -0.025388228 -0.02460395 -0.014123035 0.007564069
000390 b4 7d b2 bc 2a ce a8 bc 60 1d a2 bc 3c 5f cc bd
       -0.021788456 -0.02060612 -0.019789398 -0.09979102
0003a0 71 ea 1c bb 08 19 b2 bc f5 ad 5e 3d 15 ca 22 3d
       -0.002394345 -0.021740451 0.054365117 0.0397435
0003b0 7b b1 5d bd f8 31 9c bc 01 44 1b 3d 19 ec 35 3d
       -0.054124337 -0.019066796 0.03790665 0.044414613
0003c0 31 f6 7c 3b 1d ab ba 3d 84 e8 2c bc 3a 41 e6 bc
       0.003859889 0.091146685 -0.010553483 -0.028107274
0003d0 f2 e0 2e bc 03 2d d0 bc 0c 93 28 3d 67 fb c2 bc
       -0.010673748 -0.025412088 0.04115586 -0.023801519
0003e0 c1 7f 8b 3d 8c 91 5f bc 1d 77 66 3d 32 bd 80 3d
       0.068114765 -0.013645541 0.05626594 0.06286086
0003f0 f4 60 9b 3c 5f 85 60 bd c9 25 9d bd 44 2a 00 bd
       0.01896713 -0.054814693 -0.076732226 -0.031290308

conv2.bias f4 [128]
000000 8c 50 cc 3b 77 50 9e bb 83 f4 dd bc 60 61 6c bc
       0.006235188 -0.0048313695 -0.027094131 -0.014427513
000010 fe 2c d4 bb 5e 9f 07 bd 61 c8 84 3d d9 37 3a 3c
       -0.00647509 -0.03311097 0.06483532 0.011365854
000020 a5 6a 5e 3c 95 86 2d 3d 3d f5 fc bc 89 98 5b bd
       0.013575231 0.042364676 -0.030878657 -0.053612266
000030 4c bc bd bc 7a 5d f2 bc 9b 53 59 3d 15 5c 06 bc
       -0.023161076 -0.029585589 0.053058248 -0.008200665
000040 06 bd 5e bd a4 21 df 3c ed fa 9d 3d b3 4a 28 bc
       -0.054379486 0.02723772 0.07713876 -0.010271716
000050 b4 a7 2a bd c0 b9 4f bc a1 1e 81 bc ee 61 a7 3a
       -0.04166384 -0.012678564 -0.015761675 0.0012770274
000060 25 54 47 3b ac 94 10 3d d6 d4 48 bd f4 be 4d 3d
       0.0030415144 0.035298035 -0.0490311 0.050230935
000070 89 0b 44 bd 23 76 8f bc f7 8b 79 3d b7 f2 f9 3c
       -0.047862563 -0.017512387 0.060924497 0.030511243
000080 5b 4f 94 3c 01 12 86 bc 2b 88 0e 3d c9 b2 81 3d
       0.018104246 -0.016366007 0.03479783 0.06332929
000090 c7 8b 87 bc b4 68 71 3b 1d f4 81 3c b1 0c e7 bb
       -0.016546143 0.003683609 0.015863473 -0.0070510735
0000a0 bb 02 69 3d a9 37 91 bd 6a 4a 62 3c 44 fa 57 bd
       0.05688737 -0.070906945 0.013811687 -0.052728906
0000b0 09 de 82 bb ba 42 18 3d 02 42 1f bc 65 c6 1c bd
       -0.003993754 0.03717301 -0.009720327 -0.03827514
0000c0 2f 88 fc bc 89 ac 29 3d bf 57 38 bc 25 41 37 3d
       -0.030826656 0.041424308 -0.011251389 0.04473986
0000d0 15 57 b0 bc 59 5a 09 bd 26 19 90 3d 85 eb 6d bc
       -0.021525899 -0.033533428 0.07036047 -0.014521484
0000e0 3a c4 a0 3c 7a f2 57 bd 29 fe fc bc 3f d0 34 3c
       0.019624818 -0.052721478 -0.030882912 0.011035978
0000f0 6f a4 56 3b 24 5a 36 bd cc 29 08 3d 00 c8 55 bc
       0.0032751819 -0.04451956 0.033242986 -0.013048172
000100 17 00 6a 3c 53 ba 33 bd 07 d5 44 3d d8 d3 17 3d
       0.014282248 -0.043878864 0.04805472 0.037067264
000110 e1 1a 17 bd a0 0f ea bb 97 a4 76 3d d6 e4 88 bd
       -0.036890868 -0.007142976 0.06021556 -0.06684272
000120 dd be d7 3c 15 97 f5 bc b2 93 70 bd 75 bb 2d bd
       0.026336128 -0.029979268 -0.058734603 -0.0424151
000130 dd ac ab 3c da 6b 80 3d 95 ac e4 bb 96 60 56 3d
       0.020956451 0.06270571 -0.006978581 0.052338205
000140 d4 0d 27 3c d0 ce 23 bd cc 16 36 bd 4c 6e 96 3a
       0.010196168 -0.039992154 -0.044455335 0.0011476963
000150 01 98 23 3d 05 a1 36 bd 5a 12 53 3c 85 47 5d bd
       0.039939884 -0.044587154 0.012882793 -0.054023284
000160 8e 40 86 bd 3a 61 01 3d d7 6f f9 bc cd 20 1b bb
       -0.065552816 0.031586863 -0.030448837 -0.0023670674
000170 86 6a 81 bd 9b 2e ab 3c 6d 2e e7 3a d4 11 0f 3d
       -0.06319146 0.020896247 0.0017637737 0.03492911
000180 f0 d6 d5 3c eb fd 39 3c db ad 76 3d 5f cb fd 3c
       0.026103467 0.011352043 0.060224395 0.030980764
000190 80 71 37 bd db 98 4f bd 88 59 1d 3c 46 2f b1 bb
       -0.044785976 -0.050682884 0.009603865 -0.0054072468
0001a0 12 35 22 3d ae 54 f5 bb ea e0 f3 bc d4 55 aa bd
       0.039601393 -0.0074869012 -0.029770333 -0.08317152
0001b0 ad ee 37 bc 8b dc 27 3b f6 80 8c 3d 98 1c 1b bd
       -0.011226338 0.0025613632 0.06860535 -0.037869066
0001c0 43 7d 1f bd fd 89 84 bc 31 8d 4b bc 2d f4 3d 3d
       -0.03893782 -0.01617908 -0.012423799 0.046375442
0001d0 8e 7f be bc ca f5 16 bd 45 64 1b bd e2 2f 79 3d
       -0.023254182 -0.036855496 -0.03793742 0.06083668
0001e0 3f 16 77 3d 25 12 9e bc b7 94 b7 3c f1 5f 19 3c
       0.06032395 -0.019295761 0.02240978 0.009361253
0001f0 56 30 5c bd f3 ba 23 bd a5 42 07 3d 91 54 76 bd
       -0.053757034 -0.03997321 0.03302254 -0.060139243

dense1.weight f4 [50, 768]
000000 4e 26 82 3c be 33 71 3c f1 b7 79 bc f5 76 42 3c
       0.015887406 0.014721809 -0.015241609 0.011869182
000010 9f b7 cd bc 9c 9d 29 3d 8a 1c 50 3c b0 08 9b bb
       -0.025111971 0.041410074 0.012702117 -0.0047312602
000020 4e 8f 8a bc 2a f8 e6 3c b7 d5 eb 3c 50 ac 8e 3c
       -0.016914036 0.028194506 0.02878843 0.01741615
000030 03 b4 f7 bc 0e a1 4a 3b 8c ed d9 3c 9d f6 df b9
       -0.030237203 0.003091875 0.026602529 -0.00042717616
000040 34 b6 19 3c 34 70 1a 3d 71 0a 23 bc 1f 51 a7 3c
       0.0093818195 0.03770466 -0.00995122 0.020424424
000050 b4 bc fc 3c 69 15 3e 3c 7d 2d 23 3d c5 56 ac 3b
       0.0308517 0.011601784 0.039838303 0.005259367
000060 97 3d 3e bc 71 40 8e 3c b3 ae ba 3c 22 a5 05 bd
       -0.011611364 0.017364712 0.022788381 -0.032628186
000070 a6 21 fd bc 1c ba 23 bd 28 b2 bd 3b b1 ac 2c 3d
       -0.030899834 -0.03997241 0.00578906 0.04215688
000080 e6 e3 d7 3c 5c b8 00 3d e9 dd b3 3b 91 ec 00 3d
       0.026353788 0.03142582 0.0054891002 0.031475607
000090 99 9f 36 3d 43 9d 43 3c 81 30 16 3c 52 fd 33 bb
       0.044585798 0.01193935 0.009166838 -0.0027464223
0000a0 59 d9 0b 3c f4 95 c1 bc 30 b2 41 3d db c1 04 3d
       0.008535706 -0.023631074 0.047289073 0.032411437
0000b0 e5 17 60 3b 16 16 9f 3c 0b 29 af 39 29 b5 20 3b
       0.003419393 0.019419711 0.0003340918 0.0024522042
0000c0 71 21 1e 3b 04 dd c4 3c 6f d6 99 bb 5e cf ac 3b
       0.002412882 0.02403117 -0.004694752 0.0052737435
0000d0 6e 21 eb bc 4f f4 1d be 9b f8 17 bc b6 25 a9 3c
       -0.028702464 -0.15425228 -0.009275581 0.020647865
0000e0 c7 d8 c7 3c c0 2a 21 3d e7 6d ad 3c 52 85 46 3d
       0.02439536 0.03934741 0.02117057 0.048466988
0000f0 63 3b 04 3d 5b 67 e6 3c 5b 24 17 3d 8f a6 1f ba
       0.032283198 0.028125456 0.036899906 -0.0006090188
000100 93 a0 05 3b a7 66 06 bc b6 85 a2 3a ff 25 7e bc
       0.00203899 -0.008203185 0.0012399468 -0.015511989
000110 90 e9 bb bc 9c de be bc 62 c2 af 3c e3 08 95 3c
       -0.02293852 -0.023299508 0.021454994 0.018192714
000120 19 a2 ba bc 83 27 02 3c be 8b 8f 3c 3f 7a ca 3b
       -0.022782372 0.007943991 0.017522689 0.0061791237
000130 be 5e 30 3c 74 dd 24 3d c9 03 13 3b 0d 50 1c 3c
       0.010764776 0.040250257 0.0022432676 0.00954057
000140 f5 86 97 3b ce 3e 0a 3d 7f b8 c9 3c 1b dc 20 bd
       0.0046242424 0.0337513 0.024624107 -0.03927241
000150 a4 b4 a5 bc 6c 15 c8 3c ff 3a f3 3b 90 6c 97 3b
       -0.020227738 0.024424277 0.0074228044 0.004621096
000160 06 07 f6 bc ed 08 c5 bc 88 c8 1e bd 0d b6 98 bc
       -0.030032646 -0.024052108 -0.03876546 -0.018641496
000170 09 66 15 3c ce 21 37 bc 5f c8 dc 3c 86 36 87 3c
       0.009118565 -0.011177493 0.026951013 0.016505491
000180 69 74 cc 3c eb d1 6f 3c c4 25 33 bc e9 45 6c 3c
       0.024957852 0.014637451 -0.010934297 0.014420965
000190 12 75 0c 3c df 7c fe bb 85 4b 5b 3d 4c 79 fa 3c
       0.008572834 -0.0077663506 0.053538818 0.030575417
0001a0 62 b0 dd 3c 9c 9d 2a 3d ea 53 98 bc 58 7f a2 3c
       0.027061645 0.041654214 -0.0185947 0.019836113
0001b0 23 25 82 3d 25 cb 09 3d 18 d1 1b 3d 0c e7 49 3c
       0.063547395 0.033641 0.038041204 0.012323152
0001c0 be d9 e9 3c 37 d4 44 bc eb 5f 36 3d 4d ca 21 3d
       0.02854621 -0.012013487 0.04452507 0.03949957
0001d0 9b a5 53 bc b8 8e 25 bc 20 b0 00 3c 49 7c 30 3d
       -0.012917901 -0.010104828 0.0078544915 0.043087278
0001e0 ea eb d6 bc 16 d4 5a 3b a0 e7 e0 bb e9 f2 54 bb
       -0.02623554 0.0033390573 -0.0068635494 -0.0032493419
0001f0 69 6c 95 3b 99 74 51 bc 98 31 d9 3b 7c c2 ef bc
       0.0045600426 -0.012784147 0.0066282265 -0.029267542
000200 94 98 47 3c 46 f5 9e 3c 28 8e c3 bc e4 d8 67 bc
       0.012182374 0.019404065 -0.023871496 -0.014150832
000210 92 80 3b 3d 11 1a 3c bc e5 a7 16 3d fc 03 10 3d
       0.04577691 -0.011480824 0.03678121 0.03516005
000220 10 2c 9e 3c 21 48 8a 3c 5a be c7 bc 39 73 15 bd
       0.01930812 0.016880097 -0.024382759 -0.036486838
000230 e7 1a 3d bc 8f fc d1 bc 34 13 2c 3d d0 f6 ce 3c
       -0.011542059 -0.025633125 0.0420105 0.025264174
000240 a3 31 cd bb 1d 81 34 bc d0 a4 84 3c 6f 6a 90 bc
       -0.0062620207 -0.011017111 0.01619187 -0.017628876
000250 b0 66 61 bc c5 14 a7 bc db fd 4a 3d 2b bd 3a bc
       -0.013757393 -0.020395646 0.0495585 -0.01139764
000260 4e 6b 5f 3c 5f c5 ce b8 ed 8e 83 3c 53 6c 02 3d
       0.013636423 -9.859609e-05 0.016059363 0.031841587
000270 85 47 40 3d 0f 6f 94 bc f1 9b 00 3d 50 16 8b 3b
       0.046943206 -0.018119363 0.031398717 0.004244603
000280 cf 83 f1 bc 14 99 a7 bd a9 df 8f 3c 20 ac 16 bb
       -0.029481797 -0.08183494 0.017562704 -0.0022990778
000290 8a 2b 6d 3c f6 9c a5 3c 96 67 82 bb 19 f1 2e bd
       0.014475713 0.020216446 -0.0039796336 -0.042710397
0002a0 e5 c5 59 3c 58 cf a5 bb a0 8d 19 3d 15 c5 18 3d
       0.013291811 -0.0050601177 0.03748858 0.037297327
0002b0 8b 79 a6 bc c0 b6 99 3c 9c 54 af 3c a7 0a 30 3c
       -0.020321628 0.0187639 0.02140265 0.010744727
0002c0 fc ab 4c 3c 67 05 da 3b 3f bf 2b 3d 49 0a 2f 3d
       0.012492176 0.006653476 0.041930433 0.042734418
0002d0 4a 9d 03 3c 6e 59 4d 3c 85 68 b4 3c 34 0e 0e bc
       0.008033106 0.012533529 0.022022495 -0.0086703785
0002e0 f9 db 10 3c 3a 8e 69 bc ee 8c a4 bb 48 8f 9f bc
       0.008841508 -0.014255101 -0.005021683 -0.019477502
0002f0 80 4d 82 bc c4 67 85 3b 7f df 2c 3b ab 9b 86 bd
       -0.015906096 0.0040712077 0.0026378331 -0.0657266
000300 b8 06 56 bc 76 0d 40 3c 2f 71 bd 3b 4a 3f c8 bc
       -0.013063125 0.011721959 0.005781315 -0.024444241
000310 7b b1 08 bd 81 7a b0 bd 12 84 d1 3c 97 89 26 3c
       -0.033372384 -0.08617116 0.025575671 0.01016464
000320 58 66 50 37 f8 ed dc bc 1a f8 3c bb 54 53 24 bb
       1.2421595e-05 -0.026968941 -0.0028834403 -0.0025074081
000330 82 cf 0a 3d 8b 7c 0f 3d fa e5 9a 3c 56 e2 93 bc
       0.0338893 0.035030883 0.01890849 -0.018052261
000340 19 b9 02 3d 57 64 37 bc 72 5a d4 ba ad 0e 3f 3c
       0.031914804 -0.0111933565 -0.0016201271 0.011661214
000350 da 4c e8 3c 6f d5 1c 3d dd a8 af bc c4 9b 12 3d
       0.028356958 0.038289484 -0.021442825 0.03579308
000360 5a 98 5e 3d 58 03 dc 3c 1a 37 3b 3d de dc 2b 3c
       0.054344513 0.026857063 0.045706846 0.010489671
000370 b5 22 2f 3d 7b 56 c3 bc 20 b6 1a 3c 32 86 07 3d
       0.04275771 -0.023844948 0.009442836 0.033086963
000380 99 3d 85 3c 33 0b b0 bc 8d 81 a1 3c 2f e6 e0 bb
       0.016264724 -0.021489715 0.019715095 -0.0068633775
000390 3d b1 8f 3c 6b 3d 35 3d 75 b4 c8 3c 5c ec 40 bc
       0.017540568 0.044248026 0.024500111 -0.0117751025
0003a0 6a 52 1f bc 8a c1 1e 3c c4 70 23 bd 47 ff 2c 3d
       -0.009724239 0.009689698 -0.039902464 0.04223564
0003b0 ff 7e 5e bb b7 f1 af 3c 11 4d ba bc 10 6e d6 bd
       -0.0033950207 0.021477563 -0.022741826 -0.104702115
0003c0 dd fd f2 bb df fb 75 bb 04 2d 0c bc 04 7f e0 3b
       -0.007415517 -0.003753416 -0.008555654 0.006851079
0003d0 ff f4 8b bc 54 12 06 3c 41 aa 20 bd a7 10 28 3c
       -0.017084597 0.008183081 -0.039224867 0.0102578765
0003e0 a9 f8 13 3c b0 7c 67 3c ff 6d 41 bc 75 33 51 bd
       0.009031453 0.014128849 -0.01180601 -0.051074464
0003f0 aa 46 2b 3c 9c 26 b5 bc 14 38 8d 3c 25 09 6c 3c
       0.010453859 -0.022113137 0.017238654 0.014406477

dense1.bias f4 [50]
000000 cf 50 c2 3b 2d 03 dd 3c 09 0a c7 ba 82 5d 3b 3d
       0.0059300433 0.026979053 -0.0015185486 0.045743473
000010 17 82 4b 3c a6 7f 11 3d 7e 83 dc 3c e1 2a 7c 3c
       0.012421153 0.035522126 0.02691817 0.0153910825
000020 54 53 89 39 c7 74 1b bc c0 51 82 3c 28 27 b6 3c
       0.0002619276 -0.009488291 0.015908122 0.022235468
000030 76 83 92 3c 80 18 14 3d 4d d1 af 3c 90 36 f3 3c
       0.017884951 0.036156178 0.021462107 0.029689103
000040 7a 51 61 3d d1 d8 cd 3c 01 bc 00 3c 89 53 47 3d
       0.055009343 0.0251278 0.007857324 0.04866365
000050 ec 54 c1 3c 40 c2 35 3d 6d 1c 51 3d 07 96 33 3d
       0.023600064 0.044374704 0.0510525 0.04384425
000060 f0 24 d4 3b 24 cd e7 3c 31 a5 3e 3d 91 db ac 3c
       0.00647413 0.02829606 0.046544258 0.021100791
000070 0c de 6d bb f4 f1 14 3d a8 a3 2b 3d 09 1f bb bb
       -0.003629568 0.036363557 0.04190412 -0.005710487
000080 02 56 3c 3c e0 ab 70 3c 5b 53 6f 3c a6 0a 86 3c
       0.011495115 0.014689416 0.014607276 0.0163625
000090 15 97 b9 3c ae a2 7b 3c 3c cf 39 bc f4 fa 9f 3b
       0.02265505 0.01535861 -0.011340912 0.004882211
0000a0 66 0b 4b 3c a1 7b 25 3c 90 bb 19 3c 68 48 87 3c
       0.012392854 0.010100276 0.009383097 0.016514018
0000b0 71 99 2e 3d 13 af 15 bc 89 13 31 3d fa 1c 72 3d
       0.042626802 -0.009135979 0.04323152 0.059109665
0000c0 c9 9a d8 3b 96 cf 80 3d
       0.0066102487 0.06289594

dense2.weight f4 [1, 50]
000000 33 b8 b7 3d eb ef 4f 3d c1 db 0b be 7a 02 7b bd
       0.0897068 0.050765913 -0.13658048 -0.06128166
000010 24 7a 9b 3d 59 f8 f1 3c ee 14 15 be 24 26 16 3e
       0.07591656 0.029537367 -0.14558765 0.14662987
000020 f5 e5 e9 bc 72 46 0f 3e 8a 49 d2 bd 68 5d 26 bd
       -0.028552035 0.13991717 -0.10267933 -0.040616423
000030 6d 66 e0 3d 79 1e d1 3d ba 0a 7c bc 1a 33 98 3c
       0.10957036 0.1021089 -0.015383417 0.018579055
000040 a1 17 b2 bc dc 50 d4 bd c5 9d 1d 3e 6b 84 07 be
       -0.021739783 -0.10366985 0.15392216 -0.13234107
000050 67 81 09 be 4e 41 c3 3d 5e f6 b2 bd 46 2f b7 bd
       -0.1342827 0.0953394 -0.08738397 -0.089445636
000060 91 98 0f bd 48 15 00 be ff 88 bc 3c 38 4b 5f 3d
       -0.035057608 -0.12508118 0.023014544 0.054515094
000070 58 ac 4f 3d 43 9f 17 3e 4f 3f 06 be 3b 53 99 3d
       0.05070147 0.14806847 -0.13110088 0.07486578
000080 c5 62 ce bd 76 81 0a be ad 6e 91 bc 38 0b 4f bd
       -0.100774325 -0.13525948 -0.01775297 -0.05054781
000090 29 b6 d2 3d 23 ea 8c bd 13 ab 95 3d 70 0a 22 bd
       0.102886505 -0.068805955 0.073080204 -0.039560735
0000a0 ab 9b 14 3e b8 d0 ad 3d c9 aa d2 3d ab db 85 bd
       0.14512508 0.084870756 0.10286481 -0.06536039
0000b0 0b 9b 90 3d 9f cf 7a 3d 54 98 86 bd 97 7b 6e 3d
       0.07060822 0.06123316 -0.06572023 0.058223333
0000c0 94 7e af bd 9b e3 32 bd
       -0.08569065 -0.043674093
