time_series_forecasting/saved_models/CNNForecastingModel/18-03-2024-002950_NO1_epoch_2.pt (torch, 258475 bytes, 7 tensors)

conv1.weight f4 [64, 3, 3]
000000 10 a1 a3 3e 39 e5 23 be 5d 3e 97 3c 91 78 8b be
       0.31958818 -0.1600541 0.018462354 -0.27240422
000010 e3 4e 92 3e 68 09 2f be 5b e3 fd bd ac 50 65 3e
       0.2857581 -0.17093432 -0.1239688 0.22394055
000020 76 1c 71 be cb de 71 be 8e 4e a1 3e 4f 30 7e 3e
       -0.23546013 -0.23620145 0.31505245 0.24823116
000030 d3 d9 f2 3d c8 19 92 3e 9a 72 8c be 1e bd 92 3e
       0.11857953 0.28535295 -0.27431184 0.2865991
000040 ad 36 7b bc 4b bc 78 3d 99 5c 46 3b 1e 6a 87 3e
       -0.01533286 0.060726445 0.0030267595 0.26448148
000050 2b dc 87 3d 66 6c 3f bd bf 23 2e 3e c8 b9 90 3e
       0.066337906 -0.046734236 0.17005824 0.2826674
000060 de 24 a3 be cc 8e 76 3d 28 7c 4c 3e 30 af 52 3e
       -0.31864065 0.060194775 0.19969237 0.20574641
000070 9f fb 09 be a5 5b 4a bd 42 57 99 3d 24 4f 3d 3d
       -0.13474892 -0.049403805 0.07487346 0.046218053
000080 12 28 84 be c9 50 8e 3e 32 de ba 3d ff fe 50 be
       -0.2581182 0.2779601 0.09124412 -0.20409773
000090 b9 97 29 be 21 95 a4 3e 93 6a a5 be 09 58 5c be
       -0.16561784 0.32145026 -0.32307872 -0.21517958
0000a0 77 ba 2e 3e a6 58 e8 bc 13 26 6c be d9 c5 42 bd
       0.17063318 -0.028362583 -0.23061399 -0.047551963
0000b0 4e 00 97 be e9 ae a1 be 3b 54 26 be e0 1e 9d bb
       -0.2949242 -0.31578758 -0.16243069 -0.0047949404
0000c0 fb 23 77 bd 49 1d 9c bd b1 66 85 be e7 a7 07 3e
       -0.060337048 -0.07622773 -0.2605491 0.13247643
0000d0 51 25 97 3d 5e 23 49 be e9 a8 71 3e 4d b5 c5 3c
       0.073801644 -0.19642398 0.2359959 0.024134303
0000e0 68 82 43 3d 22 87 4a 3e 9e 3c 33 bd 1c 68 84 be
       0.047731787 0.19778112 -0.04375898 -0.2586068
0000f0 9a 42 8e be 40 2e 84 be 48 a9 7a 3e 1f 9f a3 bd
       -0.27785188 -0.25816536 0.24478638 -0.07989334
000100 d2 6d a5 3d e9 14 75 bd 7b b7 75 3d 97 31 ef 3d
       0.08077587 -0.059834395 0.059989434 0.116793804
000110 9b 31 db bc 0e ab f0 3d 4b 6a 84 3d de 18 10 be
       -0.026757052 0.11751376 0.06465586 -0.14071986
000120 7e 5f 48 3e 3a 74 ab 3e 0d c3 36 be 00 6c d3 bc
       0.19567677 0.3348711 -0.17847843 -0.025808334
000130 04 66 21 be b8 2d a5 3e dd a6 ae 3b e6 a3 81 be
       -0.15761572 0.32261443 0.0053299502 -0.25320357
000140 0b 0a 0e be 53 f5 a1 3e d5 fb 45 be a8 12 ba bd
       -0.13871019 0.3163248 -0.19334348 -0.0908559
000150 a9 ef 93 be 0b d1 27 3e 56 69 08 be ee 7c 16 be
       -0.28893784 0.16388337 -0.13321432 -0.14696094
000160 b2 b0 ec bd 9b 57 58 bd ea ce 6b 3e 2d f6 57 3e
       -0.115571395 -0.052817922 0.2302815 0.21090002
000170 1c 32 0b be 42 73 4b 3e 6e 27 fc 3d 57 c7 a8 be
       -0.13593334 0.19868186 0.12312208 -0.32964584
000180 91 49 00 3e c3 af 88 3e 67 02 6d be 1f 15 ac 3e
       0.12528063 0.26696596 -0.23145448 0.33609864
000190 70 6b 3d 3d 8b 4c d1 3d 2b cb e0 bd df 55 ba 3d
       0.04624504 0.102196775 -0.10976251 0.0909841
0001a0 c1 a5 c4 bd f3 d1 90 be 40 64 97 be b2 af ae be
       -0.096019275 -0.2828518 -0.29568672 -0.3411842
0001b0 92 d3 5a 3e c0 84 86 be 7d cc 33 3e 37 52 92 be
       0.2136977 -0.26273155 0.17558475 -0.2857835
0001c0 27 01 51 3e 27 79 32 3d 53 b6 dd 3d 7c 7a 84 be
       0.20410596 0.04357257 0.10825791 -0.25874698
0001d0 be 2a 90 3e 97 49 7c be bf e0 0c 3d 9c 41 15 be
       0.2815761 -0.24637447 0.034394022 -0.14575809
0001e0 70 4d 9e 3d 46 96 a3 3c 8c d1 cd 3d 68 cd b6 3b
       0.07729614 0.019969117 0.100497335 0.0055786856
0001f0 26 5c 8d 3e a3 b3 36 3e 16 ba 48 3e bb fc f4 3d
       0.27609366 0.17841963 0.19602236 0.11962267
000200 11 5e e1 bd f2 a7 65 3e 3a 64 05 3e 10 e3 27 be
       -0.1100427 0.22427347 0.13026515 -0.16395211
000210 27 35 60 3e 7c 5a 31 be 1e 1f 26 be 54 3d a1 be
       0.21895276 -0.17319673 -0.16222808 -0.31492102
000220 83 fc b5 be 70 78 8e be 19 19 54 be 5c 27 ef 3d
       -0.35544214 -0.27826262 -0.20712699 0.11677429
000230 0d 1a 0a be e4 76 9c 3d 31 48 14 be e3 04 26 be
       -0.134865 0.07639864 -0.14480664 -0.16212802
000240 32 f3 69 be 79 cf a5 bd bf 2f 6f 3e 93 34 0a be
       -0.22846678 -0.08096213 0.23358057 -0.13496618
000250 de f3 96 bd b0 93 94 be eb 73 2e be 39 84 48 3b
       -0.07370733 -0.29018927 -0.17036407 0.003059639
000260 b4 dd e3 bc 72 87 6a 3e bf bb 6b bd 33 67 53 3e
       -0.027815677 0.22903231 -0.057552096 0.20644836
000270 44 cd 0e be 80 5f 5d 3e 47 07 65 3d b6 b7 39 be
       -0.1394549 0.21618462 0.055915143 -0.18136486
000280 57 d1 9e be 7c 8c 91 bd 99 ec 57 3e df ee 10 3e
       -0.3101909 -0.071068734 0.21086349 0.14153622
000290 ed eb 8d 3d 0b 89 9c 3e 78 93 ae bd f4 da 3b be
       0.06929765 0.30573305 -0.08524221 -0.18345243
0002a0 b1 42 be b9 90 7d 8d 3e be 24 42 bd 9a 6a 87 be
       -0.00036289313 0.2763486 -0.04739832 -0.26448518
0002b0 88 4e 5f be 6f f0 a2 be 81 1c 5e 3e 47 f6 d0 bd
       -0.21807301 -0.3182406 0.21690561 -0.10203224
0002c0 e8 b8 09 be 8d ac 46 3e 5f b1 33 bd 38 49 2d 3e
       -0.13449442 0.1940176 -0.043870326 0.16922462
0002d0 59 54 1c be e0 95 a4 3e 53 47 59 be f0 82 73 be
       -0.15266551 0.32145596 -0.21218614 -0.23780417
0002e0 ab 2f 85 be a7 71 2d 3e e0 7b c6 bd 5a 00 c0 3d
       -0.2601293 0.16937886 -0.09691596 0.09375067
0002f0 07 db 75 3d 75 dc 6e 3e a7 94 4f be cb f6 53 3e
       0.060023334 0.23326285 -0.2027155 0.20699613
000300 eb 28 a8 be 4c 50 9e 3c a5 7f 83 be 4b a8 5e be
       -0.32843718 0.019325398 -0.25683323 -0.21743886
000310 6d 62 8f bd a4 7c 6d 3e 76 43 05 be 3a be 32 3e
       -0.07001195 0.23192078 -0.13014016 0.17455378
000320 d6 10 39 3e 49 f1 a0 3d 52 58 88 be 9b 9f 34 be
       0.18072829 0.078585215 -0.26629883 -0.1763901
000330 da 5b d3 bc a7 6d 85 be 93 41 f0 bd 58 cb c9 3d
       -0.025800634 -0.2606022 -0.11731257 0.09853238
000340 7f 76 5e be 29 a4 16 be 2f 1a 95 3d cc 6f 33 3e
       -0.2172489 -0.1471106 0.07280385 0.17523116
000350 43 1d 54 3e a0 b0 45 bd c0 83 d2 3d 58 59 2f be
       0.20714287 -0.048264146 0.102790356 -0.17123926
000360 4f e2 9b be 6b 37 37 3e 8b 79 80 3e af 52 38 be
       -0.30446097 0.17892234 0.2509273 -0.18000291
000370 e2 52 a8 3e da 42 93 be 5b 37 9d be 7f d8 0f 3e
       0.32875735 -0.2876194 -0.30706295 0.1404743
000380 19 d5 28 3e 32 43 dd 3d 6f 60 97 3e 1b 5c 9e 3e
       0.1648754 0.10803832 0.2956576 0.30929646
000390 6e ff cb bd 7a 5c 20 3e b1 36 67 bd 22 44 8f be
       -0.09960829 0.15660277 -0.056448642 -0.2798167
0003a0 5c 4d 69 be 7b 30 ab 3d 93 b2 96 be 85 2d 92 3e
       -0.22783417 0.08358856 -0.29433116 0.28550354
0003b0 69 f9 98 3e 14 2d 15 be 18 38 85 be e8 fb 89 3e
       0.29877785 -0.14567977 -0.2601936 0.26950002
0003c0 28 9f 0d 3d 00 33 08 3e c9 96 29 be f5 c5 df 3c
       0.03457561 0.13300705 -0.16561426 0.027316073
0003d0 1a c6 80 be ac e8 64 be e5 96 da 3d fb 2d 1d be
       -0.2515114 -0.22354382 0.10673312 -0.15349571
0003e0 e4 b3 57 3e ed 77 34 3e 34 ec a9 be 04 51 9f be
       0.21064717 0.17623873 -0.3318802 -0.31116498
0003f0 ee 9c 28 3e 21 d1 c5 3d e7 79 fa 3d 23 68 ae bc
       0.16466114 0.09659029 0.12230282 -0.02128989

conv1.bias f4 [64]
000000 a8 20 38 be 5e b8 f7 3d 65 75 58 3e 32 06 40 be
       -0.17981207 0.12095712 0.21138532 -0.18752363
000010 22 c8 7c ba 85 00 07 bd ff ba 81 be 16 de 87 3e
       -0.0009642859 -0.03295948 -0.2533798 0.26536626
000020 bc 21 2f bc bc 39 d6 3d dd 57 cb bd 8b b6 b4 3d
       -0.010689195 0.10460231 -0.09928868 0.0882388
000030 d6 ff 51 3e 02 5e 65 3e 74 aa 0c 3e e4 72 48 be
       0.2050775 0.22399142 0.13736898 -0.19575077
000040 00 d0 7b bd af 1a 88 be 3e e4 91 be 3c c6 5e be
       -0.06147766 -0.26582858 -0.28494447 -0.21755308
000050 6e b6 7b 3e ea f5 f9 3d fa e8 a3 3d 73 95 c0 bd
       0.2458131 0.122051075 0.08003421 -0.09403505
000060 d0 5e 0b bd 05 d6 6d 3e 7c 02 ac 3c 52 ae 14 3e
       -0.034025967 0.23226173 0.020997278 0.14519623
000070 84 ac 63 3e a3 7d 2b 3e 4b ea 93 be ec e4 a1 be
       0.22233778 0.16747145 -0.2888969 -0.31619966
000080 17 2f 47 3e 2b 90 37 be 84 a8 24 be ba 91 80 be
       0.19451557 -0.1792609 -0.16079909 -0.2511118
000090 9e bf b0 3e f9 2a 5d be 79 e3 96 3e 44 ae 27 be
       0.34521192 -0.21598424 0.29470423 -0.16375071
0000a0 54 e8 7d be 3e 61 48 3e 99 83 95 be c8 a5 02 be
       -0.24795657 0.19568345 -0.29201964 -0.12758553
0000b0 04 67 8e be a8 89 95 be 72 8c 7c bd ec 71 dd bd
       -0.2781297 -0.29206586 -0.061657377 -0.108127445
0000c0 e3 07 5b be df 27 aa 3e 21 9a 8f be 2b c4 1d bd
       -0.21389727 0.33233544 -0.2804728 -0.03851716
0000d0 34 bc 68 3e f7 8c dd bd ff 4d 43 bd 6d c7 81 be
       0.22728044 -0.108179025 -0.047681805 -0.25347462
0000e0 02 dc 74 be a0 d6 28 bb 54 e4 3c 3e a3 62 9d be
       -0.23912051 -0.0025762692 0.18446475 -0.30739316
0000f0 39 d8 99 3e d4 3f fa 3d b1 ab e8 3d 85 5c 63 be
       0.30047777 0.122192055 0.113608725 -0.22203262

conv2.weight f4 [128, 64, 3]
000000 db 95 01 3d e6 42 e1 bc 7d c1 0e 3d 6b d1 00 bc
       0.031637054 -0.02749772 0.034852494 -0.007862429
000010 2e 3e 7c bd 91 6b 92 bd 1e d7 3d bc dc fb 3f bd
       -0.061582737 -0.07149423 -0.011586932 -0.04687105
000020 0c 76 93 bd a7 bc a9 3c 05 14 52 bd b0 f4 85 bc
       -0.0720025 0.02071984 -0.051288623 -0.016352028
000030 2f f1 35 bd 3e 8e 6f 3d b8 9b ff bc 6a bd 05 3d
       -0.044419464 0.058485262 -0.031202182 0.032651342
000040 a9 4d 67 3d c7 8d 01 bd ca 35 e7 3a 45 3c 9a bd
       0.056470547 -0.03162935 0.0017639932 -0.07531027
000050 98 eb 76 3d 92 76 48 bd ac ee 0a bd af d5 7a 3b
       0.060283273 -0.048941202 -0.03391902 0.0038274338
000060 5d 57 8e bd d1 e1 50 bd 67 16 ca b9 6c 86 81 bd
       -0.06950257 -0.050996605 -0.00038545133 -0.06324467
000070 be 4d 94 3c 22 b9 12 bd e5 76 39 3d 0d ac 98 bd
       0.018103477 -0.035821088 0.045279402 -0.07454691
000080 41 df 80 bd 3d 82 cf 3c 87 f4 b5 bd 7f d5 5a bd
       -0.06292582 0.025330657 -0.088845305 -0.053426262
000090 c6 39 9e 3c 90 39 59 bd 25 e3 de 3c 5d 0e 47 3d
       0.019314658 -0.05303341 0.02720792 0.048597682
0000a0 94 79 16 3c 66 2c 5e bd e6 5e 3a 3d 6b 70 f1 3c
       0.00918426 -0.05424156 0.04550066 0.02947255
0000b0 0f a0 4a bc da b8 49 3b e5 29 15 bb 84 b4 13 bd
       -0.0123672625 0.0030780346 -0.0022760567 -0.036060825
0000c0 87 75 06 3d 95 8a 3a bd 14 c6 79 bc 35 95 3b bd
       0.032826927 -0.04554232 -0.015244979 -0.04579659
0000d0 57 13 2b bd 40 bc 88 bc cd b1 2e bd 38 ac 37 bd
       -0.04176649 -0.016691327 -0.042650033 -0.044841975
0000e0 ad 94 25 bc e8 b0 6d bd c3 d3 f6 3c cb 53 33 bd
       -0.010106248 -0.05803004 0.030130273 -0.043781083
0000f0 b2 58 61 bd 23 0c 71 bb 50 f6 29 bd 0f 22 08 3d
       -0.055016227 -0.0036780916 -0.041494668 0.033235606
000100 52 35 8a bd be f7 84 bd d6 07 33 bd f3 a5 24 3c
       -0.06748451 -0.064925656 -0.043708645 0.010049331
000110 d0 af 66 3d 82 90 84 bd ce 66 2e bd c6 4e af bc
       0.05632001 -0.06472875 -0.04257851 -0.021399867
000120 32 b2 8b bc 6a e8 47 bd e4 27 2d 3d 84 94 88 3c
       -0.017052744 -0.04880563 0.04227437 0.01667238
000130 ce 57 30 bd 98 e4 62 bd 37 7b 6e bc b7 4a 25 3d
       -0.043052487 -0.055393785 -0.014555744 0.040354457
000140 43 6e a5 bc 57 b5 6f bd f1 6c 05 bd 9a 7b 09 bd
       -0.020194178 -0.05852255 -0.032574598 -0.03356514
000150 e5 ba 18 3d 2b 44 57 bd fb 67 19 bd 24 c6 b0 3c
       0.03728761 -0.052555244 -0.03745268 0.021578856
000160 fa 0f c7 3c 04 e6 25 bd da d7 79 3d 09 c9 68 3b
       0.02429961 -0.040502563 0.060996868 0.0035520217
000170 59 3a 44 3d ae d0 3f bd 94 66 86 bd de 2b 45 3c
       0.047907207 -0.04682987 -0.06562534 0.0120343845
000180 a4 0e d6 3c 01 65 1e bc 90 f8 e2 3b fc e6 ba 3c
       0.026130028 -0.009667636 0.0069266036 0.02281522
000190 2c d0 34 3c 42 54 39 3d 5d b1 6e bd e2 3b e0 bc
       0.01103596 0.04524637 -0.058274616 -0.027372304
0001a0 71 6f fe 3c cf 6a b0 3d 2e 31 f6 bc 8c 96 44 3c
       0.031058999 0.08614122 -0.030052748 0.011998784
0001b0 77 20 47 3c 74 17 7f bc b2 98 3e 3d 2a bd 61 3d
       0.012153736 -0.0155695565 0.04653234 0.05511204
0001c0 b6 3f 32 3d 2b e1 23 bb 61 5d 8a bd 31 de 7c 3c
       0.04351779 -0.0025006037 -0.06756092 0.015433834
0001d0 66 63 4f 3d 5a 9c 9b bd 72 68 38 bc 53 15 a2 bd
       0.050631903 -0.07598181 -0.01125537 -0.079142235
0001e0 21 63 97 bd de 22 98 ba 2b f0 fb bc 43 67 99 bc
       -0.07391954 -0.0011607071 -0.03075417 -0.018725997
0001f0 47 79 70 3d dd 94 62 3d 9c 8c 80 bd 40 cf 0d 3d
       0.05870941 0.05531775 -0.06276819 0.034621477
000200 c8 3d 67 bc e8 95 3b 3d 3d 58 37 3d 6a 63 86 3c
       -0.014113851 0.04579726 0.044761885 0.016404826
000210 0e ab fb 3c 1a a4 ee 3c 39 a4 4d bd e7 2c 6e 3d
       0.030721214 0.029130984 -0.050205443 0.05814829
000220 0f c5 ff bc ac c8 82 3d 6b 41 e6 3a a8 26 8c bd
       -0.031221895 0.063859314 0.0017567103 -0.068433106
000230 52 de f9 bc 87 1f 24 bd fc 2e c7 bd 8d b8 2c 3d
       -0.030501518 -0.04006913 -0.097257584 0.04216819
000240 fb 7b 21 3c 7e 47 5b 3d a9 07 65 bd 6e bc e0 3c
       0.009856219 0.053534977 -0.05591551 0.0274336
000250 5c 64 84 3a c1 4f 7d bd 8a 58 39 3c b8 b5 4d bd
       0.001010071 -0.061843637 0.011312613 -0.05022213
000260 4d 6f 84 bd 72 73 01 3d d7 dd cc bc dc b9 37 3b
       -0.064665414 0.031604238 -0.025008125 0.0028034365
000270 6d 8c 90 3c 2e fa b8 bc 53 63 62 3d e5 a0 89 3d
       0.017645085 -0.022580232 0.055270504 0.06720141
000280 30 a7 69 3d f3 90 85 bd f5 ae 92 3d c2 0f 58 3d
       0.057044208 -0.065217875 0.07162277 0.052749403
000290 64 28 ee 3c 6a 91 aa 3c 46 40 9c 3d d8 83 70 bd
       0.029071994 0.020821292 0.07629447 -0.058719486
0002a0 cd 10 a9 bd 84 69 82 bc e4 31 91 bd b4 b0 a3 3d
       -0.082551576 -0.015919454 -0.07089594 0.07992688
0002b0 fa 2c ca bb c5 90 c8 bc b9 92 76 3d 70 67 1f 3d
       -0.0061699124 -0.024483094 0.06019852 0.038917005
0002c0 07 43 84 bd d3 19 61 bd e3 57 4e 3c 43 c5 23 3d
       -0.06458097 -0.05495627 0.012594196 0.039983045
0002d0 94 e7 07 3d 48 7e 01 3d e7 73 00 3c ed 05 83 3d
       0.033179834 0.03161457 0.007840133 0.06397615
0002e0 61 af cd 3c 97 5b 6f 3d 66 5e 39 3d 64 99 46 bc
       0.025108041 0.058436956 0.04525604 -0.012121532
0002f0 d5 24 90 3d 72 3e 2e bd 62 63 2f 3b 7a b2 af bd
       0.07038275 -0.04254002 0.0026762118 -0.085789636
000300 be 33 ba 3d 56 85 d4 bc ba 61 9a bb f2 d0 90 3d
       0.090919 -0.025942486 -0.004711357 0.07071103
000310 b8 e8 48 bc 04 1b af 3c a1 8a e0 bb 43 2a 60 bd
       -0.012262516 0.021375187 -0.0068524634 -0.054727804
000320 88 23 36 bd 58 eb 27 bc dc c5 7a bd b5 66 49 bd
       -0.04446748 -0.010248981 -0.06122385 -0.049170215
000330 09 04 23 bc d9 b8 16 bd d0 e9 bc bd 5e f9 5a bd
       -0.0099496925 -0.03679738 -0.09224284 -0.05346047
000340 07 1d 57 bc 5f d2 6d 3d 19 d7 7c bd d6 22 29 3d
       -0.013129479 0.058061954 -0.06172857 0.041292988
000350 2c 14 2d 3d a8 e7 40 3b 89 e2 2d bd 84 c7 4f 3d
       0.042255566 0.0029434953 -0.04245237 0.050727382
000360 ba 32 7e bd 77 fc ab bd ac fd 4c 3c c1 7c 8b 3c
       -0.062060095 -0.08397763 0.012511652 0.01702726
000370 9f 49 16 bd 9e 5d 4e 3c ca 1b ec 3c f0 e4 22 bd
       -0.036691304 0.012595562 0.028821845 -0.039769113
000380 bd 9f ce 3c 9a 9a 88 bc 3b 2a 23 3d f1 d9 7a 3c
       0.025222654 -0.016675282 0.039835196 0.01531075
000390 6c bb d2 3b 70 d9 0c bd 4a 7a d6 bc e1 9f 70 3d
       0.006431034 -0.034387052 -0.026181359 0.058746222
0003a0 a7 d0 2b bd c4 c6 4b bd 66 3e 4c bd c5 0e d3 bc
       -0.041947033 -0.049750105 -0.049864195 -0.025763879
0003b0 92 de 3f 3d 90 0e 95 3d 33 ee df 3c cc cf c7 bd
       0.04684312 0.07278168 0.027335262 -0.09756431
0003c0 de b6 2c 3d e5 a3 3d bd d0 c1 88 bb 78 16 36 bc
       0.042166583 -0.04629888 -0.004173495 -0.011113755
0003d0 59 2f 26 3c 5a bc 7a bc 2f 30 ad 3b 67 f0 0c bd
       0.0101431245 -0.015303696 0.005285285 -0.034408953
0003e0 d2 43 11 bb dc 0f 92 3b 99 a9 67 bc 0c ab e4 bc
       -0.0022165668 0.004457457 -0.014139556 -0.027913593
0003f0 cf 2a ea 3b 2c 3f 18 bd 9c d9 3b bd b2 4b a5 bc
       0.0071462165 -0.03716962 -0.045861825 -0.020177696

conv2.bias f4 [128]
000000 47 48 6f 3d 16 66 1b bd b5 29 c8 bb af 4c 02 bd
       0.05841854 -0.037939154 -0.0061084875 -0.031811412
000010 c4 19 45 bd 1d 69 00 bd 90 1a 49 bd b3 45 e6 3c
       -0.048120275 -0.031350244 -0.049097598 0.028109407
000020 42 38 0d bd be 39 b4 bb 85 0e 1b bd b7 bc 26 bd
       -0.03447748 -0.0055000475 -0.037855644 -0.040707316
000030 6b a4 11 bd 33 d7 61 3d e0 c1 23 bd 76 ba a9 3c
       -0.03555719 0.05513687 -0.039979815 0.020718794
000040 74 b6 f1 bb 9e 8d c8 3b b4 75 84 bd f7 ee 5c bc
       -0.0073764864 0.0061203977 -0.064677626 -0.013484708
000050 43 95 d7 bc 7b 1c 00 bd 9a de 8e bc 2c fb 47 bd
       -0.02631629 -0.03127716 -0.01744013 -0.04882352
000060 bc 49 7a bc 74 a5 7f 3c 1a 1b 9f 3c 80 4a 99 bc
       -0.015276369 0.015603412 0.019422103 -0.018712282
000070 d9 1a db bc fd 25 6e bd c1 fb 4b 3b fb bd 0d 3c
       -0.0267462 -0.058141697 0.0031125399 0.008651252
000080 d8 d5 77 bc bf 5f 45 3c 01 01 54 bd c0 c5 c4 3c
       -0.015126668 0.012046753 -0.05175877 0.024020076
000090 0a c6 ba bc de 8d 5f 3d 83 2f 84 3d 8e 26 81 3c
       -0.02279951 0.054578654 0.06454375 0.015765455
0000a0 e1 a0 11 3c 21 a1 06 3d 42 fd 71 bb 06 df 85 bb
       0.008888454 0.03286851 -0.0036924635 -0.0040854244
0000b0 b9 a7 ad 3b 4d ae a9 3c 71 d5 e6 bc 70 40 09 bd
       0.005299535 0.020712996 -0.028177949 -0.033508718
0000c0 8b 7e 05 bd 78 6e cf bb 73 07 e2 3c aa f8 34 3d
       -0.032591384 -0.0063303076 0.027591443 0.044182457
0000d0 25 2c 0c 3c 65 ef 2c bd 67 0a 3a 3d 47 2c 87 3d
       0.008555447 -0.042220492 0.045420077 0.06600242
0000e0 03 98 06 bc 73 84 2a 3d 17 c2 9c 3c 02 12 0e bb
       -0.008214953 0.04163022 0.019135518 -0.0021678214
0000f0 00 6b 6c bd aa 4b 37 bd 17 b3 f0 3c dd 70 90 3c
       -0.05771923 -0.044749893 0.029382272 0.017631942
000100 3f 29 be bc 91 60 43 3c 03 0e 15 bd 99 93 0d 3d
       -0.023213027 0.011924879 -0.036390316 0.03456459
000110 bb e6 2f 3d 15 87 36 bd 14 4b 60 bd ac 70 f1 3c
       0.04294465 -0.044562418 -0.0547591 0.029472671
000120 52 53 7c bd ba a1 c8 bc 2c 83 65 3d 85 a3 60 3d
       -0.061602898 -0.02449118 0.0560333 0.054843444
000130 24 76 3f 3d 15 13 ab 3a 9d ba 31 bd a6 3f 2f bc
       0.046743527 0.0013051952 -0.04339086 -0.010696327
000140 5e ec 0e bd ff dc 5a 3d 10 14 0e bd 5f ca 31 b9
       -0.034893386 0.053433415 -0.0346871 -0.00016955425
000150 fd 47 77 3d 35 b4 4a 3d 09 c0 4f 3d 5d b9 2f bd
       0.060371388 0.049488265 0.05072025 -0.042901386
000160 84 58 53 3c 0d ed 92 bc e6 c4 1a bd 8b 77 a2 b9
       0.012899522 -0.0179353 -0.037785433 -0.00030988114
000170 20 77 bb 3c 83 e7 8f bc 8f ff 26 bd 8f 96 d7 3c
       0.022883952 -0.017566448 -0.040771063 0.02631691
000180 fc d5 31 3d ff 80 d6 bc 39 11 6f 3d a0 94 b7 3c
       0.043416962 -0.026184557 0.058366034 0.022409737
000190 92 4e 11 bd ce 56 21 3d 79 b1 16 3d 8b c2 20 3d
       -0.03547532 0.039389424 0.036790345 0.03924803
0001a0 56 d3 f6 bb 1c f5 11 bd c4 f8 6e bd 1d 41 05 3d
       -0.0075325174 -0.035634145 -0.05834271 0.0325328
0001b0 e0 3d 70 3d b8 fc a8 bc 87 6e 05 3d 3b da e6 3c
       0.05865276 -0.020628318 0.03257611 0.028180232
0001c0 38 11 80 bd 0e 4d 7f 3c c3 53 29 bd a7 bf 08 3d
       -0.06253284 0.015582336 -0.041339647 0.0333859
0001d0 c8 a8 c8 3c 25 1a 82 3d 95 68 04 3d 7a ed 19 bd
       0.024494544 0.06352643 0.0323263 -0.03757999
0001e0 dc b3 5e bd a3 5e 8a bd 7c b9 d3 ba 47 26 53 bd
       -0.054370746 -0.06756332 -0.0016153301 -0.051550176
0001f0 74 f0 78 bd 23 ec a1 ba ee 6c 1b 3d 57 97 51 bd
       -0.06077619 -0.00123537 0.03794568 -0.05116972

dense1.weight f4 [50, 768]
000000 5b f6 de 3c 3e 8e 5a bc 65 62 26 3d 4e 91 bc 3c
       0.02721708 -0.013339577 0.04062118 0.023018505
000010 22 77 92 3c 8d 44 7a b9 b8 32 be 3d 83 93 00 bc
       0.017879073 -0.00023867395 0.092870176 -0.00784767
000020 b7 a7 d6 3c 55 e4 3c bc 0b f4 23 3c 92 70 6e 3c
       0.02620302 -0.011529048 0.010006915 0.014553206
000030 d9 c5 dc 3b fc 4f a4 3c 02 1e 5f 39 09 c0 24 39
       0.0067374525 0.02005767 0.00021278116 0.00015711797
000040 50 c6 06 3d 57 a1 ac bc ef d0 ea 3b 18 1b ff 3b
       0.03290397 -0.021073027 0.00716602 0.0077852122
000050 0c d1 1c 3c 15 86 80 3c f7 09 02 3d e9 51 e2 3c
       0.009571325 0.015688935 0.031747784 0.027626948
000060 7b d5 91 3d a8 1e f9 3c c2 98 6e 3c f5 63 82 bb
       0.07120796 0.030410126 0.0145627875 -0.003979201
000070 61 a3 94 3c 7b ea 26 bc 99 30 72 3d 0e 06 97 bc
       0.018144311 -0.01018774 0.059128378 -0.018435504
000080 f7 fe c4 3a d2 1d e1 bc c5 0e 77 bc 80 92 ff 3a
       0.0015029599 -0.02748004 -0.015079205 0.0019498616
000090 4f 4e 9e 3b 16 5e 87 3c 9e a4 c7 bb 0f ec 14 3d
       0.0048311125 0.016524356 -0.006092622 0.036357936
0000a0 86 88 8e 3c be ba 85 3c 6e bd d2 bb 22 8b 10 bd
       0.017399084 0.016324397 -0.006431273 -0.035288937
0000b0 48 83 55 bc 86 e7 c7 bc fd 17 91 bc 61 01 40 bc
       -0.013031788 -0.024402391 -0.017711634 -0.011719079
0000c0 96 d5 92 bd 1f c5 cd 3c 05 c5 0f bc 82 30 98 3c
       -0.071696445 0.025118409 -0.008775 0.018577818
0000d0 1b 0a e6 3c 11 b9 52 bd 16 82 d0 3c 5f f4 14 bc
       0.02808099 -0.051446024 0.025452655 -0.009091466
0000e0 ad fd 22 3a 54 ff 06 bd 1f 0b 28 3b bd d9 0f 3d
       0.000621761 -0.032958344 0.0025641394 0.03511976
0000f0 15 e4 90 bc 6e f2 15 bc 67 ed 07 bd af f2 dd bc
       -0.017686883 -0.009152038 -0.03318539 -0.02709326
000100 b8 be 0e bd 8b e2 14 bd 51 88 1e bc fe 7b 0f bd
       -0.034849852 -0.03634886 -0.009676055 -0.035030358
000110 6b d5 4e bb 0f 21 06 3d 8b d3 c6 ba fe f7 bb bb
       -0.0031560312 0.03274637 -0.0015169246 -0.00573635
000120 b5 b3 ab bc cc d2 0f 3c 4b a8 26 bd e8 89 b3 3c
       -0.020959714 0.008778285 -0.04068784 0.021916345
000130 3d 3e b2 ba 90 7f 4f bd 0a 98 27 3d 7b c7 2d bc
       -0.0013598871 -0.050658762 0.04091648 -0.010606642
000140 a1 5a 51 ba fb 86 89 3c d0 63 8b bb ff ff 14 3d
       -0.0007986222 0.016787997 -0.004253842 0.03637695
000150 4a 03 9b 3c 75 07 81 3c fd 63 81 bc df 75 b9 bc
       0.018922467 0.015750626 -0.015794748 -0.022639213
000160 4f 0c d6 3c 5c 9e 95 3c 31 5c 95 3c 0c b5 a4 3c
       0.026128916 0.018263988 0.018232437 0.020105861
000170 9e e8 96 3c 19 56 86 3c b5 cd b8 3c a7 6d 1b 3d
       0.018421467 0.016398476 0.022559026 0.03794637
000180 28 a5 00 bb ed de f3 3c e7 c1 1f 3d ef 5e 0c 3d
       -0.001962969 0.029769385 0.03900328 0.034270223
000190 a1 9e 61 3c 97 07 7a bc 4e 21 cb bc 3d e5 5f 3c
       0.01377073 -0.015260599 -0.024796154 0.0136654945
0001a0 44 01 e5 bc e3 f4 24 bb 20 dd 49 bb 93 7e c3 bc
       -0.027954705 -0.0025170378 -0.0030801967 -0.023864066
0001b0 36 b0 3c 3d 69 34 0b 3d 39 ac 9c ba 93 c7 56 bc
       0.046066485 0.03398553 -0.0011953182 -0.013109106
0001c0 80 30 43 bc 3f a0 e9 3c 46 1b b9 bb e4 8c ff bc
       -0.011913419 0.028518794 -0.005649003 -0.031195112
0001d0 a0 6d cd bc 8f 8d d5 bc 9e 3f 2e bc 07 9f bf 3c
       -0.025076687 -0.026068477 -0.010635285 0.02339126
0001e0 cf 40 1b bd 9e 4c 95 bb f8 e5 30 bb 5f 1e 92 3c
       -0.037903603 -0.0045562526 -0.002699254 0.017836748
0001f0 36 94 08 3c f1 35 83 bc 51 bf 08 bc d6 58 0b 3d
       0.0083361175 -0.016016932 -0.008346395 0.034020267
000200 54 09 e5 bc e4 4a ad 3c d8 12 db 3c 8b bc 37 bb
       -0.02795855 0.021153875 0.026742384 -0.0028035964
000210 56 82 b4 bb eb 6b 6e bc 75 71 03 bd 4d 79 4e 3b
       -0.0055087013 -0.014552097 -0.032090623 0.0031505406
000220 68 ab 8e 3c 32 a0 aa bc 6e 33 f6 3b 04 dd b5 3c
       0.017415717 -0.02082834 0.007513455 0.022200115
000230 2c e2 77 3c 4d 93 2e 3c 27 d1 18 3c 82 64 f8 bb
       0.015129607 0.010655236 0.00932721 -0.007580341
000240 c7 8a c6 3b b1 2a e1 3c c5 f1 6a bd 6b 2d 4c bc
       0.006059024 0.027486177 -0.057359476 -0.012462
000250 31 54 8f bc cf 4a 05 bc 5e 6b 24 3d 9a ab b1 3b
       -0.0174962 -0.008135512 0.040141456 0.005422068
000260 7a f1 dc bc 21 61 85 bc 11 eb df 3c 14 81 0c 3d
       -0.026970614 -0.016281666 0.027333768 0.034302786
000270 ce 44 c5 3c 17 dc a1 bc fd 9e 02 3d 48 91 0f 3d
       0.02408066 -0.019758267 0.031889904 0.03505066
000280 1c 8e b0 3c b5 b2 04 3d 96 98 24 bc 2b 9a 1e bd
       0.021552138 0.03239699 -0.010046145 -0.038721245
000290 17 2c 07 bd 92 8e fe bc 86 49 29 bc ff d4 16 bc
       -0.03300103 -0.031073842 -0.010332471 -0.009206056
0002a0 0d 18 96 3c 49 8b e7 bb b4 5c 77 3b 9c 92 a1 bc
       0.018322015 -0.0070661646 0.0037744464 -0.01972323
0002b0 eb 41 4e bd 4f 9b 41 bd 14 63 05 3c 24 74 38 bb
       -0.050355833 -0.047267254 0.008141298 -0.0028145397
0002c0 67 ad 02 bd d1 9e ee 3c bb 74 f9 39 3c 2a 50 3c
       -0.03190365 0.029128464 0.00047579952 0.012705382
0002d0 5d 21 ae 3c 26 3a 0a bd c0 ca e5 3c f8 38 89 3c
       0.021256143 -0.03374686 0.02805078 0.016750798
0002e0 d4 55 ed 3b 69 e9 e9 3c b1 ef 32 bb bc 4b 8d 3c
       0.0072428975 0.028553681 -0.0027303512 0.017248027
0002f0 5f 6e de bc b4 68 07 3d b4 a0 a6 bc 7a c8 ce bc
       -0.027152238 0.033058837 -0.020340301 -0.025242079
000300 d1 cf 58 3c 7e c6 58 3c ea 84 b3 bc c1 11 cc bc
       0.013233141 0.013230918 -0.021913964 -0.02491081
000310 d3 0b 0f 3c 7b 0b 90 bc 1c e6 47 3d ec 9e b8 3a
       0.008730846 -0.0175836 0.048803434 0.0014085448
000320 24 48 d7 bc 2b 09 9f bc d8 36 75 bc c1 61 18 bc
       -0.026279517 -0.019413551 -0.014966689 -0.00930065
000330 63 f0 ee 3c db b7 4f 3c 28 10 b5 bc c6 8e a9 bc
       0.02916736 0.012678112 -0.02210243 -0.020697962
000340 08 b4 d2 bc ba 74 bc ba 27 de 34 bc 94 c0 9d 3c
       -0.025720611 -0.0014378049 -0.011039293 0.019256867
000350 46 6a a1 bc 0a 57 2f 3c 9b 7b 50 bc f6 34 66 3c
       -0.019703995 0.010701904 -0.012724782 0.014050713
000360 54 71 b1 ba 2b 88 8f 3c 9b 90 9d 3c 86 44 5d 3b
       -0.0013537803 0.017520985 0.019233992 0.0033762767
000370 85 ce 49 bb df 73 96 3c 8c 0f 50 bd f2 d1 9a 3a
       -0.0030793261 0.018365799 -0.050796077 0.0011811836
000380 6f d4 f8 ba bb 83 da 3b c8 13 b4 3b 19 5c 2b 3b
       -0.0018984209 0.0066685355 0.005495522 0.0026147424
000390 a3 a3 92 bb 0c 8a 41 3c 6f 89 1d bd 99 c2 eb bc
       -0.0044750734 0.011812698 -0.038461145 -0.028779315
0003a0 bd cd a3 ba 8d ee 80 bd b6 e7 0f 3c 8a 4a 6a 3c
       -0.0012497228 -0.062955 0.008783272 0.014299998
0003b0 4a 8a 41 3b 9d 12 16 bc 98 d9 49 3a 77 a4 2f 3d
       0.002953189 -0.009159711 0.00076999655 0.042881455
0003c0 90 ed 5c bc 19 f1 ff 3c fa 4a 1d 3d e8 1e bd 3c
       -0.013484374 0.031242894 0.03840158 0.023086026
0003d0 3a 03 1f bc 98 50 65 bc e6 50 07 3d b2 0f 89 bc
       -0.009705359 -0.013996266 0.033036135 -0.016731117
0003e0 28 e5 5a 3c 39 71 00 bd bc 7b c5 bc c1 f9 ed 3a
       0.013360299 -0.031357978 -0.024106853 0.0018156098
0003f0 59 f3 d5 3c 0a 8c e5 3c 85 f3 0b 3c fa 36 cb 3c
       0.026117014 0.028020877 0.008541946 0.024806488

dense1.bias f4 [50]
000000 b9 a7 09 3d fc 94 0d 3c ab f2 32 3d 83 75 41 3d
       0.03360722 0.008641478 0.043688457 0.04723121
000010 db c2 b2 b9 92 ef 05 3d 60 d7 06 3c 52 3c 51 3d
       -0.00034095984 0.032699175 0.00823006 0.051082917
000020 84 bf d2 3a 52 30 3c 3d 0a 32 56 3d 29 46 41 3d
       0.0016078805 0.04594452 0.052293815 0.04718605
000030 f7 91 97 3c 5f c1 08 3d 8f 51 5c bc 72 ad 11 3d
       0.018502219 0.033387538 -0.013447179 0.0355658
000040 44 5b 40 3d c1 67 05 3d 32 f8 e3 3c 7a f8 af 3c
       0.046962038 0.03256965 0.02782831 0.021480788
000050 a6 73 0c 3d 57 eb 49 3d 37 5a fc bb 71 0a 68 3d
       0.03428998 0.049296703 -0.007701184 0.056650583
000060 d9 aa 42 3d 02 b2 65 3d 78 92 06 3d b5 a9 1d 3d
       0.047526214 0.056077965 0.032854527 0.038491923
000070 50 53 41 3d c2 20 39 3d ab 61 89 bb 61 fd 4f 3c
       0.047198594 0.045197256 -0.004192551 0.012694688
000080 4a 59 2e 3d 01 9a 30 3d 1c 12 ea bb 9d 66 f1 3c
       0.04256562 0.04311562 -0.007143272 0.029467875
000090 25 db 08 3c fb 94 0a 3d 5b 9c 2a 3d 3d db 15 3c
       0.008353029 0.033833485 0.04165302 0.009146509
0000a0 f8 7d 84 3d 87 b3 16 3d 94 99 58 3c a5 b8 e9 bb
       0.06469339 0.036792304 0.01322021 -0.007132607
0000b0 c8 07 8e 3c 59 c7 38 3d 7b e9 14 3d ef 53 9c 3b
       0.017337695 0.045111988 0.036355477 0.004770748
0000c0 90 96 1e b9 20 04 56 3c
       -0.00015124143 0.013062507

dense2.weight f4 [1, 50]
000000 6b cc 05 be 04 37 a3 bd f0 c8 13 be ba 67 4f bc
       -0.1306626 -0.07969478 -0.1443212 -0.012659008
000010 39 e3 e3 bd 0b 3e 9c 3d 8f 90 82 bd 11 9a 06 be
       -0.11127324 0.07629021 -0.063752286 -0.13144709
000020 4f 38 14 3e bb b4 e2 3d 27 c6 ea 3d f8 61 c7 3d
       0.14474605 0.11069628 0.11463576 0.09735483
000030 85 36 1c 3d c8 1e 9d 3d 4f 89 df bd 67 e1 df 3d
       0.03813793 0.07671887 -0.109148614 0.10931664
000040 fc dc 70 3d 03 0b 04 be b0 40 71 bc 6d fc fa 3d
       0.058804497 -0.12894826 -0.014724895 0.12255178
000050 5c e7 12 be cf df e1 3d b5 57 07 3d 55 5a 18 3d
       -0.14346069 0.11029016 0.03304263 0.037195522
000060 c5 a1 10 bd 32 12 05 3d cd a6 08 be 5d 11 30 3d
       -0.035310525 0.032488056 -0.1334488 0.04298531
000070 6a 61 9d bd 5b d2 84 3d 0e f7 90 bd 0a c4 70 bd
       -0.07684596 0.064854346 -0.07078372 -0.058780707
000080 5e 8c b7 bd f2 e7 06 be 06 55 12 be 0c c8 e2 bd
       -0.0896232 -0.13174418 -0.14290246 -0.11073312
000090 c2 81 f8 3d 70 e7 7c 3d cd 8a 58 3d 86 ea f6 3d
       0.12134124 0.061744153 0.052866746 0.120564505
0000a0 da 55 89 bd 3b 53 9e 3d c5 84 a8 bd 48 af 37 bd
       -0.06705828 0.07730719 -0.08228449 -0.044844896
0000b0 c1 cf 5d bc ce 2f a9 bc 32 47 e4 3d 30 94 08 be
       -0.013538302 -0.020652678 0.11146392 -0.13337779
0000c0 49 b4 0c 3e db 9e 23 3d
       0.13740648 0.03994642
