time_series_forecasting/saved_models/CNNForecastingModel/18-03-2024-200730_NO1_epoch_1.pt (torch, 259243 bytes, 7 tensors)

conv1.weight f4 [64, 4, 3]
000000 2a 30 5b 3e 3d 0c 89 3e 07 23 2f 3e be 7c 58 3e
       0.21405092 0.2676715 0.17103206 0.21141335
000010 f1 69 ff bc bf ca 0c 3e 54 c1 07 3e 79 ef 48 3e
       -0.031178446 0.13749216 0.13257343 0.19622602
000020 26 c4 e5 3d c9 65 ae bd c6 b2 88 bd e8 27 7e 3e
       0.11219053 -0.08515508 -0.06674723 0.2481991
000030 82 8a 49 be 2c 1c 58 be 5a 71 01 be ab 87 3f be
       -0.19681743 -0.21104497 -0.12640896 -0.18704097
000040 64 cf 53 be 76 23 27 3e 4c 50 d6 3c 35 25 86 3e
       -0.20684582 0.16322121 0.026161335 0.26200262
000050 0d 83 cd bb bb 05 90 be 20 20 0e bb 53 f1 6e be
       -0.006271726 -0.28129372 -0.0021686628 -0.23334245
000060 ac 04 64 3e f8 8c 56 be d0 0d 1c be 30 77 bf 3d
       0.22267407 -0.20952213 -0.15239644 0.09348905
000070 69 77 37 3b 1a 3d 81 be 18 0e 6d be 35 42 5d be
       0.0027994758 -0.2524193 -0.23149908 -0.21607287
000080 55 39 8e 3d ed c7 b7 bd 82 1c 65 3e 92 63 3f bc
       0.06944529 -0.0897368 0.22374156 -0.011681454
000090 36 f4 ac ba bd a2 8b 3d ad a1 bb 3d 48 09 58 3e
       -0.0013195339 0.06818149 0.091616966 0.2109729
0000a0 36 58 24 be 46 5c 21 3d 42 28 31 be 1e c8 11 bd
       -0.16049275 0.03939464 -0.17300513 -0.035591237
0000b0 c7 70 36 be e8 7f 14 3c 5f 3b b7 bd 9b e3 45 3e
       -0.17816459 0.009063698 -0.08946871 0.19325106
0000c0 48 22 7e bd 31 92 47 3e c9 96 8a 3e 7b 8e f2 3b
       -0.062044412 0.19489361 0.27068165 0.007402239
0000d0 18 bd 33 3e f2 4e 5d 3e 88 25 86 3d 3f 0a 3d 3d
       0.17552602 0.21612146 0.06550127 0.04615235
0000e0 be ce 8d be 16 a9 84 be 16 9c 35 3e 0f b2 a7 3d
       -0.27696794 -0.25910252 0.17735323 0.08188259
0000f0 21 18 78 3e 97 ff 81 3e e3 d9 d2 3b db c3 84 3e
       0.24227954 0.25390312 0.0064346655 0.25930676
000100 cd d9 8c be 07 9d 53 3d 7e 2d 6d be e0 73 82 3d
       -0.2750992 0.051663425 -0.23161885 0.06369758
000110 c1 29 38 be 34 6e b6 bd 88 f8 95 bd 6f f0 17 be
       -0.17984678 -0.08907738 -0.07322794 -0.14837812
000120 40 c1 8d be 9f 48 90 3d f3 b0 81 be c1 86 05 3e
       -0.276865 0.070451014 -0.25330314 0.13039686
000130 85 8a 46 be 09 43 91 be c7 e8 8d be 7e f6 c0 bd
       -0.19388779 -0.28371456 -0.27716658 -0.09422015
000140 b6 43 94 be 4f 93 6d 3e 20 13 03 be 38 19 2e be
       -0.2895791 0.23200725 -0.12800264 -0.17001808
000150 e5 39 7d be 34 fa 13 be c9 4e 34 3e 81 c0 9f 3d
       -0.24729116 -0.14450914 0.17608179 0.07800389
000160 39 7e 89 3d 90 c0 04 3d d9 d1 8a be 5d ff 3a 3d
       0.06713528 0.032410204 -0.27113226 0.04565369
000170 22 d2 42 3d 84 2a 5a be 62 3e bf 3d 10 19 50 bd
       0.04756368 -0.21305281 0.093380705 -0.05080515
000180 30 7a 43 be 4b d6 84 be c9 69 d8 bd 28 30 53 3e
       -0.1908958 -0.25944743 -0.10567052 0.20623839
000190 e0 9f 09 bc 6a d5 1a 3d 8d 29 61 3e 53 08 82 3e
       -0.008399934 0.037801184 0.21988507 0.25396976
0001a0 ff 12 dc 3c e6 1f 0c be 0d 66 42 bd ef fe e0 3d
       0.026864527 -0.13684043 -0.047460604 0.10986125
0001b0 77 2e 73 3e bd c7 7a 3e ae 47 5a be 7e ad e9 3d
       0.23748194 0.24490257 -0.21316406 0.11410044
0001c0 b2 06 78 3e b3 0c 7e 3d b8 34 c7 bd c8 44 93 be
       0.24221304 0.06202383 -0.09726852 -0.28763413
0001d0 fc 62 90 be a6 c1 02 be f1 34 0e be fb 40 d6 3c
       -0.2820052 -0.12769184 -0.13887383 0.026154032
0001e0 b5 30 99 3d 28 3b 9a ba 5f 7d 6a be c8 eb cb bc
       0.07479993 -0.0011766898 -0.22899388 -0.024892703
0001f0 05 80 30 3e d0 07 55 bd f0 68 1e be f7 60 02 be
       0.17236336 -0.052009404 -0.15469718 -0.12732302
000200 bd 0f 84 3e 98 10 49 3e 04 f1 12 3e 93 a3 9c bc
       0.25793257 0.19635236 0.14349753 -0.019120967
000210 50 11 02 3c 16 89 e3 3d f1 59 92 be de 32 45 3e
       0.007938698 0.111101314 -0.28584245 0.19257686
000220 61 29 83 3e 49 38 44 be 5d 34 40 3e 40 85 8c bc
       0.25617507 -0.19162096 0.18769975 -0.017153382
000230 7b 07 97 be d3 80 ea bd 6b 99 7c 3e 09 2f 0c 3e
       -0.29497895 -0.114503525 0.246679 0.13689817
000240 b6 ac f9 bd 21 d6 36 3e 22 68 40 be 29 05 8d be
       -0.12191145 0.17855121 -0.18789724 -0.27543
000250 49 72 82 be 4c 37 0a 3d 40 75 87 be 06 cc 98 3e
       -0.25477818 0.03374414 -0.26456642 0.29843158
000260 28 dc ca 3d 16 13 37 be 38 5a 57 3c 42 2e 89 bd
       0.09905273 -0.17878374 0.013144068 -0.06698276
000270 33 c1 92 3e de 62 0d bd 21 61 90 be 90 ce be bc
       0.28663024 -0.034518115 -0.28199103 -0.023291856
000280 b0 38 c0 bd e1 4f 83 3d 78 5f fd bd 63 84 0c be
       -0.09385812 0.0641172 -0.12371725 -0.13722377
000290 bb df 0d 3d 1b ec 8c be 56 71 8e 3e ff b4 79 bd
       0.034637194 -0.27523884 0.27820843 -0.060963627
0002a0 ca 2c 62 be 98 1f 8b bd cf d2 16 3e e6 33 d2 bd
       -0.22087398 -0.067931354 0.14728855 -0.10263805
0002b0 98 80 8d be 91 82 55 3e 92 d6 f4 bd 1a b3 80 be
       -0.27637172 0.20850588 -0.119549885 -0.25136644
0002c0 9d 7a 5c be b0 3e 8c bc b1 ae d8 3d 5c e8 e0 bd
       -0.21531148 -0.017119735 0.10580195 -0.10981819
0002d0 72 2a 8b be d3 70 81 3e a4 1b 59 3d bf 50 09 bb
       -0.2718082 0.2528139 0.053004876 -0.002095267
0002e0 89 a3 bc bc 8c 6d 28 bd 18 90 8d 3e 0b 6c 42 3e
       -0.023027198 -0.041120097 0.27648997 0.18986528
0002f0 81 25 8b be 7b ec 55 3e 40 2c 22 be 85 30 9f 3e
       -0.2717705 0.20890991 -0.15837193 0.31091705
000300 21 13 70 3e 95 af eb bd 3b 3d 15 be 0e ba 51 3e
       0.23444797 -0.11508099 -0.14574139 0.2048113
000310 51 2c b3 bd 04 7d 8a 3e 41 b7 06 be 46 c2 2e be
       -0.08748687 0.27048504 -0.13155843 -0.17066297
000320 48 04 3d be a3 70 93 bc e8 60 f4 bd 47 f4 ca bd
       -0.18458664 -0.017998045 -0.11932546 -0.099098735
000330 71 af 10 bc 5e 3e 2b 3c 44 0a 58 3e 07 3f 3f 3d
       -0.008830891 0.010451881 0.21097666 0.046690967
000340 bf a5 35 3d c7 6a 2c 3e b3 21 80 be 3c 8d 7d bd
       0.04434752 0.16837607 -0.2502571 -0.06190227
000350 01 d0 c1 bd 1e ee 7e 3d 4c 3f 85 3e a5 a0 02 3d
       -0.09463502 0.062238805 0.26024854 0.031891484
000360 ab 83 92 be a1 9a fa 3d fe 34 1a be f0 23 24 be
       -0.2861608 0.122365244 -0.15059277 -0.16029334
000370 54 41 91 be 7f d5 2f 3d 70 b1 42 bd b7 76 bd 3c
       -0.28370154 0.042928215 -0.0475325 0.023127897
000380 57 1e ae bd 52 31 3e bd e5 75 3f be 46 c2 05 3b
       -0.085018806 -0.046433754 -0.18697317 0.0020409985
000390 a7 0f f3 3d 02 da 34 3c 4e e2 1f bb da 60 33 3d
       0.1186822 0.011038305 -0.0024396363 0.043793537
0003a0 e7 e6 1b be 81 2c 8c be 71 37 34 3e 79 f5 2e be
       -0.15224801 -0.27377704 0.17599274 -0.17085828
0003b0 77 1f 7d 3e 09 ab 88 3d 2a 57 56 be ec 6d 32 be
       0.24719034 0.06673247 -0.20931688 -0.17424744
0003c0 6b 70 c9 3d 34 b9 4d 3d c4 f6 b4 bc 1d fa c3 3d
       0.09835895 0.05022545 -0.022090323 0.0956919
0003d0 ed ba 4d 3e 8a 57 c4 3c af cc 47 3d f7 a1 2b be
       0.20090838 0.023967523 0.048779186 -0.16761003
0003e0 24 96 10 3d b1 43 31 3e 77 12 65 be 15 04 8c 3e
       0.035299435 0.17310978 -0.22370325 0.27346864
0003f0 1a f0 6e bd a4 43 40 be df 12 4f 3e 33 14 fa 3c
       -0.058334447 -0.18775803 0.20222043 0.03052721

conv1.bias f4 [64]
000000 49 02 8b be 0d 28 59 3d 08 51 d0 3d 4c 30 a6 3d
       -0.2715018 0.05301671 0.101717055 0.08114681
000010 6c 46 4e bd f4 bc 70 3e 32 e4 74 3e 25 78 43 be
       -0.05036013 0.2350958 0.23915175 -0.190888
000020 4e 7b 35 3e 30 cc 2c 3e 4a 39 dd bc ba 7b 64 3e
       0.17722818 0.16874766 -0.027004857 0.22312823
000030 3c f0 8b 3e b5 67 6e 3d 1c ce 4f 3e 75 67 54 be
       0.27331722 0.05820437 0.20293468 -0.2074259
000040 da 36 08 bd 6a 91 17 be 64 04 b5 3b 97 a7 34 3c
       -0.033255436 -0.14801565 0.005524205 0.011026285
000050 2e 2d 90 3e 20 3a 19 3e d1 d4 a0 bd 80 15 3f bd
       0.2815947 0.14963579 -0.078530915 -0.046651363
000060 7e 56 d7 bc 71 df 73 bc 2b c5 30 3e a4 fe 83 3e
       -0.02628636 -0.014884816 0.17262714 0.25780213
000070 91 cd a5 3c 01 45 e0 3d 6b 13 49 be 3a 29 e1 bc
       0.020239623 0.109506615 -0.19636314 -0.027485479
000080 27 15 a1 ba 50 67 37 3e 74 6d 91 3e 9f b9 75 bd
       -0.0012289629 0.17910504 0.2840382 -0.059991475
000090 b1 1b 1f be 46 fa 85 3e c4 1c cc 3c 08 3a 52 3e
       -0.15537907 0.26167506 0.02491606 0.2052995
0000a0 9e 6c 85 be d5 40 89 3e 65 4d d4 bd fc 0d c8 bd
       -0.2605943 0.26807275 -0.10366324 -0.09768292
0000b0 09 51 4f 3b cf c9 60 be 4d 11 30 3e 85 49 c5 bd
       0.0031633994 -0.21951984 0.171941 -0.09633163
0000c0 73 df cb 3b e4 32 61 3d 71 d1 8f be ba a1 70 3d
       0.0062217056 0.054980174 -0.2808948 0.058747984
0000d0 38 eb 25 bd 2f 04 d8 bd 06 cd 0d be d2 09 0d be
       -0.040507525 -0.10547673 -0.13847741 -0.13773277
0000e0 0a ca 98 bd 64 cf 50 be 88 be c0 bc 75 35 a9 3c
       -0.07460411 -0.20391613 -0.023528352 0.020655373
0000f0 6b 02 7a 3e d5 d0 48 be 1f d6 84 3e 99 58 ae bd
       0.24414985 -0.19610913 0.2594461 -0.085129924

conv2.weight f4 [128, 64, 3]
000000 fb 9f 3c 3c 6c be a5 3c e3 21 b8 3a 0a 54 93 3c
       0.011512752 0.020232402 0.0014048185 0.017984409
000010 9f 85 12 3c 87 c7 80 bd 0c 93 14 bd be d9 98 3d
       0.008942991 -0.06288057 -0.036273047 0.07463406
000020 8d a8 42 bc 5e ec 4b 3d 57 67 74 bd 9e f0 7b 3d
       -0.011881006 0.049785964 -0.059668865 0.061508767
000030 50 ce 86 3d 06 3c 35 b9 8b dd 7d bd b4 aa 7b bd
       0.0658232 -0.00017283866 -0.061978858 -0.061442092
000040 d5 22 e3 38 05 e2 b9 bc 26 dd 4f 3c 6c 73 81 bc
       0.000108306915 -0.022690782 0.012687003 -0.015802108
000050 9b eb 81 bd b8 ec 95 3d 26 76 4e bd bb f1 6d 3d
       -0.06343766 0.07320541 -0.050405644 0.05809186
000060 be c7 a3 3b d7 19 72 bd 5e 45 76 3d 4b b3 35 3d
       0.0049981764 -0.059106674 0.060124747 0.04436044
000070 18 c4 88 3d c9 4f b2 3c 46 3a 41 bd 5f 16 16 3d
       0.06678027 0.02176656 -0.047174715 0.03664243
000080 c2 e9 ab bc c1 5d 36 3c 5e 34 8c 3d af 5e dd bc
       -0.020985488 0.011130751 0.06845926 -0.027022688
000090 6f 5c 9d bc f0 c1 66 bb 24 b1 95 bd 96 a7 9d 3d
       -0.019209115 -0.003521081 -0.073091775 0.0769798
0000a0 c5 a3 59 bd 3a 06 32 3d 68 46 1d 39 02 fb e3 bc
       -0.0531347 0.04346297 0.00014998915 -0.02782965
0000b0 79 6f 0c bc 77 58 85 3c 2a 0c 98 bd dd ad 24 bb
       -0.008571499 0.016277535 -0.07424195 -0.0025128045
0000c0 fb d1 23 bd e4 bd 76 3d 7b 65 1b bd a4 00 9f bc
       -0.039995175 0.060239688 -0.037938576 -0.019409485
0000d0 04 03 64 3d 06 d3 86 3d 75 96 aa 3a 5d 67 7d bd
       0.05566694 0.06583218 0.001301481 -0.061866153
0000e0 51 c4 af bd 3f 76 8d bd 7d 31 86 bd 9e 85 b2 bc
       -0.08582366 -0.06907319 -0.06552408 -0.02179223
0000f0 24 05 75 bc 72 29 4e 3d f5 28 88 bd 48 9c 55 3c
       -0.014954839 0.050332494 -0.06648437 0.013037749
000100 a5 f2 1b 3d e6 56 62 3c 04 5e f5 bb 28 3e 75 bd
       0.0380732 0.0138146635 -0.007488014 -0.05987373
000110 e6 2f 4f 3d db 3a 8c 3d 57 d3 aa 3d 74 58 8d 3d
       0.05058279 0.06847163 0.08341091 0.06901637
000120 bb 8f 0e 3d 65 c1 8b bd ed bf 47 bd 60 2a 34 bd
       0.03480504 -0.068239965 -0.04876702 -0.043985724
000130 74 f0 52 bd 79 89 de 3c f4 e1 32 3d 0d 8d 93 bc
       -0.051498845 0.027165161 0.043672517 -0.018011594
000140 c3 ed 72 bd d3 e6 85 bd b4 4f 83 3b df 5c 86 bb
       -0.05930878 -0.06538167 0.004007304 -0.0041004266
000150 ac 44 63 3d d5 86 62 3d 25 de bb ba 66 04 32 3d
       0.055485412 0.055304367 -0.0014333172 0.043461226
000160 86 61 cf 3c 13 c8 82 3c 6f 27 70 3d ed d9 27 3d
       0.025315057 0.015964543 0.058631357 0.040979315
000170 8f fb 82 bd 5d f0 03 bd f1 0e 7e bc 13 24 7f 3d
       -0.06395637 -0.03221165 -0.015506492 0.062290262
000180 7e b9 b5 3b d3 e9 24 3d ad c6 cf bc 4d 7b fb 3c
       0.005545794 0.040262055 -0.02536329 0.030698443
000190 2b 5e 92 3d 52 7b e8 bb 61 4f ae 3c d4 f0 15 bd
       0.07146867 -0.007094779 0.021278085 -0.036606625
0001a0 5d 83 60 3d 51 b5 35 3d 6b 72 21 3d 62 71 8c 3d
       0.054812778 0.04436237 0.039415758 0.068575636
0001b0 31 10 aa bd 86 25 b8 bc 88 62 2e bc 51 54 6c 3c
       -0.083038695 -0.02247883 -0.010643609 0.0144243995
0001c0 a8 5e 73 ba c0 5b 49 3d 77 72 86 3d ed 53 86 3d
       -0.0009283819 0.049159765 0.06564801 0.06558976
0001d0 94 90 99 bb 3d 59 7e bd 09 2c e0 bb 9c 61 4b 3b
       -0.0046864245 -0.062096823 -0.006841187 0.0031033522
0001e0 fd 65 64 bd d9 c5 cb 3c 80 2a f8 3c 8c 73 50 3d
       -0.055761326 0.024874615 0.030293703 0.050891444
0001f0 c6 a7 22 3b b9 d0 0d 3d 0c 92 77 3d 5c 47 6c 3d
       0.002481924 0.03462288 0.060442016 0.05768524
000200 d8 8d 79 bd bd ba 1c b9 f6 54 b5 3b a3 59 77 3c
       -0.06092629 -0.00014946885 0.00553381 0.015097055
000210 b8 2b 04 3c 9f 34 35 bd 23 d9 63 bd a8 63 10 bd
       0.008067064 -0.044239637 -0.055627 -0.03525129
000220 e6 df 2b 3d 0c 87 34 bd 76 2a 7c bd 7f b3 b9 3c
       0.041961573 -0.044074103 -0.06156393 0.022668598
000230 8d 40 89 bd e1 83 30 3c 4c ee 80 bc da 18 eb 3c
       -0.06701765 0.01077363 -0.015738629 0.028698374
000240 44 bb de 3b 7b 2d fe 3c 3f 81 f9 3c 2e 36 8b bd
       0.006797226 0.031027546 0.030457137 -0.06797443
000250 b0 de 6f bd 49 d2 0d 3d 4b d5 43 bd 13 17 0f 3d
       -0.05856198 0.03462437 -0.047810834 0.034934115
000260 72 58 66 3d ec f2 5b 3c fb e2 6c 3d 69 a7 83 bc
       0.05623669 0.013424616 0.057833653 -0.016071038
000270 3b f0 37 bd 7d 3c 15 3c fc b6 fb 3c d3 63 fd 3c
       -0.044906836 0.00910866 0.030726902 0.030931389
000280 20 ba 47 bd f3 f2 5a 3c 4d 89 f0 bc e9 b0 1f 3c
       -0.048761487 0.013363588 -0.029362345 0.0097467685
000290 69 3b 77 3b 09 b0 25 3d 19 cf 0d bd a1 90 81 3d
       0.003772462 0.040451083 -0.03462133 0.06326414
0002a0 d4 7c 3b bc b9 1d df 3c 49 a9 98 bb 14 7d 49 3d
       -0.011443336 0.027235853 -0.0046588522 0.04919155
0002b0 3b 07 42 bd b4 11 24 3c 2c 6f 72 3c e4 9d b1 3c
       -0.047370177 0.010013986 0.014797013 0.021681733
0002c0 9b 4f e4 3c d1 4b 88 3d 8f ca 58 bd 0c fe 35 3d
       0.02786999 0.06655086 -0.05292755 0.04443173
0002d0 47 43 4f 3d e0 c6 90 bc 7b 9c d0 bc 78 19 b0 3b
       0.05060127 -0.017672956 -0.02546524 0.00537413
0002e0 d5 54 56 bd 95 49 68 3d 59 7d e2 bb 7b 88 75 bd
       -0.052326996 0.0567108 -0.0069119153 -0.05994461
0002f0 99 94 76 3d 8a e0 8d 3c 20 0b 0a bd 02 2c fe 3c
       0.060200308 0.017318983 -0.033702016 0.031026844
000300 1a 1a 89 3c 6c 5f 44 bd 15 f5 1e bd 1d 84 26 bd
       0.016736079 -0.047942564 -0.038807947 -0.040653337
000310 a5 91 f7 3c a1 d0 9f bb 54 6a 32 bd 34 d9 39 3c
       0.030220816 -0.0048771654 -0.043558434 0.011343289
000320 60 75 12 3d 8e 33 8d bc c0 01 6f 3d ba 69 04 bd
       0.03575647 -0.017236497 0.05835128 -0.03232739
000330 78 20 44 bd 74 7f 16 bd c4 53 58 bd d0 a8 74 3d
       -0.047882527 -0.036742643 -0.05281426 0.059731305
000340 e6 f8 70 bd e6 07 96 bd 8c 9f 75 3d f8 e4 91 3b
       -0.058831118 -0.07325725 0.05996661 0.004452344
000350 a1 03 96 3d 6f 28 2a 3d ee 71 24 3d 56 c9 d1 bc
       0.07324911 0.041542467 0.040147714 -0.0256087
000360 0f 07 82 bc 5b 8c 39 3b 60 7c ee 3c 2f 05 65 3d
       -0.015872506 0.0028312418 0.029112041 0.055913147
000370 c8 b1 81 3d bc 51 84 3c d1 f3 e2 bc ee 8a 32 3d
       0.06332737 0.016152255 -0.027704151 0.043589525
000380 9b 83 7a 3d f0 91 62 bd 55 ca 81 3c 73 c5 35 3d
       0.061160665 -0.055314958 0.01584355 0.044377755
000390 9f 65 fb 3b 15 35 64 3c 12 3a fc ba 41 8c 74 3d
       0.0076720263 0.013928671 -0.001924338 0.05970407
0003a0 69 26 d0 3c 03 07 8f 3d 60 40 78 bd 03 f0 84 3d
       0.02540894 0.06983759 -0.060608268 0.06491091
0003b0 e2 77 25 3c d5 a8 37 bc 73 25 84 3d 02 59 21 bd
       0.010099383 -0.011209686 0.06452455 -0.039391525
0003c0 2c c5 07 3d 9b f4 3a 3d e2 f5 86 bd 3a c5 09 bd
       0.033147022 0.04564343 -0.06589867 -0.033635356
0003d0 3d 93 0e 3d 06 a0 82 bd dd e6 93 bb c1 68 0e 3d
       0.034808386 -0.06378178 -0.004513605 0.03476787
0003e0 11 fb c9 3c 5a 79 51 bd 85 a5 3a 3d 94 56 9e 3b
       0.02465585 -0.05114112 0.045568008 0.0048320983
0003f0 77 0c 4d 3d 4d 5b 0a bd 25 7c 02 bd 41 43 17 3d
       0.050060716 -0.033778477 -0.031856675 0.036929373

conv2.bias f4 [128]
000000 3a e1 4e 3d 44 df e7 bc 8c 7e 10 bd b3 6d 16 3d
       0.05050776 -0.028304704 -0.035276935 0.03672571
000010 9e 59 85 3c c4 e5 b0 bd 62 19 de bc ca 07 11 3c
       0.016278084 -0.08637574 -0.027111713 0.008851955
000020 d0 80 d0 3b a3 27 88 3b 3b d8 53 bd ac 85 4f bd
       0.006363012 0.0041551157 -0.051719885 -0.05066459
000030 bd 4e 48 3d 04 d5 88 bc 62 2a f0 bc 9e 7e 12 bd
       0.048903216 -0.016703136 -0.029317085 -0.035765283
000040 3b 44 96 bd 49 05 63 bc e5 52 72 3d 28 2c 67 3d
       -0.07337233 -0.013856241 0.059161086 0.056438595
000050 78 d8 18 3d 0f 0e 63 bd 39 e1 11 bb 7b ab 77 3c
       0.037315816 -0.05543333 -0.0022259487 0.015116568
000060 6b 99 91 bc bb 47 64 3d 50 72 84 3d 4b 2b cb 3c
       -0.01777335 0.05573247 0.06467116 0.024800917
000070 a2 89 81 3d 25 99 4f bc 94 98 e3 bc a6 6f f0 3b
       0.063250795 -0.01267079 -0.027782716 0.0073375283
000080 af 95 80 3d 75 39 37 bc fc 50 97 3d b1 7f ac 3c
       0.0627855 -0.011183132 0.073884934 0.021056982
000090 81 7c 71 3d 0f e7 3b 3d 57 8b 05 bd f0 fe 16 3d
       0.058956627 0.04587465 -0.032603588 0.03686422
0000a0 53 cd 09 3b f2 b1 8d bd 61 d7 03 3d 39 03 60 bd
       0.0021026924 -0.06918706 0.032187823 -0.054690573
0000b0 e2 a7 f5 bc ab 73 14 bd 60 07 81 bd 8d 88 16 3d
       -0.02998728 -0.036243122 -0.06300235 0.03675132
0000c0 46 d7 23 bd 85 35 50 3d 59 dc 0c 3d 52 b0 44 bd
       -0.040000223 0.05083229 0.034389827 -0.048019715
0000d0 37 45 2f ba 8f 32 8b bd 97 a5 39 bd 2c 59 48 bd
       -0.0006686034 -0.06796753 -0.045323934 -0.048913166
0000e0 47 91 0e 3d 09 66 2d 3d 01 7f a1 bc 84 30 9c ba
       0.034806516 0.042333636 -0.01971388 -0.0011916314
0000f0 97 77 4b bc 08 6a 55 3d ca 90 1b 3d 4d 93 16 bd
       -0.012418649 0.052103072 0.03797988 -0.03676157
000100 15 dd 0f 3d 6e be cd 3c 88 6d 19 3d 27 21 cc bc
       0.03512295 0.025115218 0.037457973 -0.024918152
000110 54 e3 83 3d 0b d3 04 3d e5 58 27 bd cc bb 70 3c
       0.06439844 0.03242783 -0.04085626 0.014693212
000120 37 dc 21 3d f4 0f 5b 3c 5f bc 19 bc e2 e9 10 3d
       0.039516654 0.013370503 -0.00938329 0.035379298
000130 0a e6 03 3a d0 18 e3 3b 86 c7 a6 3c 48 1e c7 3c
       0.0005031532 0.006930448 0.020358812 0.024306431
000140 ec c7 50 bd fd 2c 8b bd 16 bf 49 3d 42 53 39 3d
       -0.05097191 -0.0679569 0.0492545 0.045245416
000150 07 06 63 bd ef 73 47 bd 28 ef 7a 3d 9a 48 4b bd
       -0.05542567 -0.048694547 0.061263233 -0.049629785
000160 43 eb 9f bb 02 40 10 bd 56 ce 60 3c 54 91 71 3d
       -0.0048803403 -0.035217293 0.013721069 0.058976486
000170 1e af 45 3d 69 13 94 3d 07 4f 0d bc f5 6a 4a bd
       0.048262708 0.07230265 -0.008624799 -0.04941841
000180 4a d7 01 bd 40 86 fa bc 38 ec 59 bd 8e ef 74 3d
       -0.031699456 -0.030581594 -0.05320379 0.05979877
000190 08 80 76 3d 81 d3 96 bc 85 1d 05 3c 08 b4 03 3d
       0.060180694 -0.0184114 0.008124714 0.032154113
0001a0 e0 12 8c bd c1 87 01 bd 85 b0 06 3d 99 66 02 3d
       -0.068395376 -0.031623606 0.032883186 0.031836126
0001b0 75 4f 1b 3d 77 37 ca bc 31 0f 4d 3d c2 9b 2b 3d
       0.037917573 -0.02468465 0.050063316 0.04189659
0001c0 f6 d5 16 3c 02 23 78 bc 0d 8b 10 3d 67 46 b7 bc
       0.009206286 -0.015145065 0.03528886 -0.022372438
0001d0 e7 66 23 3d a3 6c 54 3d a2 82 35 bd a9 18 47 3d
       0.039893057 0.051861417 -0.044314034 0.048607502
0001e0 f6 70 00 3d 24 4e 76 3d ae db 14 bd 6c 71 df bc
       0.031357728 0.060133114 -0.036342315 -0.027275763
0001f0 b4 70 0d 3b ed 85 83 bd b8 0d 41 3d 08 69 82 bd
       0.002158207 -0.06422029 0.047132224 -0.06367689

dense1.weight f4 [50, 768]
000000 a3 9c fe 3b 47 e7 d4 bb be 69 10 3d 41 1e 2d bc
       0.0077701374 -0.006497297 0.035257094 -0.010566295
000010 1f 3b 63 bc 8b 50 aa bc 9b d5 ee bc 9a 3f eb bc
       -0.013869076 -0.020790359 -0.02915459 -0.028716851
000020 10 f7 7e bc da ee c3 bc f8 aa 69 bb 52 74 8d bc
       -0.015561834 -0.023917604 -0.0035654884 -0.01726738
000030 6a a3 29 b9 61 16 94 3c 43 dc 05 bd 86 20 07 bd
       -0.00016177972 0.018077077 -0.03268076 -0.03299
000040 b9 b9 e5 ba 9c ee f0 b9 44 f7 99 3b 93 72 0c 3d
       -0.0017526663 -0.00045954145 0.004698666 0.034288954
000050 ef 99 25 3c be d5 17 bd 8b 38 10 bd 61 75 1e bd
       0.010107501 -0.037069075 -0.035210174 -0.03868616
000060 ef d3 63 3d ec 93 07 bd a2 8c 04 3d b6 c5 13 3d
       0.055622038 -0.033100054 0.03236068 0.036077224
000070 e3 e4 f5 3c 69 23 ce bc ff 1b 84 bc e8 2e 0f bc
       0.030016368 -0.02516337 -0.01612663 -0.008739211
000080 0a 91 e0 bb b9 c1 9b 3c 2a ce 0f 3d 27 2f 0f 3d
       -0.0068532275 0.019013273 0.035108723 0.034957077
000090 93 d1 0f bd 06 4b 50 bd 27 04 12 bd 88 07 f8 ba
       -0.035111975 -0.050852798 -0.03564849 -0.0018923143
0000a0 57 8f c1 bc 99 14 64 bb ad cb a4 39 f4 81 93 3b
       -0.02362792 -0.0034802316 0.00031432268 0.0045015756
0000b0 e6 15 80 3c 1d 2d 16 3d af 21 23 3d f1 30 15 3d
       0.015635442 0.036664117 0.039827045 0.036423627
0000c0 98 8f fc bb 99 a6 c8 3c 9d d6 55 bc 61 9f d3 bb
       -0.0077075474 0.024493502 -0.013051656 -0.0064582084
0000d0 6d 70 20 3c 30 db 41 3c fa d7 06 bd 79 a3 15 3c
       0.009792429 0.0118320435 -0.032920815 0.009133213
0000e0 36 ee 87 3b bf 82 db bc 2e 33 bd bc 6a e4 af bc
       0.00414827 -0.026795743 -0.023095693 -0.021471221
0000f0 db c0 13 3d 0b 22 ad bc 1a 0c cb bc 0f 6b d1 ba
       0.036072593 -0.021134397 -0.024786044 -0.001597734
000100 1c 3c 7d 3c bc ce b1 3b 2a 56 08 3d 45 ad 80 3c
       0.015456226 0.005426256 0.033285297 0.015707621
000110 5c e8 c2 3b 0b 8c b7 3c 07 bc 25 3d a6 71 1e 3d
       0.0059481096 0.022405645 0.04046252 0.038682602
000120 d9 fa ee 3c db 17 d5 3b a0 ba 03 3c 47 c2 c9 3c
       0.029172348 0.006503088 0.0080401 0.024628771
000130 2b 9a 58 3c 03 da b8 3c 54 9a 68 bc d7 4c ea bb
       0.01322035 0.022564894 -0.014196951 -0.0071502733
000140 0f eb d4 3c d6 0e 4c bc 9f 16 b7 3c 62 6d 3e 3c
       0.02599099 -0.012454709 0.022349654 0.011622759
000150 14 38 3f 3d 58 6c 78 3a eb 03 23 3d 72 bf d2 bc
       0.04668434 0.00094765937 0.03979866 -0.025726054
000160 4e ad c2 bc 4a 4b 28 3c 0c 8b bb bc 57 1a da 3c
       -0.023764279 0.010271857 -0.022893451 0.026623888
000170 81 24 c0 3c 34 df 76 3c 86 d0 f4 3c 81 c0 02 bd
       0.023454906 0.015067864 0.029884588 -0.031921867
000180 ae af 20 39 a5 2e 13 bd 4e 5b 13 bb 0a 28 cf bc
       0.00015324235 -0.035933156 -0.0022484842 -0.025287647
000190 af a9 12 3c f1 ce 68 3c 4e 6e 82 bc bf 20 7d bc
       0.0089515885 0.014209495 -0.015921738 -0.015449702
0001a0 a5 c4 df bc 1d 91 00 bc aa c3 98 3b a9 16 bf 3c
       -0.027315447 -0.007847098 0.004661997 0.023326235
0001b0 8d d9 1d bc 0d b9 11 3c 5b ef 0c 3d 52 ed ce bc
       -0.009634388 0.008894217 0.034407955 -0.025259648
0001c0 32 20 71 bc 58 39 88 3c d0 be ab bb a5 af b3 3c
       -0.014717149 0.016628906 -0.0052412525 0.02193434
0001d0 3a 78 89 3c fa 91 8e bc db d3 6d 3c 94 7c fd bb
       0.016780961 -0.017403591 0.014515842 -0.007735798
0001e0 04 ca 3a bc 13 65 8a 3c 48 28 22 bc b3 31 c9 3c
       -0.011400703 0.016893899 -0.009897299 0.024559831
0001f0 49 de 93 bb a2 67 80 3c 58 b8 ae bc 2b b4 ff 3b
       -0.0045125824 0.015674416 -0.021328136 0.00780346
000200 e6 20 df 3c 1a 44 87 bc 91 55 6b 3b 79 3c fc 3b
       0.027237367 -0.016511966 0.0035909156 0.0076976386
000210 93 89 33 bd f7 78 ee bc 70 22 19 bd d8 1f a9 3a
       -0.043832373 -0.029110415 -0.037386358 0.0012903167
000220 3a 59 b3 bc 37 6d 0f 3d 26 d3 12 3d e5 b5 a7 bc
       -0.021893132 0.035016265 0.035845898 -0.020472476
000230 3b 75 91 bb 3b a8 d3 3c cc 4e 3c 3d ac 1c a4 3c
       -0.004439024 0.025837054 0.045973584 0.020033203
000240 6f 8a bd 3c b1 bd b3 3c 2b 41 12 bc 95 d9 07 3d
       0.0231373 0.021941038 -0.00892667 0.033166487
000250 ab 93 04 3d 1a 30 5d 3b 6c 2a 01 3c 17 07 cc 3c
       0.03236739 0.0033750595 0.007883649 0.024905724
000260 8f d4 b8 3a 11 ea c4 bb ac c5 22 3d 87 cf 21 3d
       0.0014101433 -0.006009348 0.039739296 0.039504554
000270 f1 9d 44 3c 3c 99 50 bb 26 0b e9 3c 52 51 6c 3c
       0.012000547 -0.0031829616 0.028447699 0.014423685
000280 aa 7e 99 3c a0 f0 fb 3b 70 be e0 bc 81 42 0d bc
       0.018737156 0.007688597 -0.027434558 -0.008621813
000290 27 d9 6e 3c 0c da 8a bc 3c 13 2e bd 8a 50 ba 3b
       0.01457814 -0.016949676 -0.042498812 0.0056858705
0002a0 2d 81 9c bc d6 87 fc 3c b3 ca 4c bc a7 18 fe bc
       -0.019104565 0.03082649 -0.012499499 -0.031017615
0002b0 0d c2 ad bb 13 e6 0f 3d 04 75 e6 bb d9 8a 39 3c
       -0.0053026737 0.035131525 -0.0070329923 0.011324608
0002c0 8e e2 28 3c dc 1b 01 3d a5 74 2f bd b0 74 53 bd
       0.010307921 0.03152071 -0.04283585 -0.051624954
0002d0 20 ba 42 3d 0b 74 70 3c 2a 92 bd 3c 45 c2 b5 bc
       0.047540784 0.014676104 0.023140986 -0.022187361
0002e0 65 2e 23 3d 9b 9f 56 bb 65 3f a4 bc 21 45 06 bc
       0.039839167 -0.003274894 -0.02004976 -0.008195193
0002f0 8e 27 08 bd 0f 91 66 3c b3 be 13 bc e3 f5 15 bb
       -0.033240847 0.014072671 -0.009017634 -0.0022882156
000300 6b 11 1e 3d 9a 27 3f 3c ef b1 14 3d c8 6f ff 3c
       0.03859083 0.011667157 0.036302503 0.031181231
000310 63 dc 7f 3c 58 16 0f 3d 58 eb 3b 3c a1 b3 3c 3d
       0.015616509 0.034933418 0.011469685 0.046069745
000320 07 ca ce 3c 05 7a c8 bc a3 17 ef bc a5 30 8e bc
       0.025242819 -0.024472246 -0.029186076 -0.01735718
000330 d2 a6 52 bc ad 8a ef bc 92 24 6a bc 51 8f 1d bd
       -0.012857156 -0.02924093 -0.014290946 -0.038466755
000340 6c 96 9b bc 43 da 45 bd f4 a6 bc bc a8 43 59 3c
       -0.018992625 -0.048303854 -0.023028828 0.013260759
000350 b2 2b b0 3a 0a 08 00 bc 4f 42 e3 3b 34 04 83 3c
       0.0013440757 -0.007814417 0.006935395 0.015993215
000360 42 c3 35 bb f7 79 d9 3b 9b 69 a5 bc be a2 82 3c
       -0.002773479 0.006636854 -0.020191958 0.015946742
000370 ef cc ca 3b a7 62 ca bc cf 96 bc 3b 0c d0 a1 3c
       0.006188981 -0.024705244 0.0057552825 0.019752525
000380 c1 87 83 3a 47 bc 01 bd 9c a0 66 bc f0 af f7 bc
       0.0010034965 -0.031673696 -0.014076378 -0.03023526
000390 40 38 b9 bb 31 76 74 bc 43 fd 54 bc a2 9b c0 ba
       -0.0056524575 -0.014920757 -0.012999835 -0.001469482
0003a0 a0 82 28 3c b0 db ce bb 1c f9 19 3d bf 44 c9 3b
       0.01028505 -0.00631281 0.037591085 0.0061422284
0003b0 2b 9b 81 3b 0c e3 a3 3b f0 5b a4 3c 1f 86 d7 3a
       0.003955265 0.0050014313 0.02006337 0.001644317
0003c0 8a 5d 93 3c 79 40 e4 bc 75 e0 0e bc 9e 33 63 bc
       0.017988939 -0.027862774 -0.008720507 -0.013867287
0003d0 bc 2c 70 3c 20 aa 51 bc 00 7f cf bc a6 32 ae bc
       0.014659103 -0.012796909 -0.025329113 -0.021264385
0003e0 f1 d4 d0 bb 9c 2c 4e bd d8 db db 3a 0e 46 a7 bc
       -0.006373041 -0.05033551 0.0016773893 -0.020419147
0003f0 66 fc f0 bc c9 20 91 3c 6f c9 28 3d 7d e0 7b bc
       -0.029417228 0.017715828 0.041207727 -0.015373346

dense1.bias f4 [50]
000000 f6 86 2b 3d 90 01 e5 ba b9 39 14 3d 16 35 a8 3c
       0.041876756 -0.0017471779 0.03618786 0.020533126
000010 7a af 18 3d 82 ef 2d 3d b7 f5 e3 3c 41 16 27 3d
       0.037276722 0.04246474 0.027827127 0.040792707
000020 d1 58 0f 3d 06 ce c0 3c 6a 72 91 3c bf 15 aa 3b
       0.03499681 0.02353574 0.017754752 0.0051905806
000030 c3 1a 30 3d ee a4 79 3c 9a 6b d6 bc 42 37 48 bb
       0.042994272 0.015237076 -0.026174355 -0.0030550514
000040 30 35 ab 3b 10 4a b3 bc 87 59 4c 3d c9 ec be bc
       0.0052248463 -0.021885902 0.049890067 -0.023306267
000050 8c 42 b9 b9 3d af 00 3d 26 31 24 bc a7 62 41 3d
       -0.0003533553 0.03141712 -0.0100214835 0.047213223
000060 a0 e6 24 3d fc 02 a8 ba 94 39 04 3d 61 f0 1f 3d
       0.040259004 -0.0012818272 0.032281473 0.039047603
000070 69 14 00 3d c0 bc 0d bd 55 c1 26 3d 5c 6b 20 3d
       0.031269465 -0.034603834 0.04071172 0.039164886
000080 7e e9 c8 3c 8f 04 2f 3d c4 20 09 3d 96 16 93 bc
       0.0245254 0.042728957 0.033478513 -0.017955106
000090 ad 03 90 bc 7c 55 2f 3c 1c 8e e3 bc 16 e5 22 3c
       -0.017579878 0.010701533 -0.027777724 0.009942314
0000a0 20 5a 97 3c e2 f3 c1 3c f0 02 67 3c dc 8e 1a 3d
       0.018475592 0.023675863 0.014099821 0.037733898
0000b0 a9 2b 72 3c 4d 81 bf 3b a3 7b a3 3b 3a 7c 08 3d
       0.014780917 0.0058442713 0.004989104 0.033321597
0000c0 79 6c 8b bc 2b bd 11 3d
       -0.017019497 0.035580795

dense2.weight f4 [1, 50]
000000 69 d1 f5 3d 47 b3 9f 3d 5c b6 d1 3d 78 fa 05 3e
       0.120028324 0.07797866 0.102398604 0.13083827
000010 2b 63 e0 bd 74 55 87 bd 7e 41 4d bc 99 51 d8 bd
       -0.10956415 -0.06608096 -0.012527822 -0.105624385
000020 5d 66 e3 bd a3 a3 a4 3c b5 95 55 bd 21 b7 e9 bd
       -0.111035086 0.02009756 -0.052144725 -0.11411882
000030 64 9e 09 be 29 85 8e bd 23 56 ad 3d f3 32 eb 3c
       -0.13439327 -0.06958992 0.08463695 0.028710818
000040 af a2 8a bd ee 37 68 3d d5 5d 02 be 61 00 aa 3d
       -0.06769311 0.056693964 -0.12731107 0.083008535
000050 40 7c 07 bd d1 f2 56 bd db cb c7 3d 5f 14 e0 bd
       -0.03307748 -0.05247766 0.09755679 -0.109413855
000060 55 a1 0e 3e 00 4b a3 3d 0c b8 b7 3d 65 52 dc 3d
       0.13928731 0.079732895 0.08970651 0.10757903
000070 5c ae c7 3d 8d 2f 82 3d 74 12 82 bd 45 ea f0 bd
       0.09750053 0.06356726 -0.06351176 -0.11763433
000080 2d 2f a6 bd e9 48 f3 bd 12 8c 11 3e d1 df 38 bd
       -0.08114467 -0.11879141 0.14213589 -0.045135323
000090 0e df 0e be ed 81 11 3e e6 7f 82 3c a8 37 2e bd
       -0.13952276 0.14209719 0.015930127 -0.042533547
0000a0 47 e0 b9 3d 51 d2 15 3e de 26 1f bd a8 31 12 be
       0.09075981 0.1463101 -0.038855426 -0.14276755
0000b0 09 52 e5 bd c3 bf 16 be 49 f2 09 3e 4e 33 19 3d
       -0.111972876 -0.14721589 0.1347133 0.037402444
0000c0 13 21 2e bd 90 cc a5 3c
       -0.04251201 0.020239145
