time_series_forecasting/saved_models/CNNForecastingModel/18-03-2024-005211_NO1_epoch_5.pt (torch, 258475 bytes, 7 tensors)

conv1.weight f4 [64, 3, 3]
-0.41650483 0.20357378 0.20660792 -0.045477666 0.3119704 -0.21985416 0.1143564 0.074454136
0.008657072 -0.2500679 0.14019255 -0.24839868 -0.28447998 0.28356868 0.2287305 -0.054472655
-0.014630169 0.27041832 0.028040826 -0.09188808 -0.20176634 0.0566672 0.046477575 0.03353734
0.08944991 0.12097166 0.2442215 -0.025039272 0.04433664 0.0734215 -0.1938175 -0.15056038
-0.20363376 -0.15380877 0.060273785 0.09184631 -0.28433704 -0.055227272 0.19017993 0.16407949
-0.28919336 0.061805572 -0.14288388 0.07600117 0.22345407 -0.045202393 0.26507136 0.027328636
0.3841351 -0.21616217 -0.15137157 0.2697772 0.20020215 0.009843772 -0.2641538 0.21569489
-0.14569235 -0.055486247 0.12304321 -0.036616724 -0.09960609 -0.31041694 0.07946262 0.19657338
0.1207367 0.050072294 -0.1333474 0.1669628 -0.17441185 0.06061662 -0.22413746 -0.18136038
-0.10964614 -0.1195291 -0.33436823 0.21422069 0.008025408 -0.22759603 0.33703804 0.14503928
0.003442363 0.33815065 0.009813549 0.119616784 0.0772295 -0.13824382 -0.16172887 0.23075752
0.093083605 -0.008548729 -0.18650341 -0.046961583 -0.21724327 -0.21622375 0.15327987 -0.14005472
0.0023012643 -0.15109342 0.2175141 0.3057287 0.32910275 -0.3087701 0.055508632 0.16506703
0.23086804 0.22365737 -0.27836293 -0.1743436 0.18812664 0.053946566 0.3038169 0.16437459
-0.030381577 0.3359315 -0.36751965 -0.295797 0.1100214 -0.08264845 -0.0035663848 -0.1336782
-0.018128011 0.3120667 -0.31420007 -0.20194682 -0.14780204 0.16712916 -0.3505454 0.026554061
-0.12831551 0.25721213 -0.10638516 -0.0038325847 -0.23881765 0.21922974 0.26707846 -0.2690293
0.21262832 -0.08666006 -0.050637543 -0.11563205 0.30531803 0.12949568 0.17632867 0.26913974
-0.1198237 0.14013514 -0.106875606 0.07605376 0.12840928 -0.08046768 -0.10014948 -0.040297717
-0.29055977 -0.1431249 0.016823538 0.20673819 -0.14918718 0.023057617 0.07637663 -0.114193685
0.24753447 -0.21060398 0.078529775 -0.026339792 -0.11190195 0.11539589 0.107221544 -0.14828448
-0.099008545 -0.31113064 -0.12658632 -0.33138296 0.2829978 0.20179306 0.12599716 0.123483464
0.1228735 0.16250524 -0.21918818 0.034182422 0.25828362 0.30711097 0.019811887 -0.17623053
0.3436784 -0.02737425 0.0010794397 -0.08147993 0.22773989 0.014596662 0.27861992 0.038289607
-0.026789252 -0.22261336 0.24663724 0.2228722 -0.029216273 0.027986191 0.22352578 -0.054153327
-0.42475998 0.057791237 -0.12158548 -0.10867108 0.11469141 0.13651772 0.01240188 -0.10119281
0.26193282 -0.07341631 -0.084504694 0.28444025 0.0030783094 -0.07669292 0.38321212 -0.0236404
-0.0004038226 0.23815243 0.23244283 0.07711392 0.27638152 0.17545363 -0.20145668 -0.21457215
0.22188355 0.084956445 0.062308658 -0.017950857 0.15023859 0.26776505 -0.15970162 0.21818797
-0.09285007 0.32476473 0.24053018 -0.008911135 0.006244796 0.14057305 -0.29013485 -0.12809737
-0.40559357 0.013130641 -0.20284168 0.108889006 0.25786656 -0.23569088 -0.023994548 -0.14210796
-0.18297261 -0.32525536 -0.22853695 -0.37493783 0.05398748 0.096245445 -0.11976291 0.007902522
00000000: 1f40 d5be a575 503e 0791 533e ca46 3abd
00000010: 96ba 9f3e 7321 61be b033 ea3d 697b 983d
00000020: 64d6 0d3c e608 80be a38e 0f3e 395c 7ebe
00000030: 5ca7 91be ea2f 913e 5438 6a3e b81e 5fbd
00000040: 60b3 6fbc 4574 8a3e e0b5 e53c d12f bcbd
00000050: d69b 4ebe de1b 683d 455f 3e3d 735e 093d
00000060: 8431 b73d fdbf f73d 3315 7a3e 291f cdbc
00000070: 569a 353d 035e 963d 1878 46be 802c 1abe
00000080: 5e85 50be 0c80 1dbe a5e1 763d eb19 bc3d
00000090: a094 91be fe35 62bd 87be 423e 7404 283e
000000a0: 2711 94be d727 7d3d 2750 12be 80a6 9b3d
000000b0: 25d1 643e 2526 39bd 6fb7 873e 4ee0 df3c
000000c0: 5bad c43e 9e59 5dbe 2601 1bbe 3d20 8a3e
000000d0: cb01 4d3e c647 213c 2b3f 87be 1fdf 5c3e
000000e0: 6030 15be 8c45 63bd 14fe fb3d 6bfb 15bd
000000f0: 47fe cbbd f8ee 9ebe 4cbd a23d 884a 493e
00000100: ce44 f73d 9b18 4d3d 398c 08be 4cf8 2a3e
00000110: 0599 32be 2249 783d 4a84 65be 89b6 39be
00000120: 288e e0bd accb f4bd 5032 abbe ab5c 5b3e
00000130: 007d 033c ef0e 69be 4090 ac3e 2d85 143e
00000140: 4599 613b 1522 ad3e 02c9 203c a5f9 f43d
00000150: 802a 9e3d ca8f 0dbe 419c 25be b34b 6c3e
00000160: 9ea2 be3d f80f 0cbc c0fa 3ebe ca5a 40bd
00000170: 0575 5ebe c269 5dbe 66f5 1c3e 816a 0fbe
00000180: cfd0 163b 3cb8 1abe 04bc 5e3e 7988 9c3e
00000190: 2880 a83e 1d17 9ebe 055d 633d 5507 293e
000001a0: ac68 6c3e 7006 653e 9685 8ebe 2187 32be
000001b0: 45a4 403e 13f7 5c3d e48d 9b3e d051 283e
000001c0: c9e2 f8bc 37ff ab3e 892b bcbe b472 97be
000001d0: e652 e13d 9743 a9bd 02ba 69bb f0e2 08be
000001e0: 3281 94bc 35c7 9f3e d5de a0be 26cb 4ebe
000001f0: 6b59 17be e823 2b3e b07a b3be e787 d93c
00000200: 2465 03be 4fb1 833e 76e0 d9bd 1a2c 7bbb
00000210: 9d8c 74be c37d 603e 82be 883e 35be 89be
00000220: 3dbb 593e d47a b1bd 5069 4fbd 7fd0 ecbd
00000230: a552 9c3e 849a 043e 818f 343e afcc 893e
00000240: 2166 f5bd 967f 0f3e 99e1 dabd 13c2 9b3d
00000250: b97d 033e 3dcc a4bd 2c1b cdbd 380f 25bd
00000260: 40c4 94be 558f 12be 84d1 893c 2db3 533e
00000270: 86c4 18be 54e3 bc3c 5a6b 9c3d 61de e9bd
00000280: ad79 7d3e 92a8 57be 38d4 a03d 8cc6 d7bc
00000290: d92c e5bd ae54 ec3d f896 db3d e3d7 17be
000002a0: fec4 cabd 844c 9fbe d89f 01be 07ab a9be
000002b0: 16e5 903e d7a2 4e3e 6605 013e e6e4 fc3d
000002c0: 1aa5 fb3d c667 263e de72 60be de02 0c3d
000002d0: c03d 843e a63d 9d3e 8a4c a23c c775 34be
000002e0: 9ef6 af3e f73f e0bc fc7b 8d3a f3de a6bd
000002f0: a534 693e d626 6f3c 45a7 8e3e 90d5 1c3d
00000300: 2275 dbbc c2f4 63be 798e 7c3e 9c38 643e
00000310: f756 efbc 4c43 e53c f1e3 643e e1cf 5dbd
00000320: 247a d9be 81b6 6c3d cf01 f9bd f18e debd
00000330: 54e3 ea3d 4dcb 0b3e 4131 4b3c 2d3e cfbd
00000340: 0f1c 863e 4a5b 96bd cc10 adbd 27a2 913e
00000350: 76bd 493b 2d11 9dbd 6134 c43e 83a9 c1bc
00000360: 27b8 d3b9 3bde 733e 7e05 6e3e e7ed 9d3d
00000370: e181 8d3e 1eaa 333e a94a 4ebe cdb8 5bbe
00000380: 7135 633e a5fd ad3d 5d37 7f3d ad0d 93bc
00000390: 25d8 193e 8018 893e d288 23be ab6c 5f3e
000003a0: 2d28 bebd 9047 a63e 8b4d 763e 0200 12bc
000003b0: 25a1 cc3b 62f2 0f3e 8e8c 94be f52b 03be
000003c0: f6a9 cfbe e621 573c bbb5 4fbe 3301 df3d
000003d0: 1607 843e f358 71be 3790 c4bc c084 11be
000003e0: 2c5d 3bbe df87 a6be 9705 6abe daf7 bfbe
000003f0: fa21 5d3d 551c c53d 4246 f5bd 9479 013c

conv1.bias f4 [64]
-0.20111975 -0.198263 0.2244373 -0.02900671 0.108280376 0.18530278 0.0794119 0.15979269
-0.22447668 -0.089066535 -0.16333799 0.30734226 0.29592973 -0.20697553 0.041609213 0.30973104
-0.16584437 0.14187643 0.1607905 -0.08428922 0.2315511 0.2884888 -0.09083183 -0.10473196
-0.05054128 -0.067186445 -0.26264474 0.23704849 -0.1660963 -0.23754455 -0.12710647 -0.088020995
0.20456739 -0.095884755 0.30540136 -0.019354258 -0.2943648 0.013820861 -0.21800318 -0.0654364
0.15100044 -0.10134846 -0.058487993 0.17614649 -0.27183935 -0.16860713 0.30334046 -0.29058665
-0.21516523 0.086857535 0.22966029 0.23588942 -0.027519587 -0.12961452 -0.2826355 -0.2805025
0.32633853 0.18499947 0.1802758 0.03601794 -0.21593739 -0.13662168 0.28004217 -0.20510462
00000000: 56f2 4dbe 7505 4bbe e4d2 653e 7b9f edbc
00000010: 1ac2 dd3d 03c0 3d3e b5a2 a23d b2a0 233e
00000020: 37dd 65be 8468 b6bd 1342 27be f75b 9d3e
00000030: 1a84 973e 65f1 53be 6c6e 2a3d 1195 9e3e
00000040: 1bd3 29be 0e48 113e 44a6 243e d49f acbd
00000050: bb1b 6d3e ceb4 933e 0a06 babd b67d d6bd
00000060: 6004 4fbd 0c99 89bd 5f79 86be d7bc 723e
00000070: 2615 2abe e13e 73be 3328 02be 5a44 b4bd
00000080: 1d7a 513e 3a5f c4bd 915d 9c3e d28c 9ebc
00000090: fcb6 96be e470 623c 3a3c 5fbe 8503 86bd
000000a0: dc9f 1a3e c88f cfbd 1b91 6fbd bf5f 343e
000000b0: 872e 8bbe 59a7 2cbe 714f 9b3e c6c7 94be
000000c0: 4654 5cbe 5de2 b13d 112c 6b3e ff8c 713e
000000d0: c270 e1bc abb9 04be 9ab5 90be 069e 8fbe
000000e0: d815 a73e 8070 3d3e 389a 383e 8c87 133d
000000f0: b11e 5dbe 8ee6 0bbe b061 8f3e f206 52be

conv2.weight f4 [128, 64, 3]
0.027121084 0.057592276 -0.16127963 -0.0008375605 -0.062274847 0.0127190845 0.067580014 -0.052182827
0.051170453 0.031443972 -0.051034298 0.051106375 0.03492161 -0.005579983 -0.067385614 0.026343342
0.04554804 -0.010137468 0.055919178 0.00630519 0.053198628 -0.043332428 -0.037712652 -0.08418034
0.028747082 0.02262036 -0.0061185607 -0.019082816 -0.011885848 0.060760304 0.025525197 -0.05623914
0.006836605 -0.05984322 -0.016225055 0.035236638 0.047631286 0.013349704 -0.031358164 0.097017266
-0.052383713 -0.1003413 0.04487709 -0.026372526 -0.062284973 -0.007615041 0.07507237 0.07408414
-0.040499244 -0.06895881 -0.055751458 -0.012647049 -0.050264962 -0.03628452 -0.027259283 -0.017354341
-0.051884335 -0.03564472 -0.010424596 0.030506244 -0.01909816 0.090195045 -0.01680139 -0.02848298
0.07964236 0.00465767 -0.007231274 -0.014698771 -0.0007904332 0.010966994 0.020994008 -0.09210209
-0.015770696 -0.026119124 -0.046884578 0.05258722 -0.03956902 0.022147072 0.008146736 0.065048695
0.040763725 -0.04718357 0.08411098 -0.04124629 0.019242479 0.10951258 0.07556932 -0.048925955
0.011843356 0.017458787 0.0070892298 0.003096899 0.04213648 -0.0044297404 0.04140348 -0.01777422
-0.02972103 0.07326699 0.055804837 0.0544506 -0.033437926 0.013203307 0.051344626 0.016539313
0.097938456 -0.03907309 0.051264882 -0.046552233 -0.058823716 -0.028121363 0.01118961 0.020323465
0.0016898208 -0.06703921 -0.028956512 -0.07186574 0.05070915 0.019216944 -0.08717772 -0.05925137
-0.032492712 0.07054979 0.0928778 -0.046608143 -0.031973854 -0.034407105 0.101280786 -0.06508646
-0.10274436 0.0765989 0.031364433 -0.08476517 0.027971875 0.041263666 0.021376718 0.09185439
0.04102936 -0.04627466 -0.052099578 -0.04325618 -0.030717485 -0.055408943 -0.027534453 -0.04212109
-0.013120013 -0.057350002 -0.072661825 -0.06335243 0.029489301 0.012836834 0.018547839 0.036693543
0.025619924 0.020800529 -0.015919395 -0.062173113 0.049143642 -0.06163563 -0.04253997 0.00095987704
0.07820107 0.029754173 0.022744158 -0.087751485 0.017217835 -0.06256474 0.058323313 -0.019696068
-0.038140204 -0.04858908 0.07760372 0.09154954 -0.038304016 0.03061603 -0.042309806 -0.02523408
-0.04526644 -0.11069085 0.012929908 -0.04561206 -0.04988847 0.011815739 0.05490248 0.03093958
-0.0109305335 -0.019758798 0.0013672409 -0.011014646 0.01661462 -0.05780836 -0.034906447 0.02195806
0.11688663 0.1418289 0.0072237197 -0.029179346 -0.027160715 0.06297049 -0.089861184 -0.05365158
-0.017730674 0.030233962 0.006998088 -0.03980621 -0.034891013 -0.029380364 -0.08886171 -0.058432776
0.0026086362 0.04304658 0.056046255 0.025449522 -0.04501818 -0.044945464 0.004888283 -0.04210097
-0.010620518 0.0037087312 0.04343793 0.032289874 -0.055070795 -0.009351118 -0.068268955 -0.004468832
0.013468955 -0.025185267 -0.014115457 -0.047076266 -0.05273507 0.0040280684 0.0041965474 -0.023567075
0.029953472 0.0022119046 -0.16198483 -0.0661037 0.006298837 -0.017316438 -0.073691145 0.0043304684
-0.00035827834 -0.018895315 -0.006651362 0.046465836 -0.08249955 -0.0721884 -0.008555561 0.034572832
-0.0061788964 0.13582085 0.0646737 0.016983015 0.019908004 0.06826235 0.0021052896 -0.03315887
00000000: 092d de3c e1e5 6b3d 7d26 25be bc8f 5bba
00000010: e913 7fbd b563 503c 6467 8a3d a9bd 55bd
00000020: 1c98 513d 65cb 003d 5709 51bd eb54 513d
00000030: f609 0f3d 4ad8 b6bb 7801 8abd fecd d73c
00000040: 9590 3a3d 9f17 26bc 820b 653d c49b ce3b
00000050: cee6 593d 587d 31bd 9578 1abd be66 acbd
00000060: 007f eb3c 554e b93c 357e c8bb 9153 9cbc
00000070: dcbc 42bc ccdf 783d 381a d13c 035b 66bd
00000080: 9905 e03b 2a1e 75bd 68ea 84bc 4b54 103d
00000090: 0619 433d b8b8 5a3c 6b71 00bd fdb0 c63d
000000a0: 4e90 56bd bd7f cdbd 0ad1 373d 320b d8bc
000000b0: 871e 7fbd 9887 f9bb 8bbf 993d 6db9 973d
000000c0: 89e2 25bd 473a 8dbd a45b 64bd 9135 4fbc
000000d0: a2e2 4dbd 149f 14bd dc4e dfbc b12a 8ebc
000000e0: ab84 54bd 3300 12bd edcb 2abc 3be8 f93c
000000f0: bf73 9cbc 2eb8 b83d 12a3 89bc 2355 e9bc
00000100: 891b a33d 5e9f 983b 53f4 ecbb 1dd3 70bc
00000110: 1335 4fba e8ae 333c a0fb ab3c 05a0 bcbd
00000120: 8c31 81bc c6f7 d5bc 0b0a 40bd b265 573d
00000130: 2013 22bd c76d b53c e379 053c 4038 853d
00000140: ddf7 263d 8f43 41bd 6142 ac3d dff1 28bd
00000150: 67a2 9d3c 2248 e03d 16c4 9a3d 9566 48bd
00000160: a30a 423c bb05 8f3c c54c e83b 58f5 4a3b
00000170: 4d97 2c3d 5b27 91bb b296 293d 3e9b 91bc
00000180: 8479 f3bc 010d 963d 9d93 643d 9807 5f3d
00000190: 35f6 08bd af52 583c be4e 523d 747d 873c
000001a0: f593 c83d 1b0b 20bd 20fb 513d 8ead 3ebd
000001b0: 23f1 70bd c65e e6bc a054 373c 657d a63c
000001c0: fa7c dd3a da4b 89bd 3536 edbc 582e 93bd
000001d0: 66b4 4f3d da6c 9d3c 3c8a b2bd 91b1 72bd
000001e0: 1417 05bd 697c 903d b736 be3d 2ee8 3ebd
000001f0: 04f7 02bd 77ee 0cbd 4d6c cf3d 0d4c 85bd
00000200: a36b d2bd e2df 9c3d fe77 003d 5d99 adbd
00000210: 4625 e53c 1704 293d 3a1e af3c 281e bc3d
00000220: 670e 283d 7f8a 3dbd 5e66 55bd 642d 31bd
00000230: 3ca3 fbbc 7df4 62bd ef8f e1bc 2a87 2cbd
00000240: 53f5 56bc d6e7 6abd b9cf 94bd ebbe 81bd
00000250: 8c93 f13c 9651 523c a3f1 973c f84b 163d
00000260: e0e0 d13c df65 aa3c 6469 82bc 3ca9 7ebd
00000270: d84a 493d a475 7cbd 643e 2ebd 42a0 7b3a
00000280: e227 a03d 06bf f33c f551 ba3c 0db7 b3bd
00000290: 6b0c 8d3c f121 80bd 6de4 6e3d a659 a1bc
000002a0: e738 1cbd 5805 47bd b3ee 9e3d 537e bb3d
000002b0: ace4 1cbd 78ce fa3c 0c4d 2dbd b4b7 cebc
000002c0: 4d69 39bd e2b1 e2bd f7d7 533c b6d3 3abd
000002d0: da57 4cbd cd96 413c 6ce1 603d 0175 fd3c
000002e0: fb15 33bc 34dd a1bc fe34 b33a c676 34bc
000002f0: 621b 883c 75c8 6cbd 10fa 0ebd 64e1 b33c
00000300: 4262 ef3d 983b 113e f4b4 ec3b 8609 efbc
00000310: 2680 debc acf6 803d 2409 b8bd c2c1 5bbd
00000320: eb3f 91bc 37ad f73c 3850 e53b d60b 23bd
00000330: e1e9 0ebd 17af f0bc 21fd b5bd 3557 6fbd
00000340: a7f5 2a3b 9c51 303d c290 653d 847b d03c
00000350: fc64 38bd bc18 38bd e42d a03b 1172 2cbd
00000360: ae01 2ebc 2f0e 733b f9eb 313d 6342 043d
00000370: ea91 61bd 6e35 19bc 98d0 8bbd 486f 92bb
00000380: e4ac 5c3c 5551 cebc 8544 67bc 0bd3 40bd
00000390: bb00 58bd e3fd 833b 3183 893b bd0f c1bc
000003a0: fc60 f53c 9af5 103b 5adf 25be 6061 87bd
000003b0: 7966 ce3b 34db 8dbc 62eb 96bd 9ae6 8d3b
000003c0: 4ed7 bbb9 59ca 9abc abf3 d9bb f652 3e3d
000003d0: 86f5 a8bd 83d7 93bd a02c 0cbc 3e9c 0d3d
000003e0: 5778 cabb 9f14 0b3e a573 843d f71f 8b3c
000003f0: 1c16 a33c 22cd 8b3d e6f8 093b 98d1 07bd

conv2.bias f4 [128]
-0.019947356 0.041029908 -0.04507652 0.04818638 -0.010286873 0.029866748 -0.034026444 -0.008317347
-0.05961132 -0.0744802 -0.032154813 -0.010564045 0.0042326185 -0.025088249 -0.040396128 0.060822785
0.018350875 0.034547165 -0.0037004077 0.007870199 -0.010829891 0.049801454 -0.021452514 -0.027842721
0.03833339 -0.01661925 0.066161536 -0.008116066 -0.057894956 -0.04866222 -0.05627632 -0.0021733558
0.049253777 -0.041434564 -0.01578787 -0.0489581 -0.03214738 -0.01991984 -0.05738298 0.041832972
0.05213956 0.023810105 0.018149305 0.03920288 -0.03461225 -0.03666927 -0.013368801 0.036559056
-0.055688556 -0.07215585 0.026874095 0.009148364 -0.05716806 0.047595266 -0.017597621 -0.0160159
-0.06729747 0.014823533 0.04656238 -0.03798684 0.03876446 -0.027591676 0.055886514 0.055857588
-0.0028938127 0.05928194 0.06426783 0.037869498 -0.060716596 -0.013397934 -0.009431822 -0.009080734
-0.054265372 -0.050971016 0.06591893 0.05173208 -0.022050653 -0.04160999 0.05323982 -0.022788856
0.02950416 0.032681562 0.00061369286 -0.055368263 0.039195396 0.03503138 -0.05794435 -0.039783526
0.03408733 -0.0030206242 0.002642142 0.051906705 0.037768174 0.03006084 -0.055507146 -0.0030012433
0.010083138 -0.0462496 0.05859976 -0.010950379 0.0037904398 -0.05915772 -0.018628405 -0.04396344
0.051843762 0.026196176 -0.026456838 0.033161357 0.0038170165 -0.03910697 -0.03814216 -0.05629265
-0.03083191 0.0033022433 0.0077254795 -0.00036564583 0.009822948 -0.003977288 -0.0012990263 -0.03393715
-0.027238268 0.0263104 0.058223095 0.07418908 0.021616602 0.010056828 -0.037673697 -0.04172439
00000000: a368 a3bc fa0e 283d 28a2 38bd 155f 453d
00000010: 468a 28bc 1cab f43c 505f 0bbd 7b45 08bc
00000020: 002b 74bd 1389 98bd c4b4 03bd d114 2dbc
00000030: c7b1 8a3b df85 cdbc 6976 25bd 5021 793d
00000040: 9354 963c 5481 0d3d 8a82 72bb 02f2 003c
00000050: db6f 31bc 9cfc 4b3d 2fbd afbc 6b16 e4bc
00000060: 7903 1d3d 1825 88bc b37f 873d 40f9 04bc
00000070: 4323 6dbd 0952 47bd 0082 66bd dc6e 0ebb
00000080: 54be 493d 4ab7 29bd 9055 81bc 4a88 48bd
00000090: f9ac 03bd ef2e a3bc 6a0a 6bbd 0d59 2b3d
000000a0: 4b90 553d 690d c33c daad 943c 3393 203d
000000b0: 93c5 0dbd 8432 16bd d108 5bbc f3be 153d
000000c0: af19 64bd 72c6 93bd 1027 dc3c 05e3 153c
000000d0: 0e29 6abd 41f3 423d e328 90bc c733 83bc
000000e0: 42d3 89bd 67de 723c 32b8 3e3d 1798 1bbd
000000f0: 7bc7 1e3d f007 e2bc 42e9 643d edca 643d
00000100: 1fa6 3dbb 9fd1 723d da9e 833d 0c1d 1b3d
00000110: f7b1 78bd 0283 5bbc ee87 1abc 5cc7 14bc
00000120: 5e45 5ebd fcc6 50bd 8100 873d 04e5 533d
00000130: 92a3 b4bc 3d6f 2abd ff11 5a3d b2af babc
00000140: b5b2 f13c 1add 053d 3be0 203a d5c9 62bd
00000150: 5a8b 203d 107d 0f3d 0e57 6dbd 0df4 22bd
00000160: 289f 0b3d aaf5 45bb c927 2d3b 209c 543d
00000170: cdb2 1a3d 2742 f63c 765b 63bd 82b0 44bb
00000180: bf33 253c 3870 3dbd 4d06 703d 3869 33bc
00000190: 0769 783b 5e4f 72bd 999a 98bc 0213 34bd
000001a0: 205a 543d 5d99 d63c 03bc d8bc 34d4 073d
000001b0: e926 7a3b a12e 20bd f43a 1cbd 1f93 66bd
000001c0: 3493 fcbc 736a 583b 0526 fd3b 27b4 bfb9
000001d0: 6ef0 203c e953 82bb 1744 aaba ae01 0bbd
000001e0: ca22 dfbc e888 d73c 577b 6e3d 72f0 973d
000001f0: 4d15 b13c 65c5 243c bc4f 1abd 32e7 2abd

dense1.weight f4 [50, 768]
0.025032334 -0.0343681 0.0340564 0.0068297647 -0.019119687 0.017617976 0.008143782 -0.015705492
0.02266993 0.031918935 0.0019876622 -0.016563289 -0.110848375 0.014876935 0.0018915222 -0.021472855
-0.033810835 -0.013705762 0.02167852 -0.005196907 0.035309363 4.0025876e-05 -0.006877614 -0.011275411
0.03134438 -0.020291127 -0.016354468 0.002510254 -0.013711516 -0.030337725 0.036757313 -0.022349453
0.014007413 -0.011407718 0.04878806 0.0572237 0.03355667 0.022449013 0.012037301 0.0016277345
-0.020283926 -0.068529986 0.027733572 -0.021317111 0.017214231 0.04362404 -0.027414743 -0.0026458316
-0.002193502 0.008022803 -0.0239285 0.025300974 0.029116912 -0.0011860855 0.022535 0.0034059188
-0.006275327 0.0016908477 0.01311831 -0.011031744 0.006967892 -0.015414209 0.03628281 -0.0018776255
-0.010771916 -0.020790529 0.009439932 0.04088293 0.004393529 -0.007340249 0.009748988 -0.093831636
-0.04585509 -0.010383019 0.040092494 -0.019058365 0.0010363173 0.0005599329 0.022916041 0.03785986
-0.0012545213 -0.00080668635 0.02487692 -0.020145047 0.05064409 -0.020429598 0.0001589741 0.039246093
-0.0105340285 -0.00934707 -0.047163136 -0.014911578 -0.029363176 0.0022465875 -0.01656023 -0.095878676
-0.07345406 0.014413441 0.0029463933 -0.04275389 -0.0067188954 0.026317392 0.025095519 -0.0052133044
-0.03414113 -0.00042344866 0.02648137 0.0036314065 0.007840998 -0.020493882 -0.0173733 0.006360962
-0.032215208 -0.0018834638 0.0144479135 -0.032149713 -0.028168244 -0.03624094 -0.011332295 0.012580174
-0.02051678 -0.012512266 0.025599156 -0.013878183 0.026581781 -0.022390772 -0.015108137 0.0382767
-0.031914573 0.0117384745 0.015793331 0.0012633229 0.034958337 -0.026804166 -0.036102578 0.00092549034
0.039380737 -0.0018976064 -0.050650846 -0.034746464 -0.04046422 0.02052099 0.0053194826 -0.06635678
0.009213846 0.003103158 0.008577433 0.0035344209 -0.015137868 -0.02048831 -0.059161656 0.029116165
-0.016864618 -0.046808336 -0.004549692 -0.027448226 -0.042636763 0.031117853 -0.03430368 -0.014061043
0.012257666 -0.05529104 -0.03938898 -0.003619038 0.009541304 0.013769539 -0.04838277 -0.038371775
0.03864757 -0.024027688 -0.030780317 0.02005892 -0.0067382935 0.0077234237 0.051907763 0.012285205
0.01817768 0.030859694 0.0014273435 0.032487318 0.028954882 0.003323733 0.03067855 -0.0054522813
-0.015305859 0.037644185 -0.017843058 0.025513358 0.013637078 0.012554863 0.030802155 0.015199637
0.01939049 0.028450869 0.012181356 0.019462798 -0.008399192 -0.0026280766 -0.016689854 0.0153723955
0.02040935 0.026477866 0.03165853 0.019882027 -0.033879485 0.01689187 -0.016571896 -0.02034434
-0.013671564 -0.093893625 -0.0046642134 -0.027501736 -0.018202865 -0.0059760325 -0.013305272 -0.0007602119
-0.06800504 0.023971098 -0.013647134 0.0057602874 -0.044350058 -0.021160737 -0.03959499 -0.016063152
-0.026044652 -0.011343399 0.013149458 -0.11163013 -0.070929274 0.010592306 -0.013764396 -0.023351207
-0.019212764 -0.01082355 0.0046238457 0.03279587 0.012609241 0.0003864661 -0.011825451 0.010065559
-0.0009821046 -0.01582045 0.026975546 0.03036299 0.023227315 -0.017385535 0.028977564 -0.00028719977
0.01797092 -0.0001773739 -0.022522347 -0.016240913 -0.05613177 0.006644393 0.007280809 0.008336302
00000000: 9c10 cd3c 91c5 0cbd b97e 0b3d 38cc df3b
00000010: e4a0 9cbc 9353 903c 7f6d 053c cea8 80bc
00000020: 4ab6 b93c 6ebd 023d 7043 023b bcaf 87bc
00000030: 7904 e3bd 63be 733c f4ec f73a d7e7 afbc
00000040: 3b7d 0abd 228e 60bc 2797 b13c d14a aabb
00000050: 8da0 103d 75e1 2738 9c5d e1bb 80bc 38bc
00000060: f762 003d 9439 a6bc cef9 85bc 1383 243b
00000070: 44a6 60bc d286 f8bc d68e 163d 3316 b7bc
00000080: 597f 653c 70e7 3abc fdd5 473d 6663 6a3d
00000090: b872 093d fee6 b73c 1a38 453c b559 d53a
000000a0: 7a2a a6bc 7359 8cbd 8431 e33c 39a1 aebc
000000b0: dc04 8d3c 1faf 323d e294 e0bc b065 2dbb
000000c0: dbc0 0fbb 1372 033c b405 c4bc fd43 cf3c
000000d0: 9786 ee3c 6d76 9bba 529b b83c d635 5f3b
000000e0: 42a1 cdbb 6f9f dd3a 2eee 563c 7dbe 34bc
000000f0: ea52 e43b e18b 7cbc 499d 143d a81a f6ba
00000100: b17c 30bc e650 aabc f2a9 1a3c dc74 273d
00000110: 98f7 8f3b 7986 f0bb 38ba 1f3c cd2a c0bd
00000120: 8cd2 3bbd 8a1d 2abc 0738 243d 4a20 9cbc
00000130: 0ad5 873a 76c8 123a 6cba bb3c f112 1b3d
00000140: c06e a4ba ce77 53ba afca cb3c 3a07 a5bc
00000150: 2d70 4f3d f95b a7bc 49b2 2639 83c0 203d
00000160: eb96 2cbc 7424 19bc 222e 41bd b14f 74bc
00000170: 0b8b f0bc 7c3b 133b 52a9 87bc 0a5c c4bd
00000180: 156f 96bd 5a26 6c3c 4718 413b b41e 2fbd
00000190: 2e2a dcbb 9297 d73c 1e95 cd3c 5ed4 aabb
000001a0: 92d7 0bbd 5102 deb9 75ef d83c e4fc 6d3b
000001b0: 8777 003c c9e2 a7bc 7352 8ebc 9e6f d03b
000001c0: 18f4 03bd 8fde f6ba f1b6 6c3c 6baf 03bd
000001d0: 17c1 e6bc 6171 14bd 17ab 39bc 131d 4e3c
000001e0: ce12 a8bc 3f00 4dbc 52b5 d13c 5261 63bc
000001f0: 09c2 d93c da6c b7bc 1f88 77bc 07c8 1c3d
00000200: dbb8 02bd bb52 403c 0461 813c 1596 a53a
00000210: 7930 0f3d 6994 dbbc 4ce0 13bd 9b9c 723a
00000220: b24d 213d 1bb9 f8ba 4377 4fbd 4f52 0ebd
00000230: cfbd 25bd a31b a83c 0e4f ae3b 10e6 87bd
00000240: acf5 163c 5a5e 4b3b 5d88 0c3c bea1 673b
00000250: d204 78bc 1ad7 a7bc 7e53 72bd 0685 ee3c
00000260: ab27 8abc 19ba 3fbd 9515 95bb 1adb e0bc
00000270: e3a3 2ebd deea fe3c 0482 0cbd 4a60 66bc
00000280: 61d4 483c dc78 62bd 5756 21bd 622d 6dbb
00000290: 2153 1c3c a299 613c 032d 46bd b92b 1dbd
000002a0: ea4c 1e3d b7d5 c4bc 0127 fcbc 9b52 a43c
000002b0: e7cc dcbb c614 fd3b 3c9d 543d e247 493c
000002c0: 5ce9 943c 78cd fc3c b315 bb3a 6c11 053d
000002d0: ca32 ed3c fdd2 593b 9551 fb3c 0da9 b2bb
000002e0: 6dc5 7abc ca30 1a3d 9b2b 92bc 6401 d13c
000002f0: 0d6e 5f3c e9b2 4d3c cd54 fc3c e607 793c
00000300: ced8 9e3c cc11 e93c 4f94 473c 7270 9f3c
00000310: c49c 09bc cf3b 2cbb 29b9 88bc 80dc 7b3c
00000320: 8231 a73c 1ce8 d83c 60ac 013d a2df a23c
00000330: 37c5 0abd d260 8a3c c9c1 87bc 2ca9 a6bc
00000340: b2fe 5fbc 4d4b c0bd 42d6 98bb 524b e1bc
00000350: 2d1e 95bc 98d2 c3bb 5bfe 59bc f548 47ba
00000360: 3a46 8bbd 095f c43c 3b98 5fbc cbc0 bc3b
00000370: 68a8 35bd 4859 adbc 5b2e 22bd df96 83bc
00000380: 985b d5bc aad9 39bc d370 573c 569e e4bd
00000390: 5e43 91bd 5a8b 2d3c 1084 61bc 084b bfbc
000003a0: 1664 9dbc 4255 31bc a183 973b f654 063d
000003b0: fd96 4e3c 9a9e ca39 89bf 41bc 04ea 243c
000003c0: f6b9 80ba e399 81bc d2fb dc3c cebb f83c
000003d0: 3647 be3c 1c6c 8ebc 5b62 ed3c 4d93 96b9
000003e0: c037 933c 72fd 39b9 c980 b8bc aa0b 85bc
000003f0: 6dea 65bd 35b9 d93b da93 ee3b fc94 083c

dense1.bias f4 [50]
0.06875088 0.03477614 0.044163667 0.08445308 0.077753805 0.02501019 0.093024634 0.029323706
0.10369258 0.03889774 0.04232956 0.0030353472 0.013824427 0.059192937 0.015351558 -0.013987194
0.027862443 0.041109093 0.051777136 0.07718836 0.03217113 0.06532688 0.049674213 0.06318372
0.064353906 0.009530563 0.08973795 0.08499548 0.0652551 0.07947293 0.067777164 0.021926224
0.085793786 0.038438816 0.06010995 0.07237477 0.015567138 0.0017588002 0.047438417 0.049768087
0.06535743 0.051712453 0.037453867 0.09790136 0.012148942 0.015488353 0.0436547 0.021244133
0.025812889 0.06718277
00000000: 43cd 8c3d 6d71 0e3d f6e4 343d bdf5 ac3d
00000010: 633d 9f3d 2ce2 cc3c b383 be3d 4538 f03c
00000020: c65c d43d 3d53 1f3d c361 2d3d adec 463b
00000030: d97f 623c 4b74 723d 1a85 7b3c 8b2a 65bc
00000040: c73f e43c 0262 283d 4314 543d ee14 9e3d
00000050: e0c5 033d 19ca 853d 3077 4b3d 7766 813d
00000060: fbcb 833d 1426 1c3c 88c8 b73d 1c12 ae3d
00000070: 77a4 853d b4c2 a23d c1ce 8a3d a09e b33c
00000080: a7b4 af3d 0572 1d3d da35 763d 3939 943d
00000090: 4f0d 7f3c 8b87 e63a c94e 423d 9fd9 4b3d
000000a0: 1eda 853d 70d0 533d 3a69 193d 8280 c83d
000000b0: 5b0c 473c dcc2 7d3c 45cf 323d 2d08 ae3c
000000c0: 8d75 d33c 1f97 893d

dense2.weight f4 [1, 50]
0.07275458 0.10666462 0.06670709 0.034305356 0.15022552 0.1336153 -0.10835012 -0.13292529
-0.101043776 0.11323697 -0.08936656 -0.02503954 0.07502235 0.09722496 0.07712479 0.043491095
-0.039389133 0.05473844 -0.14986143 0.15219066 0.12752356 -0.03298496 0.07237466 0.13350976
-0.1496117 -0.10573362 0.025979644 -0.081237316 0.025504544 -0.049915873 0.15244667 0.14901447
0.111631736 0.04626657 0.051113635 0.05824534 -0.12564753 0.09124924 -0.1259181 -0.07664329
0.13120832 0.112823084 0.044287484 -0.120903134 -0.03137318 -0.057062395 0.14318869 0.08615711
0.10780449 0.14131305
00000000: 5a00 953d fb72 da3d ba9d 883d c683 0c3d
00000010: b8d4 193e 73d2 083e abe6 ddbd 911d 08be
00000020: 0af0 cebd c9e8 e73d d105 b7bd b91f cdbc
00000030: 51a5 993d e11d c73d 9af3 9d3d b823 323d
00000040: 8056 21bd 6a35 603d 4675 19be ded7 1b3e
00000050: 8995 023e 3d1b 07bd 2a39 943d c8b6 083e
00000060: cf33 19be de8a d8bd 43d3 d43c c05f a6bd
00000070: e8ee d03c 9674 4cbd fb1a 1c3e 4097 183e
00000080: 2e9f e43d 0482 3d3d 885c 513d aa92 6e3d
00000090: bfa9 00be e2e0 ba3d adf0 00be 28f7 9cbd
000000a0: 795b 063e ca0f e73d cb66 353d 109c f7bd
000000b0: 2a81 00bd 42ba 69bd 0ea0 123e 2473 b03d
000000c0: 9ac8 dc3d 5eb4 103e
