time_series_forecasting/saved_models/CNNForecastingModel/18-03-2024-004915_NO1_epoch_4.pt (torch, 258475 bytes, 7 tensors)

conv1.weight f4 [64, 3, 3]
-0.41230702 0.20066775 0.20356005 -0.04891964 0.3080218 -0.22049585 0.11731211 0.07635826
0.010241349 -0.24926166 0.14105742 -0.2471671 -0.2838152 0.28409997 0.22873077 -0.054472655
-0.014630169 0.27041832 0.02712046 -0.091295145 -0.20105532 0.058554888 0.047188856 0.03404865
0.08727955 0.1201068 0.24404944 -0.023606127 0.04539789 0.07446691 -0.19545099 -0.15025185
-0.20266768 -0.14749314 0.066321656 0.09873512 -0.28114933 -0.056072112 0.18589616 0.16425622
-0.28915724 0.06194411 -0.1412836 0.07678306 0.22243097 -0.041611087 0.26650816 0.03032447
0.37757245 -0.21863641 -0.15341046 0.27638346 0.20594504 0.014333593 -0.26001447 0.21448773
-0.14793378 -0.053325247 0.12521385 -0.035053123 -0.09960609 -0.31041694 0.089590475 0.19676736
0.120820045 0.051020715 -0.13418919 0.16639948 -0.17440175 0.06091736 -0.22349635 -0.18226832
-0.109477535 -0.11853898 -0.33406425 0.21447788 0.008127997 -0.22737898 0.32575 0.13417308
-0.005161147 0.33843264 0.010059765 0.121120445 0.074926876 -0.13919449 -0.16174771 0.2416075
0.1013695 -0.0015946048 -0.18502775 -0.042804778 -0.21713652 -0.21539988 0.15529272 -0.13765553
0.0022147524 -0.1512908 0.2248467 0.3045246 0.32741204 -0.30694756 0.05495539 0.16385713
0.22926596 0.21702409 -0.2850802 -0.1802124 0.18495847 0.05151809 0.3042535 0.16370466
-0.031983893 0.33496445 -0.35971886 -0.29271495 0.111859046 -0.0823339 -0.0029999642 -0.13592383
-0.018998515 0.31050685 -0.30933714 -0.20194682 -0.14780204 0.16712916 -0.34958616 0.027668484
-0.12833296 0.2571622 -0.10647895 -0.0044111703 -0.24411197 0.21988899 0.26968864 -0.26637468
0.21426402 -0.08701744 -0.047854967 -0.11315483 0.306872 0.14007917 0.18587987 0.27622142
-0.11990036 0.14008012 -0.106880106 0.07642685 0.12894791 -0.07964135 -0.10014948 -0.040297717
-0.29055977 -0.14266843 0.016179522 0.20524642 -0.1480651 0.023300655 0.07621614 -0.111062564
0.24850716 -0.21156526 0.08139155 -0.024498176 -0.110997364 0.11367497 0.107376345 -0.14866196
-0.09821936 -0.31113064 -0.12665133 -0.32858956 0.280741 0.19902743 0.12535506 0.121287934
0.12143421 0.16250524 -0.21658123 0.03678903 0.2545672 0.3049625 0.02025146 -0.17533606
0.3437045 -0.026000053 -0.0059028543 -0.08612751 0.22362499 0.012882703 0.2775553 0.03947107
-0.029325368 -0.22322409 0.24706367 0.21836193 -0.03727935 0.018101234 0.21693161 -0.05412753
-0.4204731 0.05773146 -0.11516065 -0.106641196 0.113019 0.13652922 0.015591721 -0.102138765
0.26068482 -0.07349195 -0.08428462 0.28393662 0.002539966 -0.079793274 0.37914565 -0.027547108
-0.010507707 0.22405046 0.22461016 0.07910626 0.27758664 0.17652348 -0.20747836 -0.22123758
0.2152181 0.08123995 0.06167022 -0.015318576 0.15452348 0.26899555 -0.15606706 0.21246052
-0.09853238 0.3188591 0.24022405 -0.009008294 0.0065984735 0.1407883 -0.28943577 -0.12724458
-0.39278007 0.026125014 -0.1895014 0.11007814 0.25769633 -0.23613207 -0.027089546 -0.14236847
-0.1818747 -0.32793316 -0.22982551 -0.370241 0.050486475 0.09033832 -0.111588344 0.009320012
00000000: e819 d3be d97b 4d3e 0c72 503e f65f 48bd
00000010: 09b5 9d3e aac9 61be 5541 f03d b861 9c3d
00000020: 55cb 273c 733e 7fbe 5b71 103e 5f19 7dbe
00000030: 3a50 91be 8d75 913e 6638 6a3e b81e 5fbd
00000040: 60b3 6fbc 4574 8a3e ba2b de3c f3f8 babd
00000050: 72e1 4dbe 40d7 6f3d 1a49 413d 9976 0b3d
00000060: 9fbf b23d 8efa f53d 19e8 793e a361 c1bc
00000070: 23f3 393d 1b82 983d 4e24 48be 9fdb 19be
00000080: 1e88 4fbe 7108 17be a6d3 873d a335 ca3d
00000090: cef2 8fbe dfab 65bd 905b 3e3e c832 283e
000000a0: 6b0c 94be 1bb9 7d3d a6ac 10be 7040 9d3d
000000b0: f2c4 633e 6370 2abd c273 883e 066b f83c
000000c0: 2d51 c13e 39e2 5fbe a217 1dbe 2282 8d3e
000000d0: 42e3 523e 72d7 6a3c 9e20 85be aca2 5b3e
000000e0: f47b 17be 936b 5abd 0f38 003e dd93 0fbd
000000f0: 47fe cbbd f8ee 9ebe 367b b73d 627d 493e
00000100: 8070 f73d 19fb 503d e468 09be a064 2a3e
00000110: 5f96 32be 7b84 793d 3adc 64be 8ca4 3abe
00000120: c235 e0bd 91c4 f2bd 780a abbe 17a0 5b3e
00000130: 4a2b 053c 09d6 68be b4c8 a63e ab64 093e
00000140: d71e a9bb 0b47 ad3e b6d1 243c ff0d f83d
00000150: 4373 993d 0089 0ebe 31a1 25be f567 773e
00000160: d09a cf3d 0f02 d1ba ea77 3dbe 1054 2fbd
00000170: 0959 5ebe c991 5cbe 0e05 1f3e 92f5 0cbe
00000180: 6125 113b faeb 1abe 373e 663e a6ea 9b3e
00000190: 8da2 a73e 3b28 9dbe e718 613d 2aca 273e
000001a0: b2c4 6a3e 903b 5e3e 08f6 91be 9989 38be
000001b0: c165 3d3e a204 533d 1dc7 9b3e 32a2 273e
000001c0: 8b01 03bd 7680 ab3e 122d b8be bcde 95be
000001d0: 5b16 e53d ad9e a8bd 0c9b 44bb 9e2f 0bbe
000001e0: c6a2 9bbc c1fa 9e3e 7061 9ebe 26cb 4ebe
000001f0: 6b59 17be e823 2b3e f5fc b2be 04a9 e23c
00000200: b769 03be c4aa 833e a311 dabd 948b 90bb
00000210: 7df8 79be 942a 613e a114 8a3e 4362 88be
00000220: 0768 5b3e 3336 b2bd 9203 44bd b8bd e7bd
00000230: 541e 9d3e ea70 0f3e 4b57 3e3e e56c 8d3e
00000240: 528e f5bd 2a71 0f3e f5e3 dabd ae85 9c3d
00000250: ec0a 043e 011b a3bd 2c1b cdbd 380f 25bd
00000260: 40c4 94be ac17 12be eb8a 843c 1e2c 523e
00000270: 619e 17be 04e1 be3c 3517 9c3d c574 e3bd
00000280: a978 7e3e 90a4 58be 9db0 a63d 66b0 c8bc
00000290: 9652 e3bd 6cce e83d 21e8 db3d d73a 18be
000002a0: 3b27 c9bd 844c 9fbe e3b0 01be e43c a8be
000002b0: 49bd 8f3e d9cd 4b3e 145d 003e cf65 f83d
000002c0: 80b2 f83d c667 263e 78c7 5dbe 18b0 163d
000002d0: a256 823e 0b24 9c3e 64e6 a53c 4c8b 33be
000002e0: 09fa af3e 10fe d4bc bb6c c1bb 9f63 b0bd
000002f0: f3fd 643e f911 533c ba1b 8e3e 6bac 213d
00000300: c13b f0bc db94 64be 42fe 7c3e 459a 5f3e
00000310: 3bb2 18bd 0a49 943c 5223 5e3e d4b4 5dbd
00000320: 4048 d7be d377 6c3d 59d9 ebbd b366 dabd
00000330: 8176 e73d 51ce 0b3e 6b74 7f3c 212e d1bd
00000340: 7b78 853e f382 96bd 6a9d acbd 2460 913e
00000350: 8f75 263b a86a a3bd 611f c23e 79aa e1bc
00000360: 8428 2cbc 7c6d 653e 3500 663e 7602 a23d
00000370: d61f 8e3e 92c2 343e 3575 54be 1b8c 62be
00000380: 2262 5c3e 2261 a63d ea99 7c3d c4fa 7abc
00000390: 673b 1e3e c9b9 893e 0bd0 1fbe 408f 593e
000003a0: 58cb c9bd 8041 a33e 4bfd 753e 8697 13bc
000003b0: 0238 d83b cf2a 103e ed30 94be 674c 02be
000003c0: 781a c9be 2004 d63c a80c 42be a670 e13d
000003d0: c6f0 833e 9bcc 71be e5ea ddbc 0ac9 11be
000003e0: 5d3d 3abe dbe6 a7be 6157 6bbe 3a90 bdbe
000003f0: e8ca 4e3d 4c03 b93d 6e88 e4bd f7b2 183c

conv1.bias f4 [64]
-0.20376773 -0.20029627 0.22599469 -0.029461619 0.109604076 0.18229553 0.07700605 0.1602235
-0.22443019 -0.0891098 -0.16065554 0.31076854 0.30150262 -0.20781025 0.041738827 0.3117833
-0.16609341 0.14205569 0.16141292 -0.08904365 0.23268788 0.28961444 -0.09759764 -0.1094156
-0.069087766 -0.07091932 -0.26342383 0.23751818 -0.17027736 -0.2432111 -0.12562135 -0.08795446
0.20546287 -0.09633726 0.30706283 -0.018173754 -0.29570648 0.011981984 -0.21934372 -0.06573708
0.1510262 -0.09975546 -0.06454922 0.17587121 -0.27243674 -0.16993235 0.30598456 -0.29131323
-0.21881132 0.0868425 0.2299718 0.23421371 -0.03108469 -0.13334022 -0.2817347 -0.28408173
0.32715726 0.1849888 0.17964132 0.030388022 -0.21779661 -0.13706417 0.28244844 -0.21112178
00000000: 7da8 50be 771a 4dbe 276b 673e 7e59 f1bc
00000010: 1a78 e03d aeab 3a3e 59b5 9d3d a111 243e
00000020: 07d1 65be 337f b6bd e382 24be 0e1d 9f3e
00000030: 8d5e 9a3e 36cc 54be 55f6 2a3d 10a2 9f3e
00000040: 6414 2abe 0c77 113e 6e49 253e 845c b6bd
00000050: bb45 6e3e 5848 943e 45e1 c7bd 4915 e0bd
00000060: e37d 8dbd 263e 91bd 7ddf 86be f737 733e
00000070: 305d 2ebe 550c 79be e2a2 00be 7821 b4bd
00000080: dc64 523e 784c c5bd 5737 9d3e 20e1 94bc
00000090: d766 97be 1550 443c a49b 60be 2aa1 86bd
000000a0: 9da6 1a3e 974c ccbd 6232 84bd 9517 343e
000000b0: d47c 8bbe bf02 2ebe 02aa 9c3e 0227 95be
000000c0: 1310 60be 7bda b13d ba7d 6b3e b8d5 6f3e
000000d0: 52a5 febc 578a 08be 883f 90be 2973 91be
000000e0: 2881 a73e b46d 3d3e e5f3 373e 4df0 f83c
000000f0: 1306 5fbe 8d5a 0cbe 159d 903e 4f30 58be

conv2.weight f4 [128, 64, 3]
0.01991094 0.05028744 -0.13416834 -0.000679039 -0.062219497 0.010818517 0.067069694 -0.051886838
0.051916026 0.032483038 -0.05119555 0.04975507 0.03332647 -0.007794393 -0.06766022 0.026218614
0.043270297 -0.01233645 0.053647626 0.0053051524 0.05309197 -0.043293707 -0.038635112 -0.0850379
0.027455814 0.020898832 -0.0069182543 -0.01854399 -0.012917505 0.058754355 0.021206794 -0.061019193
0.00691679 -0.05914189 -0.015939742 0.035648894 0.047326684 0.01216866 -0.03191688 0.09480946
-0.05019639 -0.08356596 0.044163287 -0.02669083 -0.0625103 -0.009225043 0.07436646 0.07378972
-0.04014981 -0.070841156 -0.060168758 -0.013323003 -0.05085585 -0.03584664 -0.02789926 -0.017561587
-0.05038304 -0.034754317 -0.009425893 0.031370066 -0.019657126 0.08912449 -0.016772797 -0.028644122
0.07882156 0.004026598 -0.003669182 -0.010706027 0.0037025115 0.014157691 0.022492088 -0.09402385
-0.015538893 -0.024757635 -0.04348165 0.058069553 -0.03550179 0.026583713 0.009798493 0.064721204
0.038772255 -0.04741738 0.082932696 -0.04278779 0.023986883 0.10396722 0.07146055 -0.046579957
0.010221959 0.012572502 0.007910778 0.0029138862 0.041151233 -0.0040623844 0.04066054 -0.01929349
-0.029286958 0.07257268 0.05473011 0.055705126 -0.032478534 0.013417681 0.05115987 0.016634166
0.0976743 -0.038718708 0.050394647 -0.047233786 -0.05727805 -0.028298892 0.011723937 0.020924186
0.0010973274 -0.06851942 -0.028820768 -0.0726076 0.05079492 0.017028961 -0.088902816 -0.056063104
-0.032727882 0.07141584 0.093018085 -0.04551947 -0.031986337 -0.03460378 0.102216996 -0.065967485
-0.10249568 0.07591372 0.02886388 -0.08499294 0.029245043 0.041110706 0.02037125 0.0870012
0.037157785 -0.04398387 -0.052242108 -0.044489704 -0.031775802 -0.057213057 -0.030479105 -0.044936616
-0.012004784 -0.05849135 -0.07436857 -0.06343272 0.027182002 0.011642021 0.01805112 0.037007388
0.027087798 0.020850787 -0.016959572 -0.06344981 0.049798835 -0.06044034 -0.04322484 0.00029195557
0.076094575 0.028122028 0.027259506 -0.08414021 0.018065445 -0.060225904 0.05982952 -0.019363659
-0.03895431 -0.048291318 0.07814458 0.088598244 -0.04085084 0.030650774 -0.042049095 -0.02653098
-0.047100436 -0.107930064 0.016813263 -0.04249603 -0.052494008 0.008098639 0.057863705 0.032552734
-0.009642649 -0.019756893 0.00042945723 -0.0121197505 0.016590461 -0.057895806 -0.03651407 0.019009855
0.111509584 0.13397188 0.011588151 -0.017087797 -0.027909178 0.0638694 -0.092155024 -0.052894227
-0.017542634 0.03112014 0.007517328 -0.040328346 -0.029164333 -0.025758721 -0.085729904 -0.058249466
0.0022207957 0.042791866 0.044540923 0.022392485 -0.042242914 -0.045283064 0.0050124503 -0.041543737
-0.008544628 0.0051034046 0.039384916 0.032327753 -0.054967213 -0.009098401 -0.077532105 0.0022885946
0.009794145 -0.027539464 -0.01586522 -0.045576483 -0.05325899 0.0036627366 0.0062944647 -0.023567075
0.037530113 -0.0024992395 -0.1514652 -0.06282162 0.006355749 -0.016930476 -0.07352177 0.006268671
-0.00055115577 -0.014911862 -0.0011137538 0.04783134 -0.081321545 -0.07024093 -0.011646596 0.032209896
-0.009033477 0.12787455 0.056811128 0.017553087 0.0189673 0.06800329 0.0033786106 -0.03273381
00000000: 451c a33c 34fa 4d3d 6d63 09be 8901 32ba
00000010: dfd9 7ebd 2640 313c d65b 893d 4b87 54bd
00000020: e6a5 543d ef0c 053d 6db2 51bd f9cb 4b3d
00000030: 5681 083d 1c68 ffbb 7191 8abd 6bc8 d63c
00000040: 323c 313d d21e 4abc 9dbd 5b3d d8d6 ad3b
00000050: f776 593d be54 31bd da3f 1ebd 5a28 aebd
00000060: 04eb e03c 0734 ab3c 86b2 e2bb 91e9 97bc
00000070: f1a3 53bc 68a8 703d dfb9 ad3c 43ef 79bd
00000080: 3da6 e23b c43e 72bd 1094 82bc 9304 123d
00000090: a0d9 413d 0f5f 473c 46bb 02bd 762b c23d
000000a0: bb9a 4dbd a124 abbd 90e4 343d baa6 dabc
000000b0: 6605 80bd a224 17bc 714d 983d 111f 973d
000000c0: 2174 24bd 2b15 91bd 8473 76bd ba48 5abc
000000d0: 394e 50bd edd3 12bd fd8c e4bc 51dd 8fbc
000000e0: 725e 4ebd 8b5a 0ebd 106f 1abc e67d 003d
000000f0: fb07 a1bc e786 b63d 1b67 89bc 14a7 eabc
00000100: 336d a13d 8df1 833b a976 70bb 5568 2fbc
00000110: d6a5 723b a9f5 673c 5441 b83c 948f c0bd
00000120: d796 7ebc 86d0 cabc d119 32bd 57da 6d3d
00000130: 536a 11bd 16c6 d93c dc89 203c 8d8c 843d
00000140: a8cf 1e3d ba38 42bd 9ed8 a93d 4042 2fbd
00000150: 2480 c43c c4ec d43d e959 923d a0ca 3ebd
00000160: 017a 273c e5fc 4d3c 359c 013c e6f6 3e3b
00000170: 328e 283d c01d 85bb ab8b 263d 620d 9ebc
00000180: 34eb efbc fca0 943d ae2c 603d 0f2b 643d
00000190: 3608 05bd d5d5 5b3c 038d 513d 6044 883c
000001a0: 7709 c83d 8297 1ebd 9e6a 4e3d 3778 41bd
000001b0: 639c 6abd 14d3 e7bc c115 403c 3369 ab3c
000001c0: 33d4 8f3a e953 8cbd 8819 ecbc 4bb3 94bd
000001d0: 560e 503d 5280 8b3c ae12 b6bd 6da2 65bd
000001e0: ac0d 06bd 7842 923d 4480 be3d a072 3abd
000001f0: 1b04 03bd b1bc 0dbd 2557 d13d f619 87bd
00000200: 41e9 d1bd a778 9b3d f273 ec3c c710 aebd
00000210: 4d93 ef3c b363 283d 9ce1 a63c af2d b23d
00000220: c332 183d 6e28 34bd d2fb 55bd d63a 36bd
00000230: 5827 02bd 3d58 6abd 51af f9bc 750f 38bd
00000240: b7af 44bc a094 6fbd 8d4e 98bd 04e9 81bd
00000250: caac de3c 2dbe 3e3c f1df 933c 0f95 173d
00000260: 3be7 dd3c 45cf aa3c cdee 8abc f9f1 81bd
00000270: ddf9 4b3d 4a90 77bd 880c 31bd 9d11 9939
00000280: 79d7 9b3d 2b60 e63c 544f df3c b451 acbd
00000290: fcfd 933c 70af 76bd cc0f 753d 89a0 9ebc
000002a0: 8e8e 1fbd 1ecd 45bd 440a a03d ff72 b53d
000002b0: 3653 27bd 5517 fb3c ac3b 2cbd 7f57 d9bc
000002c0: 63ec 40bd 700a ddbd f8bb 893c 5110 2ebd
000002d0: f503 57bd 27b0 043c 7e02 6d3d 0456 053d
000002e0: 34fc 1dbc 35d9 a1bc c628 e139 eb91 46bc
000002f0: b8e8 873c 2724 6dbd c78f 15bd 8eba 9b3c
00000300: 235f e43d ed2f 093e 3adc 3d3c b5fb 8bbc
00000310: caa1 e4bc f6cd 823d c6bb bcbd 9ea7 58bd
00000320: 92b5 8fbc aaef fe3c eb53 f63b 562f 25bd
00000330: 0aea eebc f403 d3bc 2993 afbd fe96 6ebd
00000340: c58a 113b 8646 2f3d 8b70 363d 7270 b73c
00000350: e806 2dbd bc7a 39bd 7b3f a43b c429 2abd
00000360: c4fe 0bbc 763a a73b 1452 213d 1b6a 043d
00000370: 4d25 61bd 7611 15bc 27c9 9ebd 3ffc 153b
00000380: 9f77 203c 719a e1bc c7f7 81bc 68ae 3abd
00000390: 1926 5abd 860a 703b cc41 ce3b bd0f c1bc
000003a0: 2db9 193d 48ca 23bb b219 1bbe 9fa8 80bd
000003b0: e343 d03b c8b1 8abc 9592 96bd 6c69 cd3b
000003c0: 707b 10ba e250 74bc 60fb 91ba ccea 433d
000003d0: e98b a6bd 7ada 8fbd 5dd1 3ebc 86ee 033d
000003e0: 2601 14bc 8cf1 023e c9b2 683d 7ecb 8f3c
000003f0: 5061 9b3c 4f45 8b3d ae6b 5d3b e313 06bd

conv2.bias f4 [128]
-0.020928616 0.041552108 -0.04438618 0.048260704 -0.010601074 0.030053247 -0.034777034 -0.00924391
-0.059341807 -0.0744802 -0.03197804 -0.010005931 0.0056111976 -0.024944859 -0.040252376 0.0623463
0.018511102 0.034753993 -0.004177297 0.007899773 -0.010208762 0.050657474 -0.02067695 -0.026711939
0.038588252 -0.016022582 0.06733118 -0.0076883635 -0.05863935 -0.048970092 -0.056025203 -0.0016071069
0.04976116 -0.041434564 -0.015097799 -0.04925264 -0.031456012 -0.018635394 -0.05657561 0.042652108
0.05290391 0.025202813 0.018756168 0.039136037 -0.03440113 -0.036427494 -0.013536819 0.036500327
-0.055742472 -0.07064931 0.026863175 0.010111479 -0.05707347 0.048354067 -0.01714075 -0.017785164
-0.06568778 0.014833117 0.04738654 -0.037966922 0.03913723 -0.027600432 0.0568755 0.055654183
-0.0016105365 0.06054725 0.0638191 0.038474854 -0.060716596 -0.0132227205 -0.008032883 -0.009245111
-0.054265372 -0.051638167 0.06632652 0.05306309 -0.021425424 -0.041481305 0.053382453 -0.022412011
0.029890306 0.03279162 0.00024181815 -0.05556798 0.039100677 0.036108606 -0.05806354 -0.04001756
0.033233553 -0.0050205844 0.002111772 0.052160274 0.038441237 0.031207811 -0.054188758 -0.0027424616
0.009911903 -0.045841698 0.059661485 -0.010537285 0.0036165158 -0.059036583 -0.018307086 -0.044844914
0.051145874 0.026007975 -0.028519418 0.032929737 0.0044675316 -0.03892161 -0.039424807 -0.056171454
-0.030252269 0.004353093 0.008679198 0.00013973008 0.009832982 -0.0029763163 -0.000744333 -0.033279598
-0.028414557 0.027520554 0.05947894 0.07389068 0.022075731 0.010244526 -0.038315352 -0.039942507
00000000: 7d72 abbc 8b32 2a3d 48ce 35bd 04ad 453d
00000010: 21b0 2dbc 3a32 f63c 5d72 0ebd c573 17bc
00000020: 6510 73bd 1389 98bd 68fb 02bd ebef 23bc
00000030: 23de b73b 2959 ccbc addf 24bd d55e 7f3d
00000040: 98a4 973c 345a 0e3d b5e1 88bb 0d6e 013c
00000050: a742 27bc 367e 4f3d b562 a9bc ffd2 dabc
00000060: b70e 1e3d ca41 83bc eee4 893d abee fbbb
00000070: d12f 70bd dd94 48bd af7a 65bd 8fa5 d2ba
00000080: 5cd2 4b3d 4ab7 29bd c25c 77bc 23bd 49bd
00000090: 05d8 00bd 41a9 98bc d4bb 67bd fab3 2e3d
000000a0: c5b1 583d 2176 ce3c 89a6 993c 1c4d 203d
000000b0: 33e8 0cbd ff34 15bd 89c9 5dbc 5e81 153d
000000c0: 3852 64bd 96b0 90bd 2910 dc3c 9eaa 253c
000000d0: dfc5 69bd ea0e 463d c26a 8cbc 31b2 91bc
000000e0: 5187 86bd 9a06 733c 6318 423d 3483 1bbd
000000f0: 5c4e 203d 4d1a e2bc 49f6 683d a4f5 633d
00000100: a318 d3ba 6500 783d 97b3 823d cf97 1d3d
00000110: f7b1 78bd 1ca4 58bc 5a9c 03bc ce78 17bc
00000120: 5e45 5ebd 8b82 53bd 33d6 873d af58 593d
00000130: 5f84 afbc 4de8 29bd 8fa7 5a3d 6599 b7bc
00000140: 84dc f43c 8150 063d 9190 7d39 409b 63bd
00000150: 0828 203d 9ee6 133d 09d4 6dbd 74e9 23bd
00000160: e81f 083d b783 a4bb a865 0a3b 03a6 553d
00000170: 8f74 1d3d 86a7 ff3c 08f5 5dbd dfba 33bb
00000180: 8965 223c 81c4 3bbd 9a5f 743d 94a4 2cbc
00000190: 1103 6d3b 58d0 71bd bef8 95bc 4daf 37bd
000001a0: 567e 513d ad0e d53c 8ea1 e9bc 55e1 063d
000001b0: 5f64 923b 446c 1fbd e87b 21bd 0a14 66bd
000001c0: 9bd3 f7bc 64a4 8e3b 3233 0e3c 8284 1239
000001d0: 841a 213c 4d0e 43bb 581f 43ba 3050 08bd
000001e0: a5c5 e8bc c972 e13c 30a0 733d ff53 973d
000001f0: 2ad8 b43c a8d8 273c 8ff0 1cbd c19a 23bd

dense1.weight f4 [50, 768]
0.026867554 -0.03051365 0.03641475 0.007890003 -0.018474663 0.021276152 0.010659095 -0.015281398
0.02224471 0.03175386 0.0021185065 -0.016129484 -0.101702586 0.0105768675 -0.0012360071 -0.025607113
-0.03736992 -0.019794345 0.019126447 -0.006066421 0.03329817 -0.00023001803 -0.0066135456 -0.009852909
0.030053647 -0.018095518 -0.013908835 0.004752045 -0.013933005 -0.03284262 0.033858255 -0.027653323
0.015237883 -0.010549059 0.0460019 0.052777838 0.0351123 0.023927575 0.014899528 0.003914008
-0.02647194 -0.06480775 0.02880173 -0.021579383 0.017668508 0.042766202 -0.027596004 -0.0017644248
-0.0007577979 0.003542168 -0.02645993 0.02838672 0.02804472 -0.0003521767 0.022535 0.0034059188
-0.006275327 0.0016908477 0.01311831 -0.011031744 0.008760305 -0.015963197 0.03662005 -0.0015880896
-0.0121154385 -0.020689992 0.01319229 0.038827673 0.009458816 -0.0061782547 0.009139364 -0.08448749
-0.038874596 -0.010711356 0.038097862 -0.018876439 -0.0010286231 -0.005798251 0.023224685 0.03798468
0.00075812166 0.0011391741 0.025210122 -0.021370005 0.052503183 -0.020308005 -0.0005649644 0.037623305
-0.011615884 -0.007965687 -0.04161098 -0.015918393 -0.024105238 0.0049226587 -0.014442119 -0.086773194
-0.06938098 0.017610172 0.00073935004 -0.038775593 -0.0052620354 0.017021006 0.02566852 -0.007690477
-0.035643715 -0.0011263536 0.027658163 0.0031579228 0.0068088155 -0.020398188 -0.018588245 0.0061582467
-0.03197614 -0.0015706947 0.01301815 -0.029266974 -0.02779917 -0.032154616 -0.007977733 0.016239328
-0.016524833 -0.016714234 0.023009535 -0.014614109 0.017979892 -0.021598095 -0.015693953 0.040396526
-0.031460144 0.011503137 0.015598315 0.00031458432 0.031284317 -0.026780881 -0.03654021 0.00081014715
0.036896516 -0.0028693723 -0.045678724 -0.033239298 -0.030556858 0.02424272 0.0034624364 -0.062191423
0.011052087 -0.003328176 0.010635936 0.006083257 -0.01667272 -0.017825734 -0.05810717 0.027617527
-0.020157175 -0.04495214 -0.00081677723 -0.033915613 -0.044196058 0.026393775 -0.032746248 -0.010950768
0.01479229 -0.043039087 -0.037560795 -0.008121352 0.0058040344 0.0069061755 -0.048682757 -0.039400667
0.040455595 -0.02447735 -0.030989697 0.019395994 -0.00790389 0.007010117 0.053504057 0.012879116
0.017040862 0.03271912 0.0010350116 0.031511888 0.027791992 0.003118727 0.0305792 -0.005530067
-0.016269585 0.037479762 -0.016917614 0.026693882 0.0135190105 0.010605912 0.03062259 0.015180906
0.021248575 0.02816576 0.013127435 0.018313255 -0.008199349 -0.0034738698 -0.016689854 0.0153723955
0.02040935 0.026477866 0.03165853 0.019882027 -0.032843936 0.013891949 -0.0073216623 -0.017245699
-0.013176519 -0.081053294 0.00063798326 -0.025451029 -0.017375534 -0.0054365303 -0.01600084 -0.0015767099
-0.06713104 0.025600053 -0.013187713 0.0040738136 -0.044487707 -0.024804754 -0.041340806 -0.016415011
-0.021112317 -0.009706368 0.012933928 -0.09750079 -0.06080023 0.010715413 -0.010676631 -0.030903013
-0.01722731 -0.014635082 0.005709148 0.031251494 0.012513574 0.0004175119 -0.011179715 0.012889677
0.00044639 -0.017453147 0.016279891 0.02737518 0.023212561 -0.016007625 0.028223315 0.0011987697
0.018727105 0.00010943642 -0.022569433 -0.015596956 -0.051089752 0.0063998047 0.00922624 0.008841477
00000000: 5819 dc3c c3f7 f9bc a227 153d 1245 013c
00000010: 2d58 97bc 534b ae3c 7ca3 2e3c d45e 7abc
00000020: 8a3a b63c 5610 023d a4d6 0a3b fb21 84bc
00000030: 7249 d0bd 994a 2d3c 8401 a2ba 02c6 d1bc
00000040: 3411 19bd c027 a2bc 11af 9c3c d4c8 c6bb
00000050: a963 083d ff30 71b9 71b6 d8bb 186e 21bc
00000060: 1133 f63c 0d3d 94bc e2e1 63bc 0bb7 9b3b
00000070: 4247 64bc fc85 06bd f4ae 0a3d 3989 e2bc
00000080: 50a8 793c f6d5 2cbc 7d6c 3c3d 932d 583d
00000090: ead1 0f3d c303 c43c 261d 743c 1441 803b
000000a0: afdb d8bc edb9 84bd 9bf1 eb3c 3fc7 b0bc
000000b0: 8cbd 903c 9d2b 2f3d 0411 e2bc 4644 e7ba
000000c0: f5a6 46ba b823 683b 7fc2 d8bc 448b e83c
000000d0: 0abe e53c 5ba4 b8b9 529b b83c d635 5f3b
000000e0: 42a1 cdbb 6f9f dd3a 2eee 563c 7dbe 34bc
000000f0: 6287 0f3c 40c5 82bc e8fe 153d 7227 d0ba
00000100: d57f 46bc 0f7e a9bc 7a24 583c c409 1f3d
00000110: 26f9 1a3c f572 cabb 45bd 153c c707 adbd
00000120: f83a 1fbd af7e 2fbc 810c 1c3d c3a2 9abc
00000130: ddd2 86ba 41ff bdbb b241 be3c d395 1b3d
00000140: afbc 463a 5750 953a 7585 ce3c 2610 afbc
00000150: 940d 573d f95c a6bc 1e1a 14ba e51a 1a3d
00000160: 8c50 3ebc 8382 02bc 4670 2abd 4a67 82bc
00000170: 5978 c5bc 414e a13b a39e 6cbc 25b6 b1bd
00000180: 9e17 8ebd 3543 903c f1d0 413a 28d3 1ebd
00000190: 276d acbb a36f 8b3c ca46 d23c 6600 fcbb
000001a0: 25ff 11bd 28a2 93ba 5f93 e23c 27f5 4e3b
000001b0: 7c1c df3b 1a1a a7bc 6046 98bc 1ecb c93b
000001c0: 6af9 02bd c5df cdba 144a 553c 4bc1 efbc
000001d0: 16bb e3bc 8fb4 03bd 0ab5 02bc 5708 853c
000001e0: 165f 87bc 4aec 88bc 7e7e bc3c 0470 6fbc
000001f0: 914a 933c 7dee b0bc 9b90 80bc d476 253d
00000200: 5adc 00bd a777 3c3c 1390 7f3c cbee a439
00000210: fc23 003d 9463 dbbc 30ab 15bd 0e60 543a
00000220: cd20 173d 140c 3cbb 9d19 3bbd ee25 08bd
00000230: 6052 fabc ab98 c63c 0bea 623b 6fbc 7ebd
00000240: d013 353c 871d 5abb 5942 2e3c 0f56 c73b
00000250: 3a95 88bc 4607 92bc c901 6ebd 273e e23c
00000260: a920 a5bc bc1f 38bd fe1c 56ba 19eb 0abd
00000270: ed06 35bd c237 d83c ee20 06bd da6a 33bc
00000280: 5c5b 723c c149 30bd 59d9 19bd 6b0f 05bc
00000290: c52f be3b 334d e23b 9267 47bd 9862 21bd
000002a0: c4b4 253d b984 c8bc 1bde fdbc 59e4 9e3c
000002b0: 517f 01bc 20b5 e53b 1227 5b3d ee02 533c
000002c0: 4799 8b3c 7c04 063d 3aa9 873a 9c12 013d
000002d0: 08ac e33c 8e63 4c3b 3b81 fa3c 9035 b5bb
000002e0: cb47 85bc 6184 193d cf96 8abc 21ad da3c
000002f0: d77e 5d3c 6bc4 2d3c 3adc fa3c 56b9 783c
00000300: 7e11 ae3c e1bb e63c 7414 573c ae05 963c
00000310: 9056 06bc dda9 63bb 29b9 88bc 80dc 7b3c
00000320: 8231 a73c 1ce8 d83c 60ac 013d a2df a23c
00000330: 5d87 06bd 0f9b 633c 8eea efbb da46 8dbc
00000340: 54e2 57bc 45ff a5bd 553e 273a ad7e d0bc
00000350: 2357 8ebc ec24 b2bb 3214 83bc 9ba9 ceba
00000360: 007c 89bd 34b7 d13c 4711 58bc a07d 853b
00000370: be38 36bd 5733 cbbc fa54 29bd c678 86bc
00000380: bdf3 acbc 7507 1fbc d3e8 533c 7fae c7bd
00000390: a909 79bd b38f 2f3c 09ed 2ebc 5128 fdbc
000003a0: 4a20 8dbc fcc7 6fbc ce13 bb3b 9101 003d
000003b0: bc05 4d3c 80e5 da39 202b 37bc 392f 533c
000003c0: 7409 ea39 e7f9 8ebc 685d 853c ea41 e03c
000003d0: 4528 be3c 6c22 83bc 9534 e73c 0920 9d3a
000003e0: 9669 993c 3b81 e538 88e3 b8bc 608a 7fbc
000003f0: 7d43 51bd 74b5 d13b a829 173c d8db 103c

dense1.bias f4 [50]
0.060043696 0.026263483 0.035789162 0.0765626 0.06841409 0.015546878 0.08061391 0.01991594
0.089523934 0.029043045 0.031442996 -0.0023055042 0.01295952 0.04999029 0.009530339 -0.015738228
0.017716888 0.036452834 0.0434354 0.0689606 0.02177789 0.05567097 0.040556293 0.054156207
0.054945733 0.002884611 0.080690764 0.07355927 0.05610791 0.06513694 0.058839872 0.01587674
0.076762564 0.026918238 0.051256 0.061863102 0.0073647285 0.00020612232 0.037757713 0.044317495
0.05858422 0.041459687 0.03356254 0.08354505 0.0026240852 0.0062069036 0.035467807 0.013010699
0.01667901 0.058215395
00000000: 61f0 753d 8426 d73c a897 123d dacc 9c3d
00000010: b01c 8c3d 55b8 7e3c e818 a53d c126 a33c
00000020: 5358 b73d aeeb ed3c 5fca 003d f117 17bb
00000030: 2b54 543c 9ec2 4c3d 2425 1c3c 75ed 80bc
00000040: 0223 913c 914f 153d 51e9 313d 373b 8d3d
00000050: 8c67 b23c 3e07 643d 5b1e 263d e6d2 5d3d
00000060: c70e 613d be0b 3d3b 3341 a53d 3ea6 963d
00000070: 68d1 653d 8466 853d 1402 713d f00f 823c
00000080: b135 9d3d a383 dc3c d0f1 513d 2a64 7d3d
00000090: d253 f13b 8a22 5839 d5a7 1a3d 4386 353d
000000a0: 02f6 6f3d a2d1 293d e078 093d ab19 ab3d
000000b0: d8f8 2b3b 4863 cb3b b146 113d d42a 553c
000000c0: 6ba2 883c 4473 6e3d

dense2.weight f4 [1, 50]
0.0705698 0.10531824 0.06438397 0.03155262 0.14733069 0.1319638 -0.10565399 -0.13203125
-0.097338825 0.10858821 -0.08765303 -0.025430609 0.07312349 0.09569865 0.07228947 0.041922092
-0.037567012 0.053513736 -0.14927942 0.15042853 0.12138927 -0.03201071 0.07046779 0.13201453
-0.14768426 -0.10595362 0.023791132 -0.077714115 0.022665167 -0.04666184 0.15135409 0.14883158
0.11002872 0.042367965 0.048767395 0.05371964 -0.12198444 0.09034728 -0.1252964 -0.076492876
0.124196805 0.110172875 0.039668128 -0.11691825 -0.03063702 -0.056859132 0.14148341 0.08511294
0.10685666 0.1397316
00000000: e686 903d 17b1 d73d bedb 833d 523d 013d
00000010: dbdd 163e 8521 073e 1e61 d8bd 3333 07be
00000020: 9459 c7bd 7f63 de3d 6f83 b3bd da53 d0bc
00000030: c5c1 953d a7fd c33d 800c 943d 80b6 2b3d
00000040: dedf 19bd 3831 5b3d b4dc 18be f009 1a3e
00000050: f09a f83d aa1d 03bd 6b51 903d d12e 073e
00000060: 8b3a 17be 36fe d8bd 9fe5 c23c 9428 9fbd
00000070: 4dac b93c 7c20 3fbd 91fc 1a3e 4e67 183e
00000080: bd56 e13d 088a 2d3d 52c0 473d 2009 5c3d
00000090: fad2 f9bd ff07 b93d b34d 00be 4ca8 9cbd
000000a0: e55a fe3d 51a2 e13d 0c7b 223d d672 efbd
000000b0: 7dfa fabc 1fe5 68bd 07e1 103e b14f ae3d
000000c0: aad7 da3d cd15 0f3e
