time_series_forecasting/saved_models/CNNForecastingModel/18-03-2024-002703_NO1_epoch_1.pt (torch, 258475 bytes, 7 tensors)

conv1.weight f4 [64, 3, 3]
000000 4c 3e a1 3e 78 23 23 be 18 2e b8 3c fa 4f 8b be
       0.3149284 -0.15931499 0.022482917 -0.27209455
000010 c2 5f 91 3e 67 ff 32 be 26 f7 de bd 7d 8a 73 3e
       0.2839337 -0.17480241 -0.108869836 0.23783298
000020 59 fd 61 be 38 13 6a be 7e eb a2 3e 44 2f 7f 3e
       -0.220693 -0.22858894 0.3182029 0.24920374
000030 b6 22 e0 3d 97 27 90 3e 09 fd 8a be 2a 52 93 3e
       0.109441206 0.28155205 -0.27146176 0.28773624
000040 46 72 82 bc df d3 6b 3d 35 c5 cd bb d5 ec 83 3e
       -0.01592363 0.057575103 -0.0062796124 0.25766626
000050 f5 3c 85 3d 86 bd 3b bd be 6e 2a 3e 04 c7 8d 3e
       0.06505767 -0.04583504 0.16643807 0.276909
000060 35 bd a3 be e6 0c 5c 3d c5 3b 44 3e 26 e7 4f 3e
       -0.3198029 0.05372324 0.19163425 0.2030302
000070 5e ec 0c be 42 76 53 bd cb 4f 99 3d 68 47 3e 3d
       -0.13762042 -0.05162645 0.074859224 0.046454817
000080 84 8a 83 be bb 54 8b 3e 97 57 b0 3d ac 3c 55 be
       -0.25691617 0.27213082 0.086104564 -0.20823926
000090 3b 00 30 be 8b 29 a3 3e 06 a0 9f be 0d 17 4e be
       -0.17187588 0.31867632 -0.31176776 -0.2012598
0000a0 00 9e 3e 3e 84 8d 00 bd 3c 52 83 be 67 a5 76 bd
       0.1861496 -0.03138496 -0.25648677 -0.060216334
0000b0 4e 00 97 be 1c e3 9d be 14 e3 22 be a3 7d 3f bc
       -0.2949242 -0.30837333 -0.15906936 -0.011687669
0000c0 29 91 78 bd 29 5e 96 bd 48 37 84 be c3 a1 11 3e
       -0.06068531 -0.073421784 -0.25823426 0.14221863
0000d0 a0 39 a3 3d 2b 60 43 be e9 e6 72 3e 41 1a d1 3c
       0.079699755 -0.19079654 0.23720898 0.025525214
0000e0 16 31 48 3d df 2f 47 3e 47 c8 3c bd 81 8f 84 be
       0.048874937 0.19451855 -0.046089437 -0.25890735
0000f0 bc 55 84 be 43 bf 77 be bc 46 85 3e d6 da 99 bd
       -0.2584666 -0.24194054 0.2603053 -0.07512443
000100 2e 0b ae 3d 00 aa 5f bd 7d 9d 66 3d 73 05 eb 3d
       0.08498226 -0.054605484 0.056302536 0.11475649
000110 c4 d1 cb bc 85 27 e7 3d 7f cf 79 3d ca 68 15 be
       -0.024880297 0.112868346 0.0609889 -0.14590755
000120 cd 24 3f 3e c2 4c aa 3e 2e 66 35 be de 85 13 bc
       0.18666382 0.33261687 -0.1771476 -0.009004084
000130 96 da 18 be b8 3f a5 3e f2 88 e4 3b e5 36 7c be
       -0.14927134 0.32275176 0.006974333 -0.24630316
000140 ee 2e 0d be 43 24 a1 3e b7 7c 42 be d0 72 b0 bd
       -0.13787434 0.31472978 -0.18992887 -0.08615649
000150 83 6b 93 be eb 48 26 3e b4 24 0c be 01 1b 15 be
       -0.28792962 0.16238753 -0.13685876 -0.14561082
000160 d2 b7 e7 bd 51 0f 49 bd 9f d4 62 3e 66 85 51 3e
       -0.11314358 -0.049086872 0.22151421 0.20461044
000170 26 1f 0c be c0 26 4e 3e 61 fc 01 3e bb 5e a5 be
       -0.13683757 0.2013197 0.12693931 -0.32298836
000180 d6 fd 00 3e bd d3 89 3e 58 41 68 be 9e 53 ab 3e
       0.1259683 0.26919356 -0.22681177 0.33462232
000190 1c fd 38 3d 00 6b d5 3d 88 b0 e0 bd 20 28 bd 3d
       0.04516326 0.10420799 -0.10971171 0.09236169
0001a0 87 d6 c2 bd 7e a3 86 be 52 d7 8c be d8 2d a3 be
       -0.09513574 -0.2629661 -0.27508026 -0.31870914
0001b0 f6 ef 5a 3e dd 43 84 be a7 3d 35 3e c7 21 92 be
       0.213806 -0.25833026 0.176993 -0.28541395
0001c0 14 01 50 3e 84 2f 29 3d ea 1b ec 3d 70 8c 81 be
       0.20312911 0.04130508 0.11528762 -0.25302458
0001d0 04 b8 92 3e f8 37 7a be a3 e3 28 3d 2c 22 12 be
       0.28656018 -0.24435413 0.041232716 -0.14270848
0001e0 9a 41 aa 3d 05 c1 b7 3c 66 c3 ce 3d e0 3a 86 3c
       0.08313294 0.022430906 0.10095863 0.016385496
0001f0 bd 4f 92 3e 36 fe 40 3e ab 8f 48 3e 2b 37 ee 3d
       0.2857646 0.18846974 0.19586055 0.11631616
000200 ca 24 dc bd 7d 9e 62 3e e8 b2 05 3e ae 2b 24 be
       -0.107492045 0.22130771 0.13056529 -0.16032287
000210 ec bd 5c 3e e6 1e 33 be 16 94 27 be 2e f8 9f be
       0.21556824 -0.17492256 -0.16365084 -0.31244034
000220 e9 e1 b3 be 24 e0 8d be 48 c7 55 be 00 e8 e9 3d
       -0.35133293 -0.27710068 -0.20876801 0.114212036
000230 66 02 0d be ec 5d 9f 3d 31 48 14 be e3 04 26 be
       -0.13770446 0.07781586 -0.14480664 -0.16212802
000240 fd 73 5f be 48 47 99 bd 16 94 6c 3e f8 3d 14 be
       -0.2182159 -0.07484299 0.23103365 -0.14476764
000250 9b c9 a1 bd ba b6 94 be 0c 89 2c be 75 84 af 3b
       -0.07899781 -0.2904566 -0.16849154 0.0053563663
000260 ee b4 d9 bc 18 b3 64 3e 6e 46 80 bd 14 4b 50 3e
       -0.026575532 0.22333944 -0.062634334 0.2034114
000270 f7 7d 0a be 92 1c 5f 3e 44 cf 5d 3d b6 b7 39 be
       -0.13524614 0.21788242 0.054152742 -0.18136486
000280 57 d1 9e be 7c 8c 91 bd 4b 46 57 3e aa 3a 0f 3e
       -0.3101909 -0.071068734 0.21022908 0.13987222
000290 83 2c 8f 3d 25 f0 9a 3e 5b 0d af bd f5 59 39 be
       0.06990912 0.3026134 -0.08547469 -0.18100722
0002a0 bb 4e e2 bb 8a b9 8a 3e c4 68 58 bd 6f ca 85 be
       -0.006906358 0.2709468 -0.052834287 -0.26131007
0002b0 45 8a 5a be 73 83 a1 be c5 46 5e 3e ed 2c d3 bd
       -0.21341808 -0.315456 0.21706684 -0.10311303
0002c0 dc 7d 0b be 84 72 49 3e d6 af 27 bd 98 d0 2f 3e
       -0.1362223 0.1967259 -0.040939175 0.17169416
0002d0 b4 00 1b be 79 9d a4 3e fc 44 57 be 15 7d 76 be
       -0.15136987 0.32151392 -0.21022409 -0.24071153
0002e0 c6 04 85 be 67 25 2d 3e 34 88 c3 bd bd 87 c0 3d
       -0.25980204 0.16908799 -0.09547463 0.0940089
0002f0 95 fc 77 3d 7f d4 6f 3e ac a6 50 be f6 f3 55 3e
       0.060543615 0.23420905 -0.2037608 0.20893845
000300 88 f6 a8 be 12 d5 b8 3c f4 94 82 be d4 dc 5b be
       -0.33000588 0.022562537 -0.25504267 -0.21470958
000310 6c 1d 8c bd d7 61 6f 3e 91 98 02 be 49 9a 2d 3e
       -0.06841549 0.23377167 -0.12753512 0.16953386
000320 38 3f 33 3e ae 7a 8f 3d b0 f1 87 be 59 33 30 be
       0.17504585 0.07005821 -0.2655158 -0.17207088
000330 21 1a 06 bd ab b4 89 be d4 4a 03 be a3 13 c7 3d
       -0.032739762 -0.2689565 -0.12821513 0.09720542
000340 8f b8 56 be 01 44 13 be 46 e4 a0 3d 5a 46 37 3e
       -0.20968841 -0.1438141 0.0785604 0.1789793
000350 04 01 55 3e a0 b0 45 bd c0 83 d2 3d 58 59 2f be
       0.20801169 -0.048264146 0.102790356 -0.17123926
000360 df a4 97 be a9 86 37 3e bd b4 78 3e 4e 25 48 be
       -0.29617974 0.17922463 0.24287696 -0.1954548
000370 32 4a a3 3e 3e 8d 92 be 38 26 9b be b7 83 10 3e
       0.31892544 -0.28623384 -0.30302596 0.14112745
000380 81 a9 24 3e 31 77 db 3d d8 df 96 3e 5f 59 9f 3e
       0.16080286 0.10716093 0.29467654 0.31122872
000390 4b ac ce bd 13 d6 20 3e 2e 12 61 bd 35 eb 90 be
       -0.10091456 0.15706663 -0.054948978 -0.2830445
0003a0 95 dd 6d be 97 4d a1 3d d7 be 96 be b8 14 8f 3e
       -0.23229058 0.07876127 -0.29442474 0.27945495
0003b0 47 bd 97 3e d4 76 1d be 18 82 84 be ef 46 8c 3e
       0.29636595 -0.1537736 -0.25880504 0.27397868
0003c0 88 36 01 3d e5 31 01 3e d8 7a 33 be c7 94 f2 3c
       0.031546146 0.1261669 -0.1752733 0.029611958
0003d0 16 20 7e be f9 61 64 be c5 41 dd 3d 97 08 1e be
       -0.24816927 -0.22302999 0.1080356 -0.15432964
0003e0 bf 5b 56 3e e9 60 35 3e 42 f9 a8 be 04 51 9f be
       0.20933436 0.1771275 -0.3300267 -0.31116498
0003f0 33 c2 27 3e 37 4b c4 3d d0 3c 00 3e de 5a c0 bc
       0.16382675 0.095846586 0.12523198 -0.023480829

conv1.bias f4 [64]
000000 42 45 3e be d6 3f ed 3d 3d 19 60 3e 24 4b 3f be
       -0.18581107 0.11584441 0.21884628 -0.18681008
000010 db 8f 6e bc 51 a0 1b bd 8c de 81 be 2f 12 89 3e
       -0.014560665 -0.037994687 -0.25365102 0.26771685
000020 28 b6 0b bd 3b 2e d4 3d cf 7c eb bd f9 7d b8 3d
       -0.034109265 0.1036038 -0.11498415 0.090084024
000030 2d 05 52 3e 26 09 69 3e c6 ba 08 3e d3 94 46 be
       0.20509787 0.22757396 0.13352498 -0.1939271
000040 f1 c6 8e bd 1b ed 89 be 83 09 94 be 9b a8 5f be
       -0.06971539 -0.2693871 -0.28913507 -0.21841662
000050 21 84 7c 3e 73 8b fb 3d a0 6c 91 3d 72 61 c5 bd
       0.24659778 0.12282457 0.07100797 -0.09637727
000060 bb b6 33 bd b2 05 6e 3e 33 f4 96 3c dd cc 16 3e
       -0.043875437 0.2324436 0.01842699 0.14726587
000070 56 22 65 3e b8 97 2d 3e 96 3c 93 be c1 58 a3 be
       0.2237638 0.16952407 -0.2875716 -0.3190365
000080 3c e6 48 3e f6 ac 35 be d9 36 32 be 73 6e 83 be
       0.19619077 -0.1774176 -0.17403735 -0.25670204
000090 8e 7a ae 3e a5 f6 64 be 61 f5 96 3e 44 83 2d be
       0.34077877 -0.22359712 0.29484084 -0.16944605
0000a0 20 f3 8a be e6 cf 4d 3e ff 3c 96 be 72 af 01 be
       -0.27138615 0.20098838 -0.2934341 -0.12664583
0000b0 c8 9f 90 be 3d e9 96 be a9 37 7a bd f9 3d e7 bd
       -0.28246903 -0.29474822 -0.061088238 -0.11291117
0000c0 ce 94 57 be 43 b6 a9 3e c3 b3 91 be 93 98 25 bd
       -0.21052858 0.33146867 -0.2845746 -0.04042871
0000d0 01 c9 69 3e f1 c2 df bd c2 75 38 bd 3c 8f 80 be
       0.22830583 -0.10925854 -0.045034178 -0.2510928
0000e0 3d ad 76 be 6d 0d 60 bc 2a 5b 3d 3e 9a a7 9e be
       -0.24089523 -0.013675076 0.18491808 -0.30987245
0000f0 0f df 9c 3e 17 ed ea 3d ed e8 e3 3d 78 26 7e be
       0.3063893 0.114710025 0.111284114 -0.24819362

conv2.weight f4 [128, 64, 3]
000000 db 28 eb 3c ed f6 f8 bc 73 59 0f 3d 8e 0c f4 3b
       0.028706005 -0.03039118 0.034997415 0.0074477857
000010 10 94 55 bd f4 af 7e bd 44 79 0e bc ce 52 34 bd
       -0.052143157 -0.06217952 -0.008695904 -0.04402428
000020 4e ab 91 bd 05 0e 98 3c 94 48 5c bd 78 00 63 bc
       -0.07112752 0.018561373 -0.053780153 -0.013855092
000030 83 e0 31 bd b6 30 6d 3d 4e 99 fc bc 68 f9 02 3d
       -0.043427 0.057907782 -0.03083482 0.031976134
000040 f5 58 58 3d 7a f5 f9 bc 85 0c 46 3b 90 2c 9a bd
       0.05281921 -0.03051256 0.0030219865 -0.07528031
000050 20 35 77 3d 25 f1 43 bd 26 5c 08 bd 0e 0d a1 3b
       0.0603534 -0.047837395 -0.033291005 0.0049148863
000060 74 53 86 bd 3d 95 32 bd ce 81 85 3b a3 15 84 bd
       -0.06558886 -0.043599356 0.004074312 -0.064494394
000070 0a 18 89 3c 9b b9 10 bd 1c 73 55 3d 83 4a a0 bd
       0.016735096 -0.035333257 0.05211173 -0.07826712
000080 68 56 87 bd 64 2d df 3c e3 4b af bd 37 b5 53 bd
       -0.066082776 0.027243324 -0.08559396 -0.05168649
000090 11 a5 a5 3c 1c 68 5c bd 91 4f d0 3c 42 4e 46 3d
       0.020220311 -0.053810224 0.025428565 0.048414476
0000a0 b5 da 0f 3c 56 77 5a bd 6c 8d 4e 3d 8a 4b 0f 3d
       0.008780171 -0.053336464 0.05042784 0.03498415
0000b0 6b ea 0f bc f9 6f 41 b9 bf 3f ce bb c3 31 10 bd
       -0.008783917 -0.00018447627 -0.00629422 -0.035203706
0000c0 76 d4 0b 3d 37 45 39 bd 96 c6 87 bc b5 c7 20 bd
       0.034138165 -0.045232024 -0.016574185 -0.039252955
0000d0 4c 06 15 bd 40 bc 88 bc ae ac 28 bd 31 b8 36 bd
       -0.03638296 -0.016691327 -0.041180305 -0.044609252
0000e0 63 a3 20 bc 8a a5 78 bd 9d 16 e1 3c db ef 2e bd
       -0.009804579 -0.060704745 0.027476603 -0.042709213
0000f0 e5 90 61 bd 40 d9 68 bb ab 8a 29 bd e2 b4 05 3d
       -0.055069823 -0.0035529882 -0.04139201 0.032643206
000100 2d 1b 8a bd 6f 0c 86 bd 9b 0a 2c bd 40 fe 4a 3c
       -0.067434646 -0.0654534 -0.0420023 0.0123897195
000110 73 f2 66 3d a7 1b 85 bd 1c 99 2d bd 96 06 a6 bc
       0.05638356 -0.06499415 -0.042382345 -0.020266812
000120 28 d3 32 bc 69 01 45 bd af 93 24 3d 98 6d a1 3c
       -0.010914601 -0.048097048 0.040179905 0.019705579
000130 45 d7 27 bd cb b3 61 bd f3 4d 6b bc f1 d9 2f 3d
       -0.04097678 -0.055103105 -0.014361846 0.042932454
000140 d7 a9 9c bc 8d 4a 74 bd 07 97 08 bd 98 eb 03 bd
       -0.019123955 -0.05964141 -0.033347156 -0.0322071
000150 e6 94 1c 3d ed 76 54 bd 21 ad 1e bd b5 76 ac 3c
       0.038227938 -0.05187123 -0.038739327 0.021052698
000160 ad 5d c0 3c 92 87 22 bd 7b e2 79 3d dd ac 83 3b
       0.023482168 -0.03968007 0.061007004 0.0040184096
000170 56 98 47 3d 82 ef 5f bd 3f fb 90 bd f4 d0 81 3c
       0.048729263 -0.05467177 -0.070791714 0.015846707
000180 7c e7 d5 3c 5e cb 1e bc ee 51 f4 3b ac d4 b2 3c
       0.026111357 -0.009692041 0.007456056 0.021829925
000190 7a 96 29 3c 0f cd 3d 3d 94 bf 59 bd 94 b4 03 bd
       0.010350818 0.046338137 -0.05316122 -0.032154635
0001a0 b3 6b 04 3d c6 58 a6 3d 59 02 12 bd ab 44 7f 3c
       0.032329272 0.08122401 -0.03564677 0.015580337
0001b0 71 d4 86 3c a6 5a 2e bc 25 d3 44 3d 30 2e 7d 3d
       0.016458722 -0.010641729 0.048052926 0.061811626
0001c0 19 70 49 3d a7 69 3c bb 09 43 8a bd 57 a2 7d 3c
       0.04917917 -0.0028749497 -0.06751067 0.015480599
0001d0 1e b3 53 3d 0b c8 9a bd 71 16 2d bc ac ac a0 bd
       0.05168449 -0.075576864 -0.0105644325 -0.078454345
0001e0 9b 39 62 bd cc b1 9a 3c b7 74 b0 bc 6c db 98 bc
       -0.055230718 0.018883608 -0.021540029 -0.018659316
0001f0 fc a8 66 3d aa 6d 60 3d 83 8b 82 bd 50 69 0b 3d
       0.0563135 0.054792084 -0.06374266 0.03403598
000200 d2 fd 73 bc 7f 35 38 3d e8 c7 35 3d e8 2c 93 3c
       -0.014892058 0.044972893 0.0443801 0.017965749
000210 6e 64 fc 3c f5 df db 3c 6f fd 51 bd b9 97 71 3d
       0.030809607 0.02684019 -0.051267084 0.058982585
000220 dc 88 ec bc 70 04 84 3d 3e 38 a2 3b aa e4 8c bd
       -0.028873853 0.06446159 0.0049505522 -0.06879552
000230 95 ee f7 bc 42 56 f0 bc bf c8 b3 bd e1 40 5d 3d
       -0.030265132 -0.029338006 -0.08778524 0.05401695
000240 dd 30 08 3c b5 55 55 3d e8 06 62 bd f6 59 08 3d
       0.008312431 0.05208369 -0.055182368 0.03328892
000250 48 f9 d1 3b 05 d4 6f bd 58 d8 59 3c 3b 5e 55 bd
       0.0064078905 -0.058551807 0.013296209 -0.05209182
000260 cb 01 84 bd 01 4b 0a 3d 39 22 c1 bc 7f 9e 26 3b
       -0.064456545 0.033762936 -0.023575889 0.002542406
000270 cf 4f ad 3c c6 79 97 bc 66 81 6c 3d c3 f7 89 3d
       0.02115622 -0.018490683 0.05774059 0.0673671
000280 b9 3b 6a 3d d1 dd 83 bd 47 22 8e 3d 2e e8 49 3d
       0.057185862 -0.064387925 0.06940132 0.04929369
000290 86 59 03 3d 84 92 99 3c 78 e4 97 3d cb eb 6e bd
       0.032067798 0.018746622 0.07416624 -0.05833034
0002a0 f9 bf ab bd e5 9e 80 bc a7 29 8f bd 28 3d 9d 3d
       -0.08386225 -0.015700767 -0.069903664 0.0767768
0002b0 7b 25 22 bc 02 3e c7 bc d8 ad 7a 3d b6 e9 23 3d
       -0.009896631 -0.02432156 0.061200947 0.040017806
0002c0 bf af 82 bd 70 a8 6a bd de 02 32 3c 70 31 22 3d
       -0.06381177 -0.05728954 0.010864941 0.03959793
0002d0 0f 62 00 3d d1 bf e5 3c 19 30 f5 3b 75 17 85 3d
       0.031343516 0.028045567 0.0074825403 0.06498615
0002e0 9b a6 ce 3c eb e1 72 3d bb a0 33 3d 45 ba 70 bc
       0.025225928 0.059297483 0.043854456 -0.014692848
0002f0 56 ba 90 3d e0 57 3f bd 0a 5f 67 bb b1 04 b0 bd
       0.07066791 -0.046714664 -0.003530445 -0.08594645
000300 d4 f1 ad 3d eb 2d b8 bc 0a 3b 1e bc 36 91 8a 3d
       0.08493391 -0.022482833 -0.009657631 0.06765978
000310 8b c8 8f bc 25 af ac 3c 20 f3 02 3b f8 0e 63 bd
       -0.017551681 0.02107961 0.001998134 -0.055434197
000320 8d 56 35 bd 82 ed 12 bc 92 b4 5d bd 06 b2 51 bd
       -0.044271994 -0.008967759 -0.054127283 -0.051195167
000330 91 72 b8 3a 42 ce 27 bd f3 c2 a8 bd b7 0c 3c bd
       0.0014072229 -0.040968187 -0.082403086 -0.045910563
000340 b9 00 3f bc 93 15 47 3d 28 3b 6e bd 2a 54 1b 3d
       -0.011657887 0.04860456 -0.058161885 0.037922062
000350 73 8e 1c 3d 6c 9e 86 3b a6 ff 2c bd ff 49 56 3d
       0.038221788 0.004108241 -0.042235993 0.052316662
000360 e7 48 35 bd 54 0f ae bd 85 3b d2 3b 03 c3 28 3c
       -0.04425898 -0.08499017 0.0064157867 0.010300401
000370 71 b6 f7 bc ff bb 3f 3c ec 4d 21 3d 69 a8 20 bd
       -0.030238362 0.011702537 0.039380953 -0.03922311
000380 23 b6 96 3c df 27 82 bc 89 69 28 3d 5b d5 6d 3c
       0.018397396 -0.015888153 0.04111627 0.0145162
000390 f8 2d 9d ba b8 ba 02 bd a4 4d d0 bc 1a 7c 73 3d
       -0.0011991849 -0.03191635 -0.025427647 0.059444524
0003a0 dd 1e 2c bd 9d 67 41 bd 69 d7 15 bd 31 44 8a bc
       -0.04202162 -0.047217954 -0.036582384 -0.01687822
0003b0 12 9d 2a 3d 11 13 90 3d 12 0d ed 3c 9f 53 c2 bd
       0.0416537 0.07034887 0.028936896 -0.09488606
0003c0 b6 29 37 3d ba 57 31 bd 63 58 41 3a fc 37 88 bc
       0.044717513 -0.043296553 0.00073755364 -0.016628258
0003d0 28 f8 22 bb 96 81 dc bc 19 82 1a 3c 0b f3 24 bd
       -0.002486715 -0.02691726 0.009430432 -0.040270846
0003e0 72 9a 06 bc 6f f4 3a 3b f1 83 5f bc eb 41 ce bc
       -0.008215534 0.0028527041 -0.013642297 -0.025177917
0003f0 3e 1d 8a 3c e2 8d 03 bd 15 74 27 bd 3e f5 a1 bc
       0.016859647 -0.032117732 -0.04088219 -0.01977026

conv2.bias f4 [128]
000000 2b 2e 71 3d 92 aa 13 bd dd 21 ad bb ed ab f4 bc
       0.05888192 -0.03605134 -0.005283578 -0.029867137
000010 8f 27 3a bd cd b8 e8 bc 53 ea 49 bd 75 72 ed 3c
       -0.045447882 -0.028408432 -0.049295735 0.028985241
000020 2e 15 0a bd 6f 62 d9 bb 1f bf 18 bd 36 93 37 bd
       -0.033711605 -0.0066340487 -0.037291642 -0.044818126
000030 c1 91 13 bd 44 7d 71 3d 53 73 1b bd d2 a1 c3 3c
       -0.036027674 0.058957353 -0.03795178 0.023880873
000040 7b d5 fb bb fe 87 86 3b ce 1d 79 bd 1c a3 67 bc
       -0.007685361 0.004105567 -0.06081944 -0.014138009
000050 9c f1 e3 bc 7f 50 00 bd 1b 9d 6b bc 6a 7f 47 bd
       -0.02782517 -0.031326767 -0.014380719 -0.048705496
000060 60 58 7c bc d5 d3 88 3c c0 34 9b 3c b6 84 81 bc
       -0.01540193 0.016702572 0.018946052 -0.015810352
000070 af b8 db bc 58 b3 79 bd d2 5e a5 3b 2e 9d 20 3c
       -0.026821462 -0.06096205 0.005046704 0.0098031
000080 3f 2b 22 bc 5e a1 41 3c f7 32 4e bd 72 bb ca 3c
       -0.009898006 0.011818258 -0.050341573 0.024747584
000090 a6 6a aa bc 0e 60 5c 3d ab 35 7f 3d cf eb 8a 3c
       -0.020802807 0.053802542 0.06230704 0.016958145
0000a0 a0 da 15 3c 17 21 fe 3c 9f 98 c1 3a 3c 74 6a bb
       0.009146363 0.031021638 0.0014770216 -0.0035774847
0000b0 79 7d 13 3c 8b c1 a0 3c c8 84 e5 bc 3b 45 05 bd
       0.009002083 0.019623538 -0.028017417 -0.032536726
0000c0 b2 c6 fb bc 03 17 d8 bb fb ae 02 3d 64 6c 37 3d
       -0.030734394 -0.00659454 0.031905156 0.044781104
0000d0 79 aa 4f 3c 67 ab 28 bd 35 c6 49 3d d8 a8 8a 3d
       0.012674921 -0.041179087 0.04926129 0.06770486
0000e0 1e 62 ad bb 5f be 39 3d 49 7a b2 3c 95 c3 d4 39
       -0.0052912375 0.045347568 0.021786826 0.0004058151
0000f0 2e 2c 66 bd c7 08 33 bd f9 67 01 3d 91 f9 ac 3c
       -0.056194477 -0.043709543 0.031593297 0.021115096
000100 3f 29 be bc c4 fc 73 3c 51 59 18 bd 56 a4 16 3d
       -0.023213027 0.014891807 -0.037194554 0.036777817
000110 25 8c 3e 3d 90 60 2f bd 43 31 63 bd 6a ca f5 3c
       0.04652037 -0.0428167 -0.0554669 0.030003745
000120 ba f8 76 bd 26 93 ad bc 31 4f 64 3d 55 83 6b 3d
       -0.060295798 -0.02118833 0.055739585 0.057498295
000130 48 ea 3d 3d 5c b9 74 3b 3c 52 2a bd b4 bb 24 bc
       0.046366006 0.0037341928 -0.04158233 -0.010054518
000140 9f d7 0d bd 5e b3 61 3d 5d 10 0e bd 3e 18 e1 ba
       -0.03462946 0.0551027 -0.034683574 -0.0017173362
000150 8f ce 7e 3d 95 8f 54 3d 7a 37 54 3d cf 62 30 bd
       0.06220871 0.051894743 0.05181072 -0.04306298
000160 db 73 65 3c b2 08 a3 bc 05 f2 16 bd fb 6b 52 3a
       0.014004673 -0.019901607 -0.0368519 0.00080269546
000170 88 27 b2 3c 44 f8 66 bc 19 12 27 bd 5f a8 e3 3c
       0.021747366 -0.014097277 -0.040788744 0.027790247
000180 54 71 3c 3d 32 d0 d1 bc 3e f2 6e 3d 81 a6 d4 3c
       0.046006516 -0.02561197 0.05833649 0.025958301
000190 a4 77 0e bd 42 9c 2c 3d 9e 71 1b 3d 11 83 22 3d
       -0.034782067 0.042141207 0.03795015 0.039675776
0001a0 71 6a da bb 89 9a 13 bd 16 18 64 bd 1f 62 05 3d
       -0.006665521 -0.036036048 -0.055687033 0.03256428
0001b0 29 81 79 3d f3 26 8e bc 62 1e 13 3d 9a 71 e0 3c
       0.060914192 -0.017352557 0.035917647 0.02739792
0001c0 7c 22 7b bd 31 0b 96 3c 75 96 1f bd b6 cc 08 3d
       -0.061312184 0.018315883 -0.038961846 0.033398353
0001d0 0d 2e dd 3c 23 63 8d 3d ef 66 02 3d 86 97 0e bd
       0.026999498 0.069036745 0.031836446 -0.034812473
0001e0 5a 30 5f bd ff ba 88 bd 42 2d ee 3a b6 16 51 bd
       -0.05448947 -0.06676292 0.0018171447 -0.05104705
0001f0 74 f0 78 bd 62 e6 6d 3a 76 14 1f 3d 8f 5b 50 bd
       -0.06077619 0.0009075162 0.038837872 -0.050868567

dense1.weight f4 [50, 768]
000000 56 c0 cc 3c ca a5 81 bc 6e 99 1e 3d 38 97 c4 3c
       0.024994057 -0.015826125 0.03872054 0.023997888
000010 a7 01 88 3c 02 b4 7f 3a 7f e8 af 3d 07 d5 18 bb
       0.01660235 0.0009754301 0.08589267 -0.0023320334
000020 50 99 98 3c eb 2e 4d bc 24 15 d2 3b f1 53 87 3c
       0.018627793 -0.012523393 0.0064112116 0.016519519
000030 22 45 80 3b 50 87 b7 3c 50 41 8a 3b 03 b1 5b 3b
       0.0039144913 0.02240339 0.0042192116 0.0033522255
000040 2b f5 02 3d 1d c7 c4 bc a5 3f e8 3b 96 e6 1b 3c
       0.03197209 -0.024020726 0.007087665 0.009515425
000050 8a 66 28 3c 2a d7 88 3c 24 03 08 3d 1b 94 f7 3c
       0.0102783535 0.01670416 0.03320612 0.03022199
000060 cb 41 66 3d f6 76 0d 3d c6 f7 d5 3b c2 da ca bb
       0.05621509 0.034537278 0.006529781 -0.0061906287
000070 98 2f 68 3c a0 97 7e bc 9d 40 54 3d 3f e1 75 bc
       0.0141715035 -0.01553908 0.051819433 -0.015007316
000080 e1 91 27 bb 94 5e 01 bd f3 af b3 bc 94 c3 87 bb
       -0.0025569128 -0.031584337 -0.021934485 -0.004143188
000090 17 62 05 3c b8 46 66 3c 73 50 2d bc 7b ce 10 3d
       0.008141062 0.014054947 -0.010578263 0.035353165
0000a0 d3 06 5d 3c 87 3a 8e 3c 8c ff ab bb 77 b6 10 bd
       0.013490397 0.017361892 -0.0052489694 -0.035330262
0000b0 18 22 47 bc ef 97 c6 bc ac 23 8c bc ed d1 49 bc
       -0.012154125 -0.02424237 -0.017106853 -0.012318117
0000c0 22 2b 82 bd e0 bc c6 3c 9e 0a bd bb 04 9d a8 3c
       -0.06355883 0.024259984 -0.005769088 0.020582683
0000d0 a5 94 eb 3c 5c 67 4a bd 90 5a db 3c a9 b2 e0 bb
       0.028757403 -0.049414977 0.026776582 -0.0068572355
0000e0 02 43 9f 3a 07 08 0a bd e0 c6 85 3b be 81 16 3d
       0.0012150707 -0.03369906 0.0040825456 0.036744826
0000f0 a1 d3 50 bc 26 ae 2a bb da e6 b9 bc 22 ff 7d bc
       -0.012745769 -0.0026043742 -0.022693086 -0.015502723
000100 24 ac 11 bd 65 6c c5 bc 6c b4 7c bb ff db 1a bd
       -0.035564557 -0.024099538 -0.0038559688 -0.03780746
000110 2e 32 4f b9 4e 6f 0e 3d 95 12 6c bb a6 3a a5 bb
       -0.00019759752 0.034774117 -0.0036021818 -0.005042392
000120 3c 0e c7 bc 96 39 59 3c f4 37 1e bd 94 43 b7 3c
       -0.02429878 0.013258358 -0.03862758 0.022371091
000130 fc 86 00 3c ca 75 2d bd 97 05 25 3d 1d 02 28 bc
       0.007844683 -0.04234866 0.040288534 -0.01025441
000140 71 bb 48 bb 63 d5 7c 3c aa b6 90 bb e1 8c 10 3d
       -0.0030629302 0.015431735 -0.0044163065 0.035290603
000150 e0 ca a2 3c 6c ae 4b 3c 32 0b 87 bc 41 7c c8 bc
       0.019872129 0.012431722 -0.01648483 -0.024473311
000160 eb b2 e4 3c 30 b9 7a 3c cd 3e 32 3c e9 6e 8d 3c
       0.027917346 0.015302941 0.010879231 0.0172648
000170 dd 01 a3 3c fb e9 84 3c 2f 63 c1 3c b5 99 0e 3d
       0.01989835 0.016224852 0.023606865 0.034814555
000180 1c 01 14 bc 8c 62 f4 3c 5f 99 1c 3d 44 da 19 3d
       -0.009033468 0.029832147 0.038232204 0.03756167
000190 54 c2 15 3c 61 19 a6 bc 7c 59 be bc 4d aa 3f 3c
       0.00914057 -0.020275773 -0.023236029 0.011698318
0001a0 28 f0 b6 bc 9b 7d 1f 3b f7 78 43 3b b0 69 20 bc
       -0.022331312 0.0024336341 0.002982674 -0.009790823
0001b0 b7 fb 20 3d 53 4c 0d 3d 58 8c 62 bb 77 95 82 bc
       0.039302554 0.034496617 -0.0034568515 -0.015940411
0001c0 c5 1a 65 bc 6b ec e5 3c a0 00 e9 bb 1d dc 0b bd
       -0.013983433 0.028066834 -0.00711067 -0.034145463
0001d0 53 99 eb bc 3d 0a b4 bc 9c 3f 17 bc 48 ca a5 3c
       -0.028759634 -0.021977538 -0.009231474 0.020238057
0001e0 41 9e 1b bd db f9 06 bb 60 bd 80 3b fb 69 b6 3c
       -0.03799272 -0.0020595703 0.0039288253 0.022267332
0001f0 16 1f 95 3c 07 ae 18 3b 65 a1 c9 bb 1d 63 0a 3d
       0.0182033 0.0023297088 -0.006153273 0.033785928
000200 4e 79 ee bc 25 6c a2 3c de c6 d0 3c 5e 44 c9 ba
       -0.029110577 0.019826958 0.025485452 -0.0015355458
000210 24 d2 c8 bb 15 f4 71 bc 37 cd 02 bd 08 12 46 3b
       -0.0061285663 -0.014767666 -0.03193399 0.003022315
000220 1f 83 80 3c a4 3b ba bc 40 af 16 3c 86 6e ca 3c
       0.015687523 -0.022733517 0.009197056 0.024710905
000230 0d 96 9a 3c fd 00 50 3c 68 d2 8a 3c da 8a 61 3b
       0.018870378 0.012695548 0.016946033 0.0034415037
000240 32 46 d0 ba ab ef e6 3c 52 7a 46 bd 79 9d 96 bb
       -0.001589006 0.028190454 -0.048456497 -0.004596409
000250 fc 39 38 bc ce a2 7c bc e6 f2 1e 3d 94 d5 c1 3b
       -0.011244293 -0.015419675 0.038805865 0.005915353
000260 15 e6 db bc a0 2a 8a bc b9 3e eb 3c ad f8 03 3d
       -0.02684311 -0.016866028 0.028716432 0.032219578
000270 92 98 b2 3c 20 2f ba bc 4b ef fe 3c 09 09 0f 3d
       0.021801267 -0.02272755 0.031119963 0.034920726
000280 5b 8e ac 3c 1e 9e ff 3c 7f a4 0c b9 ec d0 18 bd
       0.021063974 0.031203326 -0.0001341272 -0.03730862
000290 c6 fc 14 bd 82 3e 00 bd b0 f5 09 bc 0d 9f f1 bb
       -0.036373876 -0.031309612 -0.008420393 -0.0073736967
0002a0 f6 dd a1 3c 20 54 18 bb 2a 1b fe 3b ac 79 91 bc
       0.01975916 -0.0023243502 0.007754703 -0.017758213
0002b0 29 6a 36 bd f5 31 14 bd 18 cc 7d 3c cd 8e 50 3b
       -0.044534836 -0.036180455 0.015490554 0.0031823397
0002c0 a0 27 03 bd 78 2d b0 3c 85 65 8e bb a2 3a 80 3b
       -0.03202021 0.021506056 -0.004345598 0.0039132396
0002d0 ff ca 89 3c 74 b0 0e bd c8 f4 c5 3c 6e fb 94 3c
       0.016820429 -0.034836248 0.024164572 0.018186297
0002e0 c5 9e 45 3c ed a4 89 3c 62 9d c8 bb 5c 14 75 3c
       0.012061779 0.016802276 -0.006122277 0.014958467
0002f0 4f 15 c8 bc 86 83 09 3d 94 7f d4 bc 54 5c d7 bc
       -0.024424223 0.033572696 -0.02593974 -0.026289143
000300 e0 6a 4c 3c 98 28 64 3c 01 e9 ac bc 11 1b de bc
       0.012476653 0.013925694 -0.021107199 -0.027112516
000310 c1 f3 29 3c cd c3 a0 bc 92 93 43 3d c8 46 af 3a
       0.010373057 -0.019624615 0.047748156 0.0013372535
000320 a8 a1 b6 bc 15 ce 73 bc 27 4c 15 bc 6d 7b 45 3a
       -0.02229388 -0.014880677 -0.009112394 0.00075333455
000330 ba 31 f3 3c ac eb 53 3c 31 ec bb bc e5 74 ab bc
       0.029686797 0.0129346065 -0.022939773 -0.020929763
000340 ba 28 d6 bc 20 1a 34 bb cc 4b 3c bc 55 ea a0 3c
       -0.026142467 -0.0027481392 -0.011492681 0.019642988
000350 30 29 a7 bc f6 58 26 3c fd 21 13 bc 37 81 3a 3c
       -0.020405382 0.010153046 -0.008980271 0.011383346
000360 f4 ee ef 39 ca fb 91 3c 88 06 95 3c fc 60 b8 3a
       0.00045763666 0.017820258 0.01819159 0.001406699
000370 86 a6 e1 bb 21 68 1b 3c ce 22 50 bd f7 a3 ed b9
       -0.006886306 0.0094852755 -0.050814442 -0.00045326326
000380 d1 96 20 bb 6c 18 50 3c b9 f4 54 3b 0b 3a 12 3c
       -0.0024503956 0.012701135 0.00324945 0.008924971
000390 69 aa e1 bb b9 a8 94 3c 90 8c dd bc af 26 4f bc
       -0.0068867696 0.01814686 -0.027044564 -0.0126435
0003a0 65 d9 05 bc e6 fe 4a bd a2 e3 4b 3c 54 ef 68 3c
       -0.008169507 -0.049559496 0.012444409 0.0142172165
0003b0 ef 06 21 3b ed db 20 bc 3e f4 af ba f2 70 30 3d
       0.0024570783 -0.009818059 -0.001342423 0.043076463
0003c0 df 38 45 bc 06 bb 00 3d 26 b6 1e 3d 89 4a c1 3c
       -0.012037485 0.03142836 0.03874793 0.023595111
0003d0 50 71 1f bc e0 c4 60 bc 7e b6 10 3d e3 2e 95 bc
       -0.009731606 -0.013718814 0.035330288 -0.018210834
0003e0 11 95 15 3c 6b ce fb bc 99 ec bf bc de d6 f6 ba
       0.0091297785 -0.030738076 -0.023428248 -0.0018832346
0003f0 c0 26 de 3c f7 9e dd 3c 51 35 15 3c 84 ec c3 3c
       0.027118087 0.02705334 0.00910695 0.02391649

dense1.bias f4 [50]
000000 f3 90 aa 3c 5a 62 93 ba 48 ff f8 3c 5a 74 07 3d
       0.02082107 -0.0011244521 0.030395165 0.033069946
000010 d0 6a cc bb 3c 1f bd 3c 68 42 a7 bb da 4e 1c 3d
       -0.006238319 0.023086183 -0.005104352 0.038161136
000020 7e 75 37 ba 6b 98 12 3d 12 6d 33 3d 30 96 1c 3d
       -0.00069984037 0.03578989 0.04380519 0.038229167
000030 cc 2c 09 3c b8 52 c1 3c 0b 10 a8 bc 01 e0 d8 3c
       0.008372497 0.023599014 -0.020515462 0.026474
000040 47 93 2f 3d d3 de 99 3c 25 c8 6b 3c ce d3 2e 3c
       0.042865064 0.018783009 0.01439098 0.010670615
000050 a8 f6 d5 3c 8a e7 25 3d b8 84 99 bc 3e 44 46 3d
       0.026118591 0.040504016 -0.018740043 0.048404925
000060 c6 e8 da 3c d7 5b 38 3d bb bd a2 3c e9 3d 0c 3d
       0.026722323 0.04500946 0.019865861 0.03423873
000070 6c 94 08 3d a8 7c 17 3d cb be 8f bc 21 4a 08 ba
       0.03334467 0.036984116 -0.017547032 -0.00051990343
000080 bc 5a ea 3c ff f7 06 3d b5 19 a8 bc 79 04 9c 3c
       0.028607719 0.03295135 -0.02052007 0.019045101
000090 71 57 8c b9 64 34 ca 3c 3e 9c 00 3d 43 6e 45 3a
       -0.0002676803 0.024683185 0.031399004 0.0007531384
0000a0 a8 4c 4f 3d db 0b e4 3c 63 65 05 bc 22 34 94 bc
       0.050610214 0.027837684 -0.008141848 -0.018091265
0000b0 00 c2 5f 3c e8 73 fd 3c 88 78 e3 3c 16 2a 49 bc
       0.013657093 0.030939057 0.027767435 -0.0122781005
0000c0 26 85 15 bc 3c 74 5e 3b
       -0.009125983 0.0033943793

dense2.weight f4 [1, 50]
000000 95 f2 03 be 3b c4 a3 bd 2f dd 11 be e6 0d 24 bc
       -0.12885506 -0.07996412 -0.14244531 -0.010013079
000010 5c b2 e2 bd 52 c7 96 3d d1 f4 80 bd 7a b6 f7 bd
       -0.110691756 0.07362236 -0.06296695 -0.120953515
000020 ec 59 14 3e a2 47 da 3d 1a ae e2 3d 60 5c bf 3d
       0.14487427 0.10658194 0.110683635 0.09343791
000030 3d 3a 0b 3d d8 0e 97 3d e4 2d e1 bd 93 84 d9 3d
       0.033991087 0.07375878 -0.10995081 0.1062099
000040 21 4a 63 3d b1 ad 01 be c2 33 55 bc 4d 65 f0 3d
       0.055490617 -0.12663914 -0.013012828 0.117380716
000050 75 64 10 be 86 65 da 3d 14 61 e7 3c a4 c1 02 3d
       -0.14100821 0.10663895 0.028244533 0.03192295
000060 57 82 ca bc a7 48 da 3c 94 b4 06 be f1 76 29 3d
       -0.024720354 0.026645971 -0.13154823 0.041373197
000070 25 7a 96 bd ee 78 7e 3d bd 3d 7f bd d7 75 6a bd
       -0.07347516 0.062127046 -0.062314738 -0.057241287
000080 7c 3a b3 bd 76 1d 07 be 9c f0 0c be 21 ba d4 bd
       -0.087513894 -0.13194832 -0.1376366 -0.10387064
000090 82 30 f3 3d 8a 03 6c 3d bc e9 43 3d 79 49 f2 3d
       0.118744865 0.057620563 0.04783033 0.1183042
0000a0 35 b6 81 bd da 1d 96 3d 47 a7 8e bd 6b f1 1a bd
       -0.06333581 0.073299125 -0.06965499 -0.03782789
0000b0 32 5e 4f bc 81 eb 90 bc dd 88 df 3d 4d 26 05 be
       -0.012656735 -0.017690422 0.109147765 -0.13002892
0000c0 c5 84 09 3e 25 17 14 3d
       0.13429554 0.036154885
