time_series_forecasting/saved_models/CNNForecastingModel/18-03-2024-201031_NO1_epoch_2.pt (torch, 259243 bytes, 7 tensors)

conv1.weight f4 [64, 4, 3]
000000 a0 8b 59 3e ad 07 89 3e 94 da 2d 3e d2 0e 60 3e
       0.21244669 0.2676367 0.16977912 0.21880654
000010 af df c4 bc ec 79 14 3e 52 eb 13 3e d2 b0 50 3e
       -0.024032442 0.14499635 0.14445236 0.20379952
000020 35 d0 ef 3d 88 72 bf bd 71 04 9a bd 93 75 75 3e
       0.11709634 -0.09348017 -0.075203784 0.23970632
000030 15 b4 49 be 74 1b 54 be ca b0 f4 bd fd dd 3e be
       -0.19697602 -0.20713598 -0.11947782 -0.1863937
000040 16 d6 54 be 01 c2 26 3e 49 be a2 3c a5 60 84 3e
       -0.20784792 0.16284944 0.019866126 0.25854984
000050 ee 96 f5 bb 1d 5f 90 be a6 12 95 bb 40 73 71 be
       -0.007494799 -0.28197566 -0.004549342 -0.2357912
000060 e5 f6 6a 3e 35 60 53 be f5 7b 1f be 1d 24 a6 3d
       0.22945745 -0.20642169 -0.1557463 0.08112357
000070 0f b0 c8 bb 2f ae 7e be d7 9e 7b be d0 bd 62 be
       -0.0061245034 -0.24871133 -0.24572311 -0.2214272
000080 54 94 92 3d 4f 6b d1 bd ab d0 59 3e 0f 8f c1 bc
       0.071571976 -0.102255456 0.21271007 -0.023627786
000090 94 45 42 b9 3e 02 9b 3d 96 b9 c0 3d 9c 91 54 3e
       -0.00018527202 0.07568787 0.09410398 0.2075867
0000a0 aa 8b 29 be e7 a0 13 3d b2 a5 39 be 91 11 26 bd
       -0.16557184 0.03604212 -0.18129614 -0.040544096
0000b0 b1 1a 34 be c9 9f a0 3b c0 93 c4 bd 90 a0 41 3e
       -0.17588307 0.0049018604 -0.095984936 0.18908906
0000c0 74 38 7d bd 17 b5 4a 3e 56 87 8c 3e 26 ca 1f 3c
       -0.061821416 0.19795643 0.27447003 0.009752786
0000d0 79 f9 33 3e 01 6f 5b 3e 90 cd 8a 3d 73 d4 40 3d
       0.17575635 0.21429063 0.06777489 0.047077607
0000e0 0e 60 8d be 0c c2 83 be a2 26 36 3e f4 5d a8 3d
       -0.27612346 -0.25733984 0.17788175 0.08221045
0000f0 2d 22 78 3e 3c dc 82 3e 4b 1c c2 3b d7 f9 85 3e
       0.24231787 0.2555865 0.005923783 0.26167175
000100 b7 ec 8c be 47 c0 4e 3d f3 6c 73 be ee 10 7a 3d
       -0.2752435 0.05047634 -0.2377203 0.0610513
000110 6c 41 35 be 81 1a b0 bd 0d 2d 90 bd 93 79 14 be
       -0.17700738 -0.08598805 -0.07039843 -0.14499502
000120 a7 cb 8c be fb 58 94 3d e6 cc 7f be 66 1d 02 3e
       -0.27499124 0.07243534 -0.24980506 0.12706527
000130 93 5f 49 be 08 ac 92 be fb af 8e be e2 bd c5 bd
       -0.19665365 -0.28646874 -0.27868637 -0.09655358
000140 ff 75 97 be 4a d1 6d 3e 59 72 02 be 1b 19 2d be
       -0.2958221 0.23224369 -0.12738933 -0.16904108
000150 61 59 7f be ee 55 16 be aa f8 32 3e 4a 51 9d 3d
       -0.24936439 -0.14681217 0.1747767 0.0768152
000160 ef e6 88 3d 44 7c 00 3d 58 c8 8d be 1a 87 22 3d
       0.06684672 0.03136851 -0.27691913 0.039679624
000170 23 10 21 3d f8 ef 57 be b5 13 c7 3d 31 46 3d bd
       0.03932203 -0.21087635 0.09720556 -0.046209518
000180 93 fd 43 be 1f 7e 85 be 57 e7 d8 bd 1e 44 53 3e
       -0.191397 -0.26072785 -0.105909996 0.20631453
000190 e3 de ef bb 06 56 21 3d 69 51 57 3e f5 7a 7c 3e
       -0.0073202713 0.03938868 0.2102715 0.2465628
0001a0 87 8d c1 3c 18 d2 0a be 2c 2c 3d bd 56 a7 e1 3d
       0.023627056 -0.13556707 -0.046184704 0.11018245
0001b0 96 32 73 3e bb 79 7b 3e bc 0c 5a be 64 e9 e1 3d
       0.23749766 0.24558155 -0.2129392 0.11030844
0001c0 20 5c 77 3e 6b 61 7e 3d fd a4 d0 bd 3e 58 93 be
       0.24156237 0.062104624 -0.10187719 -0.2877826
0001d0 ae bb 8f be 88 2e fe bd 95 8e 09 be 81 68 04 3d
       -0.28072876 -0.12411219 -0.13433297 0.032326225
0001e0 50 60 a8 3d 44 e5 e0 3a 02 61 66 be 32 95 ec bc
       0.08221495 0.001715817 -0.22497943 -0.028879736
0001f0 3b 6a 2f 3e 86 a2 5d bd f8 6e 21 be 9f ee 04 be
       0.17130367 -0.054110073 -0.15764987 -0.12981652
000200 09 72 83 3e f6 e1 48 3e bf fd 12 3e 05 9c 9c bc
       0.2567294 0.19617447 0.14354609 -0.019117365
000210 41 04 06 3c 77 f4 e1 3d 65 de 92 be 5e c9 44 3e
       0.008179725 0.11032956 -0.286853 0.1921744
000220 11 15 84 3e 9c 80 42 be 54 ca 3f 3e 12 b8 a2 bc
       0.25797322 -0.18994373 0.18729526 -0.019863162
000230 ac 42 9a be c2 e3 f0 bd 82 e3 79 3e 59 f3 09 3e
       -0.30128992 -0.11762191 0.24403194 0.13471736
000240 22 dc 00 be 51 ed 34 3e ae ed 3e be 3a 65 8e be
       -0.12583974 0.17668654 -0.18645355 -0.27811605
000250 d6 c6 86 be 58 fa d4 3c 2d a6 87 be 9f ba 94 3e
       -0.26323575 0.02599828 -0.2649397 0.2904863
000260 a4 af b6 3d e9 79 33 be 5d 85 8f 3c fe 6c 82 bd
       0.089202195 -0.17526974 0.017519647 -0.06368445
000270 5b 69 94 3e eb ba 04 bd d7 90 91 be 75 b5 01 bd
       0.2898663 -0.03240482 -0.28430817 -0.03166719
000280 c3 a2 ca bd 9a 4c 87 3d 71 d2 0e be 49 3e 15 be
       -0.098943256 0.066064075 -0.13947465 -0.14574541
000290 7e 95 10 3d db c0 8d be d2 0b 8e 3e d6 7c 75 bd
       0.035298817 -0.276862 0.27743393 -0.059933506
0002a0 f3 24 61 be 59 0b 88 bd 65 8d 17 3e 37 f6 d8 bd
       -0.21986751 -0.066427894 0.14800031 -0.10593837
0002b0 1d f9 8e be e3 06 55 3e aa 2c 03 be d8 b2 83 be
       -0.27924433 0.20803408 -0.12810007 -0.25722384
0002c0 ac f6 5f be 6a e5 8e bc 1c 14 d9 3d 73 56 df bd
       -0.21871442 -0.017443378 0.10599539 -0.10905161
0002d0 96 44 8e be 9d 80 80 3e 7e 80 4f 3d 9d a5 84 3b
       -0.27786702 0.25098124 0.05065965 0.004048063
0002e0 5d e6 b8 bc 4d 2f 34 bd e0 e4 8c 3e 70 19 3f 3e
       -0.022570783 -0.043990422 0.27518368 0.18662047
0002f0 02 af 8e be 8d e9 61 3e e8 ed 16 be 42 95 a5 3e
       -0.27867895 0.22061749 -0.14739192 0.32340437
000300 e2 d6 6a 3e 20 20 ee bd 86 21 16 be 76 b3 51 3e
       0.22933534 -0.11627221 -0.14661226 0.20478615
000310 9a b3 ab bd 2d 51 8c 3e 55 36 02 be f0 29 29 be
       -0.08383866 0.27405682 -0.12716039 -0.16519904
000320 7e 74 39 be df 41 e5 bb 1e c3 d9 bd 78 6e a7 bd
       -0.18110844 -0.006996378 -0.10632919 -0.08175367
000330 22 cd 6d bb da 73 72 3c 71 e8 5c 3e b3 6a 12 3d
       -0.0036285599 0.014798129 0.21573044 0.035746288
000340 26 5d 17 3d 03 64 28 3e e4 98 77 be 8c 1f 53 bd
       0.036954068 0.16444401 -0.24179417 -0.051543757
000350 d0 69 b3 bd 4b 76 8d 3d 5b 57 88 3e 22 f6 17 3d
       -0.087604165 0.06907328 0.26629147 0.037099965
000360 62 e9 93 be 19 12 f7 3d 28 15 1a be 43 88 28 be
       -0.28888994 0.12063999 -0.15047133 -0.1645823
000370 09 26 93 be 20 40 27 3d e3 66 53 bd 86 2a 67 3c
       -0.28739956 0.04083264 -0.051611792 0.0141092595
000380 7a 38 cf bd 23 95 3e bd e2 c3 3e be 4f d8 1c 3b
       -0.10118194 -0.046528947 -0.18629411 0.002393264
000390 e7 5e ec 3d c4 6c 0d 3c bd bb 94 bb e3 ec 41 3d
       0.11541539 0.008631889 -0.0045389817 0.047345053
0003a0 e2 dd 1b be 06 fa 8c be df e4 31 3e b0 9f 34 be
       -0.1522136 -0.27534503 0.17372464 -0.17639041
0003b0 46 a7 77 3e 0e 3e 8d 3d 76 3c 54 be 27 1b 31 be
       0.24184904 0.068966016 -0.20726189 -0.17295514
0003c0 8b d0 e6 3d 4b 17 74 3d a6 a1 aa bc b5 f1 bf 3d
       0.11270245 0.059592526 -0.020829033 0.09372274
0003d0 3b f7 55 3e 8b 9d 09 3d 85 95 70 3d cc fb 1b be
       0.20895092 0.03359751 0.058736343 -0.15232772
0003e0 1c 51 49 3d b0 f3 23 3e ff 27 71 be 4f bf 86 3e
       0.049149618 0.16010928 -0.23550414 0.26317832
0003f0 fa 9c 66 bd 9c e0 40 be 0a c1 4d 3e 50 d5 d4 3c
       -0.05630205 -0.18835682 0.2009317 0.025980622

conv1.bias f4 [64]
000000 4e dd 88 be b5 db 73 3d 82 9e c3 3d 3a 7c ab 3d
       -0.26731342 0.0595357 0.09551717 0.08373304
000010 d5 29 51 bd dd 5c 71 3e 09 06 72 3e b1 e8 42 be
       -0.051065285 0.23570581 0.23635115 -0.19034077
000020 7d 8b 33 3e 7f b3 2c 3e 82 3e e6 bc e9 01 62 3e
       0.1753368 0.16865347 -0.028105978 0.22071041
000030 0c 63 8d 3e d3 f8 73 3d 18 5f 4b 3e 89 3f 4f be
       0.2761463 0.05956347 0.19860494 -0.2023908
000040 bc 4a 21 bd 0b 44 20 be 2d 6b 36 3c 90 f2 5b 3c
       -0.039377913 -0.15650956 0.011133951 0.013424531
000050 6b 9c 97 3e 6c dd 18 3e ae f9 a4 bd 2d ba 32 bd
       0.29611525 0.14928216 -0.08055435 -0.043634582
000060 b4 43 d5 bc 68 f6 85 bc 43 92 2f 3e 43 04 82 3e
       -0.02603326 -0.016352847 0.17145638 0.25393876
000070 00 ce 97 3c 8a 81 d7 3d f2 a8 45 be fd d6 e2 bc
       0.018530846 0.105227545 -0.19302729 -0.027690405
000080 50 3c 01 3c 73 73 44 3e dc 9b 93 3e d4 c8 6e bd
       0.007887915 0.19184665 0.2882985 -0.058296993
000090 dd 78 1f be 2a f2 84 3e fb dd d4 3c af 4a 4b 3e
       -0.1557345 0.25966007 0.025984755 0.19852708
0000a0 f5 b3 82 be 22 50 8a 3e 43 cb cf bd ed f5 ce bd
       -0.2552792 0.2701426 -0.10146191 -0.101055
0000b0 16 8b 9b 3b 82 de 66 be 61 d8 2e 3e e5 aa c9 bd
       0.004746805 -0.22545817 0.1707473 -0.09847049
0000c0 56 18 cf 3c 31 53 6f 3d 12 bb 8f be af 96 91 3d
       0.025280159 0.058428947 -0.2807241 0.07108819
0000d0 9e 71 24 bd b2 1b d1 bd f0 b6 0d be ed 15 0e be
       -0.040147416 -0.102103606 -0.13839316 -0.13875552
0000e0 42 e9 86 bd df 94 4d be 8b 88 9b bc fe 69 96 3c
       -0.06587459 -0.20076321 -0.018986007 0.018361088
0000f0 4d 5b 7b 3e b0 81 48 be 8a 99 84 3e cd 5f ab bd
       0.24546547 -0.19580722 0.2589839 -0.08367882

conv2.weight f4 [128, 64, 3]
000000 70 7a 99 3a 18 15 70 3c 6a f6 eb bb c3 5a a6 3c
       0.0011709463 0.014653467 -0.0072010057 0.02030695
000010 d8 9e 2f 3c eb bb 80 bd 63 c9 0f bd 6e a4 94 3d
       0.010719024 -0.062858425 -0.035104167 0.07257925
000020 11 ca 42 bc 9d 92 4b 3d 23 06 77 bd 72 fb 81 3d
       -0.011888997 0.04970037 -0.060308587 0.063467875
000030 b1 89 81 3d 9d 3e 45 3b 60 2a 7c bd a3 73 72 bd
       0.06325091 0.0030097135 -0.06156385 -0.05919231
000040 40 6e 58 3b e9 ea a6 bc 27 02 68 3c 83 51 8b bc
       0.0033024698 -0.020375686 0.014160669 -0.017006641
000050 15 78 82 bd 6d 35 95 3d 16 bf 4c bd b4 c4 6c 3d
       -0.0637056 0.07285581 -0.04998692 0.05780478
000060 ec 56 b2 3b 36 b3 6d bd 8c 60 75 3d d5 c0 42 3d
       0.005442491 -0.058032237 0.059906527 0.04754718
000070 1f 42 8f 3d 5b 06 cf 3c ef b4 40 bd 35 fa 17 3d
       0.069950335 0.025271585 -0.04704755 0.03710385
000080 0f c4 b2 bc 4f e0 24 3c 7c 60 8d 3d aa 37 d8 bc
       -0.021822004 0.010063245 0.069031686 -0.02639373
000090 2d ac a5 bc ac a3 b8 bb 05 57 9b bd 03 7a b1 3d
       -0.020223701 -0.0056347456 -0.07584957 0.0866585
0000a0 49 22 54 bd 5b 18 2b 3d 6c ce 67 3b 44 b9 eb bc
       -0.05179051 0.041771274 0.003537084 -0.028774865
0000b0 06 b2 09 bc fd 59 09 3c c0 94 a8 bd b7 80 2d bc
       -0.0084042605 0.008383271 -0.08231497 -0.01058977
0000c0 08 dc 1d bd 3e 34 79 3d 7c d1 1b bd 12 1f e2 bc
       -0.038539916 0.060840838 -0.038041577 -0.027602706
0000d0 7e 30 47 3d 10 9d 82 3d 65 a1 b5 b8 0d cc 8d bd
       0.04863023 0.063776135 -8.660815e-05 -0.06923685
0000e0 cd 16 c4 bd 2a 1a 95 bd f0 8d 89 bd 58 01 af bc
       -0.095746614 -0.07280381 -0.067165256 -0.021362945
0000f0 6c a9 73 bc 97 ec 56 3d fc ef 84 bd 9d dc 51 3c
       -0.014871936 0.052471723 -0.06491086 0.012808946
000100 e4 d9 20 3d 15 90 6a 3c 7f 21 06 bc 91 2e 75 bd
       0.039270297 0.014316578 -0.008186697 -0.059858862
000110 91 e0 4e 3d db 1f 7b 3d c1 3a a1 3d 9d 42 8c 3d
       0.050507132 0.061309677 0.078725345 0.06848643
000120 85 56 0f 3d b4 7a 88 bd 22 e4 44 bd 47 d8 1f bd
       0.03499462 -0.06664029 -0.048069127 -0.039024618
000130 42 4e 4a bd 67 a9 be 3c cc 1f 38 3d 66 f1 8a bc
       -0.04939104 0.023274137 0.0449522 -0.01696081
000140 ad f3 77 bd 69 65 86 bd ba 79 8e 3b 88 83 a2 bb
       -0.06053512 -0.06562311 0.004348007 -0.0049595274
000150 bc e9 63 3d 84 87 65 3d 3f 50 2a bb 70 b8 3f 3d
       0.05564283 0.05603744 -0.0025987772 0.046806753
000160 0c 34 e2 3c 25 ef 89 3c 77 2c 6f 3d 67 97 30 3d
       0.027612709 0.016837666 0.058392014 0.04311314
000170 9c a3 7b bd 0f f7 19 bd 1b ee 93 bc 65 a2 76 3d
       -0.061435327 -0.03758913 -0.018057873 0.060213465
000180 cd c1 0c 3c 28 b5 32 3d df 99 ca bc 25 f1 f7 3c
       0.008591128 0.043629795 -0.024731575 0.030266354
000190 62 2d 94 3d 4e 20 e9 bb 9e 97 d2 3c e0 54 03 bd
       0.072352186 -0.0071144467 0.025707062 -0.032063365
0001a0 4f c7 6a 3d 0d 2f 1b 3d 6e 83 0c 3d 5c 2c 81 3d
       0.05731898 0.037886668 0.03430503 0.06307289
0001b0 14 32 ba bd ea f2 df bc 4b 62 a8 bc e8 ee 10 3c
       -0.09091583 -0.02733751 -0.020554682 0.008846022
0001c0 db 74 af bb ab ac 3f 3d 47 b2 83 3d f7 32 83 3d
       -0.0053545064 0.04679553 0.06430488 0.06406205
0001d0 09 e8 14 bc c3 f4 87 bd c9 ae 22 bc c1 a5 2c 3a
       -0.009088525 -0.066384815 -0.009929367 0.00065859786
0001e0 3a 28 81 bd 5b 56 7e 3c a2 cd 9d 3c 4d 0b 37 3d
       -0.06306501 0.015523518 0.019263092 0.04468851
0001f0 a7 3d 8c bb ca f7 02 3d e5 fa 70 3d 8b 7c 69 3d
       -0.0042798105 0.03197459 0.05883302 0.05700354
000200 6a de 77 bd ff 55 a1 3b f5 59 2e 3c 43 d6 9c 3c
       -0.060514845 0.0049235816 0.010641565 0.019145137
000210 86 3c 32 3b bd 21 46 bd 2b 46 71 bd e6 24 2a bd
       0.002719672 -0.04837202 -0.058904808 -0.041539095
000220 b3 e5 10 3d de c1 53 bd ed 1f 81 bd 05 18 b9 3c
       0.03537531 -0.051698558 -0.063049175 0.022594461
000230 85 90 8a bd 5c dd 1e 3c 8c 90 87 bc e0 55 da 3c
       -0.06765846 0.009696331 -0.016548418 0.026652277
000240 2b 5a 3b 3c 45 4b 1b 3d be 27 f7 3c 5b d7 9c bd
       0.011435072 0.03791358 0.030170318 -0.07658263
000250 ee 87 82 bd 59 20 09 3d 24 ab 4a bd 80 35 14 3d
       -0.06373583 0.033478115 -0.04947962 0.036183834
000260 7e 3b 70 3d da 10 a2 3c b9 64 71 3d 34 b7 86 bc
       0.058650486 0.019783426 0.058933947 -0.01644478
000270 d2 87 52 bd a7 95 e2 3b e8 67 fb 3c bc b3 11 3d
       -0.05139906 0.0069148126 0.030689195 0.0355718
000280 58 54 37 bd 46 a3 8b 3c 96 5c 1b bd b2 a1 3d 3b
       -0.04475817 0.017045628 -0.037930094 0.002893549
000290 65 90 40 ba 38 42 0f 3d 84 4a 26 bd 7a 52 7f 3d
       -0.0007345735 0.03497526 -0.040598407 0.062334515
0002a0 c4 84 53 bc 32 bf d4 3c 76 95 ef bb a0 82 31 3d
       -0.012910072 0.025970075 -0.0073115183 0.043337464
0002b0 c3 e0 54 bd 19 e5 fc 3b 9b 0c 30 3c 4b 86 b3 3c
       -0.051972162 0.0077177403 0.010745193 0.021914622
0002c0 46 ba ee 3c d0 85 87 3d 2c 24 5c bd b4 f9 2f 3d
       0.029141556 0.066173196 -0.053745434 0.042962745
0002d0 b3 d3 4a 3d 98 52 86 bc dc 5a d3 bc 52 9c a0 3b
       0.0495183 -0.016396806 -0.025800161 0.0049014473
0002e0 74 bc 53 bd b2 80 68 3d e1 8f ac bb c9 95 66 bd
       -0.051693395 0.05676336 -0.005266175 -0.05629519
0002f0 13 f0 81 3d d0 e4 44 3c 95 07 21 bd f4 6c f0 3c
       0.06344619 0.012017444 -0.03931387 0.029348828
000300 5a 91 ef 3c b6 59 18 bd 78 04 42 bd 13 0f 16 bd
       0.029244114 -0.03719493 -0.047367543 -0.03663547
000310 d7 83 05 3d d2 c1 ab bb 45 ed 26 bd 4e 7f 1e 3c
       0.032596435 -0.005241611 -0.04075362 0.0096739065
000320 a9 cd 0c 3d 3d f3 8c bc a9 b3 5e 3d 5b 13 0d bd
       0.03437582 -0.017205829 0.054370556 -0.034442287
000330 db 75 55 bd db 46 10 bd 8e 91 5e bd 1a 65 84 3d
       -0.05211435 -0.035223823 -0.05433803 0.06464596
000340 87 5a 76 bd 38 b1 9b bd 68 a9 74 3d 5d 92 c2 39
       -0.060144927 -0.07602161 0.05973187 0.00037111613
000350 3b 32 92 3d c2 e7 24 3d 8f f7 23 3d 24 cb cd bc
       0.07138487 0.040260084 0.040031012 -0.025121279
000360 ab 3b 88 bc f4 25 98 3b 26 e4 ef 3c 33 45 61 3d
       -0.016630014 0.0046431962 0.029283594 0.054997634
000370 d9 9b 83 3d 64 3c 8d 3c f6 08 ef bc 33 24 39 3d
       0.0642621 0.01724071 -0.029179078 0.045200538
000380 9b 2e 7d 3d 31 14 72 bd 58 c5 87 3c a5 81 38 3d
       0.061812025 -0.059101287 0.016573593 0.045045514
000390 9a e0 88 3c f9 80 20 3c 70 e1 93 bb 19 38 8c 3d
       0.01670866 0.0097963745 -0.004512958 0.06846637
0003a0 db 70 d7 3c 42 67 93 3d 42 f0 6c bd a3 91 77 3d
       0.02629893 0.07197429 -0.057846315 0.060441624
0003b0 dc ac 1a 3c cb de 79 bc 55 5e 5e 3d 68 69 2b bd
       0.009440627 -0.015250872 0.05428918 -0.04184857
0003c0 8d ba 01 3d 02 9d 38 3d de c9 84 bd 76 02 03 bd
       0.03167205 0.04507161 -0.064838156 -0.03198477
0003d0 a4 2e 11 3d 35 fe 83 bd b1 98 ae 3a e1 bd e8 3c
       0.03544487 -0.064449705 0.0013320652 0.028410854
0003e0 4c 2f ae 3c c7 86 46 bd ef ba 05 3d f3 6b b5 bb
       0.021262787 -0.048468377 0.032648977 -0.00553655
0003f0 78 35 46 3d 14 bb fe bc 76 e4 fd bc 2a 48 0e 3d
       0.048390836 -0.031095065 -0.030992728 0.03473679

conv2.bias f4 [128]
000000 fe d8 56 3d b1 ec dd bc 2e 80 18 bd f7 bf 10 3d
       0.052453034 -0.027090402 -0.037231617 0.035339322
000010 fa b6 88 3c fb 05 b6 bd a4 c6 ff bc e4 32 00 3c
       0.016688813 -0.088878594 -0.031222649 0.007824633
000020 89 ec 07 3c a2 ba 8e 3b bb 73 58 bd 44 a2 4b bd
       0.0082961405 0.0043557445 -0.052844744 -0.049715295
000030 e7 08 45 3d 04 48 90 bc b0 c8 f9 bc 08 c6 19 bd
       0.048104193 -0.017612465 -0.030491203 -0.037542373
000040 eb 50 98 bd 76 ac 5d bc 7e 02 61 3d 80 d1 5e 3d
       -0.07437309 -0.013529887 0.054934017 0.054399014
000050 aa 98 11 3d 5a b1 67 bd 15 03 a9 bb 7b 31 91 3c
       0.035545982 -0.05656562 -0.005157838 0.01772379
000060 17 e6 ad bc 2f 6a 61 3d 5e bd 78 3d 4e 18 91 3c
       -0.02122788 0.055032905 0.06072747 0.017711785
000070 49 0e 78 3d 5c d9 7c bc 58 f6 e0 bc 61 76 86 3b
       0.0605605 -0.015432682 -0.027461216 0.0041034673
000080 3f dc 7a 3d 89 73 41 bc 1b 09 9a 3d dd 75 a7 3c
       0.0612452 -0.011807331 0.07521268 0.020441944
000090 54 4b 72 3d c6 bc 37 3d b8 cb 08 bd 45 54 15 3d
       0.05915387 0.044857763 -0.033397406 0.03645732
0000a0 e6 30 6c 3b e7 82 8f bd 21 40 e8 3c 04 5f 60 bd
       0.0036039888 -0.070073895 0.028350892 -0.054778114
0000b0 85 9f 04 bd 7f 86 16 bd 81 16 80 bd 9b cf f9 3c
       -0.032378692 -0.03674936 -0.06254292 0.030494502
0000c0 66 df 2e bd 62 10 39 3d f5 7b 04 3d d7 6e 49 bd
       -0.042693518 0.04518164 0.032344777 -0.04917797
0000d0 92 8a 5e ba 51 5e 8a bd c0 87 3b bd f8 42 43 bd
       -0.00084892765 -0.06756271 -0.04578376 -0.04767129
0000e0 2d 61 0b 3d 41 0b 20 3d 64 36 ab bc 31 fe 37 bb
       0.03402822 0.039073233 -0.020899959 -0.0028075094
0000f0 a6 2f 4c bc 18 83 4a 3d ff a2 07 3d 9c 0f 1a bd
       -0.012462532 0.049441427 0.03311443 -0.037612543
000100 02 87 03 3d 4b 8c ce 3c b4 54 1a 3d 46 ad f2 bc
       0.032111175 0.025213381 0.037678435 -0.029623639
000110 b2 7d 7b 3d f5 30 ff 3c 9d b0 2c bd bf ce 6e 3c
       0.06139917 0.031151274 -0.04216062 0.014575659
000120 6f a5 1a 3d e6 0e 4f 3c 12 82 45 bc 06 5a 14 3d
       0.037755426 0.012637829 -0.012054937 0.036218666
000130 db 42 97 b9 c0 9b dc 3b df 85 a4 3c 22 fc 9f 3c
       -0.00028850776 0.006732434 0.020083366 0.019529406
000140 70 d0 54 bd 49 b8 88 bd a8 eb 43 3d f0 3b 3a 3d
       -0.051956594 -0.066757746 0.04783216 0.045467317
000150 ff 85 72 bd 4d e6 51 bd 45 46 73 3d 94 6e 50 bd
       -0.05920982 -0.051245023 0.059393186 -0.050886706
000160 fc 55 de bb 6f 7d 16 bd bd 01 2c 3c cd d5 6a 3d
       -0.0067851525 -0.036740717 0.010498461 0.057332803
000170 03 b0 42 3d 83 b6 96 3d 24 b9 36 bc a7 93 4c bd
       0.04753114 0.0735903 -0.011152539 -0.0499455
000180 fb f6 fa bc 7b e4 fd bc 97 34 5b bd 2e 39 6e 3d
       -0.030635348 -0.030992737 -0.05351695 0.05816
000190 b6 57 6a 3d 0d f4 88 bc 99 6e 18 3c ed 1a fb 3c
       0.057212554 -0.016717935 0.009303712 0.030652488
0001a0 44 41 8d bd 05 70 0c bd e3 1b fb 3c 9a ac fc 3c
       -0.06897214 -0.034286518 0.030652946 0.030844022
0001b0 45 87 17 3d 28 5f bb bc c8 a1 41 3d 1a ff 2b 3d
       0.036994237 -0.022872522 0.047273427 0.04199133
0001c0 07 53 11 3c f5 59 4b bc 3e 05 16 3d a8 62 cc bc
       0.008869893 -0.012411584 0.036626093 -0.024949387
0001d0 70 6a 22 3d e0 e2 49 3d 34 86 43 bd 0e ac 3d 3d
       0.039652288 0.04928863 -0.047735408 0.046306662
0001e0 37 93 02 3d 33 20 72 3d 47 62 11 bd 76 f8 c5 bc
       0.031878676 0.05911274 -0.035494115 -0.024166327
0001f0 62 62 9a 3a 0b 8a 7b bd 13 34 35 3d 59 66 85 bd
       0.0011778588 -0.061410945 0.044239115 -0.06513662

dense1.weight f4 [50, 768]
000000 55 c7 07 3c b9 10 29 bb e7 0f 11 3d 40 bc ee bb
       0.008287271 -0.002579732 0.035415556 -0.0072856247
000010 3a 14 31 bc 17 57 ab bc 4f 35 ca bc ab 2b 9d bc
       -0.010808045 -0.020915551 -0.024683623 -0.019185862
000020 3b 64 af bc cf a6 f9 bc db 59 40 bc 11 16 dd bc
       -0.021410098 -0.030475048 -0.011740173 -0.026988061
000030 6b d8 dd bb a6 5d 8d 3c 0a 5f fc bc 21 d8 13 bd
       -0.006770184 0.01725657 -0.030807037 -0.03609479
000040 2f 77 e5 bb 58 d1 36 bc 01 b0 a3 3b 02 8c 08 3d
       -0.007002733 -0.01115831 0.0049953465 0.033336647
000050 54 02 3d 3c 6f cd 25 bd cf 73 3e bd 2c 02 4c bd
       0.0115362 -0.04047912 -0.046497162 -0.04980676
000060 5e b3 76 3d 08 2f 0d bd 36 74 00 3d 61 e6 11 3d
       0.06022965 -0.03446868 0.031360827 0.035620097
000070 2d 26 00 3d 7f 7b d3 bc 1c f3 b1 bc fd f4 b2 ba
       0.031286407 -0.025815723 -0.021722369 -0.0013653334
000080 9a bd 13 bc b4 99 6a 3c 69 3e 1c 3d 92 bd 3d 3d
       -0.0090173725 0.014318872 0.038145456 0.046323366
000090 f9 bb 02 bd cf 5b 68 bd 66 73 3b bd 7c d7 53 bc
       -0.031917546 -0.05672818 -0.04576435 -0.012929793
0000a0 e1 98 aa bc d3 9c 6d bb 48 6c c4 39 4a 7b ba 3b
       -0.020824851 -0.0036256805 0.0003746471 0.0056909667
0000b0 b3 d8 85 3c ae 39 05 3d 96 ae 1d 3d 5b 59 2e 3d
       0.016338682 0.03252571 0.038496576 0.042565685
0000c0 6a d1 0f bc 45 a7 be 3c 29 44 67 bc 5c 96 f4 bb
       -0.008777956 0.02327312 -0.014115372 -0.0074642133
0000d0 01 6c 70 3c 48 cc 44 3c 9d 7e 0c bd f6 29 55 3c
       0.014674188 0.012011595 -0.034300435 0.013010493
0000e0 4e 45 88 3b b4 58 fd bc 62 7f e0 bc df cd 29 bd
       0.0041586524 -0.030926086 -0.02740449 -0.0414561
0000f0 87 88 16 3d 39 0e c2 bc 77 9d da bc 6d 98 3d bb
       0.036751296 -0.023688423 -0.026686413 -0.0028929964
000100 ab b4 77 3c 46 70 a6 3b 8b d5 e2 3c 39 a5 84 3c
       0.015118758 0.005079302 0.027689716 0.016192066
000110 5c 8e f4 3b c1 df bf 3c 6a 34 17 3d 70 4b 19 3d
       0.0074632596 0.023422124 0.03691522 0.03742546
000120 7b ce fc 3c bd 47 32 3c c3 61 2a 3c d2 8b e4 3c
       0.030860176 0.010881362 0.010399285 0.027898703
000130 38 e3 9b 3c 4d 7c a7 3c a2 6b 15 bc 16 61 c1 ba
       0.019029245 0.020445013 -0.0091199 -0.0014753665
000140 d8 92 c4 3c 12 34 61 bc 8e ae 00 3d e5 dd 55 3c
       0.023995802 -0.013745325 0.03141647 0.013053392
000150 23 81 4a 3d 67 9c 7a 3b e7 ed 30 3d 64 fb dd bc
       0.04943956 0.0038240196 0.04319563 -0.027097411
000160 59 82 8a bc 31 f6 20 3c c3 2c 49 bc ec 87 d0 3c
       -0.016907858 0.009824322 -0.012278738 0.025455438
000170 47 a8 f0 3c cd a7 ca 3c 7c 8f 1d 3d c0 b1 14 bd
       0.029377116 0.024738217 0.038466915 -0.036302328
000180 4b cd ea 3a 98 30 d1 bc ab fd 1d bb 17 1c e5 bc
       0.0017913965 -0.025535867 -0.0024107497 -0.027967496
000190 b9 1c 00 bc fa 74 df 3b f4 6a 91 bc 27 b7 93 bc
       -0.007819348 0.0068193646 -0.017751195 -0.01803167
0001a0 cb 62 ff bc 25 87 53 bc 66 1c a7 ba d4 c8 16 3c
       -0.031175038 -0.012910639 -0.0012749552 0.009203155
0001b0 2a 30 45 bc 44 c3 0d 3c c5 f1 0d 3d 49 a9 ce bc
       -0.012035409 0.008652512 0.034654398 -0.025227206
0001c0 f5 60 7f bc 81 44 93 3c f4 49 b9 bb 9e d1 bb 3c
       -0.015587081 0.017977001 -0.005654568 0.022927102
0001d0 fc 6c ad 3c 90 b4 99 bc 9b 23 30 3c 1a 9b 7d bc
       0.021170132 -0.018762857 0.0107506765 -0.015478874
0001e0 cf 63 4b bc f2 8c 90 3c a7 6f 16 bc 20 d0 ca 3c
       -0.012413933 0.017645333 -0.009181893 0.024757445
0001f0 10 89 c9 bb 89 4a 74 3c a8 c0 85 bc 51 e7 c6 3b
       -0.0061503723 0.014910349 -0.016327217 0.0060700555
000200 30 5b cc 3c d8 54 8d bc 07 75 5b 3b f7 4f 61 3c
       0.024945825 -0.01725237 0.0033486502 0.013751975
000210 0e 0e 4c bd 45 9f 14 bd e1 63 52 bd b9 fa 07 bc
       -0.04981809 -0.036284704 -0.051364783 -0.008299523
000220 93 8e 00 bd 35 0c 22 3d 6a 66 11 3d c5 aa 99 bc
       -0.03138597 0.039562423 0.03549806 -0.018758187
000230 f6 f4 df ba 2c e4 bd 3c ff 07 2c 3d f7 0b b7 3c
       -0.0017086554 0.02318009 0.041999813 0.022344572
000240 d1 ad b3 3c f0 30 c8 3c 47 77 c8 bb de 1d 0a 3d
       0.021933468 0.024437398 -0.0061177346 0.03371989
000250 12 55 06 3d 37 32 6b 3b 62 bd 4f 3c 41 2d e9 3c
       0.032795973 0.0035888085 0.01267943 0.028463962
000260 99 7a 9b 3b 0e a7 1e bb 75 e5 15 3d e2 d4 3a 3d
       0.0047448394 -0.002420846 0.03659578 0.045613177
000270 a2 8e 65 3c 3d 56 6f bb ff af f4 3c ba ae 51 3c
       0.014011057 -0.0036519908 0.029869078 0.012798006
000280 7a 1f 8c 3c a3 80 d5 3b 45 5b 22 bd 46 ea 47 39
       0.017104853 0.006515579 -0.039637823 0.00019065393
000290 4e 87 78 3c 73 80 0e bc 88 e5 10 bd cc a9 48 3c
       0.015168978 -0.008697617 -0.035375148 0.012247514
0002a0 c9 7f a1 bc 69 cb f6 3c 58 c6 5f bc 91 8b 01 bd
       -0.019714253 0.03012629 -0.013658129 -0.03162724
0002b0 08 23 92 bb 17 16 12 3d e7 bc a7 bc f4 73 1c 3c
       -0.0044597425 0.035665598 -0.020475818 0.00954913
0002c0 64 12 92 3c 60 5a 25 3d 77 96 25 bd 7f f8 87 bd
       0.017831035 0.04036939 -0.040426698 -0.06639194
0002d0 28 6c 76 3d 69 db 81 3c df 42 b9 3c 92 c3 c8 bc
       0.06016174 0.015851693 0.022614894 -0.024507318
0002e0 0e a4 31 3d 1e 0b fa ba 15 d7 9a bc 1e 07 95 bb
       0.043369345 -0.00190768 -0.018901387 -0.0045479676
0002f0 ab 07 fe bc 7e 40 de 3b 3c 81 7a bc e1 46 64 3a
       -0.031009516 0.0067825904 -0.015289601 0.00087080715
000300 8b 0d 23 3d 31 56 2c 3c 2c 93 07 3d f7 62 ec 3c
       0.039807837 0.0105185965 0.03309934 0.028855784
000310 27 e7 9d 3c 23 b7 1c 3d 76 b7 89 3c 62 3c 4e 3d
       0.019275261 0.03826059 0.016811114 0.050350554
000320 db ca 0a 3d bf 1c 38 bc 4e ee 0c bd 6c 23 32 bd
       0.033884864 -0.011237322 -0.034406953 -0.043490812
000330 ba 75 91 bb ad ce e2 bc 54 ad 46 bc b7 16 1a bd
       -0.004439083 -0.027686441 -0.012126286 -0.03761932
000340 98 09 7a bc 95 9a 8d bd 2a 59 5d bc 13 58 96 3c
       -0.015261076 -0.0691425 -0.013510028 0.018352544
000350 66 7c 2c 37 ec fc 6e bc 88 2f b6 ba 79 b5 3a 3c
       1.0280963e-05 -0.014586668 -0.0013899663 0.0113958055
000360 20 6f d6 ba 75 34 bc 3b 35 e6 a0 bc 95 6b 8c 3c
       -0.0016360022 0.005743558 -0.019641021 0.017141143
000370 96 b9 c8 3b 93 88 1d bd 61 2b 1c bc ad ff 7d 3c
       0.006125639 -0.038460325 -0.009531827 0.015502852
000380 5b 9c b1 3b 50 cd e8 bc 0e 0f a6 bc 96 7d 3a bd
       0.0054202504 -0.028418213 -0.02027085 -0.045529924
000390 af 02 0e 3c 9a 98 b7 bb 3c 89 00 bc fa b7 21 bb
       0.008667632 -0.0056029083 -0.007845219 -0.002467631
0003a0 7d 01 ed bb 6e 3e 3a bc 3b 66 1b 3d 55 74 e6 3b
       -0.0072328434 -0.011367423 0.03793929 0.007032911
0003b0 86 3c 41 3b 0a e7 77 3b 3a 01 b0 3c 9c f6 bc 3a
       0.0029485538 0.003782692 0.02148496 0.0014416757
0003c0 c5 5b 91 3c 86 83 e1 bc 11 05 3b bc 5c 05 6d bc
       0.017743954 -0.027528536 -0.011414782 -0.01446661
0003d0 00 02 b0 3c 28 80 e7 bb 1f af 0b bd 68 a7 93 bc
       0.021485329 -0.007064838 -0.034102555 -0.018024161
0003e0 2c b4 95 bb 79 15 6e bd 1f c0 f6 bb a2 78 cb bc
       -0.0045685973 -0.058125947 -0.007530227 -0.024837796
0003f0 39 5e 03 bd eb 73 bd 3c ff b3 40 3d a5 b5 05 bc
       -0.03207228 0.023126563 0.047046658 -0.008160983

dense1.bias f4 [50]
000000 4a fd 55 3d a0 bc 3f bb 7d c1 42 3d a3 78 06 3d
       0.05224351 -0.0029256716 0.047547806 0.032829892
000010 6a c8 51 3d 29 f9 55 3d 93 81 13 3d 41 4b 60 3d
       0.05121652 0.05223957 0.036012243 0.054759268
000020 aa 87 4c 3d 3f f2 14 3d 36 74 e9 3c d6 40 91 3c
       0.049934067 0.036363836 0.028497797 0.017731111
000030 01 51 5b 3d 22 87 c5 3c 98 48 7d bc 91 85 06 3c
       0.05354405 0.024112288 -0.015459202 0.008210556
000040 1b d8 7a 3c 33 23 27 bc 69 fa 81 3d 8b 83 39 bc
       0.015310313 -0.010201263 0.0634659 -0.011322866
000050 c2 b0 16 3c 03 2e 36 3d 73 be 77 bb a4 f3 6d 3d
       0.009197416 0.044477474 -0.0037802726 0.058093682
000060 04 e7 4c 3d dd 0c ef 3b 64 49 2d 3d e9 14 4a 3d
       0.050025 0.0072952346 0.04230632 0.049336348
000070 fd 1d 2a 3d 09 20 1c bd 87 93 61 3d 4a 37 49 3d
       0.041532505 -0.03811649 0.055072334 0.049124993
000080 4e ef 0c 3d 4c 7d 59 3d f9 1a 40 3d 5f b9 d4 bb
       0.034407906 0.053098008 0.046900723 -0.0064918245
000090 27 b2 d9 bb a4 d9 ba 3c 4e 3c 00 bd e4 db af 3c
       -0.006643552 0.022808857 -0.03130751 0.021467157
0000a0 72 f8 e9 3c 27 b0 0f 3d 42 31 e9 3c 1b d0 44 3d
       0.02856085 0.0350801 0.02846587 0.048050027
0000b0 85 30 e9 3c de 32 85 3c c6 fc 86 3c 98 42 39 3d
       0.028465519 0.016259607 0.016477954 0.045229524
0000c0 3d 27 bc bb d1 78 2a 3d
       -0.0057419823 0.041619126

dense2.weight f4 [1, 50]
000000 b4 86 fc 3d 19 c5 a0 3d 3b 59 d8 3d 74 ca 0a 3e
       0.1233038 0.078500934 0.10563894 0.13553792
000010 87 7e e8 bd f2 ea 8b bd 86 7d 5d bc 3d b2 db bd
       -0.11352258 -0.06831922 -0.013518697 -0.10727356
000020 59 65 ea bd 51 df c7 3c a8 0e 61 bd 07 b5 04 be
       -0.11445112 0.024398478 -0.054945618 -0.12959681
000030 f6 f3 0a be ba 16 97 bd d5 0f b0 3d ff 1c 04 3d
       -0.13569626 -0.073773816 0.0859677 0.032254215
000040 e4 2c 8c bd cb ff 75 3d 7a fb 04 be 56 cf b1 3d
       -0.068445 0.060058396 -0.12986556 0.08682124
000050 27 91 20 bd ff c1 5e bd 5a b3 d0 3d ab 52 e5 bd
       -0.039200928 -0.054384228 0.101904586 -0.11197408
000060 cd d3 11 3e f6 f5 a9 3d d8 0a c0 3d 42 10 e3 3d
       0.14240952 0.082988665 0.09377068 0.11087085
000070 57 ba ce 3d 72 1e 87 3d 2b 61 89 bd bd c9 f4 bd
       0.10094135 0.06597604 -0.067079864 -0.11952541
000080 28 3b ad bd a3 4a f6 bd 41 06 18 3e a8 28 46 bd
       -0.08458549 -0.120259546 0.14846136 -0.048378617
000090 cd ae 0e be 77 3f 15 3e 1a 49 86 3c 67 03 54 bd
       -0.13933869 0.14574991 0.01639228 -0.051761057
0000a0 27 05 be 3d 19 3f 19 3e 58 41 2a bd 9b f8 12 be
       0.092783265 0.14965476 -0.041566223 -0.14352648
0000b0 50 a5 eb bd 48 c5 17 be 2a f3 0c 3e 3b 1b 2d 3d
       -0.1150614 -0.1482135 0.13764635 0.042262297
0000c0 a8 98 2f bd 13 2b 1d 3d
       -0.042870194 0.038371157
