time_series_forecasting/saved_models/CNNForecastingModel/18-03-2024-001956_NO1_epoch_2.pt (torch, 258475 bytes, 7 tensors)

conv1.weight f4 [64, 3, 3]
0.08361362 0.10874519 0.3154155 -0.15621749 0.12302627 0.20641828 -0.26453188 0.011535282
0.01741089 0.038145028 -0.31978202 0.25388765 -0.24930076 0.19816646 0.13829999 -0.22497982
0.24355854 -0.00076085347 -0.070811644 0.061820395 0.24475157 -0.29615876 -0.20818993 -0.10216075
0.044325087 -0.0077207917 -0.2992472 0.27951872 0.28373605 -0.17789577 -0.21308868 -0.053272113
0.2800799 0.0945678 0.26305592 0.1679719 -0.27722588 -0.06237029 0.19292133 0.20056635
0.16261287 -0.08160665 -0.05112331 -0.28267518 0.21225536 0.1314606 -0.041177254 0.065999985
0.1844291 -0.25835392 -0.101220116 0.03263582 0.058768578 0.024953486 0.26674 0.17752302
-0.17913853 0.13095118 0.20894454 0.19437161 0.1833845 -0.28739396 -0.12909329 -0.25964454
-0.19675954 -0.0991943 0.05134575 0.07998444 0.28151885 -0.21507081 0.013908535 -0.2816636
0.15280984 -0.15295702 0.013076624 -0.17494078 0.032226037 -0.21140234 0.06302697 -0.036180157
0.24005982 -0.25514755 0.13729456 0.22701715 0.14050892 0.20493461 0.16162723 -0.19426711
-0.1024519 0.25239098 0.09134397 -0.19941603 -0.30544642 0.27483225 -0.1690386 0.27256712
0.32609695 0.18757164 -0.13818574 0.32135165 0.2306057 -0.29275876 0.15134066 -0.15074232
-0.13366614 -0.22063324 0.14482269 -0.0010372335 0.19439134 -0.16025719 0.11041991 -0.04789626
-0.2341838 0.17260435 -0.13885479 -0.19995745 0.12080736 -0.12219194 -0.015587113 -0.13176575
0.03409425 -0.08486659 -0.22416466 -0.2790941 -0.111167274 -0.17840816 0.10185779 0.044877216
0.29221535 -0.13118769 0.33729059 0.21177544 0.029500782 -0.16513665 0.101343304 0.030499868
0.010944589 0.12722766 -0.2423067 -0.08530042 -0.23307449 0.014172585 -0.08344478 0.15495956
-0.1961577 -0.0352644 0.044655405 0.09168915 0.19932772 0.24880174 -0.22765923 -0.005058132
0.31216034 -0.02048685 -0.2277787 0.031463046 0.31832656 0.16586278 0.2813073 0.17729908
0.26981035 0.079207495 0.06384885 -0.31161866 -0.27864215 -0.0024203495 -0.21483506 -0.12123695
0.26313913 -0.29830816 0.2964543 0.29531327 0.02848741 -0.19605504 -0.03250396 -0.31583682
-0.18288766 -0.14323007 -0.060216125 0.2092228 0.17430271 -0.13407807 0.26603734 0.15124525
0.23740791 0.22583948 -0.10694544 -0.3186098 -0.1636657 -0.22824344 0.13927507 -0.21835673
-0.033550255 -0.13604502 0.32999408 0.1667083 -0.03496674 -0.32294548 -0.033099722 -0.002233692
-0.2969387 0.039500874 0.24638747 -0.08828421 -0.09087877 0.28122023 0.17208031 -0.16385691
0.33579805 0.23227847 -0.12656847 -0.010844916 -0.058105677 0.2768491 0.18183714 0.10881256
-0.13491793 -0.2712406 -0.19746621 0.13460577 -0.31708375 -0.27892917 0.08993894 0.30590144
-0.13156237 -0.045446683 0.23986992 0.264887 0.19359922 0.30645385 -0.18120417 -0.3331686
0.20391962 0.15955952 -0.21760914 -0.24656273 0.16273832 -0.016817972 -0.0794455 0.26632226
0.11738777 -0.16566376 -0.14534628 0.14719534 0.30509004 0.2726274 -0.0006170248 0.33649772
0.33349964 0.2702715 -0.05298479 -0.3200667 0.043288607 -0.028078692 -0.25887132 0.2798781
00000000: 9e3d ab3d ccb5 de3d 247e a13e 7af7 1fbe
00000010: 32f5 fb3d 505f 533e b970 87be 7bfe 3c3c
00000020: 48a1 8e3c f63d 1c3d 78ba a3be 90fd 813e
00000030: b348 7fbe 26ec 4a3e 839e 0d3e 1c61 66be
00000040: 6967 793e 0374 47ba b205 91bd 6237 7d3d
00000050: 28a0 7a3e 1fa2 97be be2f 55be a839 d1bd
00000060: 398e 353d b2fe fcbb ee36 99be 141d 8f3e
00000070: da45 913e 4f2a 36be eb33 5abe dc33 5abd
00000080: a266 8f3e c3ac c13d 44af 863e d300 2c3e
00000090: 8df0 8dbe fd77 7fbd 2b8d 453e 4461 4d3e
000000a0: fd83 263e 6321 a7bd ad66 51bd cdba 90be
000000b0: 7859 593e 9c9d 063e 7ba9 28bd 002b 873d
000000c0: fbda 3c3e f746 84be 7e4c cfbd 23ad 053d
000000d0: 52b7 703d 416b cc3c 2592 883e 98c8 353e
000000e0: 1770 37be 1118 063e 8ff5 553e 5a09 473e
000000f0: 25c9 3b3e 4d25 93be 0831 04be 21f0 84be
00000100: 557b 49be 6226 cbbd ec4f 523d e2ce a33d
00000110: 3d23 903e 863b 5cbe a0e0 633c 3636 90be
00000120: 2f7a 1c3e c4a0 1cbe 563f 563c ad23 33be
00000130: 73ff 033d db79 58be 4914 813d a531 14bd
00000140: 3ed2 753e b3a2 82be f296 0c3e 2f77 683e
00000150: 92e1 0f3e 61da 513e 9c81 253e f5ed 46be
00000160: 4dd2 d1bd 6439 813e 8c12 bb3d b733 4cbe
00000170: 7963 9cbe d0b6 8c3e 7418 2dbe eb8d 8b3e
00000180: 2ef6 a63e c812 403e 9080 0dbe 3488 a43e
00000190: e723 6c3e 7ae4 95be 0cf9 1a3e 325c 1abe
000001a0: c7df 08be aeed 61be 664c 143e c8f3 87ba
000001b0: 860e 473e 761a 24be d523 e23d de2e 44bd
000001c0: e1cd 6fbe 32bf 303e f32f 0ebe a5c1 4cbe
000001d0: d969 f73d c53f fabd 1761 7fbc 9aed 06be
000001e0: 6aa6 0b3d 89ce adbd 6c8b 65be 6ce5 8ebe
000001f0: abab e3bd a1b0 36be d19a d03d 2cd1 373d
00000200: 409d 953e 1156 06be 5ab1 ac3e a9db 583e
00000210: a0ab f13c 9519 29be 148d cf3d dcda f93c
00000220: ef50 333c f847 023e 3f1f 78be fdb1 aebd
00000230: 14ab 6ebe 2134 683c 19e5 aabd b8ad 1e3e
00000240: 90dd 48be 6771 10bd 96e8 363d 85c7 bb3d
00000250: 911c 4c3e e2c5 7e3e 801f 69be b0be a5bb
00000260: 7bd3 9f3e 0ad4 a7bc d23e 69be 65df 003d
00000270: b3fb a23e efd7 293e 8307 903e e48d 353e
00000280: 9524 8a3e 8a37 a23d 30c3 823d 7b8c 9fbe
00000290: 2faa 8ebe ba9e 1ebb b9fd 5bbe 144b f8bd
000002a0: 2cba 863e d9bb 98be dcc8 973e 4d33 973e
000002b0: 6e5e e93c a7c2 48be df22 05bd 5db5 a1be
000002c0: e746 3bbe e7aa 12be 2fa5 76bd 803e 563e
000002d0: 697c 323e c34b 09be 0c36 883e 09e0 1a3e
000002e0: 0f1b 733e 7742 673e 3606 dbbd d320 a3be
000002f0: fb97 27be a6b8 69be 209e 0e3e e898 5fbe
00000300: fe6b 09bd 634f 0bbe fcf4 a83e 95b5 2a3e
00000310: 4939 0fbd 1c59 a5be 9393 07bd 2263 12bb
00000320: 5908 98be abcb 213d ff4c 7c3e 5ace b4bd
00000330: a61e babd 19fc 8f3e d235 303e 1bca 27be
00000340: b9ed ab3e 68da 6d3e 2a9b 01be e0ae 31bc
00000350: 3800 6ebd 2abf 8d3e 8433 3a3e 1fd9 de3d
00000360: ed27 0abe 0ce0 8abe 9534 4abe 18d6 093e
00000370: cd58 a2be cecf 8ebe e831 b83d 1d9f 9c3e
00000380: 49b8 06be 4d26 3abd 76a0 753e 459f 873e
00000390: e03e 463e 85e7 9c3e 968d 39be 1395 aabe
000003a0: 4ed0 503e 9263 233e eed4 5ebe f17a 7cbe
000003b0: e0a4 263e d8c5 89bc 53b4 a2bd 645b 883e
000003c0: 0069 f03d c3a3 29be a8d5 14be 60ba 163e
000003d0: c334 9c3e d295 8b3e d5bf 21ba 6e49 ac3e
000003e0: 77c0 aa3e 0761 8a3e 9406 59bd c8df a3be
000003f0: 654f 313d 4905 e6bc c88a 84be 2f4c 8f3e

conv1.bias f4 [64]
0.12340193 0.17075507 -0.08829766 -0.21621244 0.3299105 0.15090197 -0.18059017 -0.20009431
-0.029275717 0.25988874 -0.23959532 -0.06562094 -0.30840102 0.1492097 0.19299984 0.15486677
-0.044484917 0.2128415 0.25830156 0.25125408 0.3252358 -0.21709602 -0.28651682 0.12896204
0.010028863 -0.21545218 0.28221044 0.27140045 0.13850877 0.030947581 -0.13684754 -0.14697297
0.103387095 -0.07962437 0.19535582 0.282345 -0.008101073 0.16226609 -0.061494682 0.1251532
0.1803376 -0.059536662 0.04527176 0.033989366 0.21659422 0.28636745 0.24689212 -0.23538052
0.026487991 -0.10566401 -0.048097774 0.0463084 0.114960425 0.30054682 -0.04157078 0.3028225
0.11193567 -0.24143796 0.18583198 0.13686967 0.083817855 -0.026280433 0.054118827 -0.2948323
00000000: 27ba fc3d 6bda 2e3e 67d5 b4bd cb66 5dbe
00000010: 07ea a83e 0c86 1a3e a1ec 38be 86e5 4cbe
00000020: a1d3 efbc 2310 853e 7a58 75be 4564 86bd
00000030: bde6 9dbe 6dca 183e c0a1 453e 6595 1e3e
00000040: d135 36bd 1ff3 593e 1a40 843e 60a4 803e
00000050: 4f85 a63e 6b4e 5ebe 55b2 92be a00e 043e
00000060: 1a50 243c 7f9f 5cbe e37d 903e 00f5 8a3e
00000070: 3ed5 0d3e c885 fd3c c321 0cbe 1580 16be
00000080: 9dbc d33d 1a12 a3bd 5b0b 483e 868f 903e
00000090: 5dba 04bc 1529 263e d9e1 7bbd 2928 003e
000000a0: 6baa 383e b7dc 73bd e26e 393d 6f38 0b3d
000000b0: e0ca 5d3e c19e 923e 4ad1 7c3e 9707 71be
000000c0: 58fd d83c 5f66 d8bd 2c02 45bd e0ad 3d3d
000000d0: 5f70 eb3d 46e1 993e 1f46 2abd 8d0b 9b3e
000000e0: 873e e53d 833b 77be bd4a 3e3e 9027 0c3e
000000f0: b2a8 ab3d 104a d7bc b4ab 5d3d 42f4 96be

conv2.weight f4 [128, 64, 3]
-0.003939598 -0.05069652 -0.047355957 0.022085411 0.07825224 0.03339686 -0.027856171 0.00837323
-0.028990045 -0.02177473 -0.06752328 0.0069332495 -0.013476336 0.018467288 -0.06514251 0.06403636
0.017712388 -0.023230044 -0.0799438 -0.058947735 -0.046600945 0.032130606 -0.052854136 0.02857524
0.043678503 -0.02523998 0.065934196 -0.035908863 0.0037992748 -0.030523038 0.05474142 -0.022718148
0.056619216 -0.025453633 -0.05068714 0.08990215 0.058703464 -0.032936342 0.051138382 -0.033528548
-0.07061209 -0.06073355 -0.054475214 0.09064836 0.025441878 0.09220813 0.007968209 0.011380041
-0.028910192 -0.024330063 0.026094183 -0.012517708 -0.02000832 0.04267269 0.060667068 0.036915433
0.034944486 -0.027060168 -0.041020077 -0.009849944 -0.0019782037 -0.009783184 -0.06534268 -0.058881767
0.010319719 -0.043789152 0.029169746 0.028567292 -0.00950577 0.035227805 -0.022507776 -0.050616547
-0.0023674534 0.041209888 0.008991834 -0.11090444 -0.07031541 0.021129655 0.06404062 0.07810528
-0.008418059 0.0129414 0.07549696 0.068131566 0.022474403 0.07488166 0.052282274 -0.0534843
0.041973334 0.009855308 0.07644221 -0.06595939 0.003319986 0.019996686 -0.085289456 0.022566369
-0.006045148 0.040757407 -0.0011683841 -0.032111082 0.060543414 -0.036536023 0.020922104 0.016191877
0.0023440495 0.04105011 0.0056453194 -0.05646408 0.06677146 -0.047714595 -0.010652085 0.012555339
0.04271994 0.05311763 0.015650464 -0.06591606 -0.027784234 -0.023239233 -0.016004628 0.031639114
0.032237105 0.03354644 0.06881142 0.044400454 -0.050361127 0.016573992 0.048779547 0.06157674
-0.025861356 -0.04623597 -0.027164552 0.053860024 0.045869447 -0.04810133 -0.08129118 0.020412825
-0.04744084 -0.06434229 -0.031659663 -0.06870603 -0.04272484 -0.042893875 -0.056541823 -0.00054451
0.028491383 -0.04837635 -0.027308185 0.012898043 -0.037928905 -0.004650797 0.06432343 -0.06641063
-0.058333676 0.0075980164 0.072784945 -0.010317617 0.033771053 -0.043956377 0.03530678 -0.059983645
-0.030328829 -0.018683327 -0.016696457 -0.055402514 0.0005109503 -0.04305411 -0.024337728 -0.05273722
0.061221663 0.040596303 -0.041435227 0.0041695517 0.027877197 0.023726523 -0.0034091184 -0.011824196
-0.0106299855 0.019016378 -0.070088826 -0.07515759 -0.06838083 0.05374041 -0.053355623 0.038871102
0.065392174 0.0424061 0.025752611 -0.063429646 0.04748438 -0.05208777 -0.0028710573 0.03457224
0.05261091 -0.040294413 0.01435297 0.01926467 -0.07148895 0.05120288 0.025250569 -0.049438056
-0.019884553 -0.015006516 -0.032974657 0.046025805 0.06253854 -0.029958455 -0.057968736 0.036325984
-0.0027767282 -0.035036393 0.06688973 -0.069320194 0.059035987 0.03301124 -0.037544943 0.0125704035
0.0022604614 -0.06868703 0.057403103 0.07015396 -0.052517947 -0.058388278 -0.013139304 0.01744992
0.022335298 0.053884283 -0.027765658 -0.028864387 -0.028559834 0.022886284 0.014632434 0.055701755
-0.0610811 0.042003118 -0.06873362 0.04034663 -0.037516125 0.0021648705 0.039093804 0.04821913
-0.018335603 0.018113837 0.029188171 0.065236785 -0.023428624 0.02768597 -0.02938015 0.05461958
-0.03890086 -0.07172905 -0.011081316 0.028544642 0.033019003 -0.04953349 -0.02532538 0.010189803
00000000: be17 81bb 27a7 4fbd 52f8 41bd 77ec b43c
00000010: b642 a03d 25cb 083d a032 e4bc df2f 093c
00000020: 887c edbc eb60 b2bc a549 8abd 5030 e33b
00000030: dacb 5cbc b648 973c 7069 85bd 7f25 833d
00000040: 9219 913c ef4c bebc 93b9 a3bd 2e73 71bd
00000050: a2e0 3ebd 629b 033d 947d 58bd 9f16 ea3c
00000060: 3be8 323d 13c4 cebc 8208 873d 2c15 13bd
00000070: 41fd 783b 730b fabc 8a38 603d 691b babc
00000080: 8de9 673d 2384 d0bc 529d 4fbd 9e1e b83d
00000090: 0b73 703d 42e8 06bd 7b76 513d 3b55 09bd
000000a0: 129d 90bd bec3 78bd 6721 5fbd d9a5 b93d
000000b0: 7c6b d03c 9ed7 bc3d 178d 023c 5a73 3a3c
000000c0: 11d5 ecbc d74f c7bc 78c3 d53c 1317 4dbc
000000d0: 7de8 a3bc 8fc9 2e3d 087e 783d a334 173d
000000e0: f321 0f3d 49ad ddbc ab04 28bd a961 21bc
000000f0: c0a4 01bb a649 20bc 62d2 85bd 022e 71bd
00000100: 0a14 293c 415c 33bd 64f5 ee3c f405 ea3c
00000110: 17be 1bbc 084b 103d 3a62 b8bc 4c53 4fbd
00000120: 4727 1bbb b3cb 283d 7c52 133c de21 e3bd
00000130: 8701 90bd 1918 ad3c bb27 833d a9f5 9f3d
00000140: e6eb 09bc 2a08 543c 269e 9a3d 9088 8b3d
00000150: 3d1c b83c 8e5b 993d f025 563d 5a12 5bbd
00000160: 3bec 2b3d 2878 213c bc8d 9c3d b715 87bd
00000170: 1f94 593b 17d0 a33c 3dac aebd 1bdd b83c
00000180: 6016 c6bb 3df1 263d 7724 99ba e986 03bd
00000190: 5ffc 773d cca6 15bd d564 ab3c d4a4 843c
000001a0: a09e 193b 2924 283d 5ffc b83b e146 67bd
000001b0: 7abf 883d 6170 43bd 1586 2ebc e9b4 4d3c
000001c0: 1bfb 2e3d df91 593d 6735 803c 00ff 86bd
000001d0: c39b e3bc 3460 bebc 231c 83bc 0498 013d
000001e0: 0e0b 043d fe67 093d 00ed 8c3d 40dd 353d
000001f0: 7847 4ebd 2ec6 873c 10cd 473d e437 7c3d
00000200: 32db d3bc ee61 3dbd 3288 debc 549c 5c3d
00000210: 9ae1 3b3d e605 45bd fd7b a6bd cc38 a73c
00000220: 5451 42bd e4c5 83bd 90ad 01bd bfb5 8cbd
00000230: 3e00 2fbd 7db1 2fbd 6698 67bd 73bd 0eba
00000240: c366 e93c 4826 46bd 6ab5 dfbc 5052 533c
00000250: 575b 1bbd b765 98bb 01bc 833d 4c02 88bd
00000260: 4bef 6ebd c8f8 f83b 4610 953d 390b 29bc
00000270: 8453 0a3d 9a0b 34bd d89d 103d 69b1 75bd
00000280: 2a74 f8bc c70d 99bc 02c7 88bc bfed 62bd
00000290: 4bf1 053a 8259 30bd ea5f c7bc fc02 58bd
000002a0: 91c3 7a3d 4f48 263d fcb7 29bd bca0 883b
000002b0: b85e e43c 205e c23c 846b 5fbb 46ba 41bc
000002c0: 6429 2ebc 3cc8 9b3c bb8a 8fbd 39ec 99bd
000002d0: 400b 8cbd e71e 5c3d 6d8b 5abd 4e37 1f3d
000002e0: 55ec 853d 05b2 2d3d 24f7 d23c 67e7 81bd
000002f0: fb7e 423d fc59 55bd 5928 3cbb 9f9b 0d3d
00000300: 8a7e 573d c10b 25bd b828 6b3c f1d0 9d3c
00000310: cc68 92bd 1cba 513d 48da ce3c 8f7f 4abd
00000320: eee4 a2bc e4dd 75bc 6f10 07bd 8e85 3c3d
00000330: 3514 803d 6f6b f5bc a070 6dbd 8eca 143d
00000340: c5f9 35bb 5282 0fbd 7cfd 883d bff7 8dbd
00000350: b8cf 713d cb36 073d bac8 19bd 18f4 4d3c
00000360: 4024 143b c9ab 8cbd 841f 6b3d e1ac 8f3d
00000370: 0f1d 57bd 8c28 6fbd 3c46 57bc 22f3 8e3c
00000380: 84f8 b63c c4b5 5c3d ce74 e3bc 0275 ecbc
00000390: 50f6 e9bc 047c bb3c e0bc 6f3c 8627 643d
000003a0: 2d30 7abd 760b 2c3d 36c4 8cbd 8242 253d
000003b0: 82aa 19bd 80e0 0d3b d320 203d 6c81 453d
000003c0: 8c34 96bc 7863 943c 081c ef3c dd9a 853d
000003d0: 63ed bfbc b0cd e23c a4ae f0bc c8b8 5f3d
000003e0: 8256 1fbd aee6 92bd 688e 35bc 74d6 e93c
000003f0: ef3e 073d a1e3 4abd 2c77 cfbc 22f3 263c

conv2.bias f4 [128]
0.028434584 -0.072490975 0.0057252175 -0.06067169 -0.05835614 -0.0019033708 -0.05350199 -0.036456518
0.0104239 -0.024643777 -0.032840405 0.070406735 0.07012766 -0.0016042816 -0.054544877 0.0516726
-0.048578784 0.016763061 0.024834223 -0.03176465 0.01376822 -0.035175573 0.06757491 0.017155487
0.06179208 0.050627768 0.03306584 0.024257375 0.07107889 0.054638647 -0.05321764 0.05617576
-0.053775623 0.055390377 0.011033052 -0.0086300075 -0.057359118 0.03852512 0.05120928 0.043249052
0.002877861 0.026684102 0.07394569 -0.05297398 0.06649764 -0.058939252 0.031158028 -0.036527794
-0.028405422 0.027392056 -0.03757566 -0.055732343 -0.028539121 -0.0025965443 -0.0072292625 0.011252929
-0.03364972 0.030913165 -0.055971436 0.04040451 -0.006481433 -0.039227102 0.023075685 0.040264267
0.056450017 0.020340294 0.008541693 0.033581283 -0.03454725 0.03153923 0.0082952585 0.0545679
-0.04518212 0.037509404 0.03959137 0.03404629 -0.004738557 0.048144627 0.013675455 -0.030385247
-0.014791698 0.055232782 -0.052267373 -0.0024808575 -0.057743285 -0.014325939 -0.0017469763 0.014282422
0.05025651 -0.025442077 -0.042521786 0.030822303 -0.0050305817 -0.013580009 0.04655926 -0.011490316
0.009267903 0.012658489 0.008239027 -0.034744766 -0.06769848 0.030256974 -0.006556789 -0.024907751
-0.036809273 -0.010398419 -0.024829809 0.008119509 -0.007997572 -0.057107836 -0.06334318 0.06393977
-0.046709135 -0.04269882 -0.02327897 0.06526782 0.05474176 0.016526004 0.042761944 -0.03847514
-0.0428862 -0.046210274 -0.05682796 -0.013705239 -0.03259729 -0.010613421 0.075379744 0.023144457
00000000: a5ef e83c 2676 94bd 9b9a bb3b e182 78bd
00000010: d906 6fbd 877a f9ba e724 5bbd 6e53 15bd
00000020: 01c9 2a3c bfe1 c9bc a983 06bd 6831 903d
00000030: 179f 8f3d c246 d2ba 736a 5fbd a6a6 533d
00000040: 8cfa 46bd b052 893c 2471 cb3c a61b 02bd
00000050: 1a94 613c 4314 10bd b764 8a3d aa89 8c3c
00000060: b119 7d3d 105f 4f3d 0c70 073d 67b7 c63c
00000070: cf91 913d c6cc 5f3d bdfa 59bd 8e18 663d
00000080: d443 5cbd 05e1 623d f9c3 343c e064 0dbc
00000090: 65f1 6abd 84cc 1d3d d2c0 513d eb25 313d
000000a0: 7f9a 3c3b 9e98 da3c d770 973d 3efb 58bd
000000b0: ea2f 883d 496a 71bd 1f3f ff3c 2b9e 15bd
000000c0: 7db2 e8bc 4e65 e03c efe8 19bd 9947 64bd
000000d0: e0ca e9bc c92a 2abb 73e3 ecbb 355e 383c
000000e0: 4ad4 09bd 9b3d fd3c 4e42 65bd 337f 253d
000000f0: 3362 d4bb 99ac 20bd 3809 bd3c 25ec 243d
00000100: 2238 673d b0a0 a63c 75f2 0b3c 878c 093d
00000110: 6b81 0dbd 482f 013d d6e8 073c 9782 5f3d
00000120: e310 39bd 76a3 193d 8f2a 223d 1f74 0b3d
00000130: e645 9bbb 4d33 453d 040f 603c 7bea f8bc
00000140: e158 72bc c53b 623d 5016 56bd e295 22bb
00000150: 3984 6cbd 58b7 6abc ccfa e4ba d200 6a3c
00000160: c5d9 4d3d e76b d0bc 532b 2ebd 0e7f fc3c
00000170: 94d7 a4bb b07e 5ebc ecb4 3e3d e141 3cbc
00000180: 67d8 173c 8d65 4f3c fcfc 063c 8750 0ebd
00000190: 80a5 8abd 79dd f73c 55da d6bb 570b ccbc
000001a0: 52c5 16bd 215e 2abc e267 cbbc b007 053c
000001b0: 4008 03bc e8e9 69bd 12ba 81bd dbf2 823d
000001c0: 1452 3fbd f5e4 2ebd 8ab3 bebc 23ab 853d
000001d0: e538 603d 8b61 873c 2627 2f3d 1c98 1dbd
000001e0: 71a9 2fbd fc46 3dbd 6fc4 68bd f08b 60bc
000001f0: bc84 05bd eae3 2dbc b260 9a3d 7299 bd3c

dense1.weight f4 [50, 768]
0.020257905 0.026466344 0.011634408 0.0151523175 0.03646631 0.048495505 -0.034603313 -0.007899366
-0.0021535866 -0.019337608 0.026056558 0.033763327 0.014531344 0.033160523 0.033622485 -0.032166395
-0.018689124 -0.019835856 0.015917132 -0.009559008 0.040979195 0.034915294 -0.0005843651 -0.0047730873
0.0012620866 -0.027504228 0.039436188 -0.0034824053 0.03874583 0.038504995 0.009596141 0.010090194
0.009696149 0.0048168246 0.02720071 0.01070855 0.046596885 -0.017599322 0.0002877403 -0.01675136
0.005470726 -0.0075787855 -0.007494488 0.021906536 -0.019602131 0.011045761 -0.02354278 0.03161904
-0.0022729165 0.033313308 0.013362806 0.004224865 0.024361685 -0.023260374 0.016855761 0.004455433
0.017564368 -0.021264546 -0.017433314 -0.022171035 0.03721876 0.06944474 -0.0059304954 -0.021854201
0.028152497 -0.032644097 0.01637438 0.041423418 -0.0014489661 0.019813973 -0.0075735566 0.033131573
-0.054246377 0.014703013 -0.004562917 0.04423402 -0.011226691 0.0036217358 -0.006762777 -0.024459764
0.02841446 0.026885016 0.025270034 -0.07402266 0.009689044 -0.02922374 0.033017132 0.017085513
0.00730562 0.019281602 0.0027869337 -0.00013895494 0.030053958 0.017721694 0.012829698 0.0205916
0.055508688 0.010532949 0.00029602522 0.01697357 -0.0433449 0.0027030353 0.036074217 0.0377633
-0.0016799471 0.034592755 -0.021480065 -0.011521276 -0.059178416 0.007188732 0.0317552 0.024266418
-0.018217232 0.017792542 -0.022177195 0.0028159018 0.033409037 -0.029459782 0.045894798 0.046657816
0.022222748 0.016518706 -0.008073469 0.015674688 0.011406096 -0.0107790865 -0.04971932 -0.0099965865
0.026421567 0.012513115 0.001551482 0.02854872 0.037118748 -0.007819533 3.8252e-06 0.009453442
0.015228259 0.019344056 0.031375047 0.042744342 0.045447078 -0.03114194 -0.0017899628 -0.033235684
0.0053987023 -0.015477514 0.038177613 0.023441376 0.0012661612 -0.0072916546 0.018223314 0.004676482
0.028124362 -0.0010016595 0.0023452577 -0.04617709 0.033159364 -0.010496255 0.043366402 0.0060269544
0.00214669 -0.016808925 -0.03594499 0.003883803 -0.015999427 0.0016282815 -0.0022546526 -0.00025474117
-0.0017663072 0.03056328 -0.014804134 -0.0087126205 0.0066935574 -0.014863711 -0.06843823 -0.021497471
0.028930042 0.012225768 0.015149805 -0.0038120693 -0.0019810428 -0.013455027 -0.011024583 0.036076486
0.015974695 0.010252589 -0.035912618 0.023428857 0.008108138 0.0011229842 -0.024951335 -0.022286803
-0.029077794 -0.009418927 0.016371941 0.026213307 0.030058358 -0.03369828 -0.031145113 -0.032063246
-0.0003491858 0.013532353 0.024676347 -0.015864676 0.005994012 0.048072178 0.029298862 -0.024965327
-0.0018029106 -0.018255895 -0.033060268 -0.0023715429 -0.0038206042 0.004717762 0.007143262 -0.018578874
0.0115449475 0.03768062 -0.02050612 -0.023033611 -0.02260745 -0.03306993 0.04427668 0.018966423
-0.017448446 0.013285431 0.029925099 0.00022978023 0.025002103 -0.009317762 -0.01900333 0.0197237
0.0022816693 0.00073401205 0.014719535 0.00019558235 0.026115565 0.0013608572 0.019993506 -0.011022442
0.04245675 -0.01718177 -0.023162998 -0.01091205 -0.0033462567 0.0021908574 -0.010327315 0.012282425
0.008336886 -0.009457865 -0.024017446 0.002249309 0.025832986 0.045594446 -0.006745949 -0.018731743
00000000: e8f3 a53c f2cf d83c 3e9e 3e3c 6d41 783c
00000010: b35d 153d 39a3 463d 34bc 0dbd 586c 01bc
00000020: 3023 0dbb e769 9ebc 9074 d53c 6a4b 0a3d
00000030: e014 6e3c 54d3 073d bbb7 093d e9c0 03bd
00000040: ef19 99bc ce7e a2bc a564 823c 639d 1cbc
00000050: cdd9 273d 5703 0f3d 1430 19ba 8f67 9cbb
00000060: 996c a53a 8c50 e1bc d787 213d 1139 64bb
00000070: f3b3 1e3d 6ab7 1d3d 2239 1d3c 5751 253c
00000080: 99dc 1e3c 74d6 9d3b 06d4 de3c ea72 2f3c
00000090: 60dc 3e3d 742c 90bc d9db 9639 263a 89bc
000000a0: c743 b33b 7657 f8bb 5294 f5bb 5675 b33c
000000b0: a694 a0bc 48f9 343c cadc c0bc f782 013d
000000c0: 36f5 14bb 8973 083d acef 5a3c bd70 8a3b
000000d0: 2892 c73c 8a8c bebc 1815 8a3c e2fe 913b
000000e0: 26e3 8f3c fc32 aebc 4fd0 8ebc 08a0 b5bc
000000f0: b372 183d 0b39 8e3d 9a54 c2bb 9507 b3bc
00000100: 11a0 e63c d1b5 05bd 9023 863c 9aab 293d
00000110: 3ceb bdba ea50 a23c 992b f8bb f9b4 073d
00000120: 7331 5ebd e8e4 703c 8684 95bb bb2e 353d
00000130: 28f0 37bc a55a 6d3b 499a ddbb d85f c8bc
00000140: 71c5 e83c f73d dc3c 1a03 cf3c 3199 97bd
00000150: ccbe 1e3c a066 efbc f93c 073d ebf6 8b3c
00000160: fb63 ef3b 73f4 9d3c fda4 363b 6fb4 11b9
00000170: b833 f63c 162d 913c a733 523c b7af a83c
00000180: 145d 633d 6492 2c3c d533 9b39 280c 8b3c
00000190: 6c8a 31bd 6825 313b 8fc2 133d b1ad 1a3d
000001a0: ac31 dcba 22b1 0d3d f6f6 afbc bcc3 3cbc
000001b0: 1165 72bd 748f eb3b be11 023d 5eca c63c
000001c0: 4e3c 95bc aac1 913c f3ac b5bc fe8a 383b
000001d0: ead7 083d a455 f1bc 2ffc 3b3d 441c 3f3d
000001e0: 7b0c b63c 3d52 873c 9546 04bc 3468 803c
000001f0: a2e0 3a3c c49a 30bc 7ca6 4bbd b9c8 23bc
00000200: 0b72 d83c cf03 4d3c 195b cb3a 01df e93c
00000210: d409 183d 801d 00bc 385a 8036 9ce2 1a3c
00000220: f37f 793c 6d77 9e3c 1f83 003d b114 2f3d
00000230: b726 3a3d 621d ffbc 2f9d eaba 2422 08bd
00000240: 99e7 b03b 6695 7dbc 2160 1c3d 2108 c03c
00000250: 52f5 a53a d5ee eebb 0f49 953c 2d3d 993b
00000260: 1065 e63c 1e4a 83ba e5b2 193b 3024 3dbd
00000270: 1dd2 073d 7cf8 2bbc f8a0 313d c27d c53b
00000280: 7baf 0c3b dfb2 89bc 0e3b 13bd 6787 7e3b
00000290: 3b11 83bc 106c d53a cbc2 13bb c88e 85b9
000002a0: 6f83 e7ba d85f fa3c 0a8d 72bc 61bf 0ebc
000002b0: a155 db3b ec86 73bc 5829 8cbd 771b b0bc
000002c0: b2fe ec3c 964e 483c e336 783c e9d3 79bb
000002d0: 62d4 01bb 7972 5cbc 74a0 34bc f0c4 133d
000002e0: 5ddd 823c 7afa 273c 1c19 13bd e0ed bf3c
000002f0: ffd7 043c 1931 933a be66 ccbc d092 b6bc
00000300: 8e34 eebc d851 1abc 731e 863c 4abd d63c
00000310: f23c f63c 3507 0abd 0924 ffbc c054 03bd
00000320: ed12 b7b9 cdb6 5d3c 0d26 ca3c a3f6 81bc
00000330: 6b69 c43b 55e7 443d 2b04 f03c 1684 ccbc
00000340: a44f ecba 638d 95bc 346a 07bd e36b 1bbb
00000350: 1a63 7abb 7597 9a3b 0612 ea3b b932 98bc
00000360: 0527 3d3c fe56 1a3d 73fc a7bc fcb0 bcbc
00000370: 4233 b9bc 5674 07bd 775b 353d 795f 9b3c
00000380: 0bf0 8ebc 23ab 593c 7b25 f53c 29f1 7039
00000390: 36d1 cc3c 87a9 18bc dfac 9bbc 9993 a13c
000003a0: 0f88 153b b76a 403a 342a 713c 3d15 4d39
000003b0: 4ff0 d53c ca5e b23a 6cc9 a33c 7997 34bc
000003c0: 21e7 2d3d c9c0 8cbc 54c0 bdbc 74c8 32bc
000003d0: df4c 5bbb 7d94 0f3b e633 29bc 393c 493c
000003e0: 6f97 083c 29f5 1abc 3cc0 c4bc 2569 133b
000003f0: b39f d33c 3ec1 3a3d 1f0d ddbb 5073 99bc

dense1.bias f4 [50]
0.020191636 0.050012667 0.010349924 0.037079103 -0.0073554586 0.022370506 0.0018037137 -0.006337913
0.032016717 -0.024088295 0.0080671515 0.044814654 -0.002464145 -0.010664844 0.020102816 0.038125914
0.020318838 0.007002356 -0.0008963166 -0.014725154 0.03013961 0.050564308 0.034480352 0.018039532
8.9029614e-05 0.0049136607 0.00020126528 0.035801407 0.046384647 0.03723561 -0.0015629522 0.005912456
0.03814901 0.01725613 0.020291796 -0.0048921686 0.033976577 0.024729902 0.011373262 0.03957331
0.02207045 -0.0042433343 0.017079478 0.02582832 0.047437225 0.032864664 0.031643566 0.04065047
0.04876083 0.036899686
00000000: ee68 a53c 15da 4c3d ba92 293c 42e0 173d
00000010: 0f06 f1bb 5a42 b73c 976a ec3a 45ae cfbb
00000020: f623 033d d154 c5bc 162c 043c 928f 373d
00000030: 7e7d 21bb 99bb 2ebc a9ae a43c eb29 1c3d
00000040: b173 a63c 0574 e53b caf6 6aba c641 71bc
00000050: 58e7 f63c 851c 4f3d 453b 0d3d a4c7 933c
00000060: 69b5 ba38 c602 a13b bd0a 5339 7fa4 123d
00000070: d4fd 3d3d 5e84 183d f9db ccba 47bd c13b
00000080: 2342 1c3d ba5c 8d3c fb3a a63c 7c4e a0bb
00000090: 062b 0b3d 5d96 ca3c eb56 3a3c a017 223d
000000a0: 17cd b43c ab0b 8bbb 43ea 8b3c ea95 d33c
000000b0: 894d 423d 199d 063d af9c 013d 1b81 263d
000000c0: 70b9 473d 2024 173d

dense2.weight f4 [1, 50]
-0.09888708 0.12225779 -0.10264645 0.08902637 -0.034488443 -0.058033742 -0.04883462 -0.09866673
0.03997563 0.10951494 0.04226522 -0.03653271 -0.14139244 0.110586844 0.051337134 0.08001716
-0.07504511 -0.02481141 0.038929142 0.11559508 -0.101479575 -0.10102409 0.0936697 0.15221684
0.05704244 0.08233077 0.09523794 -0.07294521 0.09520479 0.1484748 -0.062340602 -0.033778466
0.068909876 0.0780677 -0.12681986 -0.14574233 0.06749198 0.09136472 0.05900785 0.05070054
-0.032190766 -0.071107805 0.08227996 0.04089537 0.040396977 -0.04514314 0.10301933 0.13598783
0.102685854 -0.09849799
00000000: 4f85 cabd 4b62 fa3d 4d38 d2bd 7553 b63d
00000010: c143 0dbd cab4 6dbd cf06 48bd c811 cabd
00000020: 7cbd 233d 5e49 e03d 4c1e 2d3d 53a3 15bd
00000030: 2ec9 10be 5b7b e23d e346 523d 09e0 a33d
00000040: 40b1 99bd 4c41 cbbc 2a74 1f3d 1dbd ec3d
00000050: 86d4 cfbd b8e5 cebd e6d5 bf3d bbde 1b3e
00000060: 55a5 693d 099d a83d 1c0c c33d 4c64 95bd
00000070: bbfa c23d c709 183e dc58 7fbd 4a5b 0abd
00000080: 9f20 8d3d f5e1 9f3d 11dd 01be 7a3d 15be
00000090: 3c39 8a3d 6d1d bb3d 37b2 713d 5fab 4f3d
000000a0: 77da 03bd f8a0 91bd 6582 a83d e781 273d
000000b0: 4d77 253d 03e8 38bd ccfb d23d 6540 0b3e
000000c0: f64c d23d 50b9 c9bd
