time_series_forecasting/saved_models/CNNForecastingModel/18-03-2024-003940_NO1_epoch_1.pt (torch, 258475 bytes, 7 tensors)

conv1.weight f4 [64, 3, 3]
-0.36241296 0.17311794 0.1833612 -0.10700828 0.29808122 -0.218094 0.13427384 0.09313556
0.025767084 -0.2491275 0.14064237 -0.24669872 -0.27903178 0.28815398 0.23045811 -0.054472655
-0.014630169 0.27041832 0.023636932 -0.088354155 -0.19925074 0.066460475 0.048372243 0.03346685
0.0828039 0.120746836 0.24611153 -0.01917771 0.045283362 0.07373541 -0.20081842 -0.14928332
-0.2005279 -0.13097394 0.08048369 0.11330699 -0.2813898 -0.06806563 0.16006391 0.1716434
-0.2821383 0.071159534 -0.13443416 0.07994538 0.22000955 -0.020416025 0.26998812 0.03871508
0.34611207 -0.22730829 -0.15613382 0.30103573 0.22688238 0.026917879 -0.23847793 0.21461433
-0.15362187 -0.060664963 0.12494278 -0.033968814 -0.09960609 -0.31041694 0.11407629 0.19627754
0.11987981 0.05628189 -0.13937387 0.16245812 -0.17604749 0.059500385 -0.22280188 -0.18559402
-0.1072786 -0.11144973 -0.33110216 0.2137921 0.00573783 -0.2280732 0.2925448 0.09915099
-0.04029028 0.3352927 0.008256133 0.12884751 0.06666323 -0.14353558 -0.16408876 0.2887558
0.13959736 0.032139424 -0.17259741 -0.02701935 -0.21548647 -0.21075384 0.16304438 -0.12865137
0.0072100093 -0.14659454 0.24466076 0.28984296 0.3164053 -0.29590634 0.067245506 0.17352794
0.22998093 0.19054791 -0.30882818 -0.20237756 0.16488019 0.036764562 0.30733883 0.1657434
-0.031531665 0.3397311 -0.33439222 -0.28157848 0.12336971 -0.05745539 0.021564974 -0.13946697
-0.03988369 0.28318843 -0.2751968 -0.20194682 -0.14780204 0.16712916 -0.34461465 0.03485768
-0.12743625 0.25725442 -0.10767501 -0.006508592 -0.26432285 0.20919551 0.2630506 -0.2634299
0.2141139 -0.09229255 -0.038832232 -0.10455368 0.31124118 0.18942235 0.22927755 0.31027547
-0.11676428 0.14351203 -0.10364518 0.07300278 0.12581661 -0.08220905 -0.10014948 -0.040297717
-0.29055977 -0.12947676 0.016473398 0.20296513 -0.16393037 0.0035716167 0.057274006 -0.102471426
0.24878715 -0.21927713 0.08965229 -0.02085146 -0.11202209 0.1086305 0.109471954 -0.15085344
-0.08294992 -0.31113064 -0.11283131 -0.31151488 0.25932106 0.17849676 0.11406562 0.119132385
0.12742642 0.16250524 -0.19148503 0.061884988 0.24160284 0.29749122 0.025811134 -0.17977694
0.3384243 -0.02623808 -0.024971317 -0.097847775 0.21363726 -0.007776724 0.26107648 0.03772769
-0.037581608 -0.22481385 0.25017777 0.1817048 -0.07318543 -0.020477276 0.19920222 -0.032839756
-0.38186747 0.04926942 -0.10745918 -0.13036203 0.14174278 0.17805894 0.06925556 -0.106099896
0.2567643 -0.07489947 -0.08574343 0.27983677 -0.0012081647 -0.11550901 0.33016682 -0.08083116
-0.042094804 0.18497229 0.1955203 0.08684667 0.2820266 0.18469241 -0.20778584 -0.24285375
0.19360194 0.06645416 0.058902144 -0.0065697003 0.17266865 0.27457297 -0.14110537 0.1830567
-0.1284509 0.28731707 0.23621053 -0.0117320465 0.008256503 0.14504905 -0.28314996 -0.12116914
-0.35411838 0.0637835 -0.15059681 0.111412436 0.25339782 -0.2376347 -0.031116404 -0.139568
-0.17685728 -0.32773685 -0.22453162 -0.34969524 0.018158222 0.050368708 -0.10186407 0.026541337
00000000: 318e b9be d445 313e 0ac3 3b3e 2827 dbbd
00000010: 1a9e 983e 0954 5fbe 157f 093e dbbd be3d
00000020: 7e15 d33c 481b 7fbe 8e04 103e 979e 7cbe
00000030: 41dd 8ebe eb88 933e 36fd 6b3e b81e 5fbd
00000040: 60b3 6fbc 4574 8a3e 3da2 c13c 06f3 b4bd
00000050: 6308 4cbe 6e1c 883d f921 463d 8914 093d
00000060: 1795 a93d 1e4a f73d a904 7c3e 931a 9dbc
00000070: 0c7b 393d 9702 973d 58a3 4dbe badd 18be
00000080: 3057 4dbe 081e 06be a2d4 a43d 7f0d e83d
00000090: 5312 90be fe65 8bbd cbe7 233e 4ac3 2f3e
000000a0: 6e74 90be 17bc 913d 1ca9 09be 67ba a33d
000000b0: 2f4a 613e 823f a7bc e23b 8a3e b493 1e3d
000000c0: 9a35 b13e 81c3 68be 8be1 1fbe 5b21 9a3e
000000d0: db53 683e e282 dc3c 8f33 74be dcc3 5b3e
000000e0: 0d4f 1dbe d37b 78bd 00e2 ff3d e222 0bbd
000000f0: 47fe cbbd f8ee 9ebe d4a0 e93d fbfc 483e
00000100: 8c83 f53d d787 663d 06b8 0ebe 6c5b 263e
00000110: cb45 34be adb6 733d 2d26 64be 5c0c 3ebe
00000120: e2b4 dbbd c23f e4bd 3986 a9be 51ec 5a3e
00000130: 6804 bc3b 058c 69be 6fc8 953e ad0f cb3d
00000140: 6c07 25bd 7cab ab3e bb44 073c 9af0 033e
00000150: bb86 883d fefa 12be e206 28be cdd7 933e
00000160: 9cf2 0e3e a1a4 033d 60bd 30be af57 ddbc
00000170: 7ca8 5cbe dbcf 57be 1bf5 263e 2fbd 03be
00000180: f141 ec3b e11c 16be 5a88 7a3e 4c66 943e
00000190: e0ff a13e 0981 97be 03b8 893d 4fb1 313e
000001a0: 1f80 6b3e fe1e 433e ba1e 9ebe 103c 4fbe
000001b0: 5ad6 283e 7096 163d 845b 9d3e a3b8 293e
000001c0: 5927 01bd 3cf1 ad3e 7535 abbe 0e2b 90be
000001d0: 42a9 fc3d 5856 6bbd 07a9 b03c 6ed0 0ebe
000001e0: 155d 23bd 13fe 903e 98e6 8cbe 26cb 4ebe
000001f0: 6b59 17be e823 2b3e 5571 b0be edc6 0e3d
00000200: a67e 02be dab6 833e b784 dcbd 0746 d5bb
00000210: 5355 87be 5937 563e 91ae 863e 49e0 86be
00000220: ad40 5b3e e003 bdbd 8c0e 1fbd 3d20 d6bd
00000230: 015b 9f3e eff7 413e bcc7 6a3e 6ddc 9e3e
00000240: 1c22 efbd d1f4 123e ed43 d4bd 7b82 953d
00000250: 12d6 003e 385d a8bd 2c1b cdbd 380f 25bd
00000260: 40c4 94be 8e95 04be 38f3 863c 17d6 4f3e
00000270: 5ddd 27be c911 6a3b 2698 6a3d 8adc d1bd
00000280: 0fc2 7e3e 2f8a 60be 9f9b b73d aed0 aabc
00000290: d66b e5bd ab79 de3d d532 e03d 5379 1abe
000002a0: a6e1 a9bd 844c 9fbe 1a14 e7bd e17e 9fbe
000002b0: bbc5 843e dbc7 363e 3c9b e93d aefb f33d
000002c0: 127c 023e c667 263e a714 44be 1d7b 7d3d
000002d0: bc66 773e c550 983e df71 d33c 7217 38be
000002e0: f345 ad3e 3ef1 d6bc a690 ccbc 6a64 c8bd
000002f0: bac3 5a3e e4d3 febb d1ab 853e 5a88 1a3d
00000300: 2cef 19bd 9a35 66be 4d17 803e d310 3a3e
00000310: 3ee2 95bd f6bf a7bc abfb 4b3e fb82 06bd
00000320: 2284 c3be bbce 493d 8f13 dcbd a07d 05be
00000330: 0525 113e 1555 363e dcd5 8d3d e74a d9bd
00000340: 9c76 833e e564 99bd 409a afbd c446 8f3e
00000350: 485b 9eba fd8f ecbd a00b a93e cf8a a5bd
00000360: 9a6b 2cbd 6069 3d3e 7936 483e abdc b13d
00000370: ca65 903e 0220 3d3e d0c5 54be a7ae 78be
00000380: 963f 463e 1e19 883d 6043 713d a446 d7bb
00000390: 0dd0 303e d494 8c3e ed7d 10be 3773 3b3e
000003a0: a288 03be 391b 933e 2ce1 713e c537 40bc
000003b0: 4946 073c bd87 143e 08f9 90be 8727 f8bd
000003c0: 014f b5be eca0 823d 0d36 1abe 342c e43d
000003d0: 5cbd 813e 8356 73be d4e7 febc eaea 0ebe
000003e0: 131a 35be 20cd a7be 9eeb 65be 410b b3be
000003f0: 8dc0 943c 6b4f 4e3d 1c9e d0bd 386d d93c

conv1.bias f4 [64]
-0.23570833 -0.20432892 0.2324475 -0.029293735 0.10307606 0.16484037 0.07670969 0.16066672
-0.22669677 -0.08982418 -0.16048357 0.32583448 0.31958997 -0.24702987 0.042096663 0.31895277
-0.17133144 0.130594 0.1697464 -0.1221771 0.23053373 0.28780216 -0.13717897 -0.122548595
-0.11856943 -0.08495758 -0.27270535 0.24011618 -0.19768594 -0.26618585 -0.120050505 -0.08688898
0.20708667 -0.102375835 0.3167331 -0.00930523 -0.31049052 0.003993877 -0.22709629 -0.07177552
0.14936057 -0.10272966 -0.09307202 0.17504641 -0.27450436 -0.18408312 0.32114148 -0.29275027
-0.24559268 0.08076803 0.23110625 0.22231033 -0.046540726 -0.14543612 -0.28055778 -0.29786554
0.33116186 0.18325785 0.17853764 -0.009168338 -0.23176017 -0.14001694 0.28738123 -0.21527047
00000000: 865d 71be 9a3b 51be b806 6e3e 6af9 efbc
00000010: 8b19 d33d eacb 283e f819 9d3d d185 243e
00000020: 3323 68be bdf5 b7bd ce55 24be c7d3 a63e
00000030: 4ca1 a33e 66f5 7cbe 8d6d 2c3d c74d a33e
00000040: 8271 2fbe 6fba 053e 00d2 2d3e fd37 fabd
00000050: 0911 6c3e ce5a 933e a578 0cbe c2fa fabd
00000060: 88d4 f2bd 3dfe adbd 09a0 8bbe 04e1 753e
00000070: 2f6e 4abe 8349 88be 0add f5bd d9f2 b1bd
00000080: 870e 543e 6caa d1bd d72a a23e f774 18bc
00000090: 9df8 9ebe 12df 823b ee8b 68be 0bff 92bd
000000a0: faf1 183e ee63 d2bd 8b9c bebd 5e3f 333e
000000b0: d68b 8cbe 4980 3cbe a86c a43e 5de3 95be
000000c0: a67c 7bbe b569 a53d 1ea7 6c3e 52a5 633e
000000d0: 7da1 3ebd 35ed 14be 45a5 8fbe d581 98be
000000e0: 0c8e a93e f2a7 3b3e 92d2 363e cc36 16bc
000000f0: 8a52 6dbe 9a60 0fbe a223 933e dd6f 5cbe

conv2.weight f4 [128, 64, 3]
-0.013311744 0.013390534 -0.04045924 0.0010664877 -0.055611085 0.009918835 0.06479325 -0.051123705
0.05648797 0.038684547 -0.053312603 0.048088215 0.031997617 -0.0142806545 -0.06683026 0.026820058
0.03268181 -0.011514699 0.041448303 0.00086879596 0.05571131 -0.041850574 -0.041411925 -0.079688475
0.024507048 0.018969027 -0.01086237 -0.013179243 -0.015398518 0.060623545 0.016043149 -0.059994105
0.012253832 -0.058475547 -0.014751638 0.047230218 0.047913693 0.013939548 -0.016304994 0.072686136
-0.037244294 -0.011713762 0.039100897 -0.027189145 -0.061478175 -0.015179085 0.07311847 0.076506905
-0.0364574 -0.073491625 -0.063391976 -0.012434089 -0.05113061 -0.0297789 -0.034058627 -0.026373645
-0.044311263 -0.040617213 -0.0064947787 0.049676694 -0.019000208 0.08989402 -0.0019362837 -0.027099762
0.07552856 0.007639193 0.03889233 -0.0037834556 0.0014822888 0.018268175 0.032182578 -0.08148155
-0.011696603 -0.009633656 -0.017592894 0.06564162 -0.028371483 0.05091278 0.01959708 0.06314941
0.039870728 -0.049013577 0.0737328 -0.047166172 0.027581325 0.06640715 0.040327325 -0.039998148
0.018538479 0.016144402 0.01563254 0.0031438624 0.04242748 0.00053948857 0.039244115 -0.017314002
-0.02489447 0.07044942 0.057180632 0.056875974 -0.02699556 0.020153947 0.05367831 0.01093862
0.09123719 -0.029870307 0.054290406 -0.03640002 -0.055739153 -0.025954619 0.019849004 0.02378749
-0.005746421 -0.07685786 -0.030598376 -0.07149858 0.055154867 0.02437925 -0.08734237 -0.053046156
-0.031208714 0.07022022 0.090703025 -0.035266582 -0.028399382 -0.026897004 0.1105095 -0.06857821
-0.10081483 0.07224748 0.015836572 -0.07306408 0.036209423 0.03978482 0.022643026 0.06360774
0.02223758 -0.03400847 -0.0517266 -0.0549892 -0.0373037 -0.06270819 -0.030923238 -0.049522236
-0.005524806 -0.05437727 -0.06658057 -0.055395436 0.02722961 0.02987048 0.017698953 0.040655933
0.036092404 0.025033923 -0.02016993 -0.06345818 0.05230506 -0.05363236 -0.041333135 0.008111605
0.0785353 0.043516118 0.02264057 -0.08681328 0.02057306 -0.0539466 0.057693828 -0.020433942
-0.039098416 -0.04724007 0.07808939 0.07169507 -0.059527386 0.02815992 -0.037908506 -0.030682247
-0.045112673 -0.09184842 0.013999944 -0.049580988 -0.054684684 0.010373215 0.06959622 0.034385245
-0.0019959433 -0.011924451 -0.004294401 -0.013314699 0.03302998 -0.052857175 -0.030559998 0.020764735
0.07039266 0.08684817 0.009752979 -0.003169886 -0.031616356 0.05903108 -0.0822987 -0.048765305
-0.017271943 0.033425048 0.007581432 -0.043583736 0.0045672446 -0.006122366 -0.0776061 -0.05801111
9.6133015e-05 0.04442208 0.013992249 0.009622151 -0.037287287 -0.04854314 0.004037374 -0.038774204
-0.005657493 0.01142325 0.024243874 0.029974248 -0.057726495 -0.008644767 -0.08498549 0.021078557
-0.0029220297 -0.03668247 -0.021415114 -0.033350844 -0.055211715 0.0060069305 0.0235585 -0.023567075
0.07101227 -0.0148810195 -0.09460145 -0.056536816 0.0007487939 -0.0038441247 -0.06549167 0.01669826
0.00021883409 -0.013040043 0.0100835515 0.053926732 -0.07421843 -0.061419155 -0.018599786 0.023014683
-0.018571116 0.07522925 0.016370067 0.028404394 0.012824482 0.066711 0.011416144 -0.031038847
00000000: 8019 5abc f863 5b3c 97b8 25bd 64c9 8b3a
00000010: 73c8 63bd 9c82 223c 53b2 843d 1767 51bd
00000020: ee5f 673d b073 1e3d 515e 5abd 26f8 443d
00000030: ef0f 033d 68f9 69bc 4ede 88bd bdb5 db3c
00000040: 5ddd 053d 26a8 3cbc b2c5 293d e9bf 633a
00000050: 8b31 643d 826b 2bbd 8d9f 29bd b633 a3bd
00000060: 01c3 c83c ef64 9b3c 15f8 31bc c0ed 57bc
00000070: 114a 7cbc 6550 783d ec6c 833c 61bc 75bd
00000080: 4cc4 483c 0e84 6fbd dbb0 71bc 7974 413d
00000090: 2641 443d b462 643c 0d92 85bc 78dc 943d
000000a0: 798d 18bd 14eb 3fbc 4328 203d c5bb debc
000000b0: 8ad0 7bbd b2b1 78bc 23bf 953d a7af 9c3d
000000c0: 5b54 15bd c782 96bd a7d3 81bd 59b8 4bbc
000000d0: 556e 51bd e1f2 f3bc 0f81 0bbd 8b0d d8bc
000000e0: ba7f 35bd 3c5e 26bd 27d2 d4bb ca79 4b3d
000000f0: 53a6 9bbc 5b1a b83d e6ca fdba 5200 debc
00000100: b8ae 9a3d 3252 fa3b 904d 1f3d daf3 77bb
00000110: 5c49 c23a 24a7 953c e1d1 033d cddf a6bd
00000120: 1ca3 3fbc 7bd6 1dbc f91e 90bc 1d6f 863d
00000130: 506b e8bc eb89 503d 0e8a a03c 7a54 813d
00000140: 7d4f 233d 76c2 48bd 3901 973d 5131 41bd
00000150: 3bf2 e13c 7900 883d 442e 253d 19d5 23bd
00000160: 02de 973c 4441 843c d00f 803c 4209 4e3b
00000170: 70c8 2d3d 776c 0d3a 70be 203d 18d6 8dbc
00000180: 7def cbbc c947 903d 3d36 6a3d c8f6 683d
00000190: cb25 ddbc e419 a53c cadd 5b3d e637 333c
000001a0: 90da ba3d 93b2 f4bc 9e5f 5e3d 3018 15bd
000001b0: bd4e 64bd c89e d4bc 619a a23c fbdd c23c
000001c0: 794c bcbb a767 9dbd 72a9 fabc d96d 92bd
000001d0: 12ea 613d feb6 c73c 8ee0 b2bd ed46 59bd
000001e0: 6ba9 ffbc 9ecf 8f3d 82c2 b93d b173 10bd
000001f0: d2a5 e8bc 1b57 dcbc ce52 e23d bc72 8cbd
00000200: 0178 cebd 7df6 933d b3bb 813c 9fa2 95bd
00000210: 5550 143d 68f5 223d de7d b93c c644 823d
00000220: 962b b63c 774c 0bbd 45df 53bd 5b3c 61bd
00000230: c4cb 18bd 276d 80bd bb52 fdbc d4d7 4abd
00000240: 6f09 b5bb b3ba 5ebd 655b 88bd 53e6 62bd
00000250: a210 df3c f0b2 f43c 65fd 903c d686 263d
00000260: a1d5 133d f113 cd3c 693b a5bc 5df6 81bd
00000270: d53d 563d 9bad 5bbd ef4c 29bd 8ae6 043c
00000280: 1ed7 a03d f53d 323d b778 b93c 29cb b1bd
00000290: d588 a83c 1cf7 5cbd 5d50 6c3d 1565 a7bc
000002a0: a925 20bd ce7e 41bd 55ed 9f3d ddd4 923d
000002b0: fdd2 73bd a2af e63c f345 1bbd 5659 fbbc
000002c0: 11c8 38bd 061b bcbd 0560 653c 6f15 4bbd
000002d0: 0cfd 5fbd 6bf4 293c 7788 8e3d 8bd7 0c3d
000002e0: 5fce 02bb c65e 43bc 0cb8 8cbb e525 5abc
000002f0: 724a 073d c480 58bd f658 fabc ce1a aa3c
00000300: 072a 903d 74dd b13d f5ca 1f3c ddbd 4fbb
00000310: 2780 01bd 93ca 713d 398c a8bd 21be 47bd
00000320: e47d 8dbc b4e8 083d a96d f83b dc84 32bd
00000330: d3a8 953b 219e c8bb f2ef 9ebd 0f9d 6dbd
00000340: 059b c938 edf3 353d bf3f 653c 3aa6 1d3c
00000350: 8eba 18bd 2cd5 46bd f34b 843b b3d1 1ebd
00000360: 7e62 b9bb 9528 3b3c 179b c63c 8e8c f53c
00000370: 9e72 6cbd c8a2 0dbc df0c aebd f0ac ac3c
00000380: 867f 3fbb 5c40 16bd c06e afbc e59a 08bd
00000390: ae25 62bd c9d5 c43b c1fd c03c bd0f c1bc
000003a0: e26e 913d 85cf 73bc 68be c1bd 2693 67bd
000003b0: b54a 443a b6ed 7bbb 7f20 86bd caca 883c
000003c0: d476 6539 e8a5 55bc 7b35 253c 47e2 5c3d
000003d0: d5ff 97bd a792 7bbd 945e 98bc 4a89 bc3c
000003e0: 7422 98bc cb11 9a3d 851a 863c 55b0 e83c
000003f0: c71d 523c c79f 883d c70a 3b3c 2e45 febc

conv2.bias f4 [128]
-0.028675606 0.045095943 -0.038789008 0.05416938 -0.012504284 0.02967668 -0.035183005 -0.008320889
-0.058859996 -0.07225636 -0.03276693 -0.004944398 0.011887972 -0.02386294 -0.038768847 0.065482475
0.021493109 0.03862602 -0.003688665 0.00885946 -0.0028723117 0.05648304 -0.01826381 -0.024699058
0.0415523 -0.01079256 0.07202049 -0.0066347825 -0.065032534 -0.04856066 -0.059493683 -0.0031684279
0.04832376 -0.041434564 -0.010683953 -0.052832715 -0.031545028 -0.011674561 -0.05571511 0.046123616
0.059110276 0.026497023 0.020682313 0.039503224 -0.034155007 -0.035248622 -0.009897327 0.041979324
-0.051861886 -0.06992247 0.027995352 0.013154485 -0.059076924 0.052647874 -0.015765874 -0.020200137
-0.06125412 0.014382381 0.055786073 -0.0390454 0.038547702 -0.025806608 0.058789436 0.05827067
0.0008875354 0.06554801 0.064594775 0.04399813 -0.060716596 -0.017033612 -0.0022666447 -0.014022828
-0.054265372 -0.049671568 0.06770413 0.060617447 -0.0224376 -0.04003486 0.052235737 -0.02127955
0.032649774 0.033678956 -3.449311e-05 -0.05731607 0.03987292 0.038642086 -0.05979345 -0.04046659
0.0352721 -0.00905843 0.0007049809 0.056263253 0.039436832 0.03567115 -0.051776823 0.00025461317
0.011975933 -0.04478241 0.06655309 -0.008899362 0.0034634983 -0.0569791 -0.011827709 -0.040477358
0.04960122 0.030435834 -0.039398894 0.03332864 0.0066084964 -0.03570551 -0.04588551 -0.057009075
-0.028450327 0.008238221 0.01210114 0.004508219 0.01111711 -0.0004812076 -0.0011414546 -0.028888987
-0.026086902 0.027788281 0.06412033 0.07327568 0.022702456 0.016339425 -0.03804481 -0.03776355
00000000: 1be9 eabc 86b6 383d 39e1 1ebd b6e0 5d3d
00000010: c5de 4cbc 821c f33c 0e1c 10bd 5754 08bc
00000020: 2e17 71bd 24fb 93bd 9e36 06bd 9e04 a2bb
00000030: c5c5 423c 367c c3bc 15cc 1ebd ad1b 863d
00000040: 5112 b03c 5136 1e3d 88bd 71bb 4527 113c
00000050: 653d 3cbb c35a 673d fc9d 95bc ae55 cabc
00000060: bf32 2a3d 47d3 30bc 7b7f 933d 9768 d9bb
00000070: c72f 85bd 8be7 46bd a6af 73bd 66a5 4fbb
00000080: 23ef 453d 4ab7 29bd bf0b 2fbc 1e67 58bd
00000090: 5c35 01bd a846 3fbc 8735 64bd 1eec 3c3d
000000a0: 9e1d 723d 4910 d93c f46d a93c 22ce 213d
000000b0: 1fe6 0bbd dc60 10bd 6628 22bc 83f2 2b3d
000000c0: 216d 54bd 8333 8fbd 8256 e53c e985 573c
000000d0: a5fa 71bd 4ca5 573d 6f27 81bc c27a a5bc
000000e0: 9ae5 7abd 14a4 6b3c f07f 643d 12ee 1fbd
000000f0: 32e4 1d3d 6168 d3bc 31cd 703d 3aad 6e3d
00000100: 7ea9 683a 093e 863d 444a 843d 6237 343d
00000110: f7b1 78bd 138a 8bbc fd8b 14bb 01c0 65bc
00000120: 5e45 5ebd 6a74 4bbd 77a8 8a3d 004a 783d
00000130: 0fcf b7bc 98fb 23bd 24f5 553d 7352 aebc
00000140: c5bb 053d f2f2 093d b2ac 10b8 41c4 6abd
00000150: c951 233d 2a47 1e3d fae9 74bd 4cc0 25bd
00000160: 7a79 103d cf69 14bc 78ce 383a 4c74 663d
00000170: 8488 213d e91b 123d ef13 54bd 9a7d 8539
00000180: b436 443c c36d 37bd fd4c 883d a1ce 11bc
00000190: dcfb 623b eb62 69bd 02c9 41bc 96cb 25bd
000001a0: a62a 4b3d 9254 f93c bc60 21bd 9d83 083d
000001b0: 168c d83b f13f 12bd 72f2 3bbd 5982 69bd
000001c0: a910 e9bc 9af9 063c dc43 463c afb9 933b
000001d0: 8a24 363c 974a fcb9 dc9c 95ba 99a8 ecbc
000001e0: 33b4 d5bc 40a4 e33c 8551 833d 8f11 963d
000001f0: 80fa b93c 42da 853c e0d4 1bbd f4ad 1abd

dense1.weight f4 [50, 768]
0.037755124 -0.01881693 0.031929485 0.005264054 -0.026756417 0.028436849 0.012698653 -0.01748846
0.02084335 0.030126886 0.00091549876 -0.013657052 -0.044057008 0.0034363857 -0.010979991 -0.05490103
-0.036013395 -0.03577941 0.008746181 -0.0088762315 0.033542305 -0.0034038257 -0.010246753 -0.0086569805
0.0019615144 -0.010827434 -0.004379415 -0.0032149293 -0.0167505 -0.030809598 0.0028108621 -0.030813558
0.015916452 -0.016859394 0.038831126 0.03080836 0.029384028 0.008102412 0.005657764 -0.01344833
-0.029317642 -0.03341568 0.02922389 -0.02234535 0.0134025095 0.039860994 -0.030584725 -0.00043203842
0.0041916277 -0.034899406 -0.0253319 0.01436078 0.02365106 0.009397204 0.022535 0.0028897768
-0.006723429 0.00077126303 0.01204522 -0.012867578 0.013003326 -0.018956821 0.032777283 -0.005602141
-0.016150504 -0.018350152 0.016871633 0.02977713 0.02183978 0.0050028693 0.023192449 -0.043429617
-0.01620662 -0.010415587 0.03615516 -0.045359686 0.008187096 -0.006915414 0.02767156 0.031179361
-0.00064019253 -0.004715525 0.021681428 -0.024654232 0.054794576 -0.01719013 -0.004845605 0.028999716
-0.017644646 -0.0101240175 -0.019534096 -0.01055347 -0.021614663 0.017253665 -0.003447559 -0.044551007
-0.04941254 0.008092669 -0.011796223 -0.03946971 -0.0026910747 0.0050661503 0.026057927 -0.006439989
-0.039935395 -0.0069221277 0.025151089 0.004178601 0.007384408 -0.021182047 -0.020507177 0.0037211054
-0.03283085 -0.004551069 0.004947327 -0.024558779 -0.024149548 -0.029623343 -0.0016282212 0.028438566
-0.009754383 -0.03149513 0.0057256767 -0.03055216 -0.0036876458 -0.022457413 -0.017099988 0.039069615
-0.0321838 0.008990769 0.014358554 -0.0047453996 0.028857816 -0.0146719385 -0.03826722 -0.007130881
0.030345164 -0.0018635384 -0.024815636 -0.01849169 0.0049400995 0.015814606 0.018798163 -0.010379042
0.028720288 -0.011900697 0.0066996547 0.012855823 -0.0137220835 0.015973896 -0.048063394 0.028835727
-0.028923368 -0.054719586 0.0101854345 -0.037390094 -0.039254945 0.027217444 -0.024524689 -0.0034081829
0.02124078 0.0005673043 -0.0341742 -0.0032263137 -0.0021248104 0.005770392 -0.029027559 -0.033246584
0.048279244 -0.024408843 -0.03133357 0.018832127 -0.008179271 0.009969633 0.053430147 0.009964964
0.012820195 0.028830437 -0.0091622295 0.032810293 0.015046637 -0.0008095072 0.033103622 -0.007439534
-0.019860622 0.04399183 -0.010763368 0.015896926 0.00936653 0.002193235 0.03415479 0.0150118675
0.021052416 0.026021505 0.009185336 0.017960088 -0.011792016 -0.0037360396 -0.016689854 0.0153723955
0.02040935 0.026477866 0.03165853 0.019882027 -0.027105302 0.020521928 0.012712969 -0.016865104
-0.0049268487 -0.038067944 -0.001329531 -0.024694657 -0.016415183 -0.00587959 -0.020923827 7.169484e-05
-0.039403748 0.028351808 -0.03539331 -0.015905995 -0.024256306 -0.013200925 -0.038367417 -0.01234241
-0.01207251 0.0019096743 0.021540716 -0.043734107 -0.031840816 0.017722681 -0.009944494 -0.045342375
0.0038465583 -0.017012035 0.01012513 0.03171261 0.010814492 -0.002009013 -0.01626122 0.015330751
-0.009299451 -0.032973256 -0.005013402 0.010712772 0.017669717 -0.026207581 0.037112065 0.0003527104
0.017725658 -0.0019563618 -0.025530694 -0.014647343 -0.038846474 0.015304716 0.011263792 0.014541403
00000000: 1ea5 1a3d f625 9abc 7ec8 023d 167e ac3b
00000010: 4630 dbbc 65f4 e83c 030e 503c f543 8fbc
00000020: acbf aa3c a9cc f63c 15fe 6f3a d4c1 5fbc
00000030: 1f75 34bd fc34 613b 6ce5 33bc e7df 60bd
00000040: c882 13bd 6e8d 12bd 244c 0f3c 9d6d 11bc
00000050: a863 093d b812 5fbb ffe1 27bc 02d6 0dbc
00000060: c08c 003b 8d65 31bc 3281 8fbb 90b1 52bb
00000070: 5838 89bc 6964 fcbc 7136 383b b76c fcbc
00000080: 3863 823c b61c 8abc 630d 1f3d d061 fc3c
00000090: c6b6 f03c fbbf 043c c464 b93b 6256 5cbc
000000a0: 8d2b f0bc e1de 08bd f066 ef3c 980d b7bc
000000b0: 3396 5b3c 4845 233d d18c fabc 3783 e2b9
000000c0: ec59 893b aef2 0ebd d884 cfbc 7a49 6b3c
000000d0: debf c13c bbf6 193c 529b b83c 6962 3d3b
000000e0: 3650 dcbb 962e 4a3a 5059 453c 89d2 52bc
000000f0: e70b 553c 564b 9bbc 7941 063d 2a92 b7bb
00000100: 104e 84bc 0f53 96bc 6136 8a3c 2bef f33c
00000110: 57e9 b23c 1cef a33b 17fe bd3c 41e3 31bd
00000120: bfc3 84bc 23a6 2abc 6f17 143d 14cb 39bd
00000130: 2b23 063c b29a e2bb 78af e23c dc6b ff3c
00000140: 98d2 27ba b184 9abb 409d b13c acf7 c9bc
00000150: 4770 603d 51d2 8cbc e2c7 9ebb d090 ed3c
00000160: 818b 90bc 35df 25bc f805 a0bc 76e8 2cbc
00000170: 3c11 b1bc 8f57 8d3c 71f0 61bb 1e7b 36bd
00000180: ce64 4abd 1d97 043c f244 41bc feaa 21bd
00000190: be5c 30bb f301 a63b 6f77 d53c 8b06 d3bb
000001a0: 4c93 23bd 04d3 e2bb a809 ce3c a5ec 883b
000001b0: e7f8 f13b f985 adbc abfe a7bc cadd 733b
000001c0: a479 06bd 2221 95bb 301d a23b 7e2f c9bc
000001d0: 46d5 c5bc a7ac f2bc 0a6a d5ba fff7 e83c
000001e0: d9d0 1fbc 0a01 01bd 759e bb3b 8648 fabc
000001f0: 6eac 71bb 9cf8 b7bc 4615 8cbc 7607 203d
00000200: 29d3 03bd 054e 133c 2440 6b3c 4c7f 9bbb
00000210: 3a67 ec3c 9262 70bc 17be 1cbd 2aaa e9bb
00000220: 6c96 f83c f941 f4ba 294a cbbc e27b 97bc
00000230: 8fe0 a13b a28d 813c 9bfe 993c db0c 2abc
00000240: cf46 eb3c 24fb 42bc c788 db3b 3ba1 523c
00000250: 97d2 60bc b0db 823c 1fde 44bd e738 ec3c
00000260: b3f0 ecbc a521 60bd cfe0 263c 5b26 19bd
00000270: cbc9 20bd 1ef7 de3c 00e8 c8bc d25b 5fbb
00000280: 2501 ae3c 26b7 143a 3ffa 0bbd 9070 53bb
00000290: 6740 0bbb 8e15 bd3b 34cb edbc 922d 08bd
000002a0: 75c0 453d 0ef5 c7bc a157 00bd d545 9a3c
000002b0: 5902 06bc ac57 233c 92d9 5a3d 1744 233c
000002c0: cc0b 523c cf2d ec3c 2d1d 16bc 1664 063d
000002d0: 2b86 763c 1c35 54ba aa97 073d 56c7 f3bb
000002e0: beb2 a2bc c730 343d d658 30bc 453a 823c
000002f0: 1376 193c 61bc 0f3b e5e5 0b3d 56f4 753c
00000300: 1e76 ac3c 0d2b d53c 177e 163c 0921 933c
00000310: 4d33 41bc 58d8 74bb 29b9 88bc 80dc 7b3c
00000320: 8231 a73c 1ce8 d83c 60ac 013d a2df a23c
00000330: f00b debc 9a1d a83c 0f4a 503c b028 8abc
00000340: 6771 a1bb 22ed 1bbd a843 aeba 734c cabc
00000350: 2279 86bc 93a9 c0bb 7268 abbc e05a 9638
00000360: d365 21bd 0d42 e83c 93f8 10bd 4a4d 82bc
00000370: 29b5 c6bc b148 58bc 2727 1dbd d237 4abc
00000380: c7cb 45bc 094e fa3a 2876 b03c 8922 33bd
00000390: 846b 02bd 282f 913c 3bee 22bc edb8 39bd
000003a0: 8a16 7c3b d35c 8bbc e0e3 253c 15e5 013d
000003b0: 442f 313c a5a9 03bb 4036 85bc d52d 7b3c
000003c0: b95c 18bc f70e 07bd 7747 a4bb 9f84 2f3c
000003d0: 15c0 903c 48b1 d6bc d202 183d fdeb b839
000003e0: 6635 913c 4e36 00bb bf25 d1bc 69fb 6fbc
000003f0: 7b1d 1fbd a2c0 7a3c c58b 383c 113f 6e3c

dense1.bias f4 [50]
0.029748831 -0.0040002596 0.0049098227 0.0458357 0.036343597 -0.01775187 0.041506402 -0.0032392964
0.045910012 -0.010618405 0.0003028409 -0.018170528 0.014036948 0.018902503 -0.008077145 -0.014399798
-0.008793436 0.020354092 0.023682097 0.040968116 -0.007572619 0.037455652 0.0091822045 0.022507409
0.029105539 -0.014509415 0.04743907 0.038102906 0.023233397 0.016654404 0.03130921 -0.0020065596
0.04623853 -0.0068687685 0.017973224 0.035985272 -0.019695666 -0.0024347987 0.015973784 0.027909506
0.031413343 0.010495265 0.02446537 0.03515351 -0.02043748 -0.017076792 0.012961633 -0.01904839
-0.014110068 0.026538366
00000000: d2b3 f33c 9c14 83bb 94e2 a03b 37be 3b3d
00000010: 06dd 143d 5f6c 91bc 9e02 2a3d 604a 54bb
00000020: 230c 3c3d d2f8 2dbc 9ec6 9e39 5cda 94bc
00000030: 3afb 653c 6cd9 9a3c 0056 04bc 21ed 6bbc
00000040: 5812 10bc a0bd a63c f500 c23c 2fce 273d
00000050: bb23 f8bb 196b 193d f570 163c 7561 b83c
00000060: bd6e ee3c e6b8 6dbc 784f 423d cb11 1c3d
00000070: f753 be3c d16e 883c 163e 003d 7c80 03bb
00000080: 9d64 3d3d 6813 e1bb 953c 933c 4b65 133d
00000090: ce58 a1bc 2591 1fbb 74db 823c 7aa2 e43c
000000a0: 47ab 003d 55f4 2b3c 9a6b c83c 20fd 0f3d
000000b0: 816c a7bc a1e4 8bbc 075d 543c 5f0b 9cbc
000000c0: ea2d 67bc fd66 d93c

dense2.weight f4 [1, 50]
0.060923267 0.09970324 0.055441808 0.018762192 0.1376029 0.124055445 -0.09633778 -0.1284967
-0.086436175 0.09322582 -0.08180512 -0.023812784 0.07069153 0.088676706 0.05400745 0.038781535
-0.030591961 0.04721825 -0.14659676 0.14342698 0.10664928 -0.03003937 0.06330717 0.1242586
-0.14111619 -0.105075404 0.013032449 -0.06689779 0.012585426 -0.03665923 0.14674182 0.14486837
0.10245439 0.031614125 0.039435804 0.04245829 -0.11563694 0.08877068 -0.12278212 -0.07388889
0.10886476 0.102709904 0.028447583 -0.10228896 -0.028379573 -0.05428024 0.13705674 0.07914257
0.10228339 0.13144663
00000000: ad8a 793d 3631 cc3d f316 633d 2bb3 993c
00000010: c6e7 0c3e c810 fe3d be4c c5bd a494 03be
00000020: 7305 b1bd 2eed be3d 7189 a7bd 0713 c3bc
00000030: b9c6 903d 229c b53d ea36 5d3d 63d9 1e3d
00000040: fe9b fabc ec67 413d 761d 16be 86de 123e
00000050: f06a da3d 2015 f6bc 31a7 813d 4b7b fe3d
00000060: c380 10be c631 d7bd 0e86 553c b501 89bd
00000070: 1a33 4e3c fd27 16bd 7d43 163e 6058 143e
00000080: 9bd3 d13d d07d 013d 7087 213d bee8 2d3d
00000090: 0fd3 ecbd 67cd b53d 3175 fbbd 0f53 97bd
000000a0: 7df4 de3d 9259 d23d e80a e93c e07c d1bd
000000b0: 477c e8bc f554 5ebd 9a58 0c3e 8015 a23d
000000c0: f479 d13d f299 063e
