time_series_forecasting/saved_models/CNNForecastingModel/19-03-2024-165459_NO1_epoch_1.pt (torch, 259243 bytes, 7 tensors)

conv1.weight f4 [64, 4, 3]
0.083199486 -0.20759891 -0.256418 -0.0012645902 0.1204696 0.0852559 -0.24769744 0.014373399
-0.26588762 0.23997518 0.11323928 -0.23487736 -0.14222598 -0.008079114 -0.14172913 0.118267395
-0.104288645 -0.23299444 -0.15667407 -0.023194129 -0.19955441 0.17503966 -0.23903938 0.17352258
-0.0013439524 0.2759745 -0.019451205 0.097649254 0.14045538 -0.19722123 -0.18182464 -0.22115962
-0.19895437 -0.19502167 0.04463436 0.24324277 -0.06907572 0.25592574 -0.24173926 0.21271737
0.26140904 -0.16998178 -0.1804604 -0.24111597 0.15066895 -0.026073622 0.0033537305 0.11472282
-0.18640533 -0.11354581 0.114548326 0.040779736 0.25410798 -0.055989042 0.12667267 -0.18285403
-0.24030493 0.16619061 -0.11995662 0.09205861 -0.08094232 0.04709764 0.21339004 -0.062453575
0.06557236 -0.17325337 -0.1436554 -0.11824954 0.105190836 0.22970863 -0.038811967 -0.20365345
-0.08512453 -0.22235854 -0.08052415 0.0867987 0.05823833 -0.006607255 0.06424805 0.0823279
-0.04608437 -0.19372576 0.2094028 -0.014952775 -0.14259759 0.052757632 0.29156837 0.1751466
-0.18200456 -0.08816556 0.058806013 -0.19766052 -0.06773876 0.04570146 0.09474513 -0.13375266
-0.047806926 -0.093025394 0.057598602 0.056113735 0.2680211 0.11408314 -0.10632266 -0.11483312
-0.12476953 0.027215026 -0.17089583 0.23923062 0.005738758 0.1381401 -0.18002559 -0.19485311
0.27229437 0.15227374 0.2785964 0.011985237 0.04197048 -0.20855258 -0.27146667 0.18525687
-0.10053285 -0.12594648 -0.22805019 0.012261067 -0.05354915 0.17513219 -0.09670212 0.056880817
-0.25126985 0.049657285 -0.11920631 -0.07090821 0.029729394 -0.19149007 -0.035285477 0.0964963
-0.10498066 -0.0071707596 0.06962368 -0.2794538 0.011227004 0.29382005 0.29313654 -0.15500246
-0.0698504 0.17228664 0.01853105 -0.21142745 -0.028101204 -0.24449205 -0.16470239 0.08109544
-0.04657243 0.15728492 -0.184981 -0.067720145 0.090170704 0.040678754 0.24694255 -0.1915741
0.107386105 0.046104085 0.1948647 -0.05811807 0.20108595 -0.2011342 -0.003234181 -0.0802257
-0.028517516 0.24568489 0.23344979 -0.1959994 -0.25471357 0.21286164 0.14457476 0.06413677
-0.056301516 -0.26825374 0.067270614 0.15324202 -0.29028434 -0.091586396 -0.23900706 0.0032793446
-0.0047283694 0.010315868 -0.26993597 -0.12656629 -0.06364485 -0.07223943 0.24496739 -0.15161915
0.19374189 -0.23625699 -0.25502357 0.078052245 0.22569679 0.013878271 0.123884544 0.03843536
-0.06333296 0.19714437 0.07415182 -0.17230462 -0.25087032 0.21989332 -0.051518448 0.16204962
-0.2723564 0.08409768 0.074323244 0.26076642 -0.0053491555 -0.017790975 -0.1441464 0.18268007
0.27842057 -0.269408 -0.002945724 0.091940925 -0.049246345 0.05729747 0.060828965 0.24702145
0.25351018 -0.021794293 0.23068747 -0.2546261 0.094334625 -0.074414864 -0.23654012 0.1424229
0.031379223 0.07634413 -0.12836207 -0.078277685 0.2649236 -0.16352786 -0.1537402 0.21308666
-0.21998833 -0.028317828 -0.06473141 0.28117344 -0.0613341 -0.046495922 -0.15494499 0.104807906
-0.25827745 -0.12946865 0.068487376 -0.076405466 0.13669491 -0.20141143 0.272595 0.13872294
00000000: 7e64 aa3d cf94 54be 3849 83be 9bc0 a5ba
00000010: c4b8 f63d a59a ae3d 66a4 7dbe 687e 6b3c
00000020: 6c22 88be 0ebc 753e ffe9 e73d b183 70be
00000030: b0a3 11be 435e 04bc 7121 11be 2d36 f23d
00000040: 4995 d5bd 1896 6ebe 2b6f 20be 9d01 bebc
00000050: fe57 4cbe 993d 333e bdc6 74be e7af 313e
00000060: 8f27 b0ba 884c 8d3e 2258 9fbc 55fc c73d
00000070: 89d3 0f3e 5df4 49be 3d30 3abe ab77 62be
00000080: b2ba 4bbe c3b3 47be 85d2 363d a214 793e
00000090: 9277 8dbd b308 833e 7f8a 77be 95d2 593e
000000a0: 68d7 853e b40f 2ebe 9cca 38be 1be7 76be
000000b0: f648 1a3e 5998 d5bc 43ca 5b3b ccf3 ea3d
000000c0: 0ae1 3ebe b58a e8bd 5098 ea3d a708 273d
000000d0: 711a 823e c454 65bd 7bb6 013e 163e 3bbe
000000e0: 7f12 76be df2d 2a3e d1ab f5bd 3989 bc3d
000000f0: 16c5 a5bd 74e9 403d eb82 5a3e 52cf 7fbd
00000100: cd4a 863d 5569 31be 671a 13be d12c f2bd
00000110: 4b6e d73d bd38 6b3e 4cf9 1ebd 888a 50be
00000120: c555 aebd f5b1 63be d8e9 a4bd 84c3 b13d
00000130: 518b 6e3d ac81 d8bb 7b94 833d 889b a83d
00000140: f7c2 3cbd 0c60 46be b06d 563e 7cfc 74bc
00000150: 1a05 12be 6318 583d 7348 953e a159 333e
00000160: 675f 3abe 2590 b4bd 93de 703d 8567 4abe
00000170: 9eba 8abd 7431 3b3d bc09 c23d 75f6 08be
00000180: 32d1 43bd 1984 bebd 83ec 6b3d 84d7 653d
00000190: 103a 893e 6ca4 e93d b2bf d9bd a02d ebbd
000001a0: 2b87 ffbd 0cf2 de3c 51ff 2ebe dff8 743e
000001b0: 310c bc3b 9974 0d3e a158 38be 9387 47be
000001c0: 2b6a 8b3e a6ed 1b3e 30a4 8e3e ba5d 443c
000001d0: 3de9 2b3d cf8e 55be aefd 8abe fab3 3d3e
000001e0: 2be4 cdbd 1df8 00be fd85 69be a4e2 483c
000001f0: 5a56 5bbd da55 333e c30b c6bd dcfb 683d
00000200: 71a6 80be 7065 4b3d 7022 f4bd 5338 91bd
00000210: 0f8b f33c f915 44be 8187 10bd da9f c53d
00000220: 1a00 d7bd b1f8 eabb dc96 8e3d 9214 8fbe
00000230: 78f1 373c 956f 963e fe15 963e f7b8 1ebe
00000240: ba0d 8fbd e96b 303e 6ece 973c 7080 58be
00000250: 7f34 e6bc 205c 7abe bea7 28be 5e15 a63d
00000260: bbc2 3ebd 4c0f 213e a96b 3dbe dcb0 8abd
00000270: 6bab b83d c49e 263d 82de 7c3e 002c 44be
00000280: 3fed db3d a3d7 3c3d 9d8a 473e 370d 6ebd
00000290: 7ae9 4d3e 20f6 4dbe 8ef4 53bb 5f4d a4bd
000002a0: 919d e9bc d294 7b3e 760d 6f3e 11b4 48be
000002b0: d169 82be 67f8 593e 680b 143e 245a 833d
000002c0: 6b9c 66bd 8e58 89be 2dc5 893d 7aeb 1c3e
000002d0: 26a0 94be a691 bbbd 44be 74be 46ea 563b
000002e0: 70f0 9abb e303 293c 0c35 8abe 989a 01be
000002f0: 3b58 82bd 44f2 93bd bbd8 7a3e 0d42 1bbe
00000300: 4664 463e 5aed 71be 7392 82be dbd9 9f3d
00000310: 0f1d 673e b061 633c 2eb7 fd3d 656e 1d3d
00000320: b6b4 81bd 37e0 493e e9dc 973d 9f70 30be
00000330: 1372 80be b72b 613e 0205 53bd 56f0 253e
00000340: 4c72 8bbe 683b ac3d c936 983d 2d83 853e
00000350: f847 afbb 61be 91bc 1d9b 13be 7c10 3b3e
00000360: 248d 8e3e d8ef 89be 0c0d 41bb 864b bc3d
00000370: 89b6 49bd c0b0 6a3d cb27 793d 31f3 7c3e
00000380: 16cc 813e f289 b2bc 5639 6c3e 5a5e 82be
00000390: 8332 c13d d266 98bd 9337 72be 4fd7 113e
000003a0: 8087 003d 505a 9c3d 5971 03be 0d50 a0bd
000003b0: 11a4 873e d973 27be 126e 1dbe 6433 5a3e
000003c0: 9f44 61be cafa e7bc e791 84bd f7f5 8f3e
000003d0: 7739 7bbd 8272 3ebd e6a9 1ebe 87a5 d63d
000003e0: f13c 84be 6e93 04be 1c43 8c3d 787a 9cbd
000003f0: c0f9 0b3e cc3e 4ebe 9291 8b3e 630d 0e3e

conv1.bias f4 [64]
-0.12896742 0.10284419 0.21225339 0.026281055 -0.12623572 -0.03380216 -0.13277131 0.036241475
0.27315038 0.06589062 0.013977901 -0.2455181 -0.24961917 -0.17405216 -0.08834404 -0.18860859
0.19349802 0.18315002 -0.07756161 0.14681487 -0.24299403 0.27157477 -0.025893882 -0.19100994
0.04361835 0.014460049 0.25986823 -0.17061877 0.11416941 0.23607069 -0.065127485 0.20679584
0.13651179 -0.23879957 0.22395867 -0.10369408 -0.11955366 0.015437682 0.21355549 0.25133142
-0.13554142 0.09408342 0.120754294 0.25162566 -0.21054372 0.25816798 -0.2500055 0.2817235
-0.09302415 0.17180169 0.026893212 0.046606578 -0.026180703 0.18571612 -0.08327225 -0.22907342
-0.16085723 0.050736457 0.12355017 0.054582227 0.28917304 0.14219488 0.17742105 -0.13827229
00000000: 0910 04be fa9f d23d f458 593e 5e4b d73c
00000010: f043 01be 2274 0abd 34f5 07be f171 143d
00000020: 5eda 8b3e a9f1 863d 9103 653c 1969 7bbe
00000030: 2b9c 7fbe bb3a 32be b8ed b4bd 9c22 41be
00000040: 5824 463e ae8b 3b3e 9fd8 9ebd a356 163e
00000050: 6dd3 78be d90b 8b3e 681f d4bc 1c98 43be
00000060: 28a9 323d d7e9 6c3c 730d 853e b0b6 2ebe
00000070: a7d1 e93d 84bc 713e 8f61 85bd 4ac2 533e
00000080: bfc9 0b3e e087 74be 6c55 653e 905d d4bd
00000090: 8dd8 f4bd 55ee 7c3c 4aae 5a3e 83ae 803e
000000a0: 5fcb 0abe cfae c03d 074e f73d 14d5 803e
000000b0: c698 57be 982e 843e b900 80be 103e 903e
000000c0: 7283 bebd c8ec 2f3e 274f dc3c 8ae6 3e3d
000000d0: ea78 d6bc 5e2c 3e3e a48a aabd 3992 6abe
000000e0: c2b7 24be 08d1 4f3d df07 fd3d 9d91 5f3d
000000f0: 7d0e 943e 899b 113e ddad 353e 4097 0dbe

conv2.weight f4 [128, 64, 3]
-0.018902123 0.02131801 0.013434487 0.03841528 -0.04067274 -0.056075986 0.05509196 0.06926721
0.0050010807 0.035836104 0.0027292261 -0.044091057 0.016667517 0.031448506 0.02653329 0.029112026
-0.027389618 -0.005187961 -0.045597352 -0.000485612 -0.006023024 0.004181671 -0.053034324 0.048185237
0.052947935 0.062489185 0.004872572 -0.016063055 -0.03837112 -0.011416675 0.038767237 -0.0204533
-0.026348382 0.025727462 0.007841955 -0.046137497 -0.042986326 -0.006325576 0.02035542 0.057470933
-0.05778552 0.03612426 0.06225404 -0.013492877 0.02309219 0.0435208 0.044704463 -0.0612114
-0.06932698 0.004454639 0.028693225 0.035782944 -0.03239424 -0.01950925 -0.014036232 0.027789563
-0.039483692 0.045456003 -0.0067750574 -0.0039146724 0.0626223 0.014656593 0.037195113 0.012296268
0.0061412733 -0.05081879 -0.06924693 0.016969169 -0.03292184 0.031239415 -0.07219552 0.022778565
0.05111893 -0.028462144 0.033711888 -0.027088454 0.030219294 -0.04734316 0.023109077 -0.012357872
0.048979126 -0.0039878017 -0.056970313 -0.007033507 -0.008166809 0.039344423 0.027699845 -0.003640971
0.05500841 -0.06615988 -0.043738034 -0.054416254 0.0050483015 0.049952168 0.041719794 0.041654747
-0.089747 -0.025670642 -0.062042408 0.022532208 0.058383718 -0.03894064 -0.057288237 0.034287285
-0.015880395 0.004381922 -0.074561425 0.05110462 0.11489373 -0.038976 0.06990853 -0.04186883
0.064231426 -0.07650854 0.04650027 0.052256946 0.031948686 0.035075035 0.046483804 0.0099882325
0.105102494 0.030025125 -0.022602407 -0.037571475 -0.022328425 -0.028368888 -0.011484938 0.04093904
0.05996848 0.00489205 -0.07556307 -0.050782003 0.0015670736 -0.06944099 -0.011409592 -0.02411762
0.049705323 0.058237918 -0.021721115 -0.03375586 -0.07451444 -0.0070867757 -0.045587678 0.050436534
-0.0073355404 0.05663131 -0.044513516 0.054805044 -0.06158079 -0.004167017 -0.048915517 0.03582656
0.045703378 -0.011385166 -0.06879105 -0.015461365 -0.015108938 0.02486646 -0.05161623 -0.012963591
-0.056233425 -0.035326485 0.09115519 0.024621317 0.008015436 -0.0996625 -0.09061598 -0.088006474
-0.06408417 -0.046841543 0.003981851 0.028269246 -0.032431632 -0.064959645 0.07164899 -0.058184486
0.025598615 -0.050645318 0.021428537 0.04224874 0.0683075 0.031701278 0.049763795 0.07474742
0.03534049 0.043886848 -0.04804509 -0.049396377 -0.020877685 0.014805001 -0.069915295 -0.07563397
-0.060503844 0.036590986 -0.06430731 -0.046529207 -0.036404464 0.017810196 0.051504366 0.074439965
-0.021460202 -0.008426973 0.050354622 -0.011120543 0.06585683 -0.04293964 -0.03378906 0.041258235
-0.06536059 0.05743467 -0.05516363 -0.04335067 0.0065796482 -0.06514266 0.03286601 0.0010187591
0.046913806 0.038904976 -0.059186444 -0.04229098 0.038129475 -0.009376019 -0.015201682 -0.053652972
0.043064337 -0.024484074 0.0377057 0.033766974 0.036004532 0.009097545 -0.07878114 -0.017537018
-0.08056873 0.060120665 -0.02581465 0.022312496 0.05635006 0.05508931 0.016171094 0.010482533
0.04229685 -0.004012106 -0.01045576 0.014846269 -0.048528433 0.032891195 0.033406388 -0.048905298
0.028521724 0.05605581 -0.048994582 -0.019322963 0.04089313 -0.014831124 -0.05242795 -0.06155672
00000000: a0d8 9abc 1ba3 ae3c 531c 5c3c 5759 1d3d
00000010: 7698 26bd efaf 65bd 1ba8 613d f8db 8d3d
00000020: 1be0 a33b e1c8 123d d1dc 323b d398 34bd
00000030: 518a 883c 26d0 003d 585c d93c 587c ee3c
00000040: 3160 e0bc c5ff a9bb 4ac4 3abd bd99 feb9
00000050: ca5c c5bb 6606 893b 853a 59bd e25d 453d
00000060: efdf 583d a9f4 7f3d 19aa 9f3b ab96 83bc
00000070: 092b 1dbd 010d 3bbc 65ca 1e3d ae8d a7bc
00000080: 90d8 d7bc 66c2 d23c 8b7b 003c acfa 3cbd
00000090: 6e12 30bd c746 cfbb 69c0 a63c a466 6b3d
000000a0: 82b0 6cbd 08f7 133d 18fe 7e3d 3a11 5dbc
000000b0: d52b bd3c de42 323d 071c 373d ceb8 7abd
000000c0: 4efb 8dbd 38f8 913b 0e0e eb3c 2391 123d
000000d0: d3af 04bd ddd1 9fbc 39f8 65bc f0a6 e33c
000000e0: a7b9 21bd 1330 3a3d 4d01 debb a746 80bb
000000f0: 1f40 803d 3522 703c e759 183d 4976 493c
00000100: bc3c c93b 5d27 50bd 56d1 8dbd ed02 8b3c
00000110: 0dd9 06bd cde9 ff3c 3fdb 93bd 1d9a ba3c
00000120: 1562 513d 7129 e9bc 7a15 0a3d 9be8 ddbc
00000130: 748e f73c e7ea 41bd 3f4f bd3c ac78 4abc
00000140: 569e 483d 1bac 82bb b459 69bd 5579 e6bb
00000150: 14ce 05bc 9e27 213d c9ea e23c 5b9d 6ebb
00000160: 8050 613d d57e 87bd a726 33bd 94e3 5ebd
00000170: 396c a53b a59a 4c3d 60e2 2a3d 2b9e 2a3d
00000180: 46cd b7bd 3d4b d2bc 2e20 7ebd 7795 b83c
00000190: c423 6f3d 3880 1fbd 12a7 6abd d370 0c3d
000001a0: 9a17 82bc 3a96 8f3b a9b3 98bd 1453 513d
000001b0: 674d eb3d 4ca5 1fbd 342c 8f3d a67e 2bbd
000001c0: c48b 833d 82b0 9cbd 1177 3e3d 610b 563d
000001d0: a0dc 023d d7aa 0f3d cd65 3e3d afa5 233c
000001e0: fa3f d73d 40f7 f53c af28 b9bc 8ce4 19bd
000001f0: 1aea b6bc df65 e8bc 522b 3cbc b2af 273d
00000200: 82a1 753d 7d4d a03b d0c0 9abd ca00 50bd
00000210: 4466 cd3a 1437 8ebd 4cef 3abc 5192 c5bc
00000220: cf97 4b3d e28a 6e3d 7bf0 b1bc 9643 0abd
00000230: 079b 98bd 2f38 e8bb 25ba 3abd 8a96 4e3d
00000240: f95e f0bb 3cf6 673d ce53 36bd 417b 603d
00000250: 233c 7cbd 798b 88bb a35b 48bd dfbe 123d
00000260: 7733 3b3d d988 3abc 52e2 8cbd aa51 7dbc
00000270: 7b8b 77bc bfb4 cb3c 8a6b 53bd 3e65 54bc
00000280: 0555 66bd 81b2 10bd 92af ba3d a5b2 c93c
00000290: 2d53 033c da1b ccbd df94 b9bd bd3c b4bd
000002a0: 903e 83bd ebdc 3fbd 307a 823b e894 e73c
000002b0: 08d7 04bd 9009 85bd b5bc 923d db52 6ebd
000002c0: 30b4 d13c 7771 4fbd e68a af3c 040d 2d3d
000002d0: cde4 8b3d 33d9 013d 1fd5 4b3d 2d15 993d
000002e0: 31c1 103d b2c2 333d eeca 44bd db53 4abd
000002f0: ae07 abbc ad90 723c c02f 8fbd fce5 9abd
00000300: e1d2 77bd 6ee0 153d 8db3 83bd 6995 3ebd
00000310: d91c 15bd b0e6 913c 3ef6 523d fb73 983d
00000320: 4ecd afbc 4911 0abc a640 4e3d f032 36bc
00000330: f2df 863d 7ae1 2fbd 6666 0abd 65fe 283d
00000340: c6db 85bd 9e40 6b3d 42f3 61bd 7990 31bd
00000350: 179a d73b 8469 85bd 829e 063d e287 853a
00000360: b128 403d d35a 1f3d 7c6d 72bd 4f39 2dbd
00000370: a72d 1c3d e09d 19bc 7a10 79bc 38c3 5bbd
00000380: 3b64 303d d392 c8bc 4b71 1a3d 3d4f 0a3d
00000390: 7d79 133d df0d 153c 0258 a1bd cba9 8fbc
000003a0: 3801 a5bd 1641 763d 3f79 d3bc b2c8 b63c
000003b0: 52cf 663d 54a5 613d 3e79 843c eebe 2b3c
000003c0: 763f 2d3d fc77 83bb a34e 2bbc c43d 733c
000003d0: c0c5 46bd ebb8 063d 23d5 083d ec50 48bd
000003e0: 64a6 e93c c79a 653d 8bae 48bd 314b 9ebc
000003f0: 8e7f 273d 3efe 72bc b1be 56bd e622 7cbd

conv2.bias f4 [128]
-0.044669595 -0.051018696 -0.019439336 -0.0323292 0.06337587 0.034205597 -0.018406346 0.003583103
0.060810827 -0.022464847 0.01644881 -0.042748265 -0.066349216 -0.032378558 0.030673247 0.0037186432
0.014431116 0.04026414 0.0037989959 0.02797926 0.055926878 0.0028392933 0.06330212 -0.000101465936
-0.010346071 -0.02731606 -0.06352861 -0.0026464225 0.04441901 -0.036111422 -0.03357046 -0.010599011
0.018909238 0.06819818 0.013778298 -0.0018686858 -0.06426128 -0.056257896 -0.032288034 -0.0062263883
0.0170901 0.06510441 0.03097675 0.0004697099 0.047113374 -0.02675192 -0.034508742 -0.039406452
0.06610621 -0.058952477 0.06390415 0.013412317 0.068061 0.036867063 0.0080278125 -0.053670794
-0.06279809 0.021872323 0.007904698 -0.03613001 -0.064357705 0.04450808 -0.05774412 -0.0010558305
-0.06067686 -0.009132696 0.041657716 0.048997078 -0.0002444281 0.06576471 0.02897696 -0.059528228
0.011537989 0.057233512 -0.066659175 -0.032861244 -0.028105292 -0.055136427 -0.056546256 -0.052750524
-0.002333838 -0.06473861 -0.03988529 0.055494532 -0.011224575 -0.023505252 0.056736946 -0.06868727
-0.022876594 0.041811273 -0.06242422 -0.040389504 -0.011024495 0.010201184 0.062150884 -0.06801783
-0.06727681 0.050033756 0.054233897 -0.013955389 -0.06801171 -0.05278379 0.06034452 0.056186758
0.032254998 0.016624203 -0.021586677 -0.03445192 -0.03956157 -0.030444765 -0.037052024 -0.06664231
-0.024813578 0.054318607 0.06439735 -0.0071742567 -0.058609318 0.063363336 -0.062269293 -0.0677688
0.024808807 0.046078045 -0.014421877 0.010180198 0.051290985 -0.036001623 0.008824222 0.016542235
00000000: 77f7 36bd fbf8 50bd 3e3f 9fbc a06b 04bd
00000010: 35cb 813d 2b1b 0c3d e8c8 96bc 7ed2 6a3b
00000020: c614 793d 3308 b8bc a8bf 863c ce18 2fbd
00000030: 19e2 87bd 619f 04bd 7646 fb3c 7bb4 733b
00000040: 7d70 6c3c 03ec 243d 93f8 783b c334 e53c
00000050: 9513 653d 7013 3a3b 8ba4 813d 1cca d4b8
00000060: 9182 29bc eec5 dfbc 4a1b 82bd 9a6f 2dbb
00000070: b5f0 353d 92e9 13bd 2e81 09bd 79a7 2dbc
00000080: 8ce7 9a3c 7dab 8b3d 5fbe 613c b1ee f4ba
00000090: 6b9b 83bd ae6e 66bd 7540 04bd bb06 ccbb
000000a0: 8a00 8c3c 7655 853d f4c2 fd3c 6543 f639
000000b0: f4f9 403d d826 dbbc 0a59 0dbd a968 21bd
000000c0: b162 873d 2778 71bd 2ee0 823d 56bf 5b3c
000000d0: 9163 8b3d eb01 173d 1687 033c e8d5 5bbd
000000e0: 499c 80bd 962d b33c b582 013c 10fd 13bd
000000f0: f9cd 83bd 1b4e 363d 1985 6cbd cb63 8aba
00000100: 4d88 78bd 4ea1 15bc 48a1 2a3d 29b1 483d
00000110: 9626 80b9 a6af 863d 1761 ed3c dfd3 73bd
00000120: d509 3d3c b06d 6a3d 9b84 88bd 8399 06bd
00000130: 123d e6bc bcd6 61bd 0c9d 67bd ef10 58bd
00000140: 4ef3 18bb ad95 84bd c25e 23bd 3c4e 633d
00000150: 48e7 37bc 168e c0bc 0065 683d e9ab 8cbd
00000160: b267 bbbc 4c42 2b3d 8ab0 7fbd 776f 25bd
00000170: 15a0 34bc de22 273c ed91 7e3d ef4c 8bbd
00000180: 6dc8 89bd 32f0 4c3d 5d24 5e3d 25a5 64bc
00000190: b949 8bbd d133 58bd d12b 773d 1624 663d
000001a0: d11d 043d 7b2f 883c 8bd6 b0bc 751d 0dbd
000001b0: 500b 22bd 4d67 f9bc ddc3 17bd c37b 88bd
000001c0: d845 cbbc 307d 5e3d c2e2 833d 0716 ebbb
000001d0: 5310 70bd a3c4 813d 160e 7fbd 5eca 8abd
000001e0: d73b cb3c 55bc 3c3d bd49 6cbc d8ca 263c
000001f0: 7f16 523d 7076 13bd 7893 103c 9583 873c

dense1.weight f4 [50, 768]
-0.018808302 0.02065491 0.02000695 0.003930702 0.009021906 0.013219856 0.0012401567 -0.03195328
0.027764926 -0.016461948 0.019230934 0.0016684412 0.004558248 0.006708329 -0.009554572 0.031989027
0.0032913187 0.0439119 -0.016541597 -0.0043138773 0.004035209 0.010361838 -0.017173838 0.039397806
-0.028728915 0.019711655 -0.012700028 -0.00942332 -0.032614388 -0.03693337 0.031606335 -0.015745593
-0.018901117 -0.0129481815 0.027339702 0.022106674 0.015712569 -0.01249433 -0.012353806 0.02082988
0.018864939 0.017417915 -0.018396635 0.019211486 -0.0026061619 0.026702609 0.034785308 0.029910719
0.03769175 -0.015586575 0.04946359 0.01313668 0.0047347853 0.019406762 0.0058804573 0.018806618
-0.031811796 -0.00045963563 0.011473774 0.031049505 -0.0041580983 0.035885938 -0.013468715 -0.013458471
0.023312414 -0.013211062 0.010413566 0.0022839431 0.037844248 0.023702431 -0.027601378 0.019531649
0.017379934 0.034273546 -0.019410055 0.03282128 0.0076740645 0.010884408 -0.038798887 -0.02319704
-0.036459062 0.03044081 -0.02290843 -0.013469064 -0.006162112 -0.0062638354 0.008019164 0.01026414
0.0049964376 0.01882289 -0.0031093934 0.010605353 0.020771254 0.016610429 -0.039335344 0.021314055
-0.017988963 0.026369754 0.021365298 0.015936624 0.036880013 0.02656169 -0.034003492 -0.041540626
-0.030163642 -0.01042883 -0.011521943 0.03269501 -0.0066963024 -0.019008024 0.022161698 -0.012509806
0.000654533 -0.017053358 -0.008144427 -0.015232418 -0.015182313 0.012297184 -0.020573204 0.032444444
-0.005936624 -0.0181833 -0.011604844 0.02009513 0.011928996 -0.006116338 -0.0073432983 0.011617288
-0.017078318 -0.008088144 0.018675303 -0.007109125 0.008360121 0.008973632 -0.0115902955 0.0058198734
0.016662307 0.030003157 0.016558737 -0.008431879 -0.019397957 -0.022573283 0.010300563 0.016076267
-0.00032004606 -0.035889763 -0.016498407 0.004100465 -0.015366399 0.047074854 0.027012123 0.011428259
0.02301829 -0.00048332676 0.03241612 0.02020642 -0.018380139 -0.024459874 0.03157855 -0.016039995
0.012793155 0.015454222 0.049201705 0.031979624 0.017269755 -0.03259015 0.0060359417 0.006162635
-0.013730997 -0.026545132 -0.010216205 0.03270163 -0.013030019 0.010763147 0.03917745 -0.00692053
0.028135568 0.02009185 -0.009303605 0.004871475 0.02134954 -0.011853686 0.026758144 -0.025032632
0.012039211 -0.006291418 -0.010166197 0.023324773 -0.030695815 0.017580245 0.003030202 -0.04076207
0.0039288476 -0.0085608205 -0.012742438 0.029243434 0.03886749 0.047040407 -0.0014169886 -0.023607831
0.0021614472 0.029649647 0.013107445 -0.033959128 -0.006506477 0.0407731 0.009838775 -0.023744749
-0.01878521 -0.012809062 -0.020860858 0.011461827 -0.017498754 0.022226756 0.014836235 -0.008650765
-0.025927072 -0.019058287 0.01230511 -0.024634672 0.02900121 0.029431034 0.027890595 -0.0040116594
0.028010152 -0.017499281 -0.03315417 0.039487254 0.0053466945 0.03270795 0.034874894 0.027080199
0.045051087 0.048954427 0.020912783 -0.025470976 -0.020394802 -0.0015029493 0.016567383 -0.0065712277
-0.021353047 -0.024661586 -0.018940559 -0.019220578 -0.009294094 -0.0113309715 0.024998812 0.0147215575
0.034318916 -0.020057948 -0.024056207 -0.0024289193 -0.024304021 0.02902277 0.017018447 0.024777621
00000000: de13 9abc 7c34 a93c 9de5 a33c 1ecd 803b
00000010: 9ed0 133c 1898 583c c18c a23a 71e1 02bd
00000020: 4573 e33c 35db 86bc 318a 9d3c 99af da3a
00000030: 5b5d 953b 8bd1 db3b c88a 1cbc ed06 033d
00000040: 2ab3 573b f7dc 333d 3e82 87bc 6d5b 8dbb
00000050: c939 843b b3c4 293c 26b0 8cbc 985f 213d
00000060: e758 ebbc 567a a13c c713 50bc 4564 1abc
00000070: aa96 05bd 7247 17bd a575 013d e7fc 80bc
00000080: 84d6 9abc 9c24 54bc 83f7 df3c 0e19 b53c
00000090: a5b7 803c 05b5 4cbc 9e67 4abc 6da3 aa3c
000000a0: a58a 9a3c 04b0 8e3c 8ab4 96bc 6861 9d3c
000000b0: 24cc 2abb 6ebf da3c 0a7b 0e3d 5307 f53c
000000c0: aa62 1a3d d55e 7fbc 559a 4a3d 3b3b 573c
000000d0: 4226 9b3b eefa 9e3c dab0 c03b 5610 9a3c
000000e0: 164d 02bd 40fb f0b9 7ffc 3b3c 885b fe3c
000000f0: a840 88bb 22fd 123d e3ab 5cbc eb80 5cbc
00000100: adf9 be3c 3673 58bc a99d 2a3c 35ae 153b
00000110: 9202 1b3d 9a2b c23c 491c e2bc d600 a03c
00000120: 5d60 8e3c 6b62 0c3d d601 9fbc 9b6f 063d
00000130: b876 fb3b 8454 323c 95eb 1ebd b807 bebc
00000140: 1956 15bd 015f f93c 76aa bbbc 59ad 5cbc
00000150: 8beb c9bb dc40 cdbb d062 033c ec2a 283c
00000160: 28b9 a33b 7632 9a3c f7c6 4bbb 13c2 2d3c
00000170: 7a28 aa3c 9812 883c 191e 21bd d09a ae3c
00000180: 975d 93bc 6205 d83c 4706 af3c 868d 823c
00000190: 7f0f 173d e797 d93c 3f47 0bbd 8126 2abd
000001a0: be19 f7bc afdd 2abc 88c6 3cbc 34eb 053d
000001b0: a86c dbbb b7b6 9bbc 738c b53c eef5 4cbc
000001c0: f794 2b3a 7cb3 8bbc 3470 05bc 6491 79bc
000001d0: 3cbf 78bc 217a 493c 2389 a8bc 77e4 043d
000001e0: 0388 c2bb 25f5 94bc 3e22 3ebc 8b9e a43c
000001f0: d671 433c 906b c8bb 0da0 f0bb 7056 3e3c
00000200: d4e7 8bbc 2284 04bc f3fc 983c aaf3 e8bb
00000210: e4f8 083c 2406 133c 39e5 3dbc a3b4 be3b
00000220: 647f 883c 2ec9 f53c 30a6 873c dd25 0abc
00000230: 77e8 9ebc 9beb b8bc b1c3 283c 60b2 833c
00000240: dbcb a7b9 2501 13bd ab27 87bc 325d 863b
00000250: 59c3 7bbc 90d1 403d 8748 dd3c 983d 3b3c
00000260: da90 bc3c 0567 fdb9 c4c6 043d ef87 a53c
00000270: f291 96bc 1360 c8bc 8258 013d 4f66 83bc
00000280: 629a 513c b533 7d3c ba87 493d 11fd 023d
00000290: 4d79 8d3c 407d 05bd 26c9 c53b eeef c93b
000002a0: faf7 60bc 2d75 d9bc df61 27bc 25f2 053d
000002b0: dc7b 55bc e957 303c 8978 203d 9dc5 e2bb
000002c0: 907c e63c aa97 a43c 266e 18bc e5a0 9f3b
000002d0: 3be5 ae3c f635 42bc e533 db3c 3c11 cdbc
000002e0: 1c40 453c 3d28 cebb 1f90 26bc 9813 bf3c
000002f0: ca75 fbbc 7204 903c 5a96 463b 21f6 26bd
00000300: 90bd 803b af42 0cbc a9c5 50bc ed8f ef3c
00000310: 8433 1f3d 71ad 403d 3fba b9ba 3665 c1bc
00000320: 11a7 0d3b d1e3 f23c 9cc0 563c ba18 0bbd
00000330: 4934 d5bb b201 273d d032 213c 5984 c2bc
00000340: 71e3 99bc 1add 51bc 64e4 aabc 63ca 3b3c
00000350: 8c59 8fbc e314 b63c ae13 733c f0bb 0dbc
00000360: 0365 d4bc 2020 9cbc 5f9b 493c a7ce c9bc
00000370: f293 ed3c 5a19 f13c d17a e43c 3d74 83bb
00000380: 8c75 e53c a75a 8fbc abcc 07bd 63bd 213d
00000390: 5333 af3b c5f8 053d fad8 0e3d 4bd7 dd3c
000003a0: 7d87 383d 7084 483d 4951 ab3c 82a8 d0bc
000003b0: 0013 a7bc 9cfe c4ba 52b8 873c 7453 d7bb
000003c0: 96ec aebc 1807 cabc 3b29 9bbc 7974 9dbc
000003d0: 4146 18bc 8aa5 39bc 4fca cc3c b032 713c
000003e0: fe91 0c3d 9150 a4bc 8611 c5bc 812e 1fbb
000003f0: 3a19 c7bc 29c1 ed3c 456a 8b3c 70fa ca3c

dense1.bias f4 [50]
0.03271585 0.002286205 0.0073206453 -0.01597413 0.0010684466 -0.019583412 -0.014238009 -0.014313567
-0.0051305974 -0.02434684 0.018868191 -0.023253374 -8.2559294e-05 0.025444284 -0.016704803 -0.01100935
0.00087615015 0.010064986 -0.005731427 0.013860457 0.014914393 0.030142631 0.019349538 -0.0088448515
0.0022631665 0.034566276 0.02955273 -0.023672 0.015050663 -0.013473727 -0.0072664665 0.037013736
-0.012482532 -0.012318046 -0.019845445 -0.021149008 0.008825236 0.03184797 0.024190396 -0.027308255
-0.014678803 -0.027257219 -0.02153218 -0.017286232 0.030532422 0.028411336 -0.014179803 0.010503322
-0.026122138 0.02150468
00000000: 0e01 063d 28d4 153b 06e2 ef3b 2edc 82bc
00000010: 1e0b 8c3a 646d a0bc 8a46 69bc 7483 6abc
00000020: 921e a8bb 0673 c7bc 7791 9a3c dc7d bebc
00000030: af23 adb8 8870 d03c 83d8 88bc 9060 34bc
00000040: 71ad 653a 9ce7 243c b2ce bbbb f816 633c
00000050: 805b 743c aeed f63c ec82 9e3c ffe9 10bc
00000060: a251 143b 5e95 0d3d 9118 f23c c8eb c1bc
00000070: 0e97 763c e8c0 5cbc 8a1b eebb b79b 173d
00000080: 8983 4cbc a1d1 49bc ea92 a2bc af40 adbc
00000090: b997 103c 0473 023d f02a c63c 90b5 dfbc
000000a0: 5d7f 70bc 884a dfbc 4164 b0bc db9b 8dbc
000000b0: 211f fa3c e4be e83c 6852 68bc 2016 2c3c
000000c0: 18fe d5bc 952a b03c

dense2.weight f4 [1, 50]
0.1285674 -0.06906841 0.089519866 0.076590195 0.03546336 -0.105403535 -0.11430109 0.033373654
0.1452884 0.09107069 -0.1171542 -0.13589416 0.103077464 -0.053055763 0.10916285 0.14757568
-0.08161681 -0.042604554 0.13359381 0.020157121 -0.06317686 -0.120883435 0.089311115 0.08554697
-0.05710939 -0.056691065 0.13820039 0.13329323 -0.0450956 -0.039453134 0.123617254 -0.08575534
0.08361094 -0.14362237 -0.1366668 -0.042569574 -0.11751536 0.03089233 -0.08099466 0.12719394
0.059589222 0.09860272 0.017721051 -0.03241209 0.068272024 0.113457486 -0.10361895 0.14153813
-0.13758345 0.050019443
00000000: 2ca7 033e bd73 8dbd 3156 b73d 52db 9c3d
00000010: 0742 113d cfdd d7bd b116 eabd d0b2 083d
00000020: 7bc6 143e 4583 ba3d 8bee efbd d727 0bbe
00000030: 471a d33d 0051 59bd c690 df3d 141e 173e
00000040: b726 a7bd 1d82 2ebd d1cc 083e 8c20 a53c
00000050: df62 81bd bc91 f7bd bfe8 b63d 4033 af3d
00000060: 89eb 69bd e434 68bd 6784 0d3e 057e 083e
00000070: 2ab6 38bd 9c99 21bd 0b2b fd3d 7fa0 afbd
00000080: 363c ab3d be11 13be 62f2 0bbe 6f5d 2ebd
00000090: e5ab f0bd e911 fd3c 87e0 a5bd 213f 023e
000000a0: d413 743d 39f0 c93d bd2b 913c 8ac2 04bd
000000b0: 34d2 8b3d 665c e83d 2c36 d4bd 5fef 103e
000000c0: ade2 0cbe 30e1 4c3d
