time_series_forecasting/saved_models/CNNForecastingModel/19-03-2024-234349_NO1_epoch_1.pt (torch, 260011 bytes, 7 tensors)

conv1.weight f4 [64, 5, 3]
0.13576666 -0.18781258 0.062054463 -0.05801618 -0.1034865 -0.07246931 -0.2206314 -0.14204848
-0.26589563 0.035536382 0.11365397 0.0070905965 -0.25426936 0.10852179 0.19465643 0.08762284
0.18422991 -0.037768517 0.1802483 -0.05301437 -0.097346894 -0.020753777 0.08139897 -0.24402347
-0.18333882 0.089915425 0.040417742 -0.12668611 -0.16302942 0.04222219 -0.18913709 -0.09198993
-0.107338615 0.065729626 0.14411259 -0.17809117 -0.24275328 -0.21388285 -0.1265214 -0.18784443
0.17290246 -0.19551423 -0.12835063 0.11165735 -0.13598503 0.11115584 -0.10852219 0.0037762062
-0.12900123 -0.1242549 -0.20157167 0.06440822 -0.21001008 0.016446773 0.24063559 0.0948689
-0.19839989 -0.14982504 -0.068983026 -0.24726905 -0.20273945 -0.052213065 -0.027535941 0.07520783
0.18419404 0.22031273 -0.12927863 -0.14177005 0.19480018 -0.13800876 0.13157442 0.24258788
-0.0031828845 -0.14015837 0.1087369 -0.17544755 -0.20558925 -0.09835177 -0.15908627 0.13677815
-0.194029 -0.047836978 0.1244805 -0.02959731 -0.08433382 -0.13782014 -0.072749436 -0.031364415
-0.15228985 -0.07734445 -0.02000316 0.2474988 0.053573012 0.031390093 -0.12266329 0.24569719
0.17665735 -0.061598998 0.033660095 0.23997593 -0.0288454 0.108452685 0.22482096 -0.17535612
0.060723305 0.123575635 0.009277398 -0.07239413 -0.20817703 0.14570163 0.1943319 -0.097863555
0.021722386 0.035707843 0.038571324 0.12760572 0.04904719 0.21424702 0.02317058 0.20066895
-0.02396412 0.048710026 0.14731027 0.21974112 0.16498983 0.1017644 0.010805223 0.023448786
0.16994628 -0.2621068 0.19380686 0.058754142 0.20027931 0.063007474 -0.053600393 -0.016791314
0.0034427068 0.004408313 0.24971537 0.23118404 0.072190575 -0.018562755 0.19858433 -0.21527547
0.16900393 0.22634451 -0.17428967 -0.08560695 0.0022449065 -0.08138313 -0.16769557 0.06405557
-0.049502693 0.06735664 0.031235829 0.118794695 -0.23724568 -0.29144198 -0.2446793 -0.15130836
0.018474624 -0.12739895 -0.05255865 0.008660096 0.15817074 -0.1641096 0.06250288 -0.2203441
0.11157584 0.21077156 -0.008945899 -0.2045066 0.07590948 0.13607568 -0.113078505 -0.09223216
-0.17074932 0.06642739 0.05984291 0.17377146 -0.20077801 -0.16996504 0.0005288573 -0.24061044
0.06719685 -0.18698645 0.15249962 0.079459175 -0.13315548 0.040028635 -0.15086278 -0.15912819
0.2422772 -0.18295863 -0.10689329 0.25086322 0.036764026 0.12062896 -0.09704901 -0.07349434
0.08735232 -0.09800709 -0.23396343 -0.1191154 0.018713279 0.067578524 -0.14911532 -0.2478071
0.012770947 0.21008535 -0.21553451 -0.19212784 -0.012224115 -0.06399303 0.22568259 0.18213952
-0.093484424 -0.08029874 -0.12852813 0.17667688 0.013296713 0.15698461 -0.031966966 0.22257921
-0.22866064 -0.19962028 0.10925416 0.10930165 -0.12146169 0.13561681 0.077656545 0.17614573
-0.12699717 0.1629133 -0.19094789 0.046543855 0.06247857 0.117445454 0.010861613 0.08861746
-0.17341949 -0.16364191 0.11361499 0.20974942 0.20664297 0.064277366 -0.16415846 -0.16923256
0.2391862 -0.07843875 0.06019833 -0.14338769 -0.18694185 -0.20679379 0.23179059 0.04995232
00000000: 6a06 0b3e f151 40be d22c 7e3d 60a2 6dbd
00000010: bbf0 d3bd ca6a 94bd 33ed 61be 2875 11be
00000020: 7923 88be 998e 113d 6ac3 e83d 3c58 e83b
00000030: 982f 82be ac40 de3d 0454 473e 9b73 b33d
00000040: c4a6 3c3e 29b3 1abd 0393 383e 9925 59bd
00000050: cf5d c7bd d303 aabc 81b4 a63d 4ae1 79be
00000060: 2cbd 3bbe 9425 b83d 138d 253d 01ba 01be
00000070: 2ff1 26be 2df1 2c3d 27ad 41be 3765 bcbd
00000080: 59d4 dbbd 419d 863d 4092 133e 885d 36be
00000090: 5194 78be 1b04 5bbe d38e 01be 4a5a 40be
000000a0: 580d 313e e234 48be 596e 03be 9cac e43d
000000b0: a93f 0bbe aca5 e33d e240 debd 3a7a 773b
000000c0: e618 04be 5a79 febd ce68 4ebe 75e8 833d
000000d0: e20c 57be 62bb 863c 2d69 763e a04a c23d
000000e0: 5729 4bbe bc6b 19be f946 8dbd 1934 7dbe
000000f0: ee9a 4fbe 5edd 55bd 0e93 e1bc 9006 9a3d
00000100: 5d9d 3c3e a999 613e 9e61 04be 2b2c 11be
00000110: b379 473e 2b52 0dbe 72bb 063e f568 783e
00000120: f197 50bb ad85 0fbe 74b1 de3d 86a8 33be
00000130: fd85 52be a76c c9bd 83e7 22be 920f 0c3e
00000140: 8aaf 46be b5f0 43bd a2ef fe3d 0f76 f2bc
00000150: 36b7 acbd b920 0dbe a8fd 94bd f977 00bd
00000160: dff1 1bbe c466 9ebd abdd a3bc 5370 7d3e
00000170: 606f 5b3d e692 003d e436 fbbd 0b98 7b3e
00000180: aae5 343e 3b4f 7cbd 2bdf 093d 40bc 753e
00000190: 304d ecbc 711c de3d 7737 663e 8e90 33be
000001a0: 00b9 783d 3915 fd3d 3a00 183c 6043 94bd
000001b0: 5c2c 55be cf32 153e f1fe 463e b06c c8bd
000001c0: 25f3 b13c 6342 123d f7fc 1d3d 13ab 023e
000001d0: b5e5 483d 9263 5b3e 3ad0 bd3c 297c 4d3e
000001e0: 6750 c4bc 2a84 473d 81d8 163e d103 613e
000001f0: 18f3 283e db69 d03d 6408 313c ab17 c03c
00000200: 6606 2e3e dd32 86be 4e75 463e 2fa8 703d
00000210: 0516 4d3e 100a 813d 168c 5bbd f08d 89bc
00000220: 099f 613b 9c73 903b 63b5 7f3e 82bb 6c3e
00000230: a7d8 933d eb10 98bc b159 4b3e 2c71 5cbe
00000240: 5e0f 2d3e dbc6 673e fe78 32be b252 afbd
00000250: 481f 133b 33ac a6bd 63b8 2bbe 912f 833d
00000260: 56c3 4abd 47f2 893d 48e2 ff3c a24a f33d
00000270: 88f0 72be e237 95be 368d 7abe 94f0 1abe
00000280: 1858 973c df74 02be bd47 57bd 13e3 0d3c
00000290: 83f7 213e 590c 28be 8301 803d e2a1 61be
000002a0: e081 e43d 80d4 573e d291 12bc 2e6a 51be
000002b0: 6e76 9b3d 6c57 0b3e b495 e7bd 37e4 bcbd
000002c0: e9d8 2ebe 150b 883d d71d 753d 25f1 313e
000002d0: c098 4dbe 510b 2ebe 03a3 0a3a 9562 76be
000002e0: 819e 893d 6079 3fbe dc28 1c3e 7ebb a23d
000002f0: e959 08be 11f5 233d c67b 1abe 80f2 22be
00000300: 8417 783e 8259 3bbe dfea dabd 2571 803e
00000310: e095 163d 510c f73d a2c1 c6bd 3384 96bd
00000320: c6e5 b23d f1b7 c8bd 1c94 6fbe c6f2 f3bd
00000330: 974c 993c 9c66 8a3d b0b1 18be 25c1 7dbe
00000340: 3c3d 513c 9d20 573e 14b5 5cbe 29bd 44be
00000350: a847 48bc c70e 83bd 5619 673e c882 3a3e
00000360: c374 bfbd aa73 a4bd e19c 03be c9ea 343e
00000370: 75da 593c 93c0 203e cbef 02bd ceeb 633e
00000380: 0426 6abe 4269 4cbe a5c0 df3d 8bd9 df3d
00000390: e8c0 f8bd 22df 0a3e 650a 9f3d 8c5f 343e
000003a0: 8c0b 02be bed2 263e d887 43be c5a4 3e3d
000003b0: 87e9 7f3d 3e87 f03d e8f4 313c 127d b53d
000003c0: e194 31be bf91 27be faae e83d 8dc8 563e
000003d0: 379a 533e daa3 833d 2819 28be 4d4b 2dbe
000003e0: 3aed 743e 7fa4 a0bd 8692 763d 39d4 12be
000003f0: af6d 3fbe c0c1 53be 835a 6d3e ce9a 4c3d

conv1.bias f4 [64]
0.06301431 0.021742651 -0.023452194 0.07593633 -0.063567765 0.08450419 0.12747817 0.24439736
-0.032512978 0.048576653 -0.029868748 0.25344706 0.23589902 -0.17604779 -0.1637593 0.089951426
0.10381162 0.07896835 -0.23901021 -0.21678199 -0.055357754 0.21462211 -0.10949135 -0.048220776
-0.09784428 0.055435345 0.14072546 -0.14437854 0.04144705 0.122884385 -0.17104666 0.26081243
-0.055403877 -0.15265314 -0.08686498 -0.20475063 -0.17667994 0.16322708 -0.21282475 0.023188788
-0.17411418 -0.04497338 -0.1779775 -0.21207072 0.10688291 -0.042446714 -0.2222042 0.1098835
0.066348135 0.120522395 -0.14662156 0.21191825 0.06742019 0.13983312 -0.15911447 -0.09901206
-0.19251403 -0.09079619 0.09591585 0.12456519 0.17991088 -0.17980267 -0.08634609 -0.0969375
00000000: a60d 813d a51d b23c d11e c0bc 8284 9b3d
00000010: d12f 82bd 8810 ad3d a389 023e 4d43 7a3e
00000020: 542c 05bd 50f8 463d 4eaf f4bc d0c3 813e
00000030: 838f 713e df45 34be 85b0 27be 7438 b83d
00000040: 309b d43d 29ba a13d 18bf 74be 19fc 5dbe
00000050: d0be 62bd e6c5 5b3e 003d e0bd 2683 45bd
00000060: 9562 c8bd 2c10 633d 561a 103e f8d7 13be
00000070: 62c4 293d cfaa fb3d db26 2fbe 3589 853e
00000080: 2def 62bd 1b51 1cbe 44e6 b1bd 26aa 51be
00000090: 96eb 34be 0025 273e bbee 59be 6af6 bd3c
000000a0: fd4a 32be 0236 38bd bc3f 36be 1129 59be
000000b0: 6de5 da3d 9bdc 2dbd 7f89 63be 9a0a e13d
000000c0: 88e1 873d 72d4 f63d f623 16be 1901 593e
000000d0: 9913 8a3d 6a30 0f3e e7ee 22be d6c6 cabd
000000e0: 6622 45be 5af3 b9bd 876f c43d 091c ff3d
000000f0: 8f3a 383e 311e 38be 38d6 b0bd 2b87 c6bd

conv2.weight f4 [128, 64, 3]
0.032688357 0.0019939973 -0.050415065 0.031287845 0.06974583 0.025427418 0.03196728 -0.047479272
-0.050218433 0.05673576 -0.049280424 0.07554303 0.03369286 -0.038574334 -0.012707849 -0.055454087
-0.025184236 0.04941499 0.06385033 -0.050803855 0.028166033 0.018266678 -0.015913196 0.005646498
0.0066820793 -0.05921341 0.00693646 -0.051056627 -0.025556616 0.04110755 -0.041393027 -0.0031062174
6.510214e-05 -0.042004243 -0.013989995 -0.011169323 -0.07758377 0.030520426 -0.06926824 0.017134873
-0.013794198 0.024090877 -0.008548045 0.09771833 0.0013583266 0.043847043 0.047231022 -0.051014032
0.0444837 -0.043522727 -0.045977138 0.0041765994 -0.061132055 0.01345796 0.05714257 -0.041697245
-0.022959739 -0.013401205 0.0401787 -0.035648532 0.025690192 0.07945772 0.048470523 0.008622164
-0.03655549 0.031339407 0.0049220524 -0.056542095 -0.00047504276 -0.003220539 0.04743506 -0.0800201
-0.00094665604 0.07820902 0.019976245 -0.016973522 0.0130362995 0.021848312 -0.044875752 0.062453836
-0.016961783 0.053000554 0.004623654 0.07174956 -0.013589074 -0.020278959 0.06538308 -0.036322046
-0.05102224 -0.009043452 -0.04025734 -0.027029172 0.008250655 0.04792016 -0.002403323 -0.05998671
0.015483728 0.06589114 -0.07653972 0.03278089 0.045905657 0.0004545012 -0.036347434 -0.046757918
-0.03748019 -0.020713115 0.03262385 0.07628342 -0.015138722 0.020848611 0.066589646 0.07615831
0.041612178 0.016182749 0.031996805 0.044586584 0.0041645085 -0.07538069 0.059393276 0.06565828
-0.018310977 0.01673963 -0.042492382 0.025277594 -0.013012995 0.046858426 0.01933679 -0.052423455
0.0772922 0.07849935 0.06223791 0.023503132 -0.035574153 0.06614035 0.02693625 0.041114215
0.04710901 0.018189829 -0.038242076 -0.016391343 -0.05177345 -0.001124895 -0.04638208 -0.04674096
0.059833772 0.0041846116 -0.03552905 -0.07828723 -0.0018604561 0.0018803303 0.07658723 0.004401763
-0.0058899657 0.066792205 0.010452492 0.052060332 -0.06788811 -0.040266536 -0.033581946 0.013246103
-0.04884956 -0.041906856 -0.029468106 -0.06254226 0.04524181 -0.0020094963 -0.06586902 -0.01754481
-0.059911832 0.06426584 0.05476993 -0.016709803 0.03052448 0.03702151 0.091630176 -0.021826351
-0.018035224 0.0069082347 0.032731194 -0.0554033 -0.03483515 -0.041159242 -0.02844948 0.0006138135
0.046455663 0.018700136 -0.012913276 0.021411343 -0.012822512 0.009496693 -0.036581673 -0.059798058
-0.051859036 0.0500969 -0.03930067 0.021731764 -0.024777338 0.05057392 0.020567885 0.07047737
-0.05521476 -0.07635579 0.012457643 -0.061416276 -0.06766574 0.066504315 -0.05167669 0.07097298
0.0112888785 -0.03963052 -0.039084516 -0.033502333 -0.049272254 0.03241961 -0.06934003 0.020664845
-0.060704697 -0.031960946 0.059261035 -0.05984275 0.016568013 0.06270928 0.028561737 -0.027470255
0.054499567 -0.048892286 -0.0019387493 0.044025216 -0.026868457 0.060946785 0.0030864752 -0.057380024
0.00050811574 -0.03967664 -0.06785708 0.06413589 -0.061170064 0.047146555 -0.04062959 -0.055425357
0.037299503 -0.018699542 -0.04108647 0.05326891 0.042147018 0.009249116 -0.09158836 0.03694795
0.046364177 -0.029226515 0.048227366 0.04669163 0.06887021 0.038803473 -0.04306621 0.059906986
00000000: 3ae4 053d b9ad 023b 0780 4ebd af27 003d
00000010: e7d6 8e3d 294d d03c 1ff0 023d a079 42bd
00000020: d8b1 4dbd c263 683d 45da 49bd 4eb6 9a3d
00000030: 8601 0a3d 1f00 1ebd 9534 50bc d323 63bd
00000040: 2c4f cebc 5f67 4a3d f6c3 823d b417 50bd
00000050: 74bc e63c 00a4 953c 645c 82bc 4206 b93b
00000060: 58f5 da3b c389 72bd 3e4b e33b c120 51bd
00000070: 1c5c d1bc 6460 283d bc8b 29bd ae91 4bbb
00000080: 7287 8838 a40c 2cbd 4b36 65bc 89ff 36bc
00000090: 3de4 9ebd f905 fa3c 82dc 8dbd 6f5e 8c3c
000000a0: 0f01 62bc 3b5a c53c 190d 0cbc 8c20 c83d
000000b0: e109 b23a f598 333d 5175 413d 17f4 50bd
000000c0: 8a34 363d e344 32bd 8652 3cbd dbdb 883b
000000d0: 9b65 7abd c77e 5c3c 540e 6a3d bbca 2abd
000000e0: 1016 bcbc ba90 5bbc 6c92 243d 3204 12bd
000000f0: 3d74 d23c bbba a23d 0789 463d fa43 0d3c
00000100: 36bb 15bd c05d 003d 2b49 a13b af98 67bd
00000110: 290f f9b9 ae0f 53bb 444b 423d 94e1 a3bd
00000120: 0329 78ba 0d2c a03d 39a5 a33c 0e0c 8bbc
00000130: 3496 553c 3bfb b23c a3cf 37bd 98cf 7f3d
00000140: 70f3 8abc 1c17 593d 0582 973b 6ff1 923d
00000150: b5a4 5ebc 0f20 a6bc 90e7 853d 6dc6 14bd
00000160: b2fc 50bd fd2a 14bc e1e4 24bd 486c ddbc
00000170: c12d 073c ee47 443d 1281 1dbb a0b4 75bd
00000180: 76af 7d3c eff1 863d dbc0 9cbd 4145 063d
00000190: 9207 3c3d 1e4a ee39 0ce1 14bd 3b85 3fbd
000001a0: d484 19bd 8dae a9bc 96a0 053d 7b3a 9c3d
000001b0: 6708 78bc b5ca aa3c 2760 883d e3f8 9b3d
000001c0: 8871 2a3d af91 843c 150f 033d 6ca0 363d
000001d0: 6e76 883b 3161 9abd 5d46 733d d977 863d
000001e0: e700 96bc 8c21 893c 7e0c 2ebd f512 cf3c
000001f0: 7534 55bc 9fee 3f3d 3068 9e3c fab9 56bd
00000200: 5f4b 9e3d 44c4 a03d 2eed 7e3d a489 c03c
00000210: 34b6 11bd 9874 873d 69a9 dc3c 6167 283d
00000220: 61f5 403d d602 953c b9a3 1cbd 2347 86bc
00000230: 6610 54bd 3671 93ba 23fb 3dbd 7373 3fbd
00000240: 4214 753d 111f 893b e986 11bd 0e55 a0bd
00000250: 8cda f3ba 6a75 f63a c4d9 9c3d aa3c 903b
00000260: 9d00 c1bb 5aca 883d ee40 2b3c 373d 553d
00000270: ec08 8bbd 86ee 24bd 398d 09bd 2f06 593c
00000280: 7a16 48bd 86a6 2bbd 1967 f1bc 2816 80bd
00000290: 7a4f 393d c1b1 03bb 56e6 86bd 22ba 8fbc
000002a0: 1c66 75bd cf9d 833d 6f56 603d ffe2 88bc
000002b0: 790e fa3c dea3 173d 9aa8 bb3d 2dcd b2bc
000002c0: 9bbe 93bc 795e e23b 2511 063d 92ee 62bd
000002d0: 4daf 0ebd 9896 28bd e20e e9bc 54e8 203a
000002e0: 4b48 3e3d 0731 993c 3592 53bc d766 af3c
000002f0: 8315 52bc 0498 1b3c aad6 15bd cfee 74bd
00000300: 246a 54bd 6832 4d3d bdf9 20bd d006 b23c
00000310: d8f9 cabc 9926 4f3d fb7d a83c 7056 903d
00000320: df28 62bd 6d60 9cbd 241b 4c3c a28f 7bbd
00000330: 5694 8abd 6a33 883d f0aa 53bd 485a 913d
00000340: fdf4 383c 9d53 22bd 1617 20bd be39 09bd
00000350: b4d1 49bd 6dca 043d 2502 8ebd 5249 a93c
00000360: 7da5 78bd 7be9 02bd b3bb 723d ac1d 75bd
00000370: a4b9 873c b96d 803d 4efa e93c 4d09 e1bc
00000380: f03a 5f3d 4743 48bd a21d feba c953 343d
00000390: 3d1b dcbc 56a3 793d 7646 4a3b 5107 6bbd
000003a0: 1233 053a f983 22bd a7f8 8abd ad59 833d
000003b0: 768d 7abd bf1c 413d 376b 26bd b305 63bd
000003c0: 5dc7 183d c82f 99bc 494a 28bd 8030 5a3d
000003d0: 5aa2 2c3d 9b89 173c ae92 bbbd bc56 173d
000003e0: 5de8 3d3d 726c efbc 0f8a 453d b93f 3f3d
000003f0: d30b 8d3d 64f0 1e3d 3266 30bd 0761 753d

conv2.bias f4 [128]
9.30833e-05 0.029853774 -0.042529825 0.02847326 -0.049429197 0.035221215 -0.026243653 0.072743654
0.024036927 -0.008530457 0.048962396 -0.027616393 0.043070994 0.0033099526 -0.0573824 -0.029365385
-0.009918763 0.046695497 0.022759447 0.0030373146 -0.0076690232 -0.01943921 -0.0034310368 0.05001888
-0.022605045 0.028706629 0.034700803 0.015212602 -0.0062552406 0.05040196 -0.032092724 0.023163741
-0.03921719 0.052519724 0.024306746 0.050164133 0.041012704 0.035634782 -0.024115797 0.058565088
0.07543414 0.047377497 0.046691164 -0.065298736 -0.0681705 0.033390127 -0.0153247155 -0.043736145
0.041582502 -0.04870202 0.019085303 -0.04107018 -0.020416304 0.023926834 -0.068388715 0.055928756
-0.026466055 0.025043672 -0.012836973 0.07019135 -0.03896715 0.014348281 -0.010296438 0.03569454
-0.05688435 0.027442213 0.059025038 0.04581239 -0.007921098 -0.0014006956 0.03327303 -0.019683793
0.045714132 0.009481786 -0.034036387 -0.025829991 0.030776812 0.024185736 -0.06071746 -0.04749475
0.0068865716 -0.029941099 -0.057996843 0.06798681 -0.014059622 0.004827186 -0.00019703613 -0.058864284
0.016452607 0.060751617 0.045656636 -0.01199528 0.03060087 0.012791431 0.05570389 -0.03764235
0.057717003 -0.054284368 0.057921734 0.0785 -0.040499974 0.02767364 -0.056269728 -0.009876303
-0.039782524 0.020936595 -0.015607828 -0.062175542 -0.041753292 -0.017163599 -0.019123621 0.0023181047
0.00621029 -0.03528058 -0.038311012 0.035239577 0.051196266 -0.024334978 0.05528752 0.017438563
-0.051157687 -0.0058081257 -0.0508229 -0.007510191 -0.03962604 -0.0036360645 -0.0621665 0.025434691
00000000: b735 c338 e78f f43c c133 2ebd c140 e93c
00000010: 4576 4abd 1f44 103d eefc d6bc a0fa 943d
00000020: 17e9 c43c 54c3 0bbc cb8c 483d c63b e2bc
00000030: 366b 303d caeb 583b cf09 6bbd ad8f f0bc
00000040: 4f82 22bc c743 3f3d 0572 ba3c af0d 473b
00000050: 6e4c fbbb fa3e 9fbc 3fdb 60bb 99e0 4c3d
00000060: 372e b9bc 2a2a eb3c 6e22 0e3d 473e 793c
00000070: c3f8 ccbb 4972 4e3d a973 03bd e3c1 bd3c
00000080: 34a2 20bd ec1e 573d f11e c73c e878 4d3d
00000090: f0fc 273d c7f5 113d 7e8e c5bc f2e1 6f3d
000000a0: 377d 9a3d e80e 423d 3c3f 3f3d 58bb 85bd
000000b0: fa9c 8bbd 16c4 083d 8414 7bbc ac24 33bd
000000c0: 6a52 2a3d c57b 47bd c858 9c3c 3439 28bd
000000d0: 1840 a7bc 3502 c43c 620f 8cbd 8d15 653d
000000e0: 57cf d8bc 6328 cd3c 2b52 52bc 7cc0 8f3d
000000f0: 059c 1fbd 0d15 6b3c 64b2 28bc 7034 123d
00000100: 90ff 68bd 7ece e03c 3dc4 713d c6a5 3b3d
00000110: 7ec7 01bc 8c97 b7ba 4d49 083d e83f a1bc
00000120: be3e 3b3d 7e59 1b3c bd69 0bbd 6b99 d3bc
00000130: a71f fc3c 2a21 c63c dfb2 78bd db89 42bd
00000140: c0a8 e13b 0947 f5bc 198e 6dbd ab3c 8b3d
00000150: 545a 66bc 5f2d 9e3b 7c9b 4eb9 ad1b 71bd
00000160: 9ec7 863c b0d6 783d 7402 3b3d da87 44bc
00000170: adae fa3c 2693 513c c329 643d dd2e 1abd
00000180: aa68 6c3d 4959 5ebd 573f 6d3d 9cc4 a03d
00000190: 4de3 25bd d4b3 e23c 167b 66bd 38d0 21bc
000001a0: 00f3 22bd 3983 ab3c fab7 7fbc c8ab 7ebd
000001b0: 8005 2bbd ad9a 8cbc 24a9 9cbc 58eb 173b
000001c0: b07f cb3b 5f82 10bd 02ec 1cbd 6057 103d
000001d0: 2db3 513d 265a c7bc 2b75 623d 51db 8e3c
000001e0: b98a 51bd 1752 bebb ac2b 50bd 0c18 f6bb
000001f0: ea4e 22bd 0a4b 6ebb 4da2 7ebd 6a5c d03c

dense1.weight f4 [50, 768]
-0.030820979 0.0020330339 0.017892174 -0.032515746 0.0008615847 -0.032622702 -0.006783058 0.009958237
0.043458216 0.03490391 0.010669265 0.030455116 0.029448083 -0.006067048 0.025671456 0.015440508
0.026785968 -0.005360268 -0.00041563265 0.014753498 0.0045991912 0.0035096626 -0.0017625756 -0.004704841
-0.018507069 -0.03486838 0.03206638 0.020275924 -0.008097732 -0.018450487 0.01973857 0.035370544
0.02797252 -0.020367386 -0.0019753177 0.0033107733 -0.008805428 -0.0055880775 -0.032889817 0.009224677
0.0021473726 -0.021550557 0.00511876 -0.016626075 -0.031917024 -0.019120008 -0.005625802 -0.018695045
-0.01328663 0.037901763 -0.009906546 -0.0036583825 0.018175086 0.012991506 0.028708536 -0.025889603
0.009592345 -0.026852014 0.008271856 0.02648627 -0.034472592 -0.028827636 -0.024638832 0.017593283
0.022054844 0.0004945052 0.03354451 0.027405616 0.023661295 0.02207374 0.0125283245 0.01963789
-0.013337153 -0.003683121 0.012655514 0.0280423 0.0040684813 0.014574939 -0.011592213 0.026678134
0.023785692 0.019327693 -0.041006465 -0.022736114 -0.0096280305 -0.010503397 -0.004900548 -0.033042707
0.029617298 -0.038371056 -0.046250515 -0.02964173 0.025900332 -0.019769127 -0.023389254 -0.053132422
-0.019963255 -0.031638052 -0.04001936 -0.018120373 0.024974998 0.025349287 -0.04300254 -0.004204808
-0.020639071 -0.01212859 0.016888471 -0.028094063 -0.00094341725 0.029101774 0.023759224 -0.031440984
0.033432905 0.0015795998 0.0041417936 0.02518474 -0.02217324 -0.00375932 0.035166003 0.034106985
0.038157724 0.01372775 0.005365518 0.027505653 -0.0024871833 0.002278793 0.042078096 -0.0026636096
-0.025833782 -0.010498042 0.022378659 0.01779972 -0.0025352272 0.017785305 -0.013463021 0.025268886
-0.0021777283 -0.012618009 0.019352086 0.017401358 -0.03738312 -0.030400306 -0.031691305 0.007850266
-0.0075383843 -0.027763627 0.014027828 0.01766781 0.023638505 0.025398636 0.0316621 -0.028323278
0.01784674 -0.027986309 -0.025914034 -0.017453345 0.03964626 0.035456732 0.0018199516 0.023722688
0.015233991 0.041255992 -0.0013002246 -0.008160849 0.030758671 0.013261326 -0.031470817 0.020196268
-0.007442866 0.03308437 -0.01057744 -0.022265384 0.0018197976 -0.018902177 -0.027913544 0.014330761
-0.0112408325 -0.002712409 0.030200558 -0.026753794 -0.01646814 0.0047417018 -0.025342753 -0.021117039
0.0022281557 0.0020560792 0.006964511 0.0068855546 0.028088387 0.030861303 0.013354184 -0.003548803
0.048403114 0.03398633 0.018491298 0.0243775 -0.031338796 0.006612672 -0.0056030764 -0.023212917
0.0066681015 0.023761055 -0.015518243 0.009876075 0.003659436 -0.03470524 0.028157625 0.029470092
-0.00012514523 0.024611553 0.04121641 0.032371055 0.026373954 -0.015141794 0.004163704 0.029867489
0.012196063 0.007841737 0.029059008 0.00086779083 0.034570906 0.012497373 0.00018673332 0.012606924
0.028950442 0.021439062 0.010348032 0.008420072 -0.021932654 -0.022525132 -0.018532865 -0.008791523
0.023689222 0.005897346 0.00040345523 0.0004948671 0.031140557 -0.0311128 0.006343783 -0.01951141
0.011118363 0.039982382 0.022347797 0.022502208 0.034368906 0.031096542 0.008612009 0.010078274
-0.033180483 -0.008587036 0.020328373 -0.037695687 -0.011671179 0.017408565 -0.012672353 0.0067141857
00000000: 477c fcbc a63c 053b 9c92 923c 3b2f 05bd
00000010: f8db 613a 629f 05bd 6a44 debb e027 233c
00000020: 3e01 323d 67f7 0e3d 24ce 2e3c 027d f93c
00000030: 1b3d f13c 16ce c6bb f24c d23c 2ffa 7c3c
00000040: 3f6e db3c 30a5 afbb 45e9 d9b9 a8b8 713c
00000050: d0b4 963b 5e02 663b 3906 e7ba 112b 9abb
00000060: 239c 97bc 25d2 0ebd 0958 033d b219 a63c
00000070: 5aac 04bc 7a25 97bc c8b2 a13c b4e0 103d
00000080: a026 e53c 81d9 a6bc 5574 01bb 8ff9 583b
00000090: a444 10bc 311c b7bb 79b7 06bd 1a23 173c
000000a0: efba 0c3b cb8a b0bc 45bb a73b 6833 88bc
000000b0: 6dbb 02bd 90a1 9cbc a658 b8bb 5a26 99bc
000000c0: 2ab0 59bc e13e 1b3d 114f 22bc 79c1 6fbb
000000d0: ebe3 943c 53da 543c 2a2e eb3c 6f16 d4bc
000000e0: 3629 1d3c c1f8 dbbc ae86 073c bcf9 d83c
000000f0: 2233 0dbd ef27 ecbc 60d7 c9bc ca1f 903c
00000100: 5cac b43c afa1 013a f865 093d be81 e03c
00000110: 55d5 c13c fdd3 b43c 9a43 4d3c a4df a03c
00000120: 1384 5abc 8460 71bb 1359 4f3c f7b8 e53c
00000130: e550 853b bacb 6e3c 44ed 3dbc 1a8c da3c
00000140: 36da c23c 1c55 9e3c 65f6 27bd 1641 babc
00000150: e3be 1dbc 7116 2cbc c794 a0bb ca57 07bd
00000160: fa9f f23c f82a 1dbd 2e71 3dbd 37d3 f2bc
00000170: ef2c d43c ddf2 a1bc d29a bfbc 62a1 59bd
00000180: fb89 a3bc e796 01bd 57eb 23bd 2d71 94bc
00000190: 5e98 cc3c 4fa9 cf3c 6e23 30bd 7cc8 89bb
000001a0: 4513 a9bc feb6 46bc b159 8a3c 8525 e6bc
000001b0: a94f 77ba d866 ee3c b4a2 c23c 43c8 00bd
000001c0: f1f0 083d 930a cf3a e2b7 873b 3a50 ce3c
000001d0: a8a4 b5bc ec5e 76bb 3a0a 103d c4b3 0b3d
000001e0: 464b 1c3d 5bea 603c 3ad1 af3b 8953 e13c
000001f0: 0300 23bb cd57 153b 155a 2c3d f48f 2ebb
00000200: 5ea1 d3bc fbff 2bbc 7353 b73c b8d0 913c
00000210: 0e26 26bb 7db2 913c 0194 5cbc b200 cf3c
00000220: 38b8 0ebb c4bb 4ebc 4488 9e3c 4b8d 8e3c
00000230: 0b1f 19bd 100a f9bc bece 01bd 679e 003c
00000240: 8d04 f7bb 8c70 e3bc fad4 653c 15bc 903c
00000250: 8aa5 c13c cd10 d03c 1eb0 013d 3806 e8bc
00000260: 5433 923c 8b43 e5bc ab49 d4bc 51fa 8ebc
00000270: 1e64 223d 143b 113d 718b ee3a 1556 c23c
00000280: fd97 793c 0bfc 283d 4c6c aaba 15b5 05bc
00000290: 9cf9 fb3c 0846 593c 8be7 00bd a572 a53c
000002a0: 49e3 f3bb 7a83 073d 004d 2dbc e565 b6bc
000002b0: 4686 ee3a bdd8 9abc f2aa e4bc 91cb 6a3c
000002c0: 782b 38bc acc2 31bb 2967 f73c c62a dbbc
000002d0: 31e8 86bc 4760 9b3b 9b9b cfbc a4fd acbc
000002e0: 4006 123b 49bf 063b 8d36 e43b 38a0 e13b
000002f0: 9e19 e63c d8d0 fc3c 82cb 5a3c 0993 68bb
00000300: 5842 463d 4035 0b3d 107b 973c 53b3 c73c
00000310: 1c5d 00bd 1daf d83b 039a b7bb 0429 bebc
00000320: 1780 da3b 8ba6 c23c 3b40 7ebc 43cf 213c
00000330: 26d3 6f3b 1527 0ebd d2aa e63c 436b f13c
00000340: 6b39 03b9 2b9e c93c 8ad2 283d 8397 043d
00000350: 310e d83c 4a15 78bc ae6f 883b aaac f43c
00000360: ffd1 473c a17a 003c 280d ee3c 757c 633a
00000370: 399a 0d3d c8c1 4c3c d8cd 4339 468d 4e3c
00000380: 7a29 ed3c f9a0 af3c cb8a 293c 57f4 093c
00000390: 1cac b3bc a086 b8bc 3cd2 97bc 520a 10bc
000003a0: e60f c23c 863e c13b d886 d339 f8b9 013a
000003b0: 7b1a ff3c 45e0 febc 82df cf3b 64d6 9fbc
000003c0: cb29 363c 91c4 233d ba12 b73c 8d56 b83c
000003d0: 69c6 0c3d 2dbe fe3c 6219 0d3c 581f 253c
000003e0: 42e8 07bd a4b0 0cbc b087 a63c cb66 1abd
000003f0: 7938 3fbc 689c 8e3c b39f 4fbc ac02 dc3b

dense1.bias f4 [50]
-0.008098564 0.042939637 -0.006011453 -0.0062889666 0.014187969 0.012426246 0.01572902 -0.007623566
-0.004307839 -0.022479406 -0.0027002904 0.026661206 0.0004756779 0.04467145 -0.014444966 0.02878983
0.024840867 -0.0040027024 0.04689391 -0.015780352 -0.0028945717 0.017999543 -0.02352025 0.036126897
0.0043845875 0.028837973 0.049054004 0.03171729 0.031165894 0.0137515925 -0.03138962 0.047919583
0.008461942 0.017205568 0.013712433 0.024617895 0.0020785497 0.0066786427 -0.0049185404 -0.011148846
-0.02854006 0.03905697 0.01577641 -0.0008032465 0.0027061384 0.0040494376 0.035294846 0.040936727
0.029298492 -0.0069786226
00000000: d7af 04bc 79e1 2f3d b9fb c4bb ad13 cebb
00000010: a874 683c 7497 4b3c 25da 803c 1bcf f9bb
00000020: c628 8dbb bb26 b8bc 5bf7 30bb 9a68 da3c
00000030: 6864 f939 69f9 363d 94aa 6cbc a6d8 eb3c
00000040: 137f cb3c 1a29 83bb d413 403d cc45 81bc
00000050: dbb2 3dbb c773 933c 8aad c0bc ccf9 133d
00000060: 96ac 8f3b 9d3d ec3c daec 483d fde9 013d
00000070: 9e4f ff3c 5c4e 613c 6792 00bd 5347 443d
00000080: f5a3 0a3c b1f2 8c3c 1daa 603c 78ab c93c
00000090: 4738 083b 84d8 da3b b52b a1bb a6a9 36bc
000000a0: d8cc e9bc 34fa 1f3d 883d 813c f690 52ba
000000b0: 7859 313b 25b1 843b 5491 103d 45ad 273d
000000c0: 6403 f03c eeac e4bb

dense2.weight f4 [1, 50]
-0.087389044 -0.0395183 -0.056974247 0.10876006 0.09967371 0.035849724 -0.07184386 -0.08397326
0.12480648 0.14750408 -0.12990724 0.011333674 -0.11499793 -0.12451218 0.101969 0.098487645
-0.08998509 -0.105612576 -0.13281846 -0.11259387 -0.0541102 -0.096761264 0.067159526 -0.10766796
0.052443035 -0.103723064 -0.015121061 -0.060498297 0.042226367 0.14628837 0.104480416 -0.08742205
0.11574927 0.09042533 0.12384161 -0.06045488 0.1040246 0.027439265 -0.071762495 -0.05880874
0.119547516 -0.12443462 0.04379448 0.14376363 -0.1329215 -0.09715604 -0.012122666 0.12239462
0.020928415 -0.08415409
00000000: 07f9 b2bd f1dd 21bd d45d 69bd 98bd de3d
00000010: bb21 cc3d 29d7 123d e022 93bd 2cfa abbd
00000020: 8a9a ff3d 4f0b 173e 6706 05be e0b0 393c
00000030: 0984 ebbd 3e00 ffbd 20d5 d03d e4b3 c93d
00000040: 1a4a b8bd 684b d8bd 9001 08be 9d97 e6bd
00000050: a8a2 5dbd c52a c6bd ef8a 893d 0581 dcbd
00000060: 82ce 563d c26c d4bd 54be 77bc 10cd 77bd
00000070: 8ef5 2c3d 9ecc 153e d4f9 d53d 550a b3bd
00000080: f40d ed3d ea30 b93d aca0 fd3d 899f 77bd
00000090: d90a d53d 4fc8 e03c 37f8 92bd 6fe1 70bd
000000a0: 54d5 f43d 94d7 febd d761 333d c636 133e
000000b0: 931c 08be bff9 c6bd 269e 46bc 08aa fa3d
000000c0: 1172 ab3c fb58 acbd
