time_series_forecasting/saved_models/CNNForecastingModel/19-03-2024-223331_NO2_epoch_2.pt (torch, 259243 bytes, 7 tensors)

conv1.weight f4 [64, 4, 3]
0	0x3e8e3f14	0.277825
1	0xbe780188	-0.24219334
2	0x3e8bdea8	0.2731831
3	0xbdd9d570	-0.10636413
4	0x3e81b2c4	0.253317
5	0x3aac3d30	0.0013140794
6	0x3d34a6ed	0.044104505
7	0xbe3e3120	-0.18573427
8	0xbe33b44d	-0.17549248
9	0x3dc04cab	0.09389623
10	0xbe2f1457	-0.17097603
11	0x3d3a9cb4	0.0455596
12	0xbe807867	-0.2509186
13	0x3e3fa1fb	0.18714134
14	0xbe50e7d4	-0.20400935
15	0x3e508917	0.20364796
16	0x3e7b435e	0.24537417
17	0x3cd0264e	0.02540889
18	0xbe1720e8	-0.14758646
19	0x3e2a1c99	0.16612472
20	0x3e48e725	0.19619425
21	0xbe447065	-0.191835
22	0x3e766dd3	0.24065332
23	0x3e0c9ad4	0.13730937
24	0xbe96089a	-0.29303437
25	0x3e5d99ec	0.21640748
26	0x3d7d856c	0.06189482
27	0xbdbbd78b	-0.09171971
28	0xbe8c1785	-0.27361694
29	0xbac39503	-0.0014921728
30	0x3e2c2d28	0.168141
31	0xbd945b26	-0.07243948
32	0xbd04878a	-0.032355823
33	0x3e63a3a9	0.222304
34	0xbc200917	-0.009767792
35	0xbd4faf34	-0.050704196
36	0xbd41abbd	-0.047282923
37	0xbe295f9d	-0.1654038
38	0x3dcfe1ac	0.10150465
39	0xbde81e32	-0.11333884
40	0x3e129d02	0.14317706
41	0x3e1a3f33	0.15063171
42	0xbe6c4061	-0.23071434
43	0xbe356d71	-0.1771753
44	0x3e56b10f	0.2096598
45	0x3e8907f3	0.26763877
46	0xbd7617fc	-0.060081467
47	0xbd9599b8	-0.0730471
48	0xbe8a8cb7	-0.27060482
49	0xbd9016f0	-0.07035625
50	0x3c093cd1	0.008376316
51	0x3dc9cd67	0.098536305
52	0xbe6bc4e5	-0.23024328
53	0xbb4b6e5d	-0.0031041123
54	0xbdb58e26	-0.08865003
55	0xbe896e4f	-0.2684197
56	0x3e217494	0.15767127
57	0x3e38ce4a	0.18047443
58	0xbce0c711	-0.027438672
59	0x3dff3601	0.12461472
60	0xbde62ef3	-0.112394236
61	0x3cc7bfd6	0.024383467
62	0x3e07c632	0.132592
63	0xbe06e581	-0.13173486
64	0x3e3592db	0.17731802
65	0x3c6d951f	0.014500885
66	0x3d5b1fe2	0.053497203
67	0xbe3f760f	-0.1869738
68	0xbd437f95	-0.047729094
69	0x3e5b26b4	0.21401483
70	0x3e52a0d0	0.20569158
71	0x3e45d0a9	0.19317879
72	0xbe2f1b6c	-0.17100304
73	0x3e7dde9e	0.24791953
74	0xbdfe1d06	-0.124078795
75	0xbe9426fe	-0.28936
76	0x3e834064	0.25635064
77	0x3e0164b7	0.12636076
78	0xbe81bdb1	-0.25340036
79	0x3e89e93a	0.2693575
80	0x3e2d3df4	0.16918164
81	0x3d3d01c5	0.046144266
82	0x3e33332c	0.1749999
83	0x3e1fb1eb	0.15595214
84	0x3db6f9ef	0.0893439
85	0x3d1c9e61	0.03823698
86	0xbe20f4ce	-0.15718386
87	0xbe1d0990	-0.15335679
88	0x3e228279	0.15870084
89	0xbd4a05a3	-0.04932178
90	0xbe90eeb0	-0.28307104
91	0xbe908dcd	-0.28233185
92	0x3d662d54	0.056195572
93	0xbe84c4e8	-0.25931478
94	0x3e26a097	0.16272198
95	0x3e3854d5	0.18001111
96	0x3db56ae3	0.08858278
97	0x3d2d9db8	0.04238674
98	0xbc6670fc	-0.0140650235
99	0xbdd25ed0	-0.1027199
100	0x3e8191eb	0.2530664
101	0x3e5f77c5	0.21823032
102	0xbe20c25c	-0.15699142
103	0x3e422619	0.18959846
104	0x3e26c6f6	0.16286835
105	0xbe884f47	-0.26622984
106	0xbe203cba	-0.15648165
107	0x3e137f63	0.14404063
108	0x3e7ca15c	0.24670929
109	0x3e1fb0e7	0.15594827
110	0x3e823b0f	0.25435683
111	0xbe15deb8	-0.14635742
112	0xbe4cdefe	-0.2000694
113	0x3d883877	0.06651395
114	0x3e3710aa	0.1787745
115	0xbe4c5288	-0.19953358
116	0xbda90bbc	-0.08254191
117	0x3d10fa3c	0.035394892
118	0x3c0a0b62	0.008425565
119	0x3e46b89f	0.19406365
120	0x3e7868ca	0.24258724
121	0x3d01d624	0.03169836
122	0xbcfa23f6	-0.030534726
123	0xbddb4891	-0.107072
124	0xbc5dffc0	-0.013549745
125	0xbd592e02	-0.053022392
126	0x3e11e479	0.14247312
127	0x3e450070	0.19238448
128	0xbe2e4fce	-0.1702263
129	0x3dc6fcb4	0.09716168
130	0xbe1d1b47	-0.15342437
131	0xbe33a313	-0.17542677
132	0xbdc3245c	-0.095284194
133	0x3e5ccf36	0.2156342
134	0x3b9e4295	0.0048297145
135	0xbe36b236	-0.1784142
136	0xbdb020de	-0.08600019
137	0x3e92c6e9	0.2866738
138	0xbdea385b	-0.1143653
139	0xbd873a49	-0.06602914
140	0x3de96751	0.11396659
141	0x3e09e523	0.13466315
142	0xbcc07fb4	-0.023498394
143	0x3b97c0e6	0.0046311496
144	0x3e00cb4f	0.12577556
145	0xbe3bae2d	-0.18328162
146	0x3e4fcc5c	0.202928
147	0xbe473365	-0.19453199
148	0x3e33e5b7	0.17568098
149	0xbdd45701	-0.10368157
150	0x3ce6a104	0.02815295
151	0x3d40b78a	0.047050036
152	0xbde3e2c9	-0.1112724
153	0xbc17b19c	-0.009258654
154	0x3e54a71f	0.20766877
155	0x3ae39dcb	0.0017365752
156	0xbe1bf7a8	-0.15231192
157	0xbd800cc0	-0.06252432
158	0xbe9b13a2	-0.30288416
159	0x3e3b7c84	0.18309218
160	0x3e180957	0.14847313
161	0x3e0fc27a	0.1403903
162	0xbe174581	-0.14772607
163	0xbce26643	-0.027636653
164	0xbe4f1854	-0.20224124
165	0xbe1c5c60	-0.15269613
166	0x3d81e776	0.06342976
167	0xbde89e6d	-0.11358342
168	0x3e7ce4cd	0.24696656
169	0x3e85eeda	0.26158792
170	0x3e4aefb7	0.19818006
171	0xbd6f1a96	-0.058374964
172	0xbe4e4e7e	-0.2014713
173	0xbde4bc47	-0.111687236
174	0x3c3ab731	0.011396215
175	0xbca381bf	-0.019959329
176	0xbd1499ca	-0.036279477
177	0xbdb5c7e4	-0.08876017
178	0x3e24c1d8	0.1608957
179	0x3cea213f	0.028580306
180	0x3e751045	0.23931988
181	0x3e3a09ad	0.18167754
182	0x3d2c138c	0.04201083
183	0x3e835a58	0.25654864
184	0xbe4ec132	-0.20190886
185	0xbe1eb261	-0.15497734
186	0x3deed7ba	0.1166224
187	0x3e767ec4	0.24071795
188	0x3d5ba90a	0.053628005
189	0xbdfaa4ae	-0.122384414
190	0xbd8003fb	-0.06250759
191	0xbe8722de	-0.2639379
192	0x3e9500b6	0.29102105
193	0x3df640b9	0.120240636
194	0xbc0d7316	-0.008633396
195	0x3e8c8017	0.27441475
196	0xbe773646	-0.24141797
197	0x3e39357f	0.18086813
198	0xbde29d3d	-0.11065147
199	0xbe0fed30	-0.14055324
200	0x3e1cf507	0.15327846
201	0x3e1e5f30	0.15465999
202	0x3da1b621	0.078960665
203	0x3e658f07	0.22417842
204	0xbcd5b11b	-0.026085427
205	0xbe5873f8	-0.21137989
206	0x3e819206	0.2530672
207	0xbde19317	-0.11014383
208	0xbe6da45f	-0.23207234
209	0x3e56e810	0.20986962
210	0x3e3131e7	0.17304192
211	0x3d349f0c	0.04409699
212	0xbe3eae65	-0.18621214
213	0x3e54b7e3	0.20773272
214	0x3dddc9fa	0.108295396
215	0x3e95f090	0.29285097
216	0x3e31254a	0.17299381
217	0xbd897ad8	-0.06712884
218	0x3e81f671	0.25383332
219	0xbdd1afc6	-0.10238604
220	0x3e6c010e	0.23047277
221	0x3e91d71e	0.28484434
222	0x3bfa62dd	0.00764118
223	0x3d338a94	0.04383333
224	0xbe332033	-0.17492752
225	0x3d58afc4	0.052902
226	0x3e237fcf	0.15966724
227	0x3e4340be	0.19067666
228	0xbdb2a2f6	-0.087224886
229	0xbdd78257	-0.10522907
230	0xbba85e3b	-0.0051381863
231	0x3e6187a4	0.22024399
232	0xbdd9835f	-0.1062076
233	0x3e2f489b	0.1711754
234	0xbd9b3c22	-0.07579829
235	0x3ddb9404	0.10721591
236	0x3e03da62	0.12876275
237	0xbdc8c919	-0.09803981
238	0xbda7b1f2	-0.08188237
239	0xbd6e7920	-0.058220983
240	0xbd059cc1	-0.032620195
241	0x3e7bba48	0.2458278
242	0xbe993dc1	-0.29929927
243	0xbe57ec23	-0.21086173
244	0xbd5762cb	-0.05258445
245	0x3e0cc8cb	0.13748471
246	0xbe7b4509	-0.24538054
247	0x3dfb14f3	0.12259855
248	0xbe1f6c7e	-0.1556873
249	0xbe738d24	-0.2378431
250	0xbe60910e	-0.21930334
251	0x3ddb43fa	0.10706325
252	0xbe263155	-0.16229756
253	0xbe9618b7	-0.2931573
254	0xbe18c1ba	-0.14917651
255	0xbe5574c4	-0.20845324

conv1.bias f4 [64]
0	0x3bea67cc	0.007153487
1	0x3cd76916	0.026295226
2	0x3e8b9acb	0.27266535
3	0x3d0b3b21	0.033991937
4	0x3e8122d5	0.25221887
5	0xbd898ae2	-0.06715943
6	0xbe3a23ac	-0.1817767
7	0x3da3316c	0.07968411
8	0xbd91783f	-0.07103013
9	0xbda463ca	-0.08026846
10	0xbe6ef802	-0.23336795
11	0x3e733c6f	0.23753522
12	0xbda1ee91	-0.07906831
13	0xbd23aa3f	-0.03995728
14	0x3dc8082d	0.097671844
15	0x3e2d8e66	0.16948852
16	0x3e8db79c	0.27679145
17	0xbe073f18	-0.13207662
18	0x3dfd8e2d	0.123806335
19	0xbe5fd75a	-0.21859494
20	0xbdf483f2	-0.11939229
21	0xbd6cf7b3	-0.057853412
22	0x3d4b14a2	0.049580224
23	0x3ce5901d	0.02802282
24	0x3e83397b	0.25629792
25	0x3e5d534f	0.21613811
26	0xbe105d7a	-0.14098158
27	0xbe45ac91	-0.1930411
28	0xbe81c98a	-0.25349075
29	0x3de3defe	0.11126517
30	0x3d179425	0.037006516
31	0xbd582b14	-0.052775458
32	0xbdd13eb8	-0.10217041
33	0xbd08b886	-0.0333791
34	0xbd034f06	-0.032057784
35	0x3db246ce	0.08704911
36	0x3e7f0e95	0.24907906
37	0x3e54c0d5	0.20776685
38	0x3d56bb67	0.052424815
39	0xbc856e1e	-0.01628786
40	0x3e2cb055	0.1686414
41	0xbe4a7ea0	-0.19774866
42	0xbe2c4653	-0.16823702
43	0xbe050934	-0.12991792
44	0x3a24aed3	0.00062821544
45	0xbe518713	-0.20461683
46	0x3e694527	0.22780286
47	0x3e765321	0.24055149
48	0x3d82fe61	0.06396175
49	0x3d91e031	0.07122839
50	0xbdd735a2	-0.105082765
51	0x3e126ff4	0.14300519
52	0xbe899476	-0.2687108
53	0xbbd198ca	-0.0063963877
54	0xbddaef98	-0.1069023
55	0x3e8830be	0.26599687
56	0xbe91b7a0	-0.28460407
57	0x3e87c5f5	0.26518217
58	0x3e77e8dd	0.24209924
59	0xbd13e525	-0.0361072
60	0x3e3d7661	0.18502189
61	0x3e670ef1	0.22564293
62	0xbdd7b2fd	-0.10532186
63	0xbe2de304	-0.16981131

conv2.weight f4 [128, 64, 3]
0	0x3d3b21e8	0.045686632
1	0xbce5cee1	-0.02805275
2	0x3d9513de	0.0727918
3	0xbd7d4fb5	-0.061843593
4	0xbba4acb4	-0.0050254706
5	0xbcd99d03	-0.026564127
6	0x3c20b619	0.00980904
7	0x3c0ae4f3	0.008477437
8	0xbd9ffc4f	-0.07811796
9	0x3d283361	0.041064624
10	0x3ca9f883	0.020748382
11	0xbd059852	-0.032615967
12	0xbc21cbcd	-0.00987525
13	0xbd556201	-0.052095417
14	0xbab01c5d	-0.0013436187
15	0x3d3f5129	0.04670826
16	0xbc9b816b	-0.01898261
17	0xbd4b4f3f	-0.04963612
18	0xbd388c02	-0.045055397
19	0xbd358f11	-0.044325892
20	0x3d175da7	0.03695455
21	0xbd955ad1	-0.072927125
22	0xbc9e80f9	-0.019348608
23	0x3c1e15ee	0.009648783
24	0x3ca05b96	0.019574922
25	0x3c325d74	0.010886539
26	0x3b3cb24b	0.0028792794
27	0xbbbc0ed6	-0.0057390733
28	0x3d7df84e	0.06200438
29	0x3d36bc37	0.04461309
30	0xbd9dce6b	-0.07705387
31	0xbcbc6712	-0.022998367
32	0x3a7ddad7	0.0009683794
33	0x3d866dee	0.06563936
34	0x3d861ce4	0.06548479
35	0x3d303937	0.043023314
36	0x3d16ecc1	0.03684688
37	0x3d2ad072	0.041702695
38	0xbc38c423	-0.011277231
39	0x39f14848	0.00046020956
40	0xbd8da98d	-0.06917105
41	0xbd0f3cc7	-0.03497007
42	0xbd3c896f	-0.046029504
43	0x3d374ac9	0.044749055
44	0x3d17c321	0.037051324
45	0x3d0f92e3	0.03505219
46	0xbcf64a66	-0.030064773
47	0x3bad1668	0.005282212
48	0x3d1ee824	0.038795605
49	0x3cb0b0a8	0.021568611
50	0xbd229bee	-0.039699487
51	0x3d25dc43	0.04049326
52	0xbc28b48d	-0.010296953
53	0x3b9b5a7d	0.0047410117
54	0x3c9ca463	0.019121354
55	0xbd2db42a	-0.042408146
56	0xbcda0d01	-0.026617529
57	0x3d6523fb	0.055942517
58	0xbd718e2a	-0.05897347
59	0x3c5e2203	0.013557914
60	0x3cadfb1e	0.021237906
61	0x3d2944b6	0.041325293
62	0x3c26212f	0.0101397475
63	0xbcac3345	-0.021020541
64	0xbd28b40d	-0.041187335
65	0xbd7cd6a3	-0.06172813
66	0x3d005dd6	0.03133949
67	0x3d8a76cd	0.06760941
68	0xbca11fad	-0.019668425
69	0x3d81c288	0.06335932
70	0xbce6448f	-0.028108863
71	0xbd332d21	-0.04374421
72	0x3d5ebb11	0.05437762
73	0xbc1da74d	-0.009622407
74	0xbbf7dc8c	-0.007564133
75	0xbc506f9a	-0.01272192
76	0xba0a3018	-0.0005271449
77	0x3c3ed89d	0.011648324
78	0x3d898f06	0.06716733
79	0x3caa915f	0.020821271
80	0xbc706cfe	-0.014674423
81	0xbc112435	-0.00885873
82	0xbd864678	-0.065564096
83	0xbd57a2b9	-0.05264542
84	0xbd1953b4	-0.03743334
85	0x3bd87e72	0.0066068703
86	0xbc92f358	-0.017938301
87	0x3d3600e0	0.04443443
88	0x3c3d766c	0.0115638785
89	0xbcba1ddd	-0.022719318
90	0x3c93627f	0.017991303
91	0xbd50c24f	-0.050966557
92	0x3cdb6d6b	0.026785573
93	0x3bd48092	0.0064850533
94	0xbb1bd13d	-0.0023775839
95	0x3d51ac47	0.051189687
96	0xbc6ab81b	-0.014326121
97	0xb99c1374	-0.00029769132
98	0x3bcecd2a	0.0063110786
99	0xbd4b0e1b	-0.049574
100	0x3c38810a	0.011261234
101	0x3d2fa99b	0.042886358
102	0x3d550351	0.052005116
103	0xbc3304b9	-0.010926419
104	0xbd44e83f	-0.04807305
105	0xbd5ab039	-0.053390715
106	0x3d54d3bc	0.051959738
107	0xbcebe465	-0.02879543
108	0x3d54c83f	0.051948782
109	0xbd16dd13	-0.036831927
110	0x3d6e8ecc	0.05824165
111	0xbd337b63	-0.043818843
112	0xbd77fd43	-0.060544264
113	0xbd0e5f08	-0.034758598
114	0x3d7f5085	0.06233265
115	0x3d8c2fb5	0.06845037
116	0x3d0a88a1	0.033821706
117	0xbc97fd4c	-0.018553399
118	0x3c973da1	0.018462004
119	0xbcaeee9d	-0.021354014
120	0x3bbd959f	0.0057856585
121	0x3d36c2e7	0.044619467
122	0xbb07e49f	-0.0020735634
123	0x3c8855f7	0.016642554
124	0x3cfd80fb	0.030945292
125	0x3d2f6ead	0.042830158
126	0x3c70e11c	0.014702108
127	0xbd44449e	-0.047917
128	0xbcf13eff	-0.029448984
129	0xbd467efe	-0.048460953
130	0x3ca0bde2	0.019621793
131	0xbb05233b	-0.0020315188
132	0xbd758f9e	-0.059951417
133	0xbd328bf9	-0.04359052
134	0xbd8079b1	-0.06273211
135	0x3d0e89e2	0.034799464
136	0xbb7b97c9	-0.0038390032
137	0x3d6e9042	0.058243044
138	0x3b5f319c	0.003405667
139	0x3d7bd82e	0.061485462
140	0xbd396460	-0.04526174
141	0x3d7d1e1a	0.061796285
142	0x3d393994	0.045220926
143	0x3cd3eefb	0.02587079
144	0x3a645bf1	0.000871121
145	0xbce965c3	-0.028490907
146	0xbb855f99	-0.004070234
147	0xbb1dabfd	-0.0024058812
148	0xbd9498af	-0.072556846
149	0x3c8ad4ea	0.016947228
150	0xbc4f6c82	-0.012660148
151	0xbc82cea6	-0.015967678
152	0x3cb70794	0.02234248
153	0x3c1382db	0.009003366
154	0xbc68a5cb	-0.014199684
155	0xbcc99a5d	-0.024609739
156	0x3ccf8882	0.025333647
157	0x3d16e915	0.036843378
158	0xbd527a1b	-0.05138598
159	0x3d77d304	0.060503975
160	0x3db145f0	0.08655918
161	0xbd08285d	-0.03324162
162	0xbd548271	-0.05188221
163	0xbd272237	-0.040804114
164	0xbd62fac6	-0.055414937
165	0xbda336ac	-0.07969412
166	0x3d75d38e	0.060016207
167	0x3d314913	0.04328258
168	0x3d6dd706	0.05806639
169	0xbd692365	-0.05691852
170	0xbd646479	-0.05575988
171	0x3cd024c7	0.025408162
172	0x3d6026be	0.054724447
173	0x3d640ee7	0.055678274
174	0x3d79c8e1	0.06098259
175	0x3c2cbc06	0.010542875
176	0xbc12e31b	-0.008965279
177	0xbc9005b2	-0.01758084
178	0x3c691bb6	0.014227798
179	0xbd7148c3	-0.05890728
180	0x3d19bb56	0.037532173
181	0xbba9d506	-0.005182865
182	0x3c815283	0.015786415
183	0xbc016c48	-0.007899351
184	0x3d23de7b	0.040007096
185	0xbd3c45c2	-0.045964964
186	0x3d491b5f	0.04909837
187	0xbcb27446	-0.02178396
188	0xbc3d092e	-0.011537833
189	0x3cff08bb	0.031132093
190	0x3d35f77b	0.04442547
191	0xbd1bdd42	-0.038052805
192	0xbd21d0f9	-0.039505932
193	0x3d9e7595	0.07737271
194	0xbcc2aaaf	-0.023763029
195	0x3d3cd128	0.046097904
196	0xbc622d5d	-0.013804761
197	0xbd9204e4	-0.07129839
198	0x3d1dbab5	0.038508136
199	0x3d20edf7	0.03928944
200	0xbd8937e5	-0.06700114
201	0xbd86a2c4	-0.06574014
202	0x3c000326	0.007813251
203	0xbda6367a	-0.08115859
204	0xbda026e6	-0.07819919
205	0x3d11a57b	0.035558205
206	0x3c0806f3	0.008302438
207	0xbc93bdcf	-0.018034844
208	0x3c992282	0.018693212
209	0xbd0cd607	-0.0343838
210	0xbcb655e5	-0.022257755
211	0xbd42a6f3	-0.047522496
212	0x3d8d870b	0.06910523
213	0xbdac940a	-0.08426674
214	0x3d2aadcf	0.041669663
215	0xbda2ed9c	-0.07955477
216	0xbd37a3e3	-0.04483403
217	0x3d621013	0.05519111
218	0x3d6276d6	0.055289112
219	0x3cff951f	0.031199036
220	0x3d859d45	0.065241374
221	0x3d920d6b	0.071314655
222	0xbc3d8a0c	-0.0115685575
223	0xbd582b1e	-0.052775495
224	0xbd225ffe	-0.039642327
225	0xbd377012	-0.044784613
226	0xbd0916ee	-0.033469133
227	0xbd2bd7a5	-0.0419537
228	0x3d36de59	0.04464564
229	0x3cb9a478	0.022661433
230	0xbd66701a	-0.056259252
231	0xbc620f07	-0.013797528
232	0xbc2dcabb	-0.010607417
233	0xbcb78b28	-0.022405222
234	0x3d907f4a	0.070555285
235	0x3d4a2b51	0.049357716
236	0xbd41acf7	-0.047284093
237	0x3d731600	0.059347153
238	0xbd337fc9	-0.043823037
239	0x3d87799a	0.066149905
240	0x3d277119	0.040879343
241	0x3d3bffea	0.045898356
242	0x3bd0f7f1	0.006377213
243	0xbc6b3734	-0.014356423
244	0x3ca5e333	0.020249939
245	0x3bfb4c14	0.0076689813
246	0xbd82bc96	-0.06383626
247	0xbd7860b2	-0.06063909
248	0x3c0d78e7	0.008634782
249	0x3d290a1d	0.04126941
250	0xbd067748	-0.0328286
251	0xbcd76e05	-0.026297579
252	0xbd6877da	-0.056754924
253	0x3d25b59c	0.0404564
254	0x3d287e0f	0.041135844
255	0xbc99df56	-0.018783253

conv2.bias f4 [128]
0	0xbd2abf34	-0.04168625
1	0xbc8ead81	-0.017416717
2	0x3be5f382	0.007017554
3	0x3c381e46	0.0112376865
4	0x3d3f855c	0.04675804
5	0x3d6315d6	0.055440746
6	0xbd5fc875	-0.05463453
7	0xbd2255eb	-0.03963272
8	0xbd874a85	-0.0660601
9	0xbbd35f13	-0.0064505427
10	0xbd7cbebd	-0.06170534
11	0xbc75bd8e	-0.014998807
12	0x3cdcce3a	0.026953805
13	0xbc55773b	-0.013028915
14	0xbbb7255c	-0.0055891704
15	0x3d2f5459	0.04280505
16	0xbc8f040e	-0.017457988
17	0x3c6a68dc	0.014307227
18	0xbd11d8c3	-0.03560711
19	0x3d230dbb	0.039808016
20	0xbcdbd2f2	-0.026833985
21	0xbcb22f30	-0.021751016
22	0xbd878222	-0.06616618
23	0xbcf12759	-0.029437708
24	0xbd5078a4	-0.050896302
25	0xbcec2c3c	-0.028829686
26	0x3d4cdf86	0.050017856
27	0xbd893261	-0.06699062
28	0xbca921c2	-0.02064598
29	0xbdcbd59f	-0.09952854
30	0x3d7191ee	0.05897706
31	0xbd994060	-0.07482982
32	0x3d132735	0.035926063
33	0xbd6e2f06	-0.058150314
34	0xbbfaa158	-0.007648628
35	0x3c6dda31	0.014517353
36	0xbd31956f	-0.0433554
37	0xbb449ae7	-0.0029999556
38	0x3d105d63	0.03524531
39	0x3d8ae485	0.06781868
40	0x3d0035b2	0.031301208
41	0x3d901e72	0.07037057
42	0xbd281cfc	-0.041043267
43	0x3d394e12	0.04524047
44	0xbcb1a145	-0.021683345
45	0xbcc5801d	-0.02410894
46	0xbaa9f9c6	-0.0012968115
47	0x3d94932c	0.07254633
48	0xbd120753	-0.035651516
49	0x3d4341c6	0.04767015
50	0xbc9a21b5	-0.0188149
51	0xbd02f51a	-0.03197203
52	0xbb011ad1	-0.0019699822
53	0x3c3a0815	0.011354466
54	0x3ce3e3f5	0.02781866
55	0xbd8b9644	-0.0681577
56	0x3d595081	0.05305529
57	0x3bf1d299	0.0073798415
58	0xbd2d58d7	-0.042321052
59	0x3d0d27df	0.034461852
60	0x3d3ee8a2	0.046608575
61	0xbd90ea3f	-0.07075929
62	0xbbc5f0b5	-0.0060406574
63	0xbd2e95c4	-0.042623296
64	0xbd8a80e1	-0.06762863
65	0xbc86476a	-0.016391475
66	0xbd28344d	-0.041065503
67	0x3ca84ea2	0.020545308
68	0x3d80d849	0.06291253
69	0x3d4c587d	0.049889077
70	0x3d4b7075	0.049667794
71	0xbd7b9c7f	-0.061428543
72	0x3d0e87a3	0.034797322
73	0xbd7d2e32	-0.061811633
74	0x3c52c393	0.012864011
75	0xbd65c727	-0.05609813
76	0xbc8074a1	-0.015680613
77	0x3d64aeb4	0.055830672
78	0xbaee0476	-0.0018159288
79	0xbc217aa8	-0.009855904
80	0x3d3c5781	0.045981888
81	0xbd23b633	-0.03996868
82	0xbb993fd1	-0.004676797
83	0xbbb9e6ae	-0.005673251
84	0xbd1d6ce1	-0.038433913
85	0xbd9b0c2f	-0.07570683
86	0xbc1a5724	-0.00942019
87	0x3d7d22fc	0.06180094
88	0xbd661dd4	-0.05618079
89	0xbc7e51b4	-0.015522409
90	0xbd5a0c4a	-0.053234376
91	0x3d6a122e	0.057146244
92	0x3d146dfd	0.036237705
93	0x3c8c6e4c	0.017142437
94	0xbd0250f9	-0.031815503
95	0xbd9b921d	-0.07596228
96	0x3c5afefb	0.013366456
97	0x3cccc67b	0.024996987
98	0xbca19538	-0.019724473
99	0x3c662570	0.014047012
100	0x3d0225e0	0.0317744
101	0x3d74ca95	0.05976351
102	0x3d6c5cb1	0.057705585
103	0x3d8a2380	0.06745052
104	0x3cf21ba7	0.029554201
105	0x3c0d6a0c	0.008631241
106	0x3c9f4851	0.019443663
107	0x3bfaa455	0.0076489844
108	0x3ced5e18	0.028975531
109	0xbd3105d8	-0.043218464
110	0xbd70e90d	-0.058816005
111	0xbd2b60ec	-0.04184048
112	0x3d01d338	0.031695575
113	0x3d56d47b	0.05244873
114	0x3b0181d9	0.0019761233
115	0xbd8fcf2e	-0.07021938
116	0x3cbf5d31	0.023359867
117	0xbd3637f7	-0.044486966
118	0x3d57754a	0.05260209
119	0x3d5d4819	0.054023836
120	0xbd5caad4	-0.053873852
121	0x3c3794cc	0.0112049095
122	0xbc690028	-0.014221229
123	0xbd1a0189	-0.03759912
124	0xbdb48629	-0.088146515
125	0x3ce571a6	0.028008293
126	0xbd486772	-0.04892678
127	0x3d78748f	0.060658034

dense1.weight f4 [50, 768]
0	0xbcb4085f	-0.021976648
1	0xbc79bf23	-0.015243324
2	0x3b5fc51b	0.0034144584
3	0xbc3df6b3	-0.011594462
4	0x3b81502b	0.0039463243
5	0xbc7700d0	-0.015075877
6	0x3caa060d	0.020754838
7	0x3c9ee238	0.019394979
8	0xbc9dfc79	-0.019285427
9	0x3c5c98bf	0.013464152
10	0xbcd566f2	-0.026050065
11	0xbcaca2c2	-0.021073703
12	0xbd6017da	-0.054710247
13	0xbd12f518	-0.03587827
14	0x3c2419f7	0.010015956
15	0x3c54eea6	0.012996351
16	0xbcd37984	-0.02581478
17	0x3b9950b9	0.0046788123
18	0xbcac4195	-0.021027366
19	0xbd3e13a9	-0.046405468
20	0xbc0e5203	-0.008686545
21	0xbc5b8610	-0.013398662
22	0xbcef932c	-0.029244982
23	0xbd9ecb14	-0.07753578
24	0xbcdafca0	-0.02673179
25	0xbc09ac8a	-0.008402953
26	0x3cf04d5e	0.029333767
27	0xbc48580f	-0.012228026
28	0x388aaf68	6.613025e-05
29	0xbcd069aa	-0.02544101
30	0xbcda6d37	-0.026663406
31	0x3c0cf422	0.008603128
32	0xbcea00a3	-0.028564757
33	0xbcbf1ad9	-0.023328232
34	0x3cf31ba8	0.029676273
35	0x3b0316e7	0.0020002665
36	0xbc6f2137	-0.014595321
37	0xbc3e8894	-0.011629242
38	0x3c8efc50	0.017454296
39	0xbc851197	-0.016243739
40	0x3d2861ee	0.041109018
41	0x3d41efdb	0.047347885
42	0x3d0b054b	0.033940595
43	0xbca54ee7	-0.020179225
44	0x3d6e4cff	0.058178898
45	0x3c5083fa	0.012726778
46	0xbc9861ae	-0.018601265
47	0x3d8ef194	0.06979671
48	0xbcf970a8	-0.030449226
49	0xbbc07694	-0.0058735106
50	0xbd2dd112	-0.042435713
51	0x3c4eadb9	0.012614661
52	0x3ca0cb40	0.019628167
53	0xbcac092e	-0.021000471
54	0x3c3356e1	0.0109460065
55	0xbbb5a8cc	-0.005543804
56	0x3d0fce19	0.03510866
57	0x3c29405f	0.010330289
58	0x3c27a783	0.010232809
59	0xbc93ce2f	-0.018042652
60	0x3c9a7a0e	0.018857028
61	0x3d3cbc98	0.046078295
62	0x3d305f61	0.04305971
63	0xbd7da3df	-0.061923858
64	0xbc9511af	-0.018196909
65	0x3caadada	0.02085631
66	0xba1bb098	-0.0005939095
67	0x3d02750e	0.031849913
68	0xbca0a3ba	-0.01960932
69	0x3cccf608	0.02501966
70	0xbce1bfe6	-0.027557325
71	0xbb5e4e4c	-0.003392118
72	0xba30aaf2	-0.000673934
73	0xbcaaa294	-0.020829476
74	0xbcbeed90	-0.023306638
75	0x3bd502cb	0.006500577
76	0x3c8527d9	0.016254352
77	0xbbb42a6f	-0.0054982225
78	0xbd147381	-0.036242966
79	0xbcdf3bb1	-0.027250143
80	0xbd4399c1	-0.047754053
81	0x3bf11fd2	0.0073585296
82	0x3c47ad58	0.012187324
83	0xbd8170b6	-0.06320326
84	0x3ca6bb2a	0.020352919
85	0x3b8ead37	0.004354145
86	0x3c459eb9	0.012061768
87	0x3c92f6eb	0.017940005
88	0xbd4912d6	-0.04909023
89	0xbcfe12f3	-0.031014895
90	0xbcff5e39	-0.031172859
91	0xbce5ad10	-0.028036624
92	0x3c08c1ee	0.008347018
93	0x3c11ae91	0.0088917175
94	0x3d084cfd	0.033276547
95	0x3cf59c66	0.029981803
96	0xbaa5e499	-0.0012656628
97	0xbbc16f30	-0.005903147
98	0xbca9c4c2	-0.020723704
99	0xbc191aad	-0.009344739
100	0xbcbfd3d5	-0.02341644
101	0xbba4cdef	-0.005029432
102	0xbc35fb5a	-0.01110729
103	0xbd20d782	-0.039268024
104	0x3c2aec0e	0.010432256
105	0x3d385166	0.044999503
106	0xbaad98d9	-0.0013244405
107	0x3d43f8fe	0.04784488
108	0xbbf43030	-0.0074520335
109	0xbc98ea6a	-0.018666465
110	0x3c8aaafa	0.016927231
111	0x3a48d607	0.0007661287
112	0xbb841d32	-0.0040318007
113	0x3cc21b97	0.023694796
114	0xbcd7fa19	-0.026364373
115	0xbc09b019	-0.008403801
116	0x3c0818f6	0.008306732
117	0xbd35dacb	-0.04439811
118	0x3cc98002	0.024597172
119	0x3c4da312	0.012551086
120	0xbd36b55e	-0.04460656
121	0x3bd24f11	0.006418117
122	0xbce671eb	-0.028130492
123	0xbc7265a6	-0.014794743
124	0xbcb44e15	-0.022009889
125	0x3d2198bc	0.0394523
126	0xbcb9784d	-0.022640372
127	0xbb63e9ea	-0.0034776875
128	0xbc83f469	-0.016107755
129	0xbcc2d473	-0.023782944
130	0xbc982123	-0.018570488
131	0x3c41bcb0	0.011824772
132	0xbcb7b0fc	-0.02242326
133	0x3cb615a5	0.022227118
134	0xbca6eb87	-0.02037598
135	0xbbb35341	-0.005472571
136	0xbd31523b	-0.04329131
137	0xbcc03fd7	-0.023467941
138	0xbd0c758e	-0.034291796
139	0x3ca5dafb	0.02024602
140	0x3c58fad8	0.0132434
141	0xbc1fa691	-0.009744302
142	0x3d230541	0.039799932
143	0x3d2b7f1f	0.04186928
144	0xbd1720b7	-0.036896434
145	0xbd0c805e	-0.034302108
146	0xbc56a112	-0.013099926
147	0xbd3b2443	-0.04568888
148	0x3d0fb6cb	0.035086434
149	0x3c6dbf97	0.014511011
150	0x3d003579	0.031300995
151	0xbbdb6e48	-0.006696496
152	0x3c989660	0.018626392
153	0x3cebf79f	0.028804598
154	0xbd081a82	-0.033228405
155	0x3c610960	0.013735145
156	0x3bd3c791	0.006462999
157	0xbcb7255d	-0.022356683
158	0xbcc9eae7	-0.024648143
159	0xbcee4c6e	-0.029089179
160	0x3c71f523	0.014767918
161	0xbc894f75	-0.01676152
162	0xbcf20a06	-0.029545795
163	0x3d039e79	0.032133553
164	0xbc2421ff	-0.010017871
165	0x3cea9aa4	0.028638192
166	0x3da2503d	0.079254605
167	0x3d4bf0b8	0.049790114
168	0xbb26916a	-0.0025416263
169	0xbcfa0e01	-0.030524256
170	0xbc7e6f3b	-0.015529449
171	0xbd235a96	-0.03988131
172	0xbc07429d	-0.008255628
173	0x3d2972db	0.0413693
174	0xbc5cb0e0	-0.013469905
175	0xbdff0ddb	-0.124538146
176	0x3cd3f08f	0.025871543
177	0xbd44ce30	-0.0480482
178	0xbc26c30c	-0.010178339
179	0x3d9f43d0	0.07776606
180	0x3c527246	0.012844628
181	0xbcdb9c64	-0.026807971
182	0x3ca0f7d8	0.019649431
183	0xbc95a0f1	-0.01826522
184	0x3cbdd294	0.0231717
185	0x3c9d7449	0.019220488
186	0x3cb1db89	0.021711128
187	0x3c960563	0.018313115
188	0x3c572218	0.013130687
189	0x3a6501d4	0.0008735929
190	0xbd836453	-0.0641562
191	0xbbfac86e	-0.0076532876
192	0x3be238e7	0.006903756
193	0xbd2ad712	-0.041709013
194	0xbad6ba29	-0.0016382384
195	0xbbb3a349	-0.0054821116
196	0xbd262f18	-0.040572256
197	0x3c7a9b92	0.01529588
198	0xba5c1473	-0.0008395381
199	0xbbd14f17	-0.006387602
200	0x3d1378a5	0.036003727
201	0x3cf6ecbb	0.030142179
202	0x3cf30f18	0.029670283
203	0x3c180694	0.009278912
204	0x3d8fef26	0.07028036
205	0x3b5aa7f6	0.0033364273
206	0xbc26881f	-0.01016429
207	0xbaaa02f9	-0.0012970857
208	0x3d17addc	0.03703104
209	0xbb6e52d8	-0.0036365297
210	0xbc8ab47a	-0.016931761
211	0xbd08aabc	-0.03336595
212	0x3cb1137c	0.021615736
213	0xbccf6ed9	-0.025321411
214	0x3cb6ac70	0.022299021
215	0x3cee7c89	0.029112117
216	0x3d0b9050	0.034073174
217	0x3ccf9f31	0.025344463
218	0xbcc60cb6	-0.024175983
219	0xbcd37c08	-0.025815979
220	0x3c2180b8	0.009857349
221	0x3ca9d9c3	0.02073372
222	0xbc249148	-0.010044403
223	0x3cbc80a6	0.023010563
224	0x3d0d465a	0.03449092
225	0xbbaaee94	-0.005216429
226	0x3c0524ca	0.008126447
227	0x3dbb4320	0.091436625
228	0x3b2e6256	0.0026608906
229	0xbc9bdca3	-0.019026106
230	0xbca7162e	-0.020396318
231	0x38d33034	0.000100702426
232	0x3bbdc6df	0.0057915295
233	0x3cbaa235	0.022782424
234	0xbaba108e	-0.0014195608
235	0xbc416dd0	-0.0118059665
236	0xbb3abcf3	-0.002849397
237	0xbc0ebf19	-0.008712553
238	0xbc2bc7ee	-0.010484679
239	0xbc2da2bc	-0.010597881
240	0x3d192356	0.037387215
241	0x3cdf6644	0.027270444
242	0x3c6ef1cc	0.014584016
243	0xbcfd0277	-0.030884964
244	0xbc0bd0d8	-0.008533679
245	0x3c9b29fc	0.018940918
246	0xbd11cbda	-0.0355948
247	0xbcf7050d	-0.030153776
248	0x3b85cb18	0.0040830486
249	0xbc9288d0	-0.017887503
250	0xbc0e0f67	-0.008670664
251	0x3c7897ff	0.015172957
252	0xbc44902a	-0.011997262
253	0x3b164255	0.002292772
254	0x3c346bad	0.011012
255	0x3c9402fe	0.018067833

dense1.bias f4 [50]
0	0x3ad388cc	0.0016138791
1	0x3d0c7699	0.03429279
2	0x3c24ba74	0.0100542195
3	0x3d2c9c63	0.04214133
4	0x3cf5be49	0.029997962
5	0x3b912caf	0.0044303755
6	0xbc993963	-0.018704122
7	0x3cb33bc0	0.021879077
8	0x3d295b11	0.041346613
9	0x3c79bd38	0.015242867
10	0x3b133549	0.002246218
11	0x3c470d96	0.012149235
12	0x3b97d004	0.0046329517
13	0xbca07840	-0.01958859
14	0x3cfae0aa	0.030624706
15	0x3d27a1b0	0.04092568
16	0x3c9a3051	0.018821867
17	0x3d0adc2c	0.03390138
18	0xbc33e3ce	-0.010979606
19	0xbca1092b	-0.019657692
20	0xbc5da728	-0.013528623
21	0xbcb0ee01	-0.021597864
22	0xbc0337a2	-0.008008869
23	0xbc4b26bb	-0.012399371
24	0xbbf71c3f	-0.007541209
25	0xbc8ef3cd	-0.017450238
26	0x3cb4c01e	0.022064265
27	0x3ce853cf	0.028360276
28	0x3c8822d3	0.016618168
29	0x3cd9c59d	0.026583487
30	0x3d288d2d	0.04115026
31	0x3bd89fe6	0.0066108583
32	0x3caa5887	0.020794166
33	0xbb9fed91	-0.004880615
34	0xbc83ef0d	-0.0161052
35	0xbc061809	-0.008184441
36	0xbcb9e98d	-0.022694374
37	0x3cef6b03	0.029225832
38	0xbca35686	-0.019938719
39	0x3ae15a62	0.0017193074
40	0x3ce1808e	0.02752712
41	0x3d25d4b8	0.040486068
42	0x3c80eada	0.015736986
43	0x3c3fff4e	0.011718584
44	0x3b3e8df1	0.0029076303
45	0xbb151e09	-0.0022753498
46	0x3cc33058	0.023826763
47	0x3d251218	0.04030046
48	0xbcc007f9	-0.023441302
49	0x3cc35684	0.023844965

dense2.weight f4 [1, 50]
0	0x3d0165a0	0.031591058
1	0x3dad67ca	0.08467062
2	0x3e066cfe	0.13127515
3	0x3cd0d683	0.025492912
4	0xbd08a03b	-0.033355933
5	0xbd9c21bd	-0.076236226
6	0x3d9249f0	0.07143009
7	0xbdde9b89	-0.1086951
8	0x3e0c36f0	0.13692832
9	0xbc63736c	-0.013882499
10	0x3e128ee0	0.14312315
11	0xbd125b0e	-0.035731368
12	0xbd4651a8	-0.048417717
13	0x3e0bc528	0.13649428
14	0x3cca1680	0.024668932
15	0xbcb29bdc	-0.021802835
16	0xbd99b8f0	-0.07505977
17	0xbd4d6a8b	-0.050150435
18	0x3d91607e	0.070984825
19	0xbc9a5ae3	-0.018842166
20	0x3da25356	0.07926051
21	0xbd25d655	-0.040487606
22	0x3dff9bb3	0.12480869
23	0xbd9bfacd	-0.07616196
24	0x3d6a6a68	0.057230383
25	0xbd37a389	-0.044833694
26	0x3db7e5b6	0.08979361
27	0x3d2f8480	0.04285097
28	0x3df418fb	0.11918827
29	0xbd6e9a88	-0.05825284
30	0xbd626da0	-0.055280328
31	0xbd346687	-0.04404309
32	0xbdb18e66	-0.086697385
33	0xbe0a82f2	-0.13526514
34	0x3da271b7	0.07931846
35	0x3decd9fd	0.115650155
36	0xbce8a5e0	-0.028399408
37	0xbdf738b7	-0.120713644
38	0x3dac96b2	0.0842718
39	0x3d8ba32c	0.06818232
40	0xbe07637b	-0.13221543
41	0xbda16d24	-0.07882145
42	0x3d8d243f	0.06891679
43	0x3d87ad79	0.06624884
44	0x3ce83bfd	0.028348917
45	0x3e174ce4	0.14775425
46	0xbd0ac14e	-0.033875756
47	0x3dd33eb0	0.10314691
48	0x3e01249f	0.12611626
49	0x3db41390	0.08792794
