time_series_forecasting/saved_models/CNNForecastingModel/19-03-2024-234742_NO1_epoch_2.pt (torch, 260011 bytes, 7 tensors)

conv1.weight f4 [64, 5, 3]
0	0x3e062172	0.13098696
1	0xbe44fe3f	-0.19237612
2	0x3d58e949	0.052956853
3	0xbd791338	-0.060809344
4	0xbde153b7	-0.110022955
5	0xbd96aef6	-0.0735759
6	0xbe6e677e	-0.23281667
7	0xbe1bf5de	-0.1523051
8	0xbe8abd6a	-0.27097636
9	0x3cc4be98	0.024016663
10	0x3ddc8006	0.10766606
11	0x3a97f269	0.001159263
12	0xbe851bdf	-0.25997826
13	0x3dd3dc51	0.103447564
14	0x3e413d67	0.1887108
15	0x3db9fe20	0.090816736
16	0x3e40bd2f	0.18822168
17	0xbd122566	-0.035680197
18	0x3e3b3a7f	0.18284033
19	0xbd541579	-0.05177829
20	0xbdc617b5	-0.096724905
21	0xbcbcdb4a	-0.023053784
22	0x3da8f0c3	0.08249047
23	0xbe7502b3	-0.23926811
24	0xbe39f81f	-0.18161057
25	0x3dbbace4	0.09163836
26	0x3d32d94b	0.043664258
27	0xbe018d6e	-0.12651607
28	0xbe26e169	-0.16296925
29	0x3d2d0875	0.042244393
30	0xbe3ca0ea	-0.18420759
31	0xbdb67adb	-0.089101516
32	0xbdd74f5e	-0.10513185
33	0x3d73cf4e	0.059523873
34	0x3e0ef5c9	0.13960947
35	0xbe3a10e9	-0.18170513
36	0xbe7db7fc	-0.24777216
37	0xbe5f24d4	-0.21791393
38	0xbe050726	-0.12991008
39	0xbe3e8a7c	-0.18607515
40	0x3e347238	0.17621696
41	0xbe44114a	-0.1914722
42	0xbdfdc993	-0.12391963
43	0x3ded4239	0.115848966
44	0xbe0666b8	-0.13125122
45	0x3dea97ac	0.1145471
46	0xbdd526fc	-0.10407826
47	0x3c00956a	0.007848123
48	0xbe01385b	-0.12619154
49	0xbe0097dc	-0.1255793
50	0xbe4ed5d6	-0.2019876
51	0x3d866fb9	0.06564278
52	0xbe5d7c7c	-0.21629518
53	0x3c097f8f	0.008392229
54	0x3e6fb6e5	0.23409612
55	0x3db7baf4	0.08971205
56	0xbe51b4b9	-0.20479096
57	0xbe17e76e	-0.14834377
58	0xbd89bd32	-0.06725539
59	0xbe7c73b8	-0.24653518
60	0xbe5379ee	-0.20651981
61	0xbd693009	-0.056930576
62	0xbd11cf37	-0.035598006
63	0x3d916836	0.07099955
64	0x3e383a46	0.1799098
65	0x3e5f13aa	0.21784845
66	0xbe101930	-0.14072108
67	0xbe188774	-0.14895421
68	0x3e43da8b	0.19126336
69	0xbe0810c9	-0.13287653
70	0x3e0fcabb	0.1404218
71	0x3e810ea4	0.25206482
72	0x3b0d780d	0.0021586448
73	0xbe0a05dd	-0.13478799
74	0x3de99d77	0.11406987
75	0xbe395718	-0.1809963
76	0xbe56ed4c	-0.20988959
77	0xbdcc989c	-0.099900454
78	0xbe202f1b	-0.1564297
79	0x3e0d6014	0.13806182
80	0xbe462732	-0.1935089
81	0xbd79059d	-0.06079637
82	0x3debb99e	0.11510013
83	0xbd095522	-0.033528455
84	0xbd9b8e7c	-0.07595536
85	0xbe07551f	-0.13216065
86	0xbd8f9eea	-0.07012732
87	0xbcc9372a	-0.024562437
88	0xbe155f5c	-0.14587158
89	0xbd912eef	-0.0708903
90	0xbc85552b	-0.016275963
91	0x3e7e3370	0.2482431
92	0x3d3deeb3	0.04637022
93	0x3cd03814	0.025417365
94	0xbe0174a3	-0.1264215
95	0x3e7b9cc0	0.24571514
96	0x3e361747	0.17782317
97	0xbd625be8	-0.05526343
98	0x3d3f678d	0.046729613
99	0x3e7c00d7	0.24609695
100	0xbcba088a	-0.02270915
101	0x3de6cb6b	0.11269268
102	0x3e603b2f	0.21897577
103	0xbe394720	-0.18093538
104	0x3d62cbf6	0.055370294
105	0x3e05d14b	0.1306812
106	0x3c51511b	0.012775685
107	0xbd901eff	-0.07037162
108	0xbe62ee63	-0.2216125
109	0x3e0d6335	0.13807376
110	0x3e418f37	0.18902288
111	0xbdcc5540	-0.09977198
112	0x3ccc3d87	0.024931682
113	0x3d1a9c41	0.03774667
114	0x3d23db43	0.040004026
115	0x3e032d0f	0.12810157
116	0x3d435647	0.047689702
117	0x3e51de18	0.20494878
118	0x3c64ba67	0.013960457
119	0x3e42dc6d	0.19029398
120	0xbcbe8165	-0.02325506
121	0x3d4eb170	0.050462186
122	0x3e180a48	0.14847672
123	0x3e61be12	0.22045162
124	0x3e28f5fb	0.16500084
125	0x3dcf438d	0.10120306
126	0x3ba1b54f	0.0049349437
127	0x3c98881e	0.018619593
128	0x3e2d3d21	0.1691785
129	0xbe861a45	-0.26191917
130	0x3e461de8	0.19347346
131	0x3d71fc24	0.05907835
132	0x3e538938	0.20657814
133	0x3d8e3ba5	0.0694497
134	0xbd43a55f	-0.047765132
135	0xbc955e41	-0.01823342
136	0x3aaa048c	0.0012971326
137	0x3ab9f759	0.0014188095
138	0x3e7ab1cf	0.24481891
139	0x3e6a172a	0.22860399
140	0x3d9021c4	0.0703769
141	0xbca23982	-0.019802812
142	0x3e4c67c7	0.19961463
143	0xbe5bd2b0	-0.2146709
144	0x3e33bce5	0.17552526
145	0x3e6d0bf8	0.23149097
146	0xbe2c56f9	-0.16830052
147	0xbdada69e	-0.08479045
148	0x3b5c5a13	0.0033623024
149	0xbda88a07	-0.082294516
150	0xbe2912b4	-0.16511041
151	0x3d8938f9	0.0670032
152	0xbd3dbd7b	-0.04632328
153	0x3d776cb4	0.0604064
154	0x3cd456ae	0.025920238
155	0x3de78a92	0.11305727
156	0xbe7d1d7c	-0.24718279
157	0xbe9aad5a	-0.30210382
158	0xbe83e56f	-0.2576098
159	0xbe133c6d	-0.1437852
160	0x3ce797f0	0.028270692
161	0xbde8b175	-0.11361972
162	0xbd5a156c	-0.053243086
163	0x3c0621e7	0.008186794
164	0x3e2207b0	0.15823245
165	0xbe276618	-0.1634754
166	0x3d7d4ed0	0.06184274
167	0xbe614984	-0.220007
168	0x3ddea718	0.10871714
169	0x3e577368	0.21040118
170	0xbc1e19b3	-0.009649682
171	0xbe560bec	-0.20902985
172	0x3d91153e	0.0708413
173	0x3e00cdda	0.12578526
174	0xbdd55398	-0.10416335
175	0xbdb0502b	-0.08609041
176	0xbe2ace61	-0.1668029
177	0x3d802bf9	0.06258387
178	0x3d652d54	0.05595143
179	0x3e2eba28	0.170632
180	0xbe4f4882	-0.20242503
181	0xbe2e35ec	-0.17012757
182	0x3b3cf321	0.002883144
183	0xbe7b23eb	-0.2452542
184	0x3d797a3f	0.0609076
185	0xbe469ee6	-0.19396552
186	0x3e0ad80f	0.13558982
187	0x3d84ebbc	0.06490275
188	0xbe14f7e8	-0.14547694
189	0x3d32d3a9	0.043658886
190	0xbe16cf5d	-0.1472754
191	0xbe1f7b1c	-0.15574306
192	0x3e7d58f0	0.24740958
193	0xbe3684de	-0.17824122
194	0xbdd1a95c	-0.10237381
195	0x3e8047cc	0.25054777
196	0x3d15ffd8	0.036620945
197	0x3df3fae5	0.11913089
198	0xbdb75b79	-0.08952994
199	0xbd8bc138	-0.06823963
200	0x3dbd0d83	0.09231093
201	0xbde099cc	-0.109668344
202	0xbe7bc6a1	-0.2458749
203	0xbe032cde	-0.12810084
204	0x3cad0284	0.021119364
205	0x3d907ea6	0.07055406
206	0xbe1291d8	-0.14313447
207	0xbe7c36bc	-0.24630255
208	0x3c619c8a	0.013770232
209	0x3e57fcb4	0.21092492
210	0xbe5f493c	-0.2180528
211	0xbe48260a	-0.19545761
212	0xbc6e751d	-0.014554289
213	0xbd85f203	-0.06540301
214	0x3e66cd6f	0.22539304
215	0x3e3a044f	0.18165706
216	0xbdbd7de2	-0.09252526
217	0xbd9ebf65	-0.07751349
218	0xbe0616ba	-0.13094607
219	0x3e35dc1e	0.1775975
220	0x3c6fa9d9	0.014627897
221	0x3e233248	0.1593715
222	0xbd067f72	-0.032836385
223	0x3e634db6	0.22197613
224	0xbe6a75f3	-0.22896557
225	0xbe470988	-0.1943723
226	0x3de8a813	0.113601826
227	0x3deb01b1	0.11474932
228	0xbdffabf9	-0.12483973
229	0x3e0abaeb	0.13547866
230	0x3d9fee23	0.07809093
231	0x3e31f039	0.17376794
232	0xbe05d331	-0.13068844
233	0x3e238f34	0.15972596
234	0xbe46bd67	-0.19408189
235	0x3d34f6d3	0.044180702
236	0x3d77a769	0.06046239
237	0x3df3e749	0.119093485
238	0x3c490dd6	0.012271365
239	0x3db77ea1	0.089596994
240	0xbe346ea0	-0.17620325
241	0xbe2a02ed	-0.16602679
242	0x3de62102	0.112367645
243	0x3e54b98e	0.20773908
244	0x3e51bad1	0.20481421
245	0x3d7e8d6b	0.062146585
246	0xbe2e5348	-0.17023957
247	0xbe317e26	-0.17333278
248	0x3e6f4875	0.23367484
249	0xbd970770	-0.073744655
250	0x3d801c8d	0.06255446
251	0xbe119008	-0.142151
252	0xbe33d614	-0.17562133
253	0xbe47f444	-0.19526774
254	0x3e79c62c	0.24392003
255	0x3d3e2e9f	0.04643118

conv1.bias f4 [64]
0	0x3d8b257a	0.067942575
1	0x3cbb626a	0.022874076
2	0xbcce9cba	-0.025221217
3	0x3d97846b	0.073983036
4	0xbd7a8660	-0.061163306
5	0x3dabf70e	0.08396731
6	0x3e0593d4	0.13044673
7	0x3e81f79f	0.25384232
8	0xbceded68	-0.029043868
9	0x3d6792ae	0.05653637
10	0xbce6e62d	-0.028185928
11	0x3e8217cc	0.2540878
12	0x3e708e92	0.23491886
13	0xbe35e764	-0.1776405
14	0xbe236d01	-0.1595955
15	0x3db955b2	0.09049548
16	0x3dd4a4a5	0.10382966
17	0x3d9b14aa	0.07572301
18	0xbe71f0dc	-0.23627037
19	0xbe5c8cec	-0.21538132
20	0xbd92888d	-0.07154951
21	0x3e59bf6c	0.21264428
22	0xbdddcdda	-0.10830279
23	0xbd42e442	-0.047580965
24	0xbdd0b4b4	-0.101907164
25	0x3d609ebb	0.054838877
26	0x3e0f0c44	0.13969523
27	0xbe1f3a3f	-0.15549563
28	0x3d2ec6a2	0.0426699
29	0x3e001f57	0.12511955
30	0xbe2d2397	-0.16908108
31	0x3e87c797	0.26519462
32	0xbd63740f	-0.055530604
33	0xbe1989df	-0.14994
34	0xbdb68b23	-0.08913257
35	0xbe6271d7	-0.22113739
36	0xbe342839	-0.17593469
37	0x3e242284	0.16028792
38	0xbe549a8d	-0.20762081
39	0x3cc0eb47	0.023549689
40	0xbe3359f3	-0.17514782
41	0xbd615fe4	-0.05502309
42	0xbe34d9de	-0.17661235
43	0xbe59226f	-0.21204542
44	0x3de0816e	0.10962187
45	0xbd338fd7	-0.04383835
46	0xbe5894e8	-0.21150553
47	0x3de03f9c	0.109496325
48	0x3d68d036	0.05683919
49	0x3e02b656	0.12764868
50	0xbe16d8dc	-0.14731163
51	0x3e5c812a	0.21533647
52	0x3d9073ca	0.07053335
53	0x3e0c5aa4	0.13706452
54	0xbe214d3a	-0.15752116
55	0xbdc7a13a	-0.097475484
56	0xbe43b171	-0.19110657
57	0xbdb9e55c	-0.0907695
58	0x3dd162a9	0.10223896
59	0x3dfe93d7	0.12430542
60	0x3e3930b5	0.18084987
61	0xbe3f1583	-0.1866055
62	0xbda9560c	-0.08268365
63	0xbdd8c1d4	-0.10583845

conv2.weight f4 [128, 64, 3]
0	0x3cd02ba4	0.025411434
1	0xbaba8c79	-0.0014232538
2	0xbd55c185	-0.052186508
3	0x3cfa41de	0.030548986
4	0x3d96679f	0.07343983
5	0x3cf35b52	0.02970663
6	0x3cedae69	0.02901383
7	0xbd80d349	-0.062902994
8	0xbd9afb51	-0.07567466
9	0x3d4be390	0.049777567
10	0xbd55b673	-0.05217595
11	0x3d9d02c5	0.07666544
12	0x3d36d442	0.04463602
13	0xbcdca629	-0.0269347
14	0x3ae4fd8d	0.0017470584
15	0xbd8ab3ac	-0.06772551
16	0xbd3187eb	-0.043342512
17	0x3d215354	0.03938611
18	0x3d5efe94	0.054442003
19	0xbd6dd4a5	-0.05806412
20	0x3ccb0c31	0.024786087
21	0x3c0cd979	0.008596771
22	0xbcd4e15e	-0.02598637
23	0xb9acab56	-0.00032934052
24	0x3cacd28c	0.02109649
25	0xbd5576d9	-0.052115295
26	0x3c8c79fe	0.017148014
27	0xbd440d58	-0.047864288
28	0xbcedf14e	-0.029045727
29	0x3d31b48b	0.04338507
30	0xbd39eeb9	-0.04539368
31	0xbc809119	-0.015694188
32	0xbc3b65a7	-0.01143781
33	0xbd263266	-0.040575407
34	0xbca48a78	-0.020085558
35	0xbc3a98e3	-0.01138899
36	0xbdbc43eb	-0.09192642
37	0x3c6dc1f8	0.014511578
38	0xbd9bf557	-0.07615154
39	0x3c8148fc	0.015781872
40	0xbc4184d0	-0.01181145
41	0x3ce72703	0.028216844
42	0x3be909c6	0.007111761
43	0x3ddd00e4	0.107911855
44	0x3c6658fa	0.0140593
45	0x3d18a253	0.03726418
46	0x3d1bda27	0.038049843
47	0xbd6f07ca	-0.058357038
48	0x3d4136c6	0.047171377
49	0xbd40befa	-0.04705713
50	0xbd33a24a	-0.043855943
51	0xbaffdd6b	-0.0019520944
52	0xbd80c3f8	-0.06287378
53	0x3c5d5531	0.013509081
54	0x3d7614f3	0.060078572
55	0xbd26be89	-0.040709052
56	0xbcd5b39c	-0.026086621
57	0xbaefcb44	-0.0018294831
58	0x3d571c7e	0.052517407
59	0xbcf0671f	-0.029346047
60	0x3cbadd71	0.02281067
61	0x3da37673	0.07981577
62	0x3d69d418	0.057087034
63	0x3b12b716	0.002238696
64	0xbd1fdf79	-0.03903148
65	0x3cfec09b	0.0310977
66	0xba3a90a5	-0.00071168906
67	0xbd7e50b7	-0.062088694
68	0x3bf4e170	0.0074731633
69	0xbc5a7e0e	-0.013335718
70	0x3cfb85a1	0.030703368
71	0xbdb30496	-0.08741109
72	0xbc23774d	-0.009977174
73	0x3d9afd72	0.07567872
74	0x3cfc95f5	0.030833224
75	0xbc262422	-0.010140451
76	0x3ca97c6d	0.020689214
77	0x3cec9b20	0.028882563
78	0xbd6a12b9	-0.05714676
79	0x3d64521c	0.055742368
80	0xbc972e75	-0.01845477
81	0x3d6057c2	0.054771192
82	0x3c335c20	0.010947257
83	0x3da08c7a	0.07839294
84	0xbce4dc3c	-0.027937047
85	0xbd0033ad	-0.031299282
86	0x3d8c6981	0.06856061
87	0xbd17ab38	-0.03702852
88	0xbd602612	-0.054723807
89	0xbb936858	-0.0044985227
90	0xbcc60920	-0.024174273
91	0xbc846b84	-0.016164549
92	0x3bac0512	0.005249628
93	0x3d24f424	0.040271893
94	0xbc3e6e4f	-0.011622979
95	0xbd82d496	-0.06388204
96	0x3b9cdebd	0.0047872947
97	0x3d6ff523	0.05858339
98	0xbd9e9594	-0.077433735
99	0x3d0c8caa	0.034313835
100	0x3d532b3d	0.051554907
101	0x3c0cf387	0.008602983
102	0xbd2543c3	-0.040347826
103	0xbd4049f3	-0.046945523
104	0xbd1bcf42	-0.038039453
105	0xbccbc3cd	-0.024873639
106	0x3d112f6a	0.03544561
107	0x3db1fe0b	0.08691033
108	0xbc9da8f3	-0.0192456
109	0x3cabf278	0.020989642
110	0x3d8ed648	0.06974465
111	0x3d9da64c	0.07697734
112	0x3d2afd8f	0.04174572
113	0x3ca22e63	0.01979751
114	0x3d353f04	0.04424955
115	0x3d584aa8	0.052805573
116	0x3cba6555	0.022753397
117	0xbda963d8	-0.08270997
118	0x3d5cb4d7	0.0538834
119	0x3d80303f	0.06259202
120	0xbcbfa20e	-0.023392703
121	0x3c7c8b28	0.015414037
122	0xbd245de9	-0.040128622
123	0x3c8bbb55	0.0170571
124	0xbc9acae2	-0.01889557
125	0x3d3b54a1	0.045735005
126	0x3cd9de71	0.026595326
127	0xbd22c19a	-0.039735414
128	0x3db6d462	0.089272276
129	0x3dbddd09	0.09270675
130	0x3d9dd5e0	0.07706809
131	0x3d375b81	0.044765
132	0xbd220908	-0.039559394
133	0x3d84a6c8	0.064771235
134	0x3cd750c0	0.026283622
135	0x3d0b5677	0.034018006
136	0x3d28c658	0.04120478
137	0x3c830434	0.015993215
138	0xbd1daf67	-0.038497355
139	0xbc5be759	-0.013421857
140	0xbd3a1d85	-0.04543831
141	0x3ab36580	0.0013686866
142	0xbd271131	-0.04078788
143	0xbd233e51	-0.03985435
144	0x3d711acc	0.058863446
145	0x3b8256ea	0.003977646
146	0xbd0d4572	-0.034490056
147	0xbda68992	-0.08131708
148	0xbbc52b78	-0.006017145
149	0xbb34617e	-0.002752393
150	0x3d982342	0.074286
151	0x3a9a7eac	0.0011787019
152	0xbc313e29	-0.010818043
153	0x3d7aee32	0.061262317
154	0x3bdfea8d	0.0068333806
155	0x3d46438b	0.048404258
156	0xbd900736	-0.070326254
157	0xbd200585	-0.039067764
158	0xbd0383f2	-0.032108255
159	0xbb9a638d	-0.0047115744
160	0xbd70a3a3	-0.058749806
161	0xbd22f105	-0.039780635
162	0xbcdda088	-0.027054086
163	0xbd80a6a4	-0.06281784
164	0x3d290ee2	0.04127396
165	0x3c2dd6c8	0.01061029
166	0xbd897baf	-0.06713044
167	0xbd0d6a79	-0.03452537
168	0xbd8a4f34	-0.06753388
169	0x3d6fc683	0.058538925
170	0x3d73562a	0.059408344
171	0xbc3a9aa8	-0.011389412
172	0x3ce989f3	0.028508162
173	0x3d0d19a7	0.034448292
174	0x3dce600b	0.100769125
175	0xbcba8ddd	-0.022772724
176	0xbc9359fd	-0.017987246
177	0x3b2b56d0	0.0026144274
178	0x3ce3e366	0.027818393
179	0xbd4888e3	-0.04895867
180	0xbd201edd	-0.039091934
181	0xbd59a46d	-0.053135324
182	0xbd04bc7e	-0.032406323
183	0xbacfff52	-0.0015868938
184	0x3d32383d	0.043510664
185	0x3c728812	0.0148029495
186	0xbc7cf926	-0.015440261
187	0x3c990e71	0.018683644
188	0xbc99559b	-0.018717578
189	0x3af7b353	0.0018898047
190	0xbd458cda	-0.04823003
191	0xbd5f16d3	-0.054465126
192	0xbd6ee767	-0.05832615
193	0x3d622597	0.05521163
194	0xbd070efd	-0.03297328
195	0x3c94381a	0.018093158
196	0xbcd1e143	-0.025620108
197	0x3d49818f	0.049195822
198	0x3ca8b7bf	0.02059543
199	0x3d907bff	0.070549004
200	0xbd5c5561	-0.05379236
201	0xbda8f439	-0.08249707
202	0x3c48c940	0.012255013
203	0xbd7b0de7	-0.061292555
204	0xbd886467	-0.06659775
205	0x3d892273	0.06696024
206	0xbd4ecf59	-0.05049071
207	0x3d9263e8	0.07147962
208	0x3c25096b	0.010073046
209	0xbd2ca6e6	-0.042151354
210	0xbd324f3e	-0.043532602
211	0xbd0f6723	-0.03501047
212	0xbd3464eb	-0.044041555
213	0x3cf935ff	0.030421255
214	0xbd92146f	-0.07132804
215	0x3cb1f7a3	0.021724528
216	0xbd6e2cfa	-0.05814836
217	0xbd05aaea	-0.0326337
218	0x3d75261e	0.059850805
219	0xbd71a80f	-0.058998164
220	0x3c70a26a	0.01468716
221	0x3d7f3c22	0.062313206
222	0x3ce747ff	0.028232573
223	0xbcdf66d3	-0.02727071
224	0x3d6c6654	0.057714775
225	0xbd3e39cd	-0.046441842
226	0xbb0f9658	-0.002190968
227	0x3d346ee4	0.044051066
228	0xbcc8cb96	-0.02451114
229	0x3d7ac0ed	0.061219145
230	0xb94f3506	-0.00019760811
231	0xbd7d39fb	-0.061822873
232	0x3aad6f03	0.0013231937
233	0xbd1c9497	-0.038227644
234	0xbd88ca2d	-0.06679187
235	0x3d8485c7	0.064708285
236	0xbd74786e	-0.059685163
237	0x3d462763	0.048377406
238	0xbd270763	-0.04077853
239	0xbd619ba9	-0.05508009
240	0x3d1afcea	0.037838854
241	0xbca46a4d	-0.02007022
242	0xbd2b58d2	-0.041832753
243	0x3d3c27d1	0.04593641
244	0x3d340e32	0.04395885
245	0x3c671e1a	0.014106298
246	0xbdbcd8f3	-0.09221067
247	0x3d21c497	0.039494123
248	0x3d4d9345	0.050189275
249	0xbccd6faf	-0.025077669
250	0x3d6e1e51	0.05813438
251	0x3d4cd3dd	0.050006736
252	0x3d9352ed	0.07193551
253	0x3d2017e9	0.039085303
254	0xbd3969a8	-0.045266777
255	0x3d64b192	0.055833407

conv2.bias f4 [128]
0	0xbc2475a1	-0.010037811
1	0x3ce58cce	0.028021242
2	0xbd36840d	-0.044559527
3	0x3ce5a9a0	0.028034985
4	0xbd43ceb0	-0.047804534
5	0x3d01a718	0.031653494
6	0xbcd26937	-0.025684936
7	0x3d959c7b	0.07305237
8	0x3cdc6a10	0.026906043
9	0xbc28f7c5	-0.010312979
10	0x3d36163d	0.0444548
11	0xbd075ff8	-0.033050507
12	0x3d2f532b	0.042803925
13	0x3aa6f26e	0.0012737045
14	0xbd8df268	-0.06931001
15	0xbcecad70	-0.028891295
16	0xbbfdeeb4	-0.007749403
17	0x3d3982cc	0.045290753
18	0x3c9f31bb	0.019432893
19	0xbc0a9998	-0.008459471
20	0xbba3ff81	-0.0050048237
21	0xbcc027f8	-0.023456559
22	0x3abace4c	0.0014252155
23	0x3d44db88	0.048060924
24	0xbcae062d	-0.02124318
25	0x3ce9efcc	0.028556727
26	0x3d08bf60	0.033385634
27	0x3c673468	0.014111616
28	0xbc1cb4a3	-0.0095645515
29	0x3d51222c	0.05105798
30	0xbd0ac35b	-0.03387771
31	0x3cb2259e	0.021746453
32	0xbd3df7a1	-0.046378735
33	0x3d32ff45	0.043700475
34	0x3b9ab1f1	0.0047209193
35	0x3d5f8cde	0.0545777
36	0x3d2a7cb6	0.04162284
37	0x3d1addae	0.037809066
38	0xbccb6f9f	-0.024833499
39	0x3d6fa57f	0.05850744
40	0x3d993539	0.074808545
41	0x3d43d3ad	0.04780929
42	0x3d488c73	0.048962068
43	0xbd8700cd	-0.065919496
44	0xbd9c546c	-0.0763329
45	0x3cf65656	0.030070465
46	0xbc8605cb	-0.016360184
47	0xbd6001ae	-0.054689102
48	0x3d29c540	0.041447878
49	0xbd36b790	-0.044608653
50	0x3ca5d6e3	0.020244068
51	0xbd138e4c	-0.036024377
52	0xbcb9f23c	-0.022698514
53	0x3cd5ba4a	0.026089806
54	0xbd93aa1c	-0.0721018
55	0x3d6b5805	0.05745699
56	0xbcf0645b	-0.029344728
57	0x3cb7be6e	0.022429671
58	0xbc5e82d9	-0.013581001
59	0x3d90db5b	0.07073089
60	0xbd156a73	-0.03647847
61	0x3c54fa1c	0.012999084
62	0xbc775fff	-0.015098571
63	0x3d15431d	0.036440957
64	0xbd6aa497	-0.05728587
65	0x3cd6d294	0.026223458
66	0x3d613a2e	0.054987125
67	0x3d2e8ae9	0.042612944
68	0xbbea4247	-0.007149014
69	0xbab83bc8	-0.0014055902
70	0x3cfc2995	0.030781547
71	0xbcc497dd	-0.023998195
72	0x3d342285	0.043978233
73	0x3b75ae84	0.0037488053
74	0xbd2416da	-0.040060855
75	0xbcf27844	-0.029598363
76	0x3cf86fc6	0.030326735
77	0x3cc5d980	0.024151564
78	0xbd7eeb53	-0.06223614
79	0xbd3fc7a7	-0.046821263
80	0x3b815658	0.0039470606
81	0xbcefbebc	-0.029265754
82	0xbd6c95e0	-0.05776012
83	0x3d834e37	0.06411403
84	0xbc6d05df	-0.014466732
85	0x39eb2a60	0.00044854265
86	0x3a8e0f10	0.0010838229
87	0xbd6ec6e3	-0.058295142
88	0x3c48f7b4	0.012266088
89	0x3d78eca8	0.060772568
90	0x3d3a91bf	0.04554915
91	0xbc3e5fa8	-0.011619486
92	0x3cf0868c	0.029361032
93	0x3bb106bd	0.0054024146
94	0x3d64512b	0.05574147
95	0xbd11c389	-0.035586867
96	0x3d6bd5b7	0.05757686
97	0xbd5efcc0	-0.05444026
98	0x3d5b7ef3	0.053587865
99	0x3dac30c3	0.08407738
100	0xbd28ae7d	-0.04118203
101	0x3cca7693	0.024714744
102	0xbd5fc22e	-0.054628544
103	0xbc136b24	-0.008997712
104	0xbd3d0ce7	-0.046154883
105	0x3caedbe4	0.021345086
106	0xbc83012c	-0.01599177
107	0xbd7922d3	-0.060824227
108	0xbd32702b	-0.043564003
109	0xbca54761	-0.020175638
110	0xbcbc233c	-0.02296602
111	0xba8a9468	-0.0010572793
112	0x3b3d356e	0.0028870958
113	0xbd1690cf	-0.036759194
114	0xbd3df858	-0.046379417
115	0x3d0f222e	0.034944706
116	0x3d4c3d80	0.04986334
117	0xbcdcb707	-0.026942743
118	0x3d59d78e	0.053184085
119	0x3c4824c6	0.012215799
120	0xbd730e18	-0.059339613
121	0xbbf79fad	-0.0075568766
122	0xbd507db6	-0.050901137
123	0xbc071345	-0.00824434
124	0xbd1e49b7	-0.03864452
125	0xbb874f43	-0.004129322
126	0xbd7f0170	-0.06225723
127	0x3c9942d7	0.01870863

dense1.weight f4 [50, 768]
0	0xbc97ac9f	-0.01851493
1	0x3c181a05	0.009283547
2	0x3cd80a51	0.026372107
3	0xbcc8a49a	-0.02449255
4	0xbb9a2d59	-0.004705113
5	0xbd54b562	-0.051930793
6	0xbb578655	-0.0032886465
7	0x3c6a1575	0.014287342
8	0x3d41502d	0.047195602
9	0x3d19ebce	0.037578396
10	0x3c893271	0.016747685
11	0x3d19640f	0.03744894
12	0x3ce26908	0.027637973
13	0xbb8fac65	-0.0043845647
14	0x3cd7b1fb	0.026329985
15	0x3c8c8b8f	0.01715639
16	0x3ce4f0ce	0.027946856
17	0xbb8db309	-0.004324321
18	0x3c11ed19	0.008906626
19	0x3c78b390	0.01517953
20	0x3c16d547	0.009206123
21	0x3c02c1f1	0.00798081
22	0xbbe5c9b3	-0.00701257
23	0x39fbdba5	0.000480381
24	0xbcf22d50	-0.029562622
25	0xbd01e2e2	-0.031710513
26	0x3d0d2957	0.034463253
27	0x3c0e1fe3	0.008674595
28	0xbd0bd85f	-0.034141894
29	0xbd13e62a	-0.036108173
30	0x3ca90030	0.020629972
31	0x3d0d7cf6	0.034543
32	0x3cd2517c	0.02567362
33	0xbcab825e	-0.020936187
34	0xbbcc1be2	-0.00622891
35	0x3b72131c	0.003693766
36	0xbc31965b	-0.01083907
37	0xbb9c5ebd	-0.004772036
38	0xbcc35599	-0.023844527
39	0x3bd563ea	0.006512155
40	0x3c379e62	0.011207195
41	0xbcbd42c9	-0.023103135
42	0x3baa8a8a	0.0052045034
43	0xbc83e687	-0.016101135
44	0xbd01ed9a	-0.031720735
45	0xbc9bbc86	-0.019010793
46	0xbb91ec83	-0.004453243
47	0xbc8dcffd	-0.01731109
48	0xbc12e312	-0.008965271
49	0x3d176544	0.03696181
50	0xbbe7e790	-0.007077165
51	0x39b946e7	0.00035338776
52	0x3c87bc81	0.016569378
53	0x3c61af13	0.013774651
54	0x3ce83e08	0.028349891
55	0xbcd20364	-0.025636382
56	0x3c27e910	0.0102484375
57	0xbcd431b4	-0.025902607
58	0x3c27acaa	0.010234037
59	0x3ce15e5b	0.027510813
60	0xbd01b8f1	-0.031670514
61	0xbcd80342	-0.026368741
62	0xbcd98a05	-0.02655507
63	0x3ca474a7	0.020075155
64	0x3c9ae48a	0.018907804
65	0xbc00c26d	-0.007858855
66	0x3d0e7994	0.034783915
67	0x3ce7b014	0.028282203
68	0x3cd1936d	0.025582993
69	0x3cc41a31	0.02393827
70	0x3c7a051a	0.015260005
71	0x3cd56154	0.026047386
72	0xbc4b27e7	-0.01239965
73	0xbb73cdf2	-0.003720161
74	0x3c7bfa37	0.01537948
75	0x3ce114e4	0.027475782
76	0x3ba045b4	0.0048911218
77	0x3c8a7a00	0.016903877
78	0xbc85a4fa	-0.016314019
79	0x3cce073f	0.02514994
80	0x3ca9c52e	0.020723905
81	0x3c93535f	0.01798409
82	0xbd291973	-0.041284036
83	0xbd1eb1ed	-0.038743902
84	0xbb835d13	-0.004008898
85	0xbc34935a	-0.0110214595
86	0xbc0403bf	-0.008057534
87	0xbce8cd1a	-0.028418113
88	0x3d1c0ecc	0.03810005
89	0xbd057c4c	-0.03258924
90	0xbd659c63	-0.056057345
91	0xbd042955	-0.03226598
92	0x3c9a8061	0.018860044
93	0xbd03787e	-0.032097332
94	0xbd448604	-0.04797937
95	0xbd886fed	-0.06661973
96	0xbc921b51	-0.017835291
97	0xbcd5d76b	-0.026103696
98	0xbd0b97c2	-0.034080274
99	0xbc907876	-0.017635565
100	0x3cdca469	0.026933866
101	0x3ce65d34	0.028120615
102	0xbd38b3bf	-0.045093294
103	0xbbdfdb21	-0.006831542
104	0xbcadb52f	-0.02120456
105	0xbc87fa38	-0.016598806
106	0x3ca36538	0.019945726
107	0xbce65625	-0.028117249
108	0x3b6f24a6	0.003649035
109	0x3ccc4ecb	0.024939915
110	0x3ca83800	0.020534515
111	0xbcce95bb	-0.025217881
112	0x3d032c92	0.032024927
113	0x3bc42071	0.0059853126
114	0x3ba71478	0.0050988756
115	0x3cf6a870	0.030109614
116	0xbc9a51c4	-0.018837817
117	0xbac00b5a	-0.001465182
118	0x3d157295	0.036486227
119	0x3d10c712	0.0353461
120	0x3d182b26	0.037150525
121	0x3c5a7d2c	0.013335507
122	0x3b858799	0.0040750024
123	0x3ce4afb6	0.027915817
124	0xbb02cc0c	-0.0019958047
125	0x3b0cfa4a	0.0021511489
126	0x3d22ce4a	0.039747514
127	0xbb82bc58	-0.0039897375
128	0xbcae3a6d	-0.021268094
129	0xbbc67dd8	-0.006057482
130	0x3c990d5c	0.018683128
131	0x3ce01d92	0.02735785
132	0x3bf1e2f4	0.0073817912
133	0x3cb554b6	0.02213512
134	0x3b8c9a06	0.004290822
135	0x3cbe92c6	0.023263346
136	0xb92be665	-0.0001639366
137	0xbc4c7744	-0.012479607
138	0x3c67cfa9	0.014148631
139	0x3c66061f	0.014039545
140	0xbd24208d	-0.040070105
141	0xbd02bc34	-0.031917766
142	0xbd0a73c2	-0.0338018
143	0xbc15f6a0	-0.009153038
144	0xbab2b959	-0.001363556
145	0xbc7612a9	-0.015019097
146	0x3c819b71	0.01582119
147	0x3c5d699f	0.013513952
148	0x3cc0f4fc	0.023554318
149	0x3cc1b2d7	0.023644848
150	0x3cfa552d	0.030558193
151	0xbce1a84b	-0.027546069
152	0x3c97848e	0.018495824
153	0xbce2bd4a	-0.02767815
154	0xbcd11c2d	-0.02552613
155	0xbc7bb954	-0.01536401
156	0x3d17cfb4	0.037063316
157	0x3d12e4ea	0.03586284
158	0x3afdfc39	0.0019377536
159	0x3cc52c5e	0.024069007
160	0x3c7eec72	0.015559303
161	0x3d345b89	0.044032607
162	0xbb75c8f6	-0.0037503815
163	0xbc249eeb	-0.010047655
164	0x3cfd4714	0.030917682
165	0x3c71273b	0.014718826
166	0xbcf1c9d4	-0.029515184
167	0x3caa044f	0.020754008
168	0x3b891524	0.0041834284
169	0x3d260fa2	0.040542252
170	0xbc0f2691	-0.008737222
171	0xbcb32820	-0.021869719
172	0xbbd5b979	-0.006522354
173	0xbd1b7c28	-0.0379602
174	0xbcc06f81	-0.02349067
175	0x3ca7febe	0.020507213
176	0xbbb09051	-0.0053882976
177	0xbb57a4d0	-0.0032904632
178	0x3cefd4d1	0.029276283
179	0xbcec7b1e	-0.0288673
180	0xbc927394	-0.017877378
181	0x3bd39674	0.0064571444
182	0xbcaa53fd	-0.020792002
183	0xbc8f53bc	-0.017495982
184	0xb9a27a41	-0.00030990134
185	0x3be996bd	0.007128565
186	0x3bc8f54f	0.0061327587
187	0x3b9bafb7	0.0047511715
188	0x3cc5907e	0.02411675
189	0x3ce92057	0.028457804
190	0x3c60e843	0.0137272505
191	0x361b7a38	2.316794e-06
192	0x3d43321d	0.047655214
193	0x3d0ca70f	0.034339007
194	0x3cca84c4	0.02472151
195	0x3cf28bcc	0.029607676
196	0xbcdaeaea	-0.026723344
197	0xbbf4331e	-0.0074523827
198	0xba0bc96e	-0.00053324446
199	0xbc596f22	-0.013271125
200	0x3c49aeda	0.012309754
201	0x3d04337b	0.032275658
202	0xbc16e496	-0.009209773
203	0xbb4081fd	-0.0029374354
204	0x3c48e495	0.012261529
205	0xbcdd3c22	-0.027006213
206	0x3d0db705	0.03459837
207	0x3d18a69a	0.03726826
208	0x3c1231f3	0.008923042
209	0x3c8ac30e	0.016938712
210	0x3d34bd80	0.044126034
211	0x3d053dff	0.032529827
212	0x3cc87a3b	0.024472347
213	0xbc78f7f3	-0.015195834
214	0x3bd05d21	0.006358758
215	0x3d09a020	0.033599973
216	0x3c135a46	0.008993691
217	0x3c0ce3c8	0.008599229
218	0x3ceaaee9	0.028647857
219	0x39cc1b12	0.0003893008
220	0x3d15a668	0.03653565
221	0x3c302748	0.010751553
222	0x3b40df51	0.0029429982
223	0x3c4aaf24	0.012370858
224	0x3cec5c20	0.028852522
225	0x3cb59a5a	0.022168327
226	0x3c44f5d6	0.0120215025
227	0x3bea1fa4	0.007144885
228	0xbcc56faa	-0.024101097
229	0xbcac2442	-0.021013383
230	0xbc58e744	-0.013238732
231	0xbc39eb9b	-0.011347677
232	0x3c999a6d	0.018750394
233	0x3b46a0da	0.0030308277
234	0xbc4b3649	-0.012403079
235	0xbb3322f4	-0.0027334066
236	0x3cd8d522	0.026468817
237	0xbd2fd9d5	-0.04293235
238	0xbb87ffe1	-0.004150376
239	0xbc718a85	-0.014742498
240	0x3c01ea9c	0.00792947
241	0x3d2195c3	0.039449465
242	0x3cb9ed07	0.022696031
243	0x3cc21e9e	0.02369624
244	0x3d0df5ab	0.034658115
245	0x3cfe5bd8	0.031049654
246	0xbc1a103e	-0.0094032865
247	0x3bd13fda	0.0063857855
248	0xbd099521	-0.033589486
249	0xbc7d37a6	-0.015455162
250	0x3cd8907c	0.026436083
251	0xbd07bcfe	-0.03313922
252	0xbc4838a0	-0.012220532
253	0x3cb7ca9a	0.022435475
254	0xbc2bacd2	-0.010478215
255	0x3c0acd08	0.008471735

dense1.bias f4 [50]
0	0x3b461883	0.0030227012
1	0x3d4b727a	0.04966972
2	0x3b4bd940	0.0031104833
3	0xbaa65b86	-0.0012692071
4	0x3cac7320	0.02105099
5	0x3c1d1a28	0.009588756
6	0x3cb6f2fe	0.022332665
7	0xbb2a1979	-0.0025955124
8	0xba97a1e5	-0.0011568634
9	0xbc8f8f94	-0.017524518
10	0x3ba9017e	0.0051576486
11	0x3cc5569b	0.024089148
12	0x3bf7e79e	0.0075654527
13	0x3d4ceccc	0.050030515
14	0xbc40801a	-0.011749292
15	0x3cd6bbc4	0.02621258
16	0x3cf9a475	0.030473927
17	0x3ad82863	0.0016491528
18	0x3d5cfecf	0.053953942
19	0xbbfd970c	-0.0077389535
20	0x3b4e8573	0.0031512647
21	0x3cd91539	0.026499378
22	0xbcb6a860	-0.022297084
23	0x3d3022a2	0.04300178
24	0x3b86771f	0.004103556
25	0x3d229a1f	0.039697763
26	0x3d63f0b4	0.055649474
27	0x3d208659	0.039190624
28	0x3d0c29b3	0.034219455
29	0x3caa16dc	0.020762853
30	0xbcfb5214	-0.030678786
31	0x3d6fe657	0.05856928
32	0x3c502de6	0.012706256
33	0x3cccd928	0.025005892
34	0x3c339e46	0.010963028
35	0x3d1f18fc	0.038842186
36	0x3bfaee70	0.0076578185
37	0x3c4d838c	0.01254357
38	0x3b4bf879	0.0031123443
39	0x3ac970c9	0.0015368696
40	0xbcd928cd	-0.026508713
41	0x3d43a5f4	0.047765687
42	0x3cb6afec	0.022300683
43	0x3bb65859	0.005564731
44	0x3c25bf6c	0.010116439
45	0x3c5bd913	0.013418454
46	0x3d335500	0.043782234
47	0x3d44e7a4	0.048072472
48	0x3d056ce9	0.032574568
49	0xba3b3535	-0.00071414124

dense2.weight f4 [1, 50]
0	0xbdb6f80e	-0.089340314
1	0xbd2ade07	-0.041715648
2	0xbd8a12e8	-0.06741887
3	0x3de4afc9	0.11166341
4	0x3dd3b6f1	0.10337628
5	0x3d137d80	0.036008358
6	0xbda1636f	-0.078802936
7	0xbdb3d15f	-0.08780169
8	0x3e017ba0	0.12644815
9	0x3e19cdca	0.15019909
10	0xbe0612fb	-0.13093178
11	0x3c47c626	0.012193238
12	0xbdf1237f	-0.117743485
13	0xbe00459f	-0.12526558
14	0x3dd6855d	0.10474656
15	0x3dcb5a97	0.09929388
16	0xbdb86b32	-0.09004821
17	0xbdd8afc7	-0.10580402
18	0xbe08fe61	-0.13378288
19	0xbded0abf	-0.11574315
20	0xbd603521	-0.054738168
21	0xbdcf5fd4	-0.101257
22	0x3d8d6813	0.06904616
23	0xbdde74e8	-0.10862142
24	0x3d66f6aa	0.05638758
25	0xbddbf0a8	-0.10739261
26	0xbc8c32fe	-0.017114159
27	0xbd7d98a1	-0.061913136
28	0x3d32dab3	0.0436656
29	0x3e19e482	0.15028575
30	0x3dd851fb	0.105625115
31	0xbdbb1dc6	-0.09136538
32	0x3df1fe40	0.118160725
33	0x3dc27479	0.09494872
34	0x3dfd2a9b	0.12361642
35	0xbda3a364	-0.07990149
36	0x3dd9df5e	0.10638307
37	0x3cf30898	0.029667184
38	0xbd95e9ba	-0.073199704
39	0xbd9f9753	-0.07792535
40	0x3e022ffc	0.12713617
41	0xbe022e38	-0.12712944
42	0x3d42118c	0.047380015
43	0x3e15bd70	0.14623046
44	0xbe082667	-0.132959
45	0xbdcde87e	-0.1005411
46	0xbc74a617	-0.014932177
47	0x3e009c89	0.12559713
48	0x3cc7e8ed	0.02440306
49	0xbdabf43b	-0.08396193
