time_series_forecasting/saved_models/CNNForecastingModel/19-03-2024-150330_NO1_epoch_2.pt (torch, 259243 bytes, 7 tensors)

conv1.weight f4 [64, 4, 3]
00000000: 0930 eabd d661 ba3d db8e 38be c944 973c
00000010: 46bd 35bd ebd0 053e 7834 853e 6daf e6bd
00000020: a6dd e8bd db01 90be 0d72 f13d 6758 42be
00000030: 3d3d 20be a13a 6b3e 596e dfbd 315d 863e
00000040: 37bc 19be 00e5 283e 7489 b83b 4ae2 d43d
00000050: bb3b 40be 3ee9 e73c ca09 80be 7cbb 41bd
00000060: 80d3 233d fb79 8f3e 78e2 54be 91b5 833e
00000070: b5b0 85bd 2322 77be a724 abbd d7e7 933e
00000080: 9010 9a3e 0634 86be e6e0 ce3c a6b5 24be
00000090: ea23 2a3e d2bb 6d3e 0ea6 24bd b22f 373e
000000a0: 823c 02bd 631d 543e dc82 57be 14e0 9d3d
000000b0: 7ff0 51bc 2a17 59bd 612a 4c3e 333b 39be
000000c0: 0d09 93bd ab91 0cbd 6a72 28be 01f2 5b3d
000000d0: a46d 6a3e 3394 2f3e ec3f 89be 52fd cabd
000000e0: 192c b03d 6b12 4ebe 5abf 40be 98ae 243e
000000f0: 51c8 90bd 35b0 e43d 88b6 bbbd 7933 8cbe
00000100: ccc9 643d b0df 693e b87a 7f3e 0cf9 8c3e
00000110: 5f6f 81bd e301 383e 54cc 993c 73bc 3ebd
00000120: 3e9a 0c3d 8354 8f3e 6be9 2fbc 6ab6 823e
00000130: f422 853e a68e 073e 5f38 a73d 51a7 b0be
00000140: 5e98 87be 8836 bf3d 87f3 36be cfcf 673e
00000150: c658 6b3e e7cf 7a3e 8471 42be 0636 27be
00000160: e84c 9fbd eca0 a13d a5d4 643d ca46 bf3d
00000170: dae3 6f3d 5559 713e dd54 943e 6f04 6dbe
00000180: 0f71 04be b720 2c3e cdd2 943e 6473 3abe
00000190: 1e5f 95bc decd 43be 3f97 49be bb74 ff3b
000001a0: c583 123e f59a 3b3e 7a0c 81be 56c4 5e3e
000001b0: 0868 b93d a05e 0ebe c59b cabd d4f8 72bd
000001c0: 8625 073e e558 6c3d 21f0 1d3d 25fb bcbd
000001d0: 5342 6abe f9bd 7dbc 579f d63c d6b4 8cbd
000001e0: b58b 1dbe b697 bf3d f7bc 06be 3d00 0a3d
000001f0: 41c7 c6bd 2e3a de3d f063 29be 8d62 893e
00000200: 67bd 743e d1fe 8d3e 8a61 07be 30a4 2d3d
00000210: debd 51bc 7a84 c33c 688c 5dbe 6036 0a3e
00000220: 6e82 a1bd be72 3abd 5401 81bd 1e55 b1bd
00000230: cc8d 9b3d 9cb8 423e d99f 503d 5a73 cabd
00000240: 4ede ebbd b996 853e 3c94 d93d 51f6 1a3e
00000250: 6681 ccbd 81ec 823b 1934 293e 81f6 463e
00000260: 7186 fb3d bb51 6abd c8b9 94be 8db6 1f3d
00000270: e150 063e 3571 453e d612 94be 8e48 26be
00000280: 0357 45be 2bd8 823e d64f 023e e253 a9be
00000290: d846 8fbe 927d 0f3b e445 993d 22cc 30be
000002a0: fa89 67be 76fa 19be 09a8 75be 5876 8abe
000002b0: f313 143e e2e6 8fbe 07bf b43d 06f9 aabd
000002c0: c23d 5a3e 0bbf 83be 566e 8e3e d3fe 40be
000002d0: 8ad5 8c3e 42c3 21be 25e7 223e 4ef7 89be
000002e0: 1873 03be 5323 f03d be8f 013e 1042 353e
000002f0: 837e 79be e073 773e 3a3e 933d 689a f93d
00000300: 8f43 5d3e 43b5 143d 9b1d 0a3e 724e c4bc
00000310: 00fc 62bd f45d 163e b69f 93be 95cc 9fba
00000320: 9da7 2b3e c195 33be 52b3 8a3e 1bd9 7dbd
00000330: 1d64 033b af50 1cbe 45cd 8c3d 873c aa3d
00000340: 71a4 473e f69e 0f3e cf27 443e 4928 77be
00000350: 60f9 98bc 73fd 823e bc0c c2bd 9a98 b73c
00000360: 9a21 773e 7cc5 5c3d c292 1a3d 5236 50bd
00000370: 2414 54be d446 3cbe cc06 7a3e 9a19 98be
00000380: 265a 38be 6d57 083e 2e07 88bd e0a0 02be
00000390: 5698 98bd a1f5 4f3d 003e 76bd b179 56bd
000003a0: 4740 143d e4c8 7cbd b090 9e3d 0c6d 55bd
000003b0: 097f bcbd da43 a53d 1e37 83be 1a83 d5bc
000003c0: c00a bcbd f0df e93d ed81 96be 73c8 4f3e
000003d0: a018 823e b3f2 81be 7c1f f0bd a048 85be
000003e0: b459 c5bd e99e d33d ef98 dbbd 6d07 39be
000003f0: 9b83 97bd 3bb6 d13c 310b c53a a369 b4bd
-0.11434943 0.09100692 -0.18023245 0.018465417 -0.04436996 0.13067977 0.26016593 -0.112639286
-0.11370401 -0.28126416 0.117893316 -0.18979035 -0.1564836 0.22971584 -0.10909719 0.26242974
-0.15013205 0.16493607 0.00563162 0.10394724 -0.18772785 0.02830946 -0.25007468 -0.04729794
0.039996624 0.2802275 -0.20789516 0.25724462 -0.06527845 -0.24134116 -0.083566 0.28887817
0.3009076 -0.26211566 0.025253724 -0.16084918 0.16615263 0.23216179 -0.040197425 0.17889288
-0.031795986 0.20714335 -0.21046013 0.07708755 -0.012813686 -0.053000607 0.19938041 -0.18088989
-0.07179461 -0.034318607 -0.16449896 0.05369759 0.22893387 0.17146377 -0.2680658 -0.09911598
0.08602161 -0.20124213 -0.18822995 0.16082227 -0.07069457 0.11166421 -0.091656744 -0.2738302
0.05585651 0.22839236 0.24949157 0.27533758 -0.063200705 0.1796947 0.018774189 -0.046566438
0.034326784 0.27994165 -0.0107368035 0.25529796 0.2600323 0.1323801 0.08165049 -0.34502652
-0.26483434 0.09336573 -0.17866336 0.22637866 0.22983083 0.24493371 -0.18988615 -0.16329202
-0.077783406 0.078920215 0.055866856 0.09339674 0.058566906 0.23569234 0.28970996 -0.23146223
-0.12933753 0.16809355 0.29067078 -0.1820808 -0.018233832 -0.19121501 -0.19686602 0.007795898
0.14308079 0.1832083 -0.2520483 0.21754584 0.090530455 -0.13903284 -0.09892992 -0.059319332
0.13197908 0.057701964 0.038559083 -0.092275895 -0.22876863 -0.015487188 0.026199026 -0.06870429
-0.15385325 0.093551084 -0.13158022 0.033691633 -0.097059734 0.10850941 -0.1654203 0.26833
0.23900376 0.27733472 -0.13220802 0.04239291 -0.0128016155 0.02386688 -0.21635592 0.13497305
-0.078862056 -0.045519583 -0.062990814 -0.08658813 0.07595405 0.19015735 0.050933693 -0.09885283
-0.11517011 0.26091555 0.106239766 0.15133025 -0.09985618 0.0039954786 0.1652378 0.19429971
0.12281502 -0.05720685 -0.2904799 0.038992453 0.1311679 0.19281466 -0.2892062 -0.16238615
-0.19271474 0.25555548 0.12725767 -0.3307181 -0.27983737 0.0021894914 0.07484034 -0.1726537
-0.22611228 -0.1503695 -0.23989882 -0.27043414 0.14460735 -0.28105837 0.08825498 -0.08348279
0.21312621 -0.25731692 0.27818555 -0.18847208 0.27506667 -0.15797141 0.15908487 -0.2694649
-0.12836874 0.117254876 0.1265249 0.17700982 -0.24364667 0.24165297 0.07189603 0.12187654
0.21607803 0.036305677 0.13487856 -0.023963187 -0.055416107 0.14684278 -0.28832787 -0.0012191708
0.16763158 -0.17537595 0.27089936 -0.061974626 0.0020048686 -0.15265153 0.068750896 0.08312326
0.19496323 0.14025483 0.19155811 -0.24136461 -0.018673599 0.2558399 -0.09475085 0.022411633
0.24133912 0.053899273 0.037737615 -0.050833054 -0.20710808 -0.18386394 0.24416655 -0.29707032
-0.18003139 0.133146 -0.066419944 -0.12756681 -0.07450931 0.05077136 -0.06011772 -0.052362148
0.036194112 -0.06171502 0.07742441 -0.05210595 -0.092039175 0.08069582 -0.2562799 -0.02606349
-0.09181738 0.11419666 -0.29396 0.20291309 0.25409412 -0.25380477 -0.11724755 -0.2603197
-0.0963625 0.10333044 -0.10722529 -0.18069239 -0.073981486 0.02559959 0.0015033243 -0.08809211

conv1.bias f4 [64]
00000000: 95c1 63be ccdc 8f3e 1982 523e eecd d73d
00000010: c27a 58be aa7b 353d a4ff 67bd 3878 16bd
00000020: b93d 8abe a4ac a03d 6743 653e f8ac 1a3e
00000030: c6c7 a13a 54d4 043e 8b9b 08be 48a7 343e
00000040: f716 36be d2f3 85be 8734 3c3d e53c a83d
00000050: a322 cfbd d927 06be d1fe adbd 8ed8 763d
00000060: 9faa c33b a0d4 853e a481 733e 9e37 85bd
00000070: a120 063e 2319 e13d 1b11 6bbd 7909 863e
00000080: ecb3 293e f438 37bd 7f78 943e f3b5 f13d
00000090: 80cf 533e 144d 0bbe aaa5 b43d a9c8 383e
000000a0: 3a2f 6b3e eeb6 253d 41c7 0fbe 831d 663e
000000b0: ec46 18be b059 893e 59fc 83be fec8 fc3d
000000c0: f244 84bc 75b9 69be 4321 be3c eb55 873e
000000d0: 490d 8a3d dba9 163e e3f5 8a3e 2d4c e5bd
000000e0: caa3 5bbe f413 cfbc be02 20be 17c1 9f3d
000000f0: 5507 dcbd 0385 4ebe f917 78be 4438 543d
-0.22241814 0.28098142 0.20557441 0.10537325 -0.21140578 0.04430739 -0.056640282 -0.036735743
-0.27000216 0.078454286 0.22388993 0.15105045 0.0012342862 0.12971622 -0.13340585 0.17641938
-0.17782198 -0.26162583 0.04594853 0.0821474 -0.10114028 -0.13101138 -0.08495868 0.060265116
0.0059712674 0.26138783 0.23779923 -0.06504749 0.13098384 0.109911226 -0.05738936 0.26179102
0.16572541 -0.04473205 0.2899818 0.11802282 0.20684624 -0.13603622 0.088206604 0.18045296
0.22967234 0.04045766 -0.14040853 0.22472195 -0.14870805 0.2682624 -0.25778463 0.12343024
-0.016146157 -0.22824652 0.02320922 0.26432738 0.06740815 0.14713232 0.27140722 -0.1119617
-0.214492 -0.02527807 -0.15626046 0.07800501 -0.10743586 -0.20167927 -0.24227895 0.05181147

conv2.weight f4 [128, 64, 3]
00000000: 2a1b 063c 9648 b43d 89d7 0e3d 85a2 623d
00000010: 3d59 c4bc 2b8b 3d3d d7dd 78bc efb9 2e3c
00000020: 7005 9a3d 9ba0 48bd f147 6bbd 01cb 9ebd
00000030: 2655 5fbd 717f 233d ab2c 46bd d1cb 32bd
00000040: 9622 f5bc 8ba9 93bd 5070 2f3d 3e3b 42bd
00000050: 6cee 07be b7b2 2dbd 0565 9abc fa9c 483d
00000060: 3df1 0dbd cc0a 5abd a41c 943d 9930 c03c
00000070: 9593 533d add5 47bc 19dd 843d fd11 3abd
00000080: 71fe a2bd 2466 bebc e76f fb3c d24f 5dbc
00000090: daea 1ebc f6fd 5fbd 846f 853d bc3b 31bc
000000a0: 7a85 933c 4fad 3d3d 67bd 24bc aff2 afbc
000000b0: 8028 5a3d a3a0 c7bc 7fcf 223b 9bbb 06bd
000000c0: 5300 37bd 4c3f 81bd c212 2a3d 283a 2ebd
000000d0: e704 0abd 6038 8f3d bb72 f7bc c430 5b3c
000000e0: 092b 973c 5613 e2bb ec1d e2bc 79e3 803d
000000f0: eea0 873d 8fdf 06bd 62db 843c 23b5 9d3c
00000100: 8c58 833d 3139 233d 63de 4c3d 16bc 5b3c
00000110: 370b cd3b 764d f03c 57e0 e33c 79c9 46bd
00000120: 2d1e aabd b2c7 5c3d 00f2 c23c e9a0 febb
00000130: e6b5 c6bc 5d69 f33c fcbe a73c e28a d53c
00000140: 81d6 86bc c2ab a2bd fe47 1dbe fd2c 0bbd
00000150: b5b9 4b3d d634 97bc 3cde b03d fb53 8b3d
00000160: c94f a53d 37a6 433d 5094 57bc 7fca 053d
00000170: 64d5 06bd ce91 a7bd 1a41 f1bc 146a 073d
00000180: 23a8 73bc d877 be3c 99f9 3abd 6096 1abd
00000190: bd45 903d 1d98 66bc 93ad 793c fc88 0d3b
000001a0: 00d2 1fbd e3f4 54bd bc19 96bd 606b 9abd
000001b0: 0b12 9fbd c007 febc f744 3ebd e8eb e8bc
000001c0: 0bf7 51bc d3f2 383d f121 8e3d ca20 7a3b
000001d0: 6192 2a3d f89f 79bd 11d4 81bc 2c9a 413d
000001e0: 2542 81bd 92ba 96bc 8030 18bd 2a79 2cbb
000001f0: 2bea b93c ec98 d23d 4c3f 8abd b30b 0c3c
00000200: a1ff a8bd f1ba e33c 3ed1 423d b046 7dbd
00000210: ec08 823c fe4d bbbc 03c8 87bb 5bcb e63c
00000220: 5c77 b1bb 186a 3bbc 04ce f5bc 5ab9 c7bc
00000230: e03b 3bbd 103c 2b3c 2356 823d 2c29 fcbc
00000240: 9fd2 7e3d 1799 6bba fbff e43c 237a 61bd
00000250: 0f03 403d 9e93 973d 27c5 21bd 66ee 703d
00000260: e524 0bbb 3e83 353d 50be 753d 562a 69bc
00000270: 5331 92bd a1ac 18bb e310 0e3c 7fc9 4fbd
00000280: 6f6a d2bd 9fb6 99bd 6f1d bd3d d95f 74bd
00000290: 51b5 503c 1314 fbba 5662 7fbd 6775 a23c
000002a0: 4bf5 ecbd 2fe1 e1bd b701 02be 31f4 973c
000002b0: 99c3 0cbd e077 c2bc 4429 433d 7c15 3cbc
000002c0: 69eb 37bc 09ac 92bd 0c21 87bd 1a4a 9a3d
000002d0: 0e57 d6bc e541 803d 59d3 4d3d 139a 25bd
000002e0: f7ee 753d eace dabb dc5d 733d a640 e83c
000002f0: 5ce7 35bd 9330 c33c 7c77 23bd 02bb 4cbc
00000300: c91d 4b3b 59ab 5a3c accb 87bd 6ec4 4e3d
00000310: 78b8 1bbd 420d 943d 128e 523b 149f 1fbd
00000320: 0749 13bd 35fe cabc 7cc2 8cbd 4749 8e3c
00000330: 283c f33c 14f1 8a3d f4f3 0abd d112 a8bc
00000340: 761b 893c 6ece 24bd e3b4 a23a 0114 293d
00000350: dbd4 933d abe1 aa3b 2f59 b7bc 769a 063d
00000360: e0d7 e4bb 5480 753d 3336 943c c08b f83c
00000370: 2664 18bc bfbb ccbb 3dd9 95bd 1b9c 653d
00000380: 86a2 413d 36c3 d239 1b14 a63c dc34 f1bc
00000390: d39c acbc 86c1 51bc 971a 55bd 5c86 23bc
000003a0: 8306 a0bc 2265 343c b19a d83c 990c bc3d
000003b0: ff69 bc3b 751a 9c3d 70fb be3c c12f 21bd
000003c0: e913 d73c b4ee ce3b 328c 5ebd c7d6 213d
000003d0: 9ae1 133d f6ae 1abd e59d 0ebd c496 373d
000003e0: 229b 22bd 7e3a 27bd 8008 6c3d 6c94 023b
000003f0: d810 85bd fdd5 d83c edd0 a1bb 8e82 2ebd
0.008185187 0.08802907 0.03487352 0.055330772 -0.023968333 0.0462753 -0.0151896095 0.010664447
0.07520568 -0.04898129 -0.057441656 -0.07753564 -0.054524563 0.03991646 -0.048382442 -0.043651406
-0.029923718 -0.07210072 0.04283172 -0.04741978 -0.13274544 -0.042406764 -0.018846998 0.04897783
-0.03465389 -0.053232953 0.07232025 0.023460673 0.051654417 -0.01219694 0.064874835 -0.04542731
-0.07958687 -0.023242064 0.030693008 -0.0135078 -0.009699548 -0.054685555 0.065154105 -0.010817464
0.018007983 0.046307858 -0.010054923 -0.021478025 0.05326128 -0.02436859 0.0024842916 -0.03289376
-0.044678044 -0.06310901 0.041521795 -0.04253593 -0.03369608 0.069931746 -0.030206075 0.013378326
0.018453138 -0.0068992777 -0.027602158 0.06293387 0.06622492 -0.032928046 0.016217891 0.019251412
0.06413373 0.039849464 0.050016772 0.013411542 0.0062574404 0.029333811 0.027816935 -0.048531983
-0.08306537 0.05390138 0.023797035 -0.007770647 -0.024256658 0.029713327 0.02047681 0.026067201
-0.016459705 -0.079429165 -0.15359494 -0.03397845 0.04973765 -0.018457811 0.08636138 0.068031274
0.080718584 0.047765937 -0.013157919 0.03266382 -0.03291835 -0.08182107 -0.029449988 0.03306015
-0.01487163 0.023250505 -0.04564819 -0.037741065 0.070445515 -0.014074353 0.015239137 0.0021596542
-0.03901863 -0.051991355 -0.07329127 -0.075400114 -0.07767113 -0.031009555 -0.04645249 -0.028432801
-0.012815247 0.04515345 0.069400676 0.0038166516 0.041643504 -0.060943574 -0.015848191 0.04726617
-0.06311444 -0.01839951 -0.03715563 -0.0026317337 0.022694668 0.10283074 -0.06750354 0.008547711
-0.08251882 0.027799102 0.04756283 -0.06183499 0.015873395 -0.022864338 -0.0041437163 0.02817314
-0.00541584 -0.011438869 -0.030005462 -0.024380375 -0.045711398 0.010451332 0.063640855 -0.030781351
0.062212583 -0.0008987351 0.027954092 -0.05504812 0.046877917 0.074012026 -0.03949466 0.058821104
-0.0021231708 0.044314615 0.05999595 -0.014231285 -0.07138314 -0.0023296254 0.008671018 -0.05072927
-0.10274207 -0.07505535 0.0923413 -0.05966172 0.012738542 -0.0019155763 -0.06234964 0.019831372
-0.115702234 -0.110292785 -0.12695967 0.018549057 -0.034366224 -0.023738801 0.047646776 -0.011479732
-0.01122556 -0.07161719 -0.065981 0.07533665 -0.026164558 0.062625684 0.050250385 -0.04043014
0.060042348 -0.006677498 0.059415683 0.02835114 -0.044410095 0.023826873 -0.03990887 -0.012495758
0.0030993095 0.0133465165 -0.06630644 0.0504803 -0.03801772 0.07229091 0.0032128138 -0.038970068
-0.035958316 -0.024779418 -0.068730325 0.017368926 0.02969177 0.06784263 -0.033924058 -0.020516785
0.016736727 -0.04023593 0.0012413528 0.041278843 0.07218333 0.00521489 -0.022381393 0.03286215
-0.006983742 0.059936836 0.01809225 0.030340075 -0.009301221 -0.006247967 -0.073168255 0.056057077
0.047274135 0.00040199765 0.020273259 -0.02944415 -0.021070873 -0.012802487 -0.05202731 -0.009980764
-0.019534355 0.01101044 0.02644095 0.0918209 0.0057499404 0.07622234 0.023313254 -0.039352182
0.026254611 0.0063150767 -0.05433292 0.03951147 0.036103822 -0.037764512 -0.03481855 0.044821516
-0.039698727 -0.040827267 0.057625294 0.0019924892 -0.06497353 0.026469225 -0.004938236 -0.042604975

conv2.bias f4 [128]
00000000: 9415 8dbd c582 dd3c 6926 223c 5ff5 52bd
00000010: 7311 4bbc 1d72 2bbd 7952 173d b38c 333d
00000020: 0e2c 683c 7c55 e83a 9fec 7cbd 7ab4 19bd
00000030: e511 99bd 1ebd 52bd 4d8c f1bc 9481 43bd
00000040: 0f13 51bd 3b1f 083d 78da 3c3d 5ca8 64bd
00000050: 1e8a 9a3c bce7 263d 6ede 89bd 778c a1bc
00000060: 24b9 383d 5310 88bc a560 8abd f620 03bd
00000070: f6c8 dd3c b907 453d 842a 00bd 8382 033b
00000080: 9567 9b3c a735 9d3c 8c47 41bd 6e9a 09bd
00000090: 1dca 933b 82c9 31bd 976d 9a3c 9f20 b8bc
000000a0: 34de d9bc 0630 623d 3093 8fbd c520 593d
000000b0: 31cd 063c 99b3 503d a642 043b 3d9e 163c
000000c0: 3957 033c 32a7 87bd 1b39 abbd 897f 0bbd
000000d0: 6f1f 10bc 6349 3a3c ad8b 4b3c a4a2 2cbd
000000e0: 7bb4 d1bc 0e3a 023d c70f da3c 4bb1 6cbc
000000f0: 84b1 0cbb 4d0c 44bc 834a 863d 250d a53c
00000100: 1b42 7dbb c44c 153d f666 8fbd 33e6 30bd
00000110: 91c3 5e3d 0d00 debc c7d1 623d 6e88 52bd
00000120: b926 8abd 4115 a63c 6509 ad3c fa40 23bd
00000130: 7b27 85bd cca0 d13c 0905 6abd 6e2a 75bc
00000140: 746b c4bc d056 983b d091 ddbc bac3 84bd
00000150: a55e 713d f89c 3f3c d743 09bc 8966 813d
00000160: 98f3 55bc 0839 4f3d e16e 9b3c f048 8b3d
00000170: b763 0f3c 5932 e23c d190 94bb 7e08 41bc
00000180: 76cf 97bc 9019 9dbc 7aeb 69bd 8c68 24bd
00000190: 597b 1a3c f2db 183d 9b11 333d c791 043d
000001a0: 2040 cebc f2a1 0bbd 5608 f6bc 5aee f2bc
000001b0: 396b c6bc 04e7 9abd e621 20bd 964a 00bc
000001c0: 8c90 b03b 4f7b 3e3d ea2a 883d 0796 23bd
000001d0: 82a0 323d 8200 873c 9e6b 81bd 2889 2abd
000001e0: 708d ff3c f254 87bc 6374 5a3c 9974 323d
000001f0: 8ed7 92bd 56c6 27bd b4b7 7cbd b810 263c
-0.06888881 0.027039895 0.009896853 -0.051503535 -0.012394297 -0.041856874 0.036943886 0.043835353
0.01417066 0.0017725672 -0.061749097 -0.03752563 -0.07474116 -0.051449887 -0.029485846 -0.047730997
-0.051043566 0.03323291 0.046106786 -0.055824623 0.018864688 0.040748343 -0.06731878 -0.0197203
0.04509844 -0.016609346 -0.06756715 -0.032013856 0.027073365 0.048103068 -0.031290546 0.0020066805
0.01897029 0.019190622 -0.047187373 -0.03359454 0.0045101778 -0.043405063 0.018851085 -0.022476492
-0.026595213 0.05522158 -0.07010496 0.053009767 0.008227632 0.050952528 0.0020181327 0.009193
0.008016401 -0.06623687 -0.083605014 -0.034057174 -0.008796557 0.011370036 0.012423438 -0.042147294
-0.025598755 0.031793647 0.026618851 -0.014446567 -0.0021468112 -0.011965823 0.06557181 0.02014787
-0.0038644138 0.036450163 -0.0700206 -0.043188285 0.054385725 -0.027099634 0.05537584 -0.05139964
-0.06745667 0.020273807 0.021122644 -0.03985689 -0.06501671 0.02558937 -0.05713371 -0.014963729
-0.023977019 0.0046490207 -0.027047068 -0.064826444 0.05892815 0.011695139 -0.008377991 0.06318385
-0.013058566 0.0505915 0.01897377 0.06801021 0.008751801 0.027611898 -0.004533865 -0.01178181
-0.018531542 -0.019177228 -0.057109334 -0.040138766 0.009428822 0.03731913 0.04371796 0.032365587
-0.025177062 -0.03408999 -0.030033272 -0.02965467 -0.02422105 -0.07563594 -0.039094828 -0.007830283
0.005388325 0.046504315 0.0664881 -0.039938 0.043610103 0.016479734 -0.063193545 -0.04163471
0.031195372 -0.016519997 0.013333413 0.043568227 -0.0717002 -0.040960632 -0.06169863 0.010135822

dense1.weight f4 [50, 768]
00000000: a388 44bb fbf4 3b3c 0d36 f33c 554a 24bc
00000010: 42d3 4c3b 02c6 9a3d 9bde fdbc e755 5e3c
00000020: 084b 0f3d 01f0 78bd 7685 25bc 5dec e93c
00000030: 461d 763c b259 a3ba e66a b5bc 0abe 233c
00000040: 3de9 e83b 199f 973c a896 1fbc 702e a4bc
00000050: fe31 c23b 2b06 1e3d 2b31 453d 5476 973c
00000060: b3a2 5c3b c055 023d c61b 213d 27a7 02bc
00000070: ebec b53c 91f0 c5bc e678 be3c a393 be3b
00000080: 7a9d e6bc c764 66bc f208 713c ae7e 1d3c
00000090: a717 c13c 8f29 2c3d 4069 c03c 852c 863c
000000a0: 1833 373d c0ae 563d 3f40 053a 727e d0bc
000000b0: adba aabc def1 96bc 7c90 85bc 0d02 7039
000000c0: 2410 233d 0b40 98bb cc66 86bb e475 ff3c
000000d0: 4eaa 6b3c a8c1 d03c 7ce4 ac3c 50e4 dd3c
000000e0: 6e24 b23c 4614 083d 88a4 8cbc 0f70 b2bc
000000f0: 29fc 8f3c 755c c8bb 6785 3abc 305c 11bd
00000100: a6a9 433c d212 3dbc d41e 173d 74ee 75b8
00000110: 9438 0a3b 2b37 033c 0fcc 4fbd 44ca aa3b
00000120: 274d 00bd ba55 9a3b d2b4 e7bc 6106 a0bb
00000130: 70db 513c 17b1 5c3d fa44 29bc 5961 d23c
00000140: 4600 3eba b1a0 3fbb 45d9 93ba 79cf abbc
00000150: aaea 043d d2fa 1a3c bdc5 fb3c e71f ad3c
00000160: 98d5 32bd ff19 4dba 5417 aabc d75f 033d
00000170: 3247 bfbb e451 5dbb 09cf d83c 7c86 2bbc
00000180: 4688 b4bb 52af afbc f921 b0bc 25d5 ac3c
00000190: c073 37bc 4196 b0bc 368d bc3b 807b 63bd
000001a0: a674 00bd 37dc b2bc 9eac c33c a170 c83c
000001b0: bd65 5bbd 56df 0e3c 4702 21bd d355 d6bc
000001c0: b1eb 82bc 44ea 05bd ddd8 d63c d746 3dbc
000001d0: 06da a2bb 5f2e 223d f6ef f5b8 2c43 023d
000001e0: c8fe 873c c5ac 753c 5992 90bc 7137 973a
000001f0: 5231 11bc 22f0 0bbc a656 963c ffbf ddbb
00000200: 581c d73c 61b5 a73c 44ce 143d d62f b23a
00000210: 2ca7 1ebd 5b7c 13bd 47e0 9ab9 d93b 4ebd
00000220: 7b23 f4bb 4155 2b3d ab5c cbbc 26a7 c3bc
00000230: b461 c6bc f002 113b 38fc f0bb ebea c5bc
00000240: 9a30 f83c c37d c73c b723 84bc 6d4c 123c
00000250: dab2 323d 0ef0 67bb 8c16 953b e43b 1dbd
00000260: fafb 8ebc a474 e53c 4235 a43a 1dfb 65bb
00000270: b7eb 933b 2662 74bc 858b f13c fe67 81bc
00000280: cac7 b83a 8e75 d5bc 284d 47bd e881 b63c
00000290: eb1f f5bc 1053 c2b6 1975 2ebd 0381 8cbd
000002a0: de2b 863c 4654 c8bb 8d09 6dba f94e f238
000002b0: bb5e 263d aec9 1e3d 8b42 193d aa94 afbb
000002c0: 1e9f dc3c 1fd7 113c dfc7 fe3c 9e62 acbc
000002d0: 611f d03c eae7 c6bc a612 1a3d 5cf1 c53c
000002e0: bbdc 1a3d ebc1 7bbc f796 3dbd b880 c1bc
000002f0: 39ce 463d 0c08 e8bb 21b6 14bd 30fd a6bc
00000300: 1a68 90bc 9eca c1bc 1bdb 2bbc 01ca e2bb
00000310: b162 c4bc 3613 e73c 6759 193d 3063 dcbc
00000320: 77bc fcb9 0f72 81bc cc1e 763c cfc0 5d3c
00000330: 0805 d83c 5d80 0cbc 4e90 babb 8521 d63c
00000340: 09a6 4dbd c541 c73c 140b 0abc 3549 c33c
00000350: 41c0 253d 263d cf3c 1b49 a2bb 7e76 1d3d
00000360: 5d33 183c 21ec edbb ea0f e0bc a063 2dbd
00000370: d4ed fabb 1138 403d 6b5c 02bd 4d31 99bc
00000380: dc55 d6bc 8ce2 863b 52dd 34bd 21e0 27bc
00000390: 9127 433d c980 de3c 67cd ce3c 8c2d 2c3c
000003a0: bc06 4bbc 027a b33b fe90 9abc 9261 013d
000003b0: 1340 d23c 355c 87bc 1449 f9bc 2ddd 81bd
000003c0: c2de 2f3c 0dfa eb3b 776d d93c d79b 08bd
000003d0: 3abc 04bd 35fe 6fbd fa97 d33c cb24 4cbc
000003e0: 66da e639 5ef8 033d 878b 663c f69b 8a3b
000003f0: 9e4b 2b3c aa6b 653c 759c 113d 2cb4 99bc
-0.0029988668 0.011471982 0.02968886 -0.010027488 0.003125385 0.07557298 -0.030989936 0.013570285
0.034983665 -0.06077576 -0.01010262 0.02855509 0.015021628 -0.0012462644 -0.0221457 0.009994039
0.0071078823 0.01850848 -0.009740509 -0.020041674 0.0059263697 0.0385801 0.048142593 0.01848904
0.0033666312 0.03182006 0.039333127 -0.007974423 0.022207698 -0.024162563 0.023251008 0.0058159395
-0.028151263 -0.014062113 0.014711605 0.009612722 0.023570849 0.04203182 0.023487687 0.01637865
0.04472646 0.05241275 0.0005083121 -0.025450919 -0.020840967 -0.018425878 -0.016304247 0.00022888948
0.039810315 -0.0046463064 -0.00410161 0.031184144 0.0143838655 0.025482967 0.021105044 0.027086407
0.021745887 0.03322246 -0.017168298 -0.02178195 0.017576294 -0.0061145374 -0.011384345 -0.035488307
0.011942303 -0.011540132 0.036894634 -5.863463e-05 0.0021090852 0.008008759 -0.050731715 0.0052121
-0.03132358 0.0047099264 -0.028284464 -0.004883573 0.012808666 0.053879824 -0.010331387 0.025681185
-0.00072479656 -0.0029240067 -0.0011279961 -0.020972954 0.032450356 0.009459214 0.030733937 0.021133376
-0.04366073 -0.0007824003 -0.020763077 0.032073822 -0.0058373446 -0.0033770734 0.02646591 -0.010469075
-0.005509409 -0.021445904 -0.021500574 0.021097729 -0.011197031 -0.021556022 0.0057541383 -0.0555377
-0.031361245 -0.021833522 0.023886021 0.024467768 -0.053563822 0.00872024 -0.039308812 -0.026163971
-0.015981527 -0.032694116 0.026226455 -0.011552534 -0.004969838 0.039595004 -0.000117272066 0.03180234
0.016600981 0.014994805 -0.017647909 0.0011536909 -0.008861857 -0.008541139 0.018351864 -0.0067672725
0.026258633 0.02047223 0.036329523 0.0013594578 -0.038733646 -0.036007266 -0.0002954027 -0.050350044
-0.0074505187 0.04182935 -0.024824461 -0.023883414 -0.02421651 0.0022126995 -0.0073542856 -0.02415987
0.030296613 0.02435196 -0.016130311 0.008929354 0.043627597 -0.0035390886 0.004549807 -0.038387194
-0.017454136 0.02800972 0.0012528079 -0.0035092302 0.0045141834 -0.014915979 0.029485473 -0.015796658
0.0014097628 -0.026057031 -0.048657566 0.022278741 -0.029922446 -5.7913203e-06 -0.04259214 -0.068605445
0.01637834 -0.006113562 -0.00090422557 0.00011554169 0.040617686 0.038766555 0.037416976 -0.0053582983
0.026931342 0.0089013865 0.031101165 -0.021043118 0.025405588 -0.024280507 0.03761544 0.02416294
0.03780816 -0.015366058 -0.04628655 -0.023620948 0.048536513 -0.0070810374 -0.036306504 -0.020384401
-0.017627764 -0.023656186 -0.0104892505 -0.0069210534 -0.023972841 0.028207403 0.037438776 -0.026902765
-0.00048205603 -0.015801458 0.015021991 0.013534739 0.026369587 -0.008575526 -0.005693472 0.02613903
-0.05020717 0.024323354 -0.008425493 0.023838619 0.04046655 0.025297713 -0.0049525625 0.03844308
0.00928959 -0.007260815 -0.027351338 -0.042331338 -0.007657746 0.04692847 -0.031826418 -0.018700266
-0.026163988 0.004116362 -0.04415638 -0.010246308 0.047645155 0.027161019 0.025244428 0.010508906
-0.012391742 0.005477191 -0.018867966 0.03158719 0.025665319 -0.01652346 -0.030430354 -0.06341014
0.010734262 0.0072014392 0.026541455 -0.033351745 -0.03240607 -0.05859204 0.025829304 -0.012459944
0.00044031738 0.032219283 0.014071352 0.004230018 0.01045504 0.01400272 0.0355496 -0.01876267

dense1.bias f4 [50]
00000000: 0adf 883c f4b1 a3bc 41ca 08bd 1a46 623c
00000010: c3de ea3c dcce a03c 1d9f 6a3d f2bc 243d
00000020: f498 943b 9fbb 193d 47ab d23c 49fa dfbb
00000030: 2eff bebc 1175 94bc 83d7 b53c d62c d8bc
00000040: 0ce8 f43c fdeb a13c c9fb 9dbc c99b f6bc
00000050: 0765 283b 929e 333d b0ae 28bc a8b1 343d
00000060: 5386 823c a9c9 0b3c 7d4c f53c 0392 073d
00000070: 4827 443d 8579 8a3b 347f 9e3b 994c d6bc
00000080: cb3c 653c 291a e33b a9e4 eebc 8dad bcbb
00000090: 76a5 653d bc2a 65bb 84af af3b d408 123b
000000a0: 5f63 9d3b 5bda 4a3c be4b 2abc 1847 9f3c
000000b0: 75d2 083c 234f bbbc 3992 4a3d cf63 d1bc
000000c0: 52e6 073a 0513 2a3c
0.016707916 -0.019982316 -0.03339601 0.013810659 0.028670674 0.019629888 0.05728065 0.040219255
0.004534835 0.037532445 0.025716437 -0.0068352562 -0.023315039 -0.018122228 0.02219749 -0.026388567
0.029895805 0.019765848 -0.0192851 -0.030103581 0.0025694983 0.043852396 -0.010295555 0.04411474
0.015933191 0.008531966 0.029943699 0.033098232 0.047889024 0.004225912 0.004836941 -0.026159571
0.013991545 0.006930609 -0.029161768 -0.0057579936 0.056066 -0.0034968099 0.0053614993 0.0022283094
0.0048031057 0.012381162 -0.010394035 0.01944308 0.008350958 -0.022864884 0.049455855 -0.025560288
0.0005184162 0.010380511

dense2.weight f4 [1, 50]
00000000: 57c1 d03d 461a 233d 149a 973c 7aba c1bd
00000010: f8bb 47bd 9878 ec3d 9b13 f0bd c1d1 7ebd
00000020: 44fd 45bd fb50 acbc 1cfc 173d 7b67 0c3e
00000030: e981 9d3d 43bb 023e fcc0 bfbd f377 063e
00000040: 0fb3 093e 5ea6 ffbd e325 bd3d 91c3 e43d
00000050: 8111 823d 8c62 c2bc 8d35 e7bd 9105 1c3e
00000060: 9b36 883d ec9a 02be e1c4 a43d b66f 25be
00000070: 403e 9bbc fc78 a93d d4e8 8dbc ca93 093d
00000080: a578 d5bd dabf 40bd ff9b c13d 3129 d23d
00000090: aea5 f0bd 4adf 08be 6b75 ba3d 9c0f 85bc
000000a0: 0d73 c63d ae92 a43d 7c04 db3d 680b 8abc
000000b0: e10f 0a3d d6e3 cf3c 5782 99bd 37fb 023e
000000c0: 473c 523d 7c17 033e
0.10193127 0.03981998 0.018506087 -0.09459396 -0.048763245 0.11546439 -0.117224894 -0.062211756
-0.048337236 -0.021034708 0.037105665 0.1371135 0.07690794 0.12766747 -0.09362981 0.13131694
0.13447212 -0.12482904 0.09235742 0.11170114 0.06350995 -0.023728631 -0.11289511 0.15236498
0.0665104 -0.1275441 0.08045364 -0.16155896 -0.018950582 0.08275029 -0.017322935 0.03358821
-0.10423402 -0.047057964 0.09453582 0.10261763 -0.11750351 -0.13366428 0.09104427 -0.016242795
0.09689913 0.080357894 0.10694215 -0.016851142 0.03370655 0.025377195 -0.074955635 0.12791143
0.051327016 0.12801927
