time_series_forecasting/saved_models/CNNForecastingModel/19-03-2024-222332_NO2_epoch_2.pt (torch, 259243 bytes, 7 tensors)

conv1.weight f4 [64, 4, 3]
0.12042862 0.04029738 0.18196414 -0.25702995 0.070472345 -0.1610718 0.09970211 0.112458944
-0.19975017 0.03754207 -0.111982405 0.17238048 0.2679679 -0.057896517 -0.24760307 0.07422409
0.033697102 -0.001736233 -0.1044833 0.27122134 -0.2898225 0.17786303 -0.22920994 0.2299643
-0.23224638 -0.1562964 -0.17337708 0.10709311 -0.118249655 0.02755432 -0.14356817 0.12695627
-0.12738119 0.100933425 0.027040247 -0.21834946 0.060026795 -0.3348022 -0.1542222 0.030596584
-0.14307939 -0.123799 -0.15617828 0.0966364 -0.20835999 -0.03481767 -0.057482153 0.12232265
-0.024583716 -0.2306487 0.21099539 -0.0134028 0.26010656 0.05410173 -0.1313477 0.26490778
-0.053296153 0.008034599 0.24516839 -0.10372954 -0.20558378 0.14641473 -0.03516878 0.17453308
-0.25564364 -0.011864261 0.27603966 0.23049554 -0.14118488 -0.11464791 -0.263648 -0.2016962
-0.21995126 0.118216425 -0.21389286 -0.11578107 -0.2534651 0.05112724 0.31275445 0.29188076
0.051474012 0.05054763 -0.11748716 -0.07729142 0.115372166 -0.07422826 0.2746261 -0.08898114
0.26580557 0.06532548 -0.3811409 -0.33006915 0.097498894 -0.05735199 -0.002612194 0.09877907
0.14201213 0.12495921 -0.27100328 0.12891498 -0.2596865 -0.07958648 -0.19041753 0.18649307
-0.03624131 0.28024584 -0.2615683 0.19728966 0.24921231 -0.02220873 -0.2429405 -0.035046477
-0.14795323 -0.13332197 -0.28020185 -0.091578305 -0.10944355 0.21927088 0.086116455 -0.09134345
-0.25738376 0.04133075 0.11024366 -0.22094123 0.27819777 -0.16943909 0.18265763 -0.10081028
0.112756364 -0.027896827 0.09225166 0.029262906 0.25152785 -0.18582648 0.11859998 -0.15883864
0.23667935 -0.16268465 0.19052762 0.19620667 -0.31487623 0.06701919 -0.06356622 -0.058727946
0.019305388 0.22184989 0.057659395 0.027398512 0.14547756 -0.20444453 -0.15918365 -0.046438124
0.08171939 -0.22610715 -0.20848018 0.29570135 -0.2897779 -0.26270145 -0.13145868 0.12256046
-0.063608035 -0.27303648 -0.09850281 0.24170266 -0.18893509 0.14216456 -0.2195968 -0.26610008
-0.24371447 -0.15620784 -0.110666364 0.021004038 0.18414803 0.014180422 -0.2985956 -0.3056896
-0.30836472 0.07496859 0.097625606 -0.18168996 -0.069111116 0.19075996 -0.013114147 0.08803074
-0.051173285 -0.24517019 -0.15973401 0.08253309 -0.07755592 -0.0030691305 0.26301432 -0.22510181
-0.16608614 -0.18979882 0.038346108 0.1732716 -0.2536107 0.0839331 0.29269373 0.25714293
-0.14840536 -0.041900843 -0.27975336 -0.056507908 0.05508342 0.23810917 -0.097499065 -0.07056026
-0.08098212 0.27332073 0.2339088 -0.14618327 -0.10196439 -0.08483853 -0.049430273 0.071954906
0.23480868 -0.12073468 -0.2149756 0.16491778 0.014686346 -0.25463808 -0.26726514 0.13594767
0.019997777 0.3397679 0.36161226 0.2454184 0.03053812 -0.21289545 0.0336299 0.09137717
0.1173581 0.12594333 -0.24137533 -0.04740023 0.039183643 0.16224813 -0.13728905 0.14260544
-0.117874175 0.16634847 0.15215291 -0.14225528 -0.15193826 0.22518362 -0.25411513 0.24671355
0.09517222 -0.108411945 0.29860526 0.2476322 -0.23687546 -0.0021105865 -0.14850742 -0.037735168
00000000: 48a3 f63d de0e 253d cf54 3a3e 6e99 83be
00000010: ce53 903d 02f0 24be 9f30 cc3d e050 e63d
00000020: 4f8b 4cbe b7c5 193d 0857 e5bd 8284 303e
00000030: 1733 893e e624 6dbd a98b 7dbe cd02 983d
00000040: f905 0a3d 5092 e3ba 57fb d5bd 86dd 8a3e
00000050: 9d63 94be ba21 363e 03b6 6abe c37b 6b3e
00000060: ffd1 6dbe 2a0c 20be c389 31be a253 db3d
00000070: e02c f2bd 99b9 e13c 8903 13be d300 023e
00000080: 3770 02be 2fb6 ce3d 8283 dd3c 0097 5fbe
00000090: a8de 753d 326b abbe 6dec 1dbe b0a5 fa3c
000000a0: 6783 12be 558a fdbd 33ed 1fbe 4ee9 c53d
000000b0: 525c 55be f99c 0ebd 6872 6bbd 4c84 fa3d
000000c0: ca63 c9bc 2c2f 6cbe 2d0f 583e 6b97 5bbc
000000d0: b02c 853e c799 5d3d 0380 06be fea1 873e
000000e0: 114d 5abd 8da3 033c 6c0d 7b3e 2770 d4bd
000000f0: 8e84 52be beed 153e 230d 10bd cdb8 323e
00000100: b9e3 82be 5162 42bc 1255 8d3e 0607 6c3e
00000110: c592 10be 86cc eabd dffc 86be 7389 4ebe
00000120: e73a 61be 741b f23d bb06 5bbe a01e edbd
00000130: 2dc6 81be cc6a 513d 5a21 a03e 6571 953e
00000140: 6ad6 523d 080b 4f3d 1c9d f0bd f74a 9ebd
00000150: 3e48 ec3d fc04 98bd cb9b 8c3e be3b b6bd
00000160: ab17 883e 5ec9 853d e624 c3be d3fe a8be
00000170: 80ad c73d ece9 6abd 5831 2bbb ae4c ca3d
00000180: a16b 113e 9dea ff3d f1c0 8abe 4a02 043e
00000190: a1f5 84be 3dfe a2bd d0fc 42be 0af8 3e3e
000001a0: c571 14bd 627c 8f3e 48ec 85be 4d06 4a3e
000001b0: 8331 7f3e 15ef b5bc 65c5 78be e58c 0fbd
000001c0: 0d81 17be 8e85 08be 9e76 8fbe 688d bbbd
000001d0: f123 e0bd 8c88 603e d35d b03d 4612 bbbd
000001e0: cec7 83be 6f4a 293d 6ec7 e13d 6b3e 62be
000001f0: f06f 8e3e 7181 2dbe 9a0a 3b3e 9f75 cebd
00000200: cfec e63d e387 e4bc 70ee bc3d c3b8 ef3c
00000210: 42c8 803e 4c49 3ebe 8ce4 f23d 99a6 22be
00000220: 125c 723e ce96 26be ac19 433e 67ea 483e
00000230: 7537 a1be 5b41 893d 022f 82bd b78c 70bd
00000240: 5526 9e3c 9e2c 633e 422c 6c3d d872 e03c
00000250: 12f8 143e e859 51be 0a01 23be e735 3ebd
00000260: 7f5c a73d a288 67be d47b 55be 2b66 973e
00000270: c55d 94be ce80 86be 1b9d 06be fa00 fb3d
00000280: ee44 82bd 70cb 8bbe d7bb c9bd e780 773e
00000290: 3378 41be 9693 113e fcdd 60be 453e 88be
000002a0: 4990 79be f3f4 1fbe 0ca5 e2bd a910 ac3c
000002b0: 4d91 3c3e 0055 683c 86e1 98be 5983 9cbe
000002c0: fbe1 9dbe 2289 993d efef c73d ef0c 3abe
000002d0: 218a 8dbd 9456 433e b8dc 56bc 7649 b43d
000002e0: 149b 51bd e50d 7bbe 5091 23be 1c07 a93d
000002f0: a3d5 9ebd 7723 49bb d0a9 863e 1781 66be
00000300: 7c12 2abe 9f5a 42be cf10 1d3d 1c6e 313e
00000310: 43d9 81be 1ee5 ab3d f4db 953e 3da8 833e
00000320: 93f7 17be 38a0 2bbd d53b 8fbe d674 67bd
00000330: 279f 613d e4d2 733e 97ad c7bd e681 90bd
00000340: f4d9 a5bd b2f0 8b3e ca85 6f3e 11b1 15be
00000350: b5d2 d0bd d3bf adbd 6677 4abd 185d 933d
00000360: b071 703e be43 f7bd 9022 5cbe 35e0 283e
00000370: 009f 703c ec5f 82be fad6 88be de35 0b3e
00000380: 61d2 a33c 0ff6 ad3e 3e25 b93e f64e 7b3e
00000390: 142b fa3c 4401 5abe 82bf 093d f423 bb3d
000003a0: 7259 f03d 4af7 003e 182b 77be be26 42bd
000003b0: 077f 203d 6024 263e 8095 0cbe 2907 123e
000003c0: 0468 f1bd 4157 2a3e f9cd 1b3e 5eab 11be
000003d0: b495 1bbe 8996 663e 611b 82be 7aa2 7c3e
000003e0: a7e9 c23d 1507 debd cae2 983e 4c93 7d3e
000003f0: 7b8f 72be c451 0abb 5412 18be 3190 1abd

conv1.bias f4 [64]
0.07106785 -0.09465152 -0.1904048 -0.23951542 -0.31134728 -0.16701642 -0.1908514 0.094224766
-0.024014251 -0.2585416 -0.074422225 0.24558309 -0.1086459 -0.14430505 -0.041609053 -0.015702982
0.1286439 0.03559063 -0.27835274 -0.2273989 -0.043043554 -0.11999109 -0.26073316 0.0484762
0.07990882 0.15792477 0.12868585 -0.21503228 0.17255735 -0.2663461 0.15213431 0.098844275
-0.1603782 0.10942569 0.026481057 0.1820539 -0.28152922 -0.06422528 -0.25710383 0.26681042
-0.025280768 0.07212658 -0.021747082 -0.10163733 0.11943731 0.20740144 -0.03632685 -0.07747386
-0.03149662 -0.28318655 0.13113712 -0.0633219 -0.27839446 0.00641576 -0.054950476 -0.12923107
-0.07536009 -0.14192577 0.13745268 0.06120791 -0.17185478 0.21617556 -0.001054904 0.072254136
00000000: 058c 913d a8d8 c1bd 7af9 42be 8843 75be
00000010: e968 9fbe 5a06 2bbe 8d6e 43be eaf8 c03d
00000020: 89b9 c4bc 915f 84be ae6a 98bd 227a 7b3e
00000030: be81 debd b4c4 13be 416e 2abd 8aa3 80bc
00000040: 3abb 033e 7bc7 113d 4084 8ebe 42db 68be
00000050: 704e 30bd e3bd f5bd d17e 85be fb8e 463d
00000060: 3ca7 a33d 08b7 213e 39c6 033e 6c31 5cbe
00000070: e0b2 303e 845e 88be 19c9 1b3e de6e ca3d
00000080: 2f3a 24be 931a e03d cdee d83c 566c 3a3e
00000090: 9924 90be 8b88 83bd 1da3 83be 609b 883e
000000a0: 9d19 cfbc 1ab7 933d f026 b2bc 3c27 d0bd
000000b0: 8c9b f43d 0b61 543e 77cb 14bd 9daa 9ebd
000000c0: 9a02 01bd d4fd 90be cf48 063e eaae 81bd
000000d0: b889 8ebe 4c3b d23b c013 61bd 2655 04be
000000e0: 6456 9abd fd54 11be 65c0 0c3e 25b5 7a3d
000000f0: b3fa 2fbe 205d 5d3e b444 8aba faf9 933d

conv2.weight f4 [128, 64, 3]
-0.06839828 0.04980623 -0.04220241 -0.0039529023 -0.019095045 -0.060701717 0.038935453 -0.051972117
-0.038542703 -0.0069765174 -0.045883346 -0.110691994 0.077563494 0.045298744 0.056611463 0.051101495
-0.030727768 -0.06505093 -0.0027146104 0.06909775 0.043558903 0.008642297 -0.039296746 -0.08480475
0.0006786419 -0.047799062 -0.034791056 0.029675156 -0.04724002 -0.004954232 0.06513345 0.06532154
0.064495824 0.018523406 -0.07519018 -0.042718675 -0.03201868 -0.04377409 0.018236129 0.09389089
0.04743756 -0.05289083 -0.0555649 0.07056969 0.025417112 0.015680602 0.04373139 0.025672961
0.05848422 -0.05060942 -0.07560353 -0.055123094 -0.043433957 0.07009446 0.035176344 -0.069334954
-0.060252666 0.08063972 0.056441013 0.014420256 -0.025796868 -0.05853635 0.022052737 -0.0047599575
-0.03662217 -0.042277254 -0.024757283 0.0140008265 -0.009062315 0.069761604 0.014543607 -0.061141204
-0.026554711 0.054184455 0.0050858953 0.076369874 -0.0038289425 -0.050370574 -0.09350855 -0.04629263
-0.023360169 -0.042255625 -0.09353082 -0.19871953 -0.07440671 -0.06440971 -0.024767054 -0.079565786
-0.10001845 -0.08467105 -0.07650109 0.011865148 -0.03370582 0.069658875 -0.0016123726 -0.015401147
0.018846143 -0.099553764 -0.01079304 0.09288134 0.0042467113 -0.08385938 -0.03833303 -0.025810821
0.07418854 0.029664157 -0.061464757 -0.009250509 0.1320737 0.056921795 0.005300746 -0.0013430263
0.01738662 -0.113238774 0.0010331499 -0.048508644 -0.012263063 -0.043056685 0.024542272 -0.014102046
-0.09203714 -0.054787837 -0.041987613 0.10009642 0.045444883 -0.0735439 -0.0012999171 -0.008747443
0.019212918 0.013822974 0.13640292 0.13361546 0.044147793 -0.07492592 -0.024621453 -0.088411145
-0.08349823 -0.04809147 0.06462177 -0.09372332 0.04268819 0.05850603 0.016131341 -0.063342184
0.075561136 0.04041832 0.004905847 0.042343736 -0.03227032 -0.13989247 0.03130591 0.040973913
0.012687744 -0.007880283 0.0053050434 0.016976641 0.11025992 0.033788312 -0.036491927 -0.028260302
-0.107392855 -0.0024020937 0.11151261 -0.021891888 -0.069201976 0.09651508 -0.0147246765 -0.104644746
-0.13466151 -0.012468566 0.038144466 -0.04632984 0.04076173 0.08257393 -0.09899591 -0.006737339
0.018948069 0.0046908483 0.043074105 -0.0499012 0.07001095 0.00079224 0.025094623 0.028881881
-0.010540997 0.04808523 -0.1748547 -0.105354734 0.050534084 0.045379795 0.023875235 -0.063957155
-0.036593646 -0.042142443 0.06814396 -0.005294291 -0.008742739 -0.011435141 -0.0024414991 0.0007460444
-0.007399865 0.036290895 0.06456936 0.032849725 0.0096570365 -0.021724638 -0.046840493 -0.05361381
-0.06985668 0.051458005 -0.012374328 0.020418214 0.056340028 0.0024182731 -0.012317348 0.013160049
-0.069903284 0.020443283 -0.08922736 0.07195383 0.06095589 0.044968102 0.017848143 0.054790653
0.01708656 -0.058058646 0.0127181625 0.01398984 -0.07063284 -0.15658227 0.02803983 -0.017234387
0.03359234 -0.02311672 0.067003764 0.064144015 0.07629788 -0.058305945 0.055501767 -0.0076269666
-0.007945146 -0.017009292 0.06640226 -0.065531746 -0.009359059 0.044341784 0.061408903 -0.02836129
-0.082046926 0.052305587 0.0577526 0.034464445 -0.050565954 0.010418619 0.0027292976 0.056984596
00000000: 6614 8cbd 9e01 4c3d 6fdc 2cbd 5987 81bb
00000010: 366d 9cbc 5da2 78bd c87a 1f3d b7e0 54bd
00000020: f4de 1dbd 459b e4bb 2df0 3bbd 7cb2 e2bd
00000030: 9cd9 9e3d 2d8b 393d 6ce1 673d cd4f 513d
00000040: cdb8 fbbc 6c39 85bd 9be7 31bb 1f83 8d3d
00000050: d26a 323d 6c98 0d3c a0f5 20bd 1dae adbd
00000060: e3e6 313a f3c8 43bd 1181 0ebd 5019 f33c
00000070: c07e 41bd 1c57 a2bb b064 853d 4dc7 853d
00000080: 6316 843d 66be 973c 4ffd 99bd c7f9 2ebd
00000090: 0526 03bd 764c 33bd ef63 953c de49 c03d
000000a0: e34d 423d 0ea4 58bd 0598 63bd d786 903d
000000b0: 8c37 d03c 9b74 803c b01f 333d 1a50 d23c
000000c0: 268d 6f3d d34b 4fbd 06d6 9abd c1c8 61bd
000000d0: cee7 31bd af8d 8f3d 1215 103d 7cff 8dbd
000000e0: 80cb 76bd 7026 a53d b12e 673d f042 6c3c
000000f0: f453 d3bc d0c3 6fbd f1a7 b43c 6bf9 9bbb
00000100: 2101 16bd ea2a 2dbd c9cf cabc b963 653c
00000110: 1b7a 14bc 2cdf 8e3d 4f48 6e3c 336f 7abd
00000120: 4489 d9bc 85f0 5d3d 95a7 a63b cf67 9c3d
00000130: ffee 7abb 6051 4ebd 6981 bfbd 579d 3dbd
00000140: d35d bfbc 3c14 2dbd 168d bfbd 227d 4bbe
00000150: 8c62 98bd 3de9 83bd 47e4 cabc 63f3 a2bd
00000160: 79d6 ccbd 0468 adbd 9aac 9cbd 0a66 423c
00000170: 1d0f 0abd 50a9 8e3d 3f56 d3ba 1855 7cbc
00000180: 3a63 9a3c d8e2 cbbd 4ad5 30bc 9238 be3d
00000190: ff27 8b3b 77be abbd 1803 1dbd 3771 d3bc
000001a0: 29f0 973d 3f02 f33c 78c2 7bbd 728f 17bc
000001b0: 543e 073e d426 693d e1b1 ad3b 7c08 b0ba
000001c0: 636e 8e3c bbe9 e7bd c26a 873a 00b1 46bd
000001d0: 04eb 48bc 355c 30bd e00c c93c 450c 67bc
000001e0: f87d bcbd 3669 60bd 34fb 2bbd 5aff cc3d
000001f0: 6a24 3a3d 2f9e 96bd fb61 aaba 6f51 0fbc
00000200: 6964 9d3c c179 623c 35ad 0b3e 7ed2 083e
00000210: 51d4 343d c372 99bd eeb2 c9bc e710 b5bd
00000220: 1f01 abbd 90fb 44bd 6b58 843d 03f2 bfbd
00000230: d0d9 2e3d 05a4 6f3d e025 843c 8cb9 81bd
00000240: ccbf 9a3d ae8d 253d 3ac1 a03b a070 2d3d
00000250: e22d 04bd f93f 0fbe a03a 003d 43d4 273d
00000260: 41e0 4f3c 4d1c 01bc eed5 ad3b 9912 8b3c
00000270: f4cf e13d 9d65 0a3d 8f78 15bd 2682 e7bc
00000280: c9f0 dbbd 726c 1dbb b960 e43d 9e56 b3bc
00000290: c4b9 8dbd b3a9 c53d c53f 71bc fc4f d6bd
000002a0: b5e4 09be f548 4cbc 5f3d 1c3d 5cc4 3dbd
000002b0: c6f5 263d 851c a93d 5ebe cabd e5c4 dcbb
000002c0: fb38 9b3c b0b5 993b 796e 303d 3365 4cbd
000002d0: e761 8f3d 54ae 4f3a 3d93 cd3c b299 ec3c
000002e0: 25b4 2cbc 05f5 443d 1c0d 33be 39c4 d7bd
000002f0: d4fc 4e3d 2ae0 393d ff95 c33c f8fb 82bd
00000300: 38e3 15bd 8e9d 2cbd 0f8f 8b3d bb7b adbb
00000310: b53d 0fbc 755a 3bbc 8f01 20bb 3192 433a
00000320: 917a f2bb c3a5 143d f13c 843d 6f8d 063d
00000330: 8c38 1e3c def7 b1bc d1db 3fbd 289a 5bbd
00000340: 0511 8fbd a1c5 523d b2bd 4abc 1944 a73c
00000350: cdc4 663d e47b 1e3b b4ce 49bc 3f9d 573c
00000360: 7429 8fbd ac78 a73c d6bc b6bd 885c 933d
00000370: e2ac 793d 7930 383d 4536 923c 2a6c 603d
00000380: 1df9 8b3c e7ce 6dbd d75f 503c a435 653c
00000390: f3a7 90bd 1a57 20be c9b3 e53c 212f 8dbc
000003a0: 1f98 093d 475f bdbc 4539 893d f05d 833d
000003b0: 1042 9c3d 37d2 6ebd d255 633d a2eb f9bb
000003c0: 5c2c 02bc 1257 8bbc e8fd 873d 8235 86bd
000003d0: bd56 19bc bb9f 353d e787 7b3d f055 e8bc
000003e0: 3808 a8bd 623e 563d fe8d 6c3d 972a 0d3d
000003f0: 3f1e 4fbd dbb2 2a3c 04de 323b ae68 693d

conv2.bias f4 [128]
0.054983255 -0.00999416 0.0019297437 0.020813366 -0.027540695 0.0061582257 -0.038231358 -0.0342158
0.01533496 -0.0137620745 -0.047101438 -0.028584776 0.061478876 0.04546303 -0.030594423 0.020070659
0.045846477 -0.09595656 -0.09663657 -0.05771991 -0.059016567 -0.004753735 -0.040449295 -0.044258617
0.0558698 -0.053739253 0.06215342 -0.01862098 -0.09387643 -0.13058369 -0.039952267 0.029354647
-0.08030042 0.01352113 -0.04801113 0.024363449 0.04772489 -0.011332508 0.016094226 0.015555256
0.016810639 -0.02944118 0.02149379 0.052028533 0.015348376 0.02894933 0.05795023 -0.04396882
-0.055699192 -0.018427972 -0.006862513 0.01574871 0.007972892 -0.0810351 -0.002515663 -0.067007184
0.05230089 -0.06254684 0.01934438 0.073483914 0.060306963 -0.053377494 0.02964598 -0.030899223
-0.049307723 0.07163034 0.011632408 -0.023268731 -0.023885773 -0.02385605 0.070607856 -0.058937266
0.0272913 -0.1281249 -0.070662014 0.0028492585 -0.017128138 0.035617843 -0.024027346 0.07725275
-0.0004456238 0.016477615 -0.040032625 0.0026113503 -0.083858006 -0.015750984 0.031714525 -0.048999194
0.05251957 0.05213607 -0.029984912 -0.018881116 -0.053396408 0.013138884 -0.04083429 -0.06798947
0.056724694 0.05136305 0.016484663 -0.14165767 0.05709536 -0.08171937 -0.03887191 -0.07412316
-0.027277252 -0.027765188 0.007349614 -0.07268257 0.06219522 0.015881784 -0.03657547 0.006942247
-0.008607209 -0.05625328 -0.05286012 0.0052084923 0.042278334 -0.06445351 -0.03773462 -0.05083721
0.027966924 -0.024815941 -0.06880122 0.024641713 0.04343416 -0.017194286 -0.058620874 -0.07162492
00000000: 1f36 613d 8cbe 23bc 74ef fc3a cb80 aa3c
00000010: 069d e1bc f1ca c93b 7c98 1cbd de25 0cbd
00000020: 7c3f 7b3c 537a 61bc 70ed 40bd 9f2a eabc
00000030: 46d1 7b3d 7137 3a3d 28a1 fabc 396b a43c
00000040: 84c9 3b3d df84 c4bd 65e9 c5bd b66b 6cbd
00000050: 5bbb 71bd 38c5 9bbb 29ae 25bd 8648 35bd
00000060: bbd7 643d b11d 5cbd 9694 7e3d 078b 98bc
00000070: 4942 c0bd bbb7 05be fda4 23bd 2879 f03c
00000080: 8c74 a4bd bb87 5d3c 52a7 44bd db95 c73c
00000090: 2d7b 433d fcab 39bc 0ad8 833c 79db 7e3c
000000a0: 77b6 893c a12e f1bc bf13 b03c df1b 553d
000000b0: c177 7b3c 2527 ed3c 385d 6d3d a618 34bd
000000c0: d624 64bd 42f6 96bc eede e0bb 7003 813c
000000d0: bca0 023c bbf5 a5bd d2dd 24bb 103b 89bd
000000e0: 7539 563d 8f18 80bd 1b78 9e3c bc7e 963d
000000f0: 6f04 773d 5ca2 5abd 20dc f23c 5e20 fdbc
00000100: e5f6 49bd edb2 923d db95 3e3c 119e bebc
00000110: 19ac c3bc c36d c3bc da9a 903d 3468 71bd
00000120: 0192 df3c 2c33 03be 3fb7 90bd a0ba 3a3b
00000130: 4f50 8cbc 04e4 113d ffd4 c4bc b136 9e3d
00000140: 9da2 e9b9 10fc 863c 40f9 23bd 3023 2b3b
00000150: bfbd abbd 3508 81bc 17e7 013d 61b3 48bd
00000160: c31e 573d a28c 553d eba2 f5bc 92ac 9abc
00000170: 31b6 5abd 7944 573c db41 27bd 103e 8bbd
00000180: 2758 683d 1062 523d d80a 873c b50e 11be
00000190: d3dc 693d 7c5c a7bd 2738 1fbd e2cd 97bd
000001a0: 8b74 dfbc d273 e3bc 08d5 f03b 99da 94bd
000001b0: 6ac0 7e3d 841a 823c 29d0 15bd ca7b e33b
000001c0: 4005 0dbc d769 66bd da83 58bd 00ac aa3b
000001d0: 0c2c 2d3d 3400 84bd 9e8f 1abd ae3a 50bd
000001e0: e41a e53c cd4a cbbc a7e7 8cbd 6bdd c93c
000001f0: 05e8 313d 08db 8cbc 711c 70bd 16b0 92bd

dense1.weight f4 [50, 768]
-0.05705569 -0.07341408 0.03132248 0.021716021 -0.025703048 0.043127455 -0.14678457 -0.08702171
-0.028646939 -0.02791604 -0.028993623 -0.019226989 0.019111097 0.00046779081 0.01012235 0.010908776
0.024637511 0.019789953 0.015550335 0.041465458 -0.0032153311 0.02135907 -0.0444799 0.023814093
-1.4638426e-05 0.019166257 -0.014982697 0.00412528 0.021657273 0.015736504 -0.08186244 -0.03336273
-0.013343637 0.00389243 -0.031488143 0.07742893 0.069999866 0.0034425098 0.0076605487 0.015114968
0.005864023 0.003967728 0.06044387 0.001187067 -0.06392525 -0.08150606 -0.16967216 0.03715129
0.059314966 0.007271429 0.019941589 0.017391598 -0.006598633 0.016492931 0.005790761 -0.07790517
0.011989881 0.046654522 0.0074640466 0.08343568 -0.018255852 0.028578877 0.029386813 0.026831206
0.044685915 0.058359448 0.030716704 0.027584001 -0.0072732293 0.04148952 0.008981496 0.08244429
-0.08186673 -0.047430582 -0.07262384 -0.1023544 -0.112431996 -0.16635828 -0.0144360615 -0.019391967
0.016512876 0.033974975 0.04455396 0.06628726 0.008021413 0.0048312275 -0.0152310515 -0.020318506
0.016689459 0.07776981 0.04361826 -0.021072013 0.016289234 -0.0025388154 0.015150416 0.02942694
-0.012794495 0.027772967 0.035309624 -0.0046686814 0.04014693 0.033080895 -0.046775043 -0.023115244
-0.034026306 0.00072219636 0.05742765 0.18304305 -0.00330155 -0.02422619 -0.005778774 -0.020053841
0.026653718 0.09558802 -0.018813165 -0.06077192 -0.06340472 -0.11470729 0.051604122 0.021025745
0.15554449 0.030896086 -0.008192482 0.033632368 -0.013360468 0.01633685 0.050362524 0.02673827
-0.04277814 0.0055398676 0.082099035 0.014733212 -0.07970702 -0.054528337 -0.03728244 0.004938343
0.0038969817 -0.017254159 0.028674852 -0.016493402 0.020394899 -0.02519532 0.035036787 0.024863014
0.039534118 0.04810008 -0.005008318 -0.007652993 -0.024476005 -0.010025326 0.02810336 0.026349287
0.0146734575 0.029641712 0.03840086 0.040490426 0.02927304 0.00093230756 -0.022144025 0.026481468
0.039958265 0.01601916 0.0610096 -0.012600423 0.02637665 0.016398013 0.044759136 0.033437043
0.06819251 -0.02845761 -0.0037939027 -0.03747005 -0.0073226597 0.09037899 0.0267121 -0.022013465
0.008238865 -0.02530808 0.011485502 0.14511797 0.11607225 0.02200374 0.03492953 0.0020009235
-0.044364944 -0.0016970449 0.02088591 -0.015792836 0.020395238 0.04712756 0.030748311 0.002518454
0.03406737 0.032728706 0.032597218 -0.0005253853 0.007998102 0.0051965383 0.0706324 -0.012043027
0.036204524 0.006588424 0.02453158 0.016326044 -0.0063636326 0.0038290576 -0.01715188 -0.025576327
0.025375051 0.104587905 0.045676503 0.01652114 -0.014093731 -0.018891536 -0.009417471 0.014890373
-0.0780142 0.02861272 0.028881555 -0.007725073 0.05667613 0.018807657 -0.12018952 -0.06757628
0.032269407 -0.0055622524 0.008446966 -0.030983455 0.0773952 -0.008895881 -0.0150433155 0.011843437
-0.011202818 0.0066047083 0.036474578 0.02314419 0.02773493 -0.0023978543 0.007879406 -0.017123139
-0.031608332 -0.03416059 -0.024797412 0.051053993 -0.02126001 0.049909994 0.03217621 0.0058164173
0.009934943 0.043943685 0.033505823 -0.004863331 0.07223512 -0.019341225 0.039741047 -0.024075774
00000000: 3ab3 69bd 1f5a 96bd 004c 003d cce5 b13c
00000010: 338f d2bc 6aa6 303d b24e 16be 7038 b2bd
00000020: fcac eabc 2eb0 e4bc 0984 edbc eb81 9dbc
00000030: e08e 9c3c d241 f539 37d8 253c b9ba 323c
00000040: 9bd4 c93c 8a1e a23c d5c6 7e3c afd7 293d
00000050: 4eb8 52bb 37f9 ae3c 8e30 36bd c615 c33c
00000060: 9097 75b7 8e02 9d3c fc79 75bc 5b2d 873b
00000070: 986a b13c d7e9 803c 7fa7 a7bd 5ca7 08bd
00000080: 459f 5abc 2418 7f3b b6f9 00bd 0f93 9e3d
00000090: 175c 8f3d bb9b 613b 5705 fb3b c5a4 773c
000000a0: fe26 c03b b703 823b fe93 773d 5c97 9b3a
000000b0: 3eeb 82bd a6ec a6bd 8abe 2dbe f32b 183d
000000c0: 40f4 723d 2b45 ee3b 8b5c a33c d378 8e3c
000000d0: 5839 d8bb 2f1c 873c 6dc0 bd3b bf8c 9fbd
000000e0: 3571 443c d018 3f3d f694 f43b 53e0 aa3d
000000f0: 4c8d 95bc 401e ea3c 9dbc f03c 1ecd db3c
00000100: 9408 373d 510a 6f3d 99a1 fb3c d8f7 e13c
00000110: 4554 eebb eaf0 293d 2027 133c 8dd8 a83d
00000120: bea9 a7bd 9246 42bd cfbb 94bd 2f9f d1bd
00000130: bf42 e6bd d359 2abe 3b85 6cbc e7db 9ebc
00000140: 0346 873c 5829 0b3d 377e 363d 9dc1 873d
00000150: 3f6c 033c 464f 9e3b a98b 79bc ff72 a6bc
00000160: 55b8 883c c745 9f3d 10a9 323d 379f acbc
00000170: 0071 853c 4162 26bb 7339 783c c410 f13c
00000180: 00a0 51bc 2284 e33c d3a0 103d bdfb 98bb
00000190: 1b71 243d d57f 073d 3097 3fbd 2e5c bdbc
000001a0: 2b5f 0bbd c751 3d3a 4139 6b3d a36f 3b3e
000001b0: d15e 58bb 0176 c6bc df5b bdbb f447 a4bc
000001c0: e658 da3c a7c3 c33d 111e 9abc faeb 78bd
000001d0: 55da 81bd a8eb eabd d85e 533d 2f3e ac3c
000001e0: 0e47 1f3e ca19 fd3c c339 06bc 18c2 093d
000001f0: dde5 5abc dcd4 853c ef48 4e3d 370a db3c
00000200: 2238 2fbd c787 b53b 8a23 a83d 9263 713c
00000210: 6f3d a3bd 1b59 5fbd 79b5 18bd d3d1 a13b
00000220: 8164 7f3b 9858 8dbc 86e7 ea3c 2c1d 87bc
00000230: 3413 a73c 6a66 cebc bc82 0f3d 85ad cb3c
00000240: 87ee 213d 9704 453d d11c a4bb f5c5 fabb
00000250: e781 c8bc 4441 24bc 0539 e63c 76da d73c
00000260: f168 703c 2dd3 f23c 384a 1d3d 4ad9 253d
00000270: 04ce ef3c 1a66 743a 6367 b5bc aaef d83c
00000280: 47ab 233d 9d3a 833c 34e5 793d 0172 4ebc
00000290: d813 d83c 2055 863c 5b55 373d 48f5 083d
000002a0: 84a8 8b3d ef1f e9bc 20a3 78bb 327a 19bd
000002b0: ecf2 efbb 9f18 b93d 55d3 da3c 9555 b4bc
000002c0: 4efc 063c e452 cfbc b02d 3c3c ce99 143e
000002d0: 4ab7 ed3d 3041 b43c 4412 0f3d ed21 033b
000002e0: 04b8 35bd 616f deba ee18 ab3c fa5f 81bc
000002f0: ea13 a73c d408 413d e2e3 fb3c a60c 253b
00000300: 3a8a 0b3d 890e 063d a984 053d 03ba 09ba
00000310: 790a 033c b947 aa3b b8a7 903d 1e50 45bc
00000320: 324b 143d b5e3 d73b 74f6 c83c 32be 853c
00000330: 0586 d0bb edf0 7a3b 1982 8cbc 7285 d1bc
00000340: 57df cf3c 2f32 d63d 4917 3b3d 5757 873c
00000350: 64e9 66bc 6cc2 9abc bc4b 1abc c0f6 733c
00000360: e9c5 9fbd 3965 ea3c 0399 ec3c 9c22 fdbb
00000370: 3b25 683d 8412 9a3c ec25 f6bd 6f65 8abd
00000380: ed2c 043d 8e43 b6bb 2565 0a3c 04d1 fdbc
00000390: 6081 9e3d 07c0 11bc 3d78 76bc fa0a 423c
000003a0: 068c 37bc 4f6c d83b 5e66 153d e298 bd3c
000003b0: 5d34 e33c 5225 1dbb a018 013c d345 8cbc
000003c0: bd77 01bd faeb 0bbd f123 cbbc fe1d 513d
000003d0: 7929 aebc 6c6e 4c3d 34cb 033d a597 be3b
000003e0: 2cc6 223c 4bfe 333d 673d 093d 945c 9fbb
000003f0: 02f0 933d 7d71 9ebc 82c7 223d 8f3a c5bc

dense1.bias f4 [50]
0.12751123 0.1329721 0.031983178 0.014497773 -0.062032003 0.16394253 0.14718664 0.1910611
0.1686344 0.114383295 0.116502084 0.1531769 0.08469742 0.16913494 0.09699255 0.06268359
0.11062955 0.20441957 0.083636306 -0.011145901 0.14571933 0.11097095 0.120005734 0.11194541
0.1209878 0.06122182 0.09494498 0.14888525 0.13871379 0.13579865 -0.019283578 0.18886787
0.11118883 0.08916374 0.078204826 0.13709074 0.11805316 0.12288659 0.11938554 0.06388474
0.08510272 0.109555595 0.009710656 0.18545218 -0.042007666 0.118984714 0.07802339 0.12382987
0.07552014 0.16894984
00000000: 4e92 023e d729 083e cb00 033d 1188 6d3c
00000010: 4515 7ebd 8de0 273e 18b8 163e 85a5 433e
00000020: 7fae 2c3e ca41 ea3d a598 ee3d 68da 1c3e
00000030: d775 ad3d b631 2d3e 08a4 c63d 4160 803d
00000040: bf91 e23d 5d53 513e 8349 ab3d 4c9d 36bc
00000050: 7337 153e bd44 e33d 91c5 f53d a343 e53d
00000060: 74c8 f73d bbc3 7a3d 8472 c23d 6075 183e
00000070: fd0a 0e3e cd0e 0b3e 98f8 9dbc 9466 413e
00000080: f8b6 e33d 7b9b b63d da29 a03d 8461 0c3e
00000090: dbc5 f13d f7ab fb3d 6880 f43d 01d6 823d
000000a0: 564a ae3d af5e e03d 7119 1f3c 2de7 3d3e
000000b0: 3b10 2cbd 42ae f33d baca 9f3d 849a fd3d
000000c0: 4eaa 9a3d 3001 2d3e

dense2.weight f4 [1, 50]
0.08289208 -0.12583637 -0.22664696 -0.055918157 0.018051097 -0.12438564 -0.09588771 -0.1288144
-0.0916371 0.055741876 -0.10457727 -0.0751693 -0.06154874 -0.04185538 -0.07358049 -0.013989941
0.0661964 -0.061335314 0.13163568 -0.061660968 -0.14316508 -0.08713819 0.0567164 -0.12221448
0.11851156 -0.06455829 -0.08392 -0.10907228 -0.11461686 -0.08188063 0.005415266 -0.110198855
0.12574296 0.052204184 0.123258784 -0.061676726 0.064604685 -0.03919183 0.041913047 0.034380622
0.079686135 0.049113475 -0.0006267871 -0.09614003 0.02499289 -0.048804116 -0.08252665 -0.04315502
0.035555996 -0.13043883
00000000: 53c3 a93d 40db 00be 2416 68be 700a 65bd
00000010: e5df 933c e6bd febd c760 c4bd ece7 03be
00000020: 3bac bbbd 9851 643d 9c2c d6bd 5df2 99bd
00000030: 881a 7cbd 8c70 2bbd 5eb1 96bd 1136 65bc
00000040: fa91 873d bd3a 7bbd 81cb 063e 3690 7cbd
00000050: de99 12be 8275 b2bd 754f 683d 964b fabd
00000060: 30b6 f23d 2337 84bd 40de abbd 4a61 dfbd
00000070: 3fbc eabd 08b1 a7bd 8b72 b13b f0af e1bd
00000080: c3c2 003e 0ed4 553d 1a6f fc3d bca0 7cbd
00000090: 764f 843d 9d87 20bd 04ad 2b3d b2d2 0c3d
000000a0: 7c32 a33d 362b 493d f84e 24ba 10e5 c4bd
000000b0: e4bd cc3c d3e6 47bd bb03 a9bd 51c3 30bd
000000c0: 2aa3 113d c291 05be
