time_series_forecasting/saved_models/CNNForecastingModel/20-03-2024-002215_NO1_epoch_4.pt (torch, 260779 bytes, 7 tensors)

conv1.weight f4 [64, 6, 3]
00000000: ff10 823e 69e5 323e eb2a 2fbe 7b34 1a3d
00000010: 1df2 eebd abc1 503e cfec 4ebe 3939 faba
00000020: bb3c 32be 85f9 9fbd 1a32 2abe 2417 283e
00000030: 6787 01be 7a6b b3bd a101 763d 19f7 67be
00000040: 9d7b c93c fde0 0f3e af5d 24be b4e4 83be
00000050: ed0e 253d 1c7d ca3d 8312 1ebe d633 643e
00000060: e7d8 193e 6945 6e3c 6d4b 9b3d 06f0 10bd
00000070: 525c a83d 8972 a23d 636b a9bd c639 d3bd
00000080: 6399 3dbe 52b0 ee3d 02e2 2c3e 746e 153c
00000090: 6f4b a93c 3cf4 333e c2fe 003e 1517 c1bd
000000a0: e481 4a3e 5e33 3c3d beae 933e 7cfd 6d3d
000000b0: cf57 073b ccdb 0cbe ae06 053e d550 e23d
000000c0: 088d 10be cdb8 833c aed1 32be f22b 1cbc
000000d0: c8ab 83bc eeba f03d 125b 9fbd 68eb 4fbd
000000e0: 3d72 67bd 279a 4e3d e345 0c3e 85ae 70be
000000f0: a594 733c 2985 d33d 4e87 f6bd 8cb3 37be
00000100: 116f 9c3d 5370 b53d abac 6a3e 669d 6d3e
00000110: 9832 343e bfc7 b2bc 564c fc3d 9459 78be
00000120: 8250 0a3d 28b8 373d 74d6 32be 4b4c 12bd
00000130: cfc0 b53d a113 613e b60b 80be 75c8 0abe
00000140: bdb6 d5bd 3fce 9bbd 0b87 b6bb 31b5 b33d
00000150: fdb8 e6bd 1b84 e93a be61 fc3d ae69 6f3e
00000160: b1bb 6bbd 5bf0 ba3d bdff 5e3d d866 de3d
00000170: 72b8 453e 00b6 26bd 1cf8 263d 977c 423c
00000180: b857 60bc 7965 313a e64b 833e 41a6 0fbd
00000190: bf40 c5bd 5a5e fb3d 496d 58be ce9e 353e
000001a0: d131 be3c 6186 4d3e 85d1 ed3c 11c5 2f3e
000001b0: 9171 43be 63d0 523e da29 3f3e e356 353c
000001c0: 28bc 91bc c474 07bd 3bf4 3e3d 7fe8 80bd
000001d0: 1403 253e 10f3 433d 4c31 bdbd 3eab ecbd
000001e0: e6b0 b3bd b6a9 b8bd c739 02be 047d 38be
000001f0: 2c26 2abe 07a1 3b3d 0b13 94bd 0830 b0bd
00000200: 5958 c23c b12f 053e 2196 0e3e 9400 f3bd
00000210: fbca 24be 0ed5 533c 0b9f 80be ccc8 943d
00000220: e52a 2ebe 23bc 153e 0eed 42be bcb9 1d3e
00000230: 84d2 773d ddc9 333c 0f97 b7bd e31d cbbd
00000240: b9d3 693e 4f3e dc3d a5cd 653e f2de 46be
00000250: 2863 053d a42a eebd 9ad9 0cbd 530d 133e
00000260: b9c2 5fbd a58e 523e e9a5 ffbd e3d7 f8bd
00000270: f6ae 443e 3e47 c83d efe9 c43b 5341 713e
00000280: fc20 24be 0f44 983d e8fa 3b3e a8b4 cdbd
00000290: bde3 863e 10ba ae3d 0df6 613d 2e63 73be
000002a0: 6129 a43d 46f8 e23c 0066 6a3e 2ddf b0bd
000002b0: 15e9 1f3e c8cc 0c3e 3f3a 1d3e ac71 42be
000002c0: 6597 d0bd 0e33 43be b1c4 27be 915b d83c
000002d0: 8703 ec3d 625d 043d a8c1 193e 1e4a 15be
000002e0: 1c99 203c 667b 4ebe 0e4b a0bd f656 c6bc
000002f0: 6cff 493e d55b 003e 11e2 773d d589 afbd
00000300: ecaa 01be 27ad fe3d 3212 7dbc cb3c 143e
00000310: b25c 20bd 04fb ffbc b22c 23be dfcf 403d
00000320: 34cc 0b3e 263f 80bd 4874 543e c7ac 653d
00000330: 149b fd3d 1bc9 6ebe 67ca 483e a144 6ebe
00000340: b842 483e 88ce 41be 2593 ec3d 2cd7 87bd
00000350: 359e 1abe 70b2 f7b9 2919 68be 0b2e 64bd
00000360: 75b3 4a3e 4b93 21be da1c 98bd e7df 0dbd
00000370: bd6a b53c 78a4 babc e856 87bd 4d67 f4bc
00000380: c4ec ecbd 0313 d63d 5a90 ebbd 411f 10be
00000390: 880f 903d 18af 14be 6d6d 1e3d 8aa4 443d
000003a0: 6c40 df3d b2dc adbb 62ab b9bd 652a 4b3e
000003b0: b03d 5dbd a3fe 3fbe e8f9 ff3c 8dba 20be
000003c0: c2ec 6cbc 96bb 673e 6b08 1dbe ff69 ffbc
000003d0: 3067 08be 06a7 133d d517 5f3c a02a ebbd
000003e0: 9f8e 153c e959 19bc 32a5 383e a963 28be
000003f0: 418f 48bc 1f61 bf3c 995d 1ebe 0efc 3fbe
0.25403592 0.17470326 -0.17106216 0.037647706 -0.11667273 0.20386378 -0.20207523 -0.001909054
-0.1740598 -0.07811264 -0.16620675 0.16415077 -0.12649308 -0.08760734 0.060060147 -0.22652854
0.024595076 0.1405067 -0.16051362 -0.25760424 0.040297437 0.09887144 -0.15436749 0.22285399
0.15024148 0.014542916 0.07582746 -0.035385154 0.08220734 0.07932002 -0.082724355 -0.10313754
-0.18515544 0.11654724 0.1688309 0.009120572 0.020665852 0.17573637 0.12597182 -0.09428231
0.19776112 0.045947425 0.28844255 0.05810307 0.0020651703 -0.13755721 0.1299083 0.11050574
-0.14116299 0.01607933 -0.17462799 -0.009531962 -0.016073123 0.11754404 -0.07781042 -0.05076161
-0.05650543 0.05043998 0.13698535 -0.23504074 0.014866983 0.10328133 -0.12037526 -0.17939585
0.07638372 0.08859315 0.2291743 0.23204574 0.17597425 -0.021823762 0.123192474 -0.24252921
0.033768184 0.04485336 -0.1746462 -0.03571729 0.08874666 0.21980144 -0.25008935 -0.13553031
-0.10435245 -0.07607698 -0.0055702976 0.08774794 -0.112657525 0.001781586 0.1232333 0.23380157
-0.057552043 0.091278754 0.05444311 0.1085946 0.19308642 -0.040700912 0.04076396 0.011870525
-0.013692789 0.0006767135 0.25643843 -0.03507066 -0.0963149 0.122738555 -0.21135439 0.1773636
0.023217114 0.20070793 0.02903057 0.17165019 -0.19086291 0.20587306 0.18668309 0.011068079
-0.017789915 -0.03307034 0.046619635 -0.06294345 0.16114455 0.047839224 -0.09237918 -0.11556099
-0.08773975 -0.09016745 -0.12717353 -0.1801644 -0.16616124 0.045807865 -0.07230195 -0.08602911
0.023723768 0.13006474 0.13924457 -0.11865345 -0.16093056 0.012929214 -0.2512134 0.072648615
-0.1700855 0.1462255 -0.19035742 0.15402883 0.060503498 0.010973421 -0.08964359 -0.0991781
0.22834672 0.10754072 0.22441728 -0.19420984 0.032565266 -0.11629227 -0.03438721 0.14360552
-0.05462906 0.20562227 -0.12482817 -0.12150552 0.19207367 0.09779213 0.0060093324 0.23560075
-0.16028208 0.07434856 0.18357432 -0.10044223 0.26345626 0.08531582 0.055166293 -0.23768303
0.08015705 0.027706277 0.22890472 -0.086363174 0.15616257 0.13749993 0.1535425 -0.18988675
-0.10185126 -0.19062445 -0.16383626 0.02641085 0.1152411 0.03231562 0.1501528 -0.14579055
0.009802129 -0.2016426 -0.078268155 -0.024211388 0.19726342 0.12535031 0.060518328 -0.08571211
-0.12662858 0.1243537 -0.015446233 0.14476316 -0.0391509 -0.031247623 -0.15935019 0.04707324
0.13652116 -0.062620446 0.20747483 0.056072976 0.123830944 -0.23318903 0.1960846 -0.23268367
0.19556701 -0.18926442 0.11551503 -0.06632838 -0.15099414 -0.00047244458 -0.22665848 -0.055707972
0.1979502 -0.15778844 -0.07427378 -0.034637358 0.022145623 -0.022783503 -0.06608373 -0.029834414
-0.11568597 0.10452845 -0.11502142 -0.14074422 0.07034212 -0.14519918 0.038678575 0.04800848
0.10900959 -0.00530585 -0.09065892 0.19840391 -0.054013908 -0.1874948 0.031247094 -0.15696163
-0.014460744 0.22630152 -0.15335242 -0.031178473 -0.13320613 0.036047958 0.013616522 -0.114827394
0.009128242 -0.009359815 0.18031767 -0.16444267 -0.012241186 0.02336174 -0.15465392 -0.18748495

conv1.bias f4 [64]
00000000: 4e66 813e 54a5 0c3d fc11 10be e90e c7bd
00000010: 912f 173d 3bf7 3a3e bf5f 143e 51b1 49bc
00000020: 7245 8abc e458 443d 14ab 11be 3bc6 26bb
00000030: e1e8 9e3d 6095 26be d527 003e c359 873d
00000040: eaca ef3d faf6 833e d2f2 863d 4728 493e
00000050: 5530 013e 6c80 18be 3358 fe3b 27b5 80bd
00000060: 597e 993d 787a 25be e85d 10be 82de 923c
00000070: 9e73 573e 5c1c cbbc b468 1b3d 05f8 5a3e
00000080: 6d9c 71bc f17c 7abd b19b 643d 5371 ab3d
00000090: fc02 2abd f886 82bd 08aa 85bd 5b53 823d
000000a0: 9b7e a33d 67c3 693e a18c 35be e903 393e
000000b0: 7dfe 30be 956b 00be 3928 593d 5cd2 80bd
000000c0: 76de 253e bf9a 30be 5ad5 eebc 66b8 d93d
000000d0: c7eb 23be 8a6e 98bd a1f3 603e 1973 513e
000000e0: 63f3 293e 6895 ca3d a71d 12be f24f 483d
000000f0: 027c a03d af13 99bd ba6f 2a3d f6da 443c
0.25273365 0.034337357 -0.1406936 -0.09719641 0.036910597 0.18258373 0.14489649 -0.012310342
-0.016878817 0.047936335 -0.14225417 -0.0025447744 0.07759262 -0.1626792 0.12515195 0.066089176
0.11708625 0.25774366 0.06589283 0.19644271 0.12616093 -0.14892739 0.007761979 -0.06284552
0.07494802 -0.1616 -0.14098322 0.017928366 0.21040198 -0.024793796 0.03794165 0.21383674
-0.0147467675 -0.06115431 0.05581254 0.08371224 -0.041506752 -0.063733995 -0.065265715 0.06363555
0.079831325 0.22828446 -0.17729427 0.18067898 -0.1728458 -0.1254104 0.053016875 -0.06290123
0.16198143 -0.17246531 -0.029154468 0.10630874 -0.1600791 -0.07442959 0.21967937 0.20454063
0.16596751 0.09891778 -0.14269124 0.048904367 0.078361526 -0.074744575 0.041610457 0.012015095

conv2.weight f4 [128, 64, 3]
00000000: 92c0 c8bc b483 9d3d 3c9c 82bd 752a 1ebd
00000010: a8de fa3c ecf2 96bd bbe9 2b3d 80ad 7abb
00000020: e006 21bd 279a 86bd fc5e 30bb fb4a e5bc
00000030: ed80 3a3c 518c 07bd 140a 6fbd 90fb 66bd
00000040: cf17 293d ee8b 9b3c 2ba8 29bd 8099 29bd
00000050: 93ab e0bc cb45 ebbc 0105 313d a9fa 6bbd
00000060: 0abf 8a3d 966e 053b 5c95 123d e4bf 6ebd
00000070: f5c9 1b3d 7dfa 963d 6984 4cbc 967c 233d
00000080: ad21 983d 0246 9fbd 6513 8cbd e5f0 ffbc
00000090: 9128 4ebd afed 23bd f602 0d3d cd47 38bd
000000a0: 1dcc ad3d 686e 35bd c29b 853d 6c5a 37bd
000000b0: 382a 74bc a32c 01bd a302 493d 4b89 b0bc
000000c0: f079 86bd 50f3 763c d448 233d c500 7fbd
000000d0: f716 7cbc c4e2 64bd d07e 0cbd acfb 43bc
000000e0: ed85 61bd a64e 2d3c b553 bcbc 07e7 a13d
000000f0: a10c 723c 862d 3a3d c910 6a3d 47ea 94bc
00000100: 1ecc a0bd 68b3 d4bc 9b12 593d a849 f23c
00000110: db55 8fbc 403a a5bd fa4f a0bd 2f4c 63bc
00000120: 1936 643c 64a7 3e3c fd76 ff3c 2912 e5bc
00000130: dd81 293d f2fd b23c 5911 74bd 032e b43c
00000140: 52e7 6dbd 7316 c03c 0e62 94bd bc49 c73c
00000150: 9844 063d 3276 003d f2dc 98bd e6ed 813d
00000160: 3e94 9b3d 41fc 4ebd f6f9 803d 55db 473d
00000170: 4e6f 933c 9282 4ebd 5c6b 713d 1907 893d
00000180: f864 a1bd bd05 34bd 1ceb 2d3d 09b6 e2bc
00000190: 96bc 3abc 15ac 203d bb1a e03c ac5b ddbc
000001a0: 5b0b ae3c 2472 54bc 602e 743d 353e ccbc
000001b0: 44c5 87bd 3028 44bd 90d2 9abd ce2e 0fbb
000001c0: 4125 a13d ca93 463c ebf0 78bb 969a 57bc
000001d0: c4e0 363d 4eac 6d3d 9e9e aebc ca80 66bd
000001e0: c24d b2bb f5ab 393d b4e5 25bb bc3f 193d
000001f0: 42c2 3c3c 3cd4 163d 9464 e13c 3c10 873d
00000200: 2f66 01bd 3f96 6cbc 9201 a8bc a9ee 01bd
00000210: c1ec 16bd a6bd 7bbd cc80 0bbb 03a5 c6bb
00000220: ab6e 993c 40d0 073d 5169 393d c07d b13c
00000230: f347 9a3d 7d79 8f3a 5505 b9bd 5d2a 0dbc
00000240: 6118 70bd 8d71 793d 1484 a0bc 06b5 073d
00000250: 7bf9 2ebd 5da3 713d fe62 3b3d acbb fb3c
00000260: 4bfd a33d f747 30bd e08a 23bd fcc2 60bd
00000270: 8cac 793d d931 313d 44fa 83bd 3071 edbc
00000280: 82f1 213b 62ab 32bd 5b06 2c3d 337b 65bd
00000290: 521d efbc 890d 643d c878 febc 763a 81bd
000002a0: 5972 7cbd 30e4 c13c 2617 a03d efcd 6abc
000002b0: 6102 45bc ff2a acbd 9e92 4cbb b0a5 3dbc
000002c0: d5f8 1d3c c908 8e3d 46cd cd3c eaec c2bb
000002d0: e445 4b3d 0476 273d 6a26 b4bc 3913 63b9
000002e0: 8b0e 783d 5c1d 5abd 98e4 813d 51d9 af3c
000002f0: 5605 783c 0f34 0bbd a55a ecbc 6856 e5bc
00000300: f81f 323d e485 80bd a222 77bd e9d0 d4bc
00000310: 356c df3c 3b3d 02bd 1520 033d 7518 70bd
00000320: ccfd 583d 3a4a 33bd a9e0 b13b 3e80 31bd
00000330: 700e 163d c970 d2bb 45e0 71bc e460 2f3d
00000340: ab7c 2f3d 1ca2 813c 722a 063d 1449 c2bb
00000350: e2c0 4ebd d757 a6bc 29e7 c6bc 81d5 123c
00000360: 2f58 153d 3f9d 30bc a984 5c3c c23e c73c
00000370: cbfd 8fbd a6d1 9bbd 88ed 7b3d 0bd9 e73c
00000380: c133 af3d 0bb6 7ebc 708d 92bd 2806 343c
00000390: 5677 763c 7c38 4a3d a08d c73c 2a65 3c39
000003a0: b117 d2bc 4067 c7bc 2e4e 02bd 1aed d0bc
000003b0: 65fc 37bd b188 a5bd 9136 26bd fcbe 5bbd
000003c0: 9e18 8c3d 870b adbc 233b ab3d 2081 883d
000003d0: 5b3e 38bc 1a12 83bd 4a67 37bd 8193 02bd
000003e0: 72d8 f4bc 3d86 253d 9117 ad3c 2a13 00bc
000003f0: e0d2 5bbd 84b4 1b3d 90e7 683d 0e61 383d
-0.024505887 0.07691136 -0.063774556 -0.03861471 0.030623749 -0.073705524 0.04197095 -0.0038250387
-0.039313197 -0.06572371 -0.0026912084 -0.027989855 0.011383277 -0.0330928 -0.05835922 -0.056392252
0.04128247 0.018987622 -0.041420143 -0.041406155 -0.027425563 -0.028719803 0.043217663 -0.057612095
0.06774719 0.0020360104 0.03578697 -0.05828847 0.038034398 0.073719956 -0.012482741 0.039913736
0.07428298 -0.07777025 -0.06839637 -0.031242797 -0.050331656 -0.040021595 0.034426652 -0.04499035
0.08486197 -0.044294745 0.06523849 -0.044763967 -0.014902644 -0.03153671 0.04907478 -0.021549841
-0.065662265 0.015072659 0.039864376 -0.062256593 -0.015386335 -0.055880323 -0.034300625 -0.011961859
-0.055059362 0.010577833 -0.022989133 0.07905393 0.014773519 0.04545357 0.057144914 -0.018178118
-0.07851432 -0.025964454 0.05299626 0.029576138 -0.017496994 -0.08067751 -0.07827754 -0.013873144
0.0139289135 0.011636589 0.031184668 -0.027962761 0.041383613 0.021849606 -0.059586857 0.021994596
-0.058081932 0.023448205 -0.07245265 0.024327151 0.03278026 0.03136272 -0.07464017 0.06344204
0.07596634 -0.050533537 0.06297676 0.048793156 0.01799741 -0.05041749 0.058940277 0.06690807
-0.078805864 -0.043950785 0.042460546 -0.027674692 -0.011397501 0.03922661 0.027356496 -0.027021252
0.02124565 -0.012966666 0.05961454 -0.024932006 -0.06629422 -0.04788989 -0.07559693 -0.0021847966
0.07868434 0.012120197 -0.0037985395 -0.013159415 0.044647947 0.05802565 -0.021315869 -0.056275167
-0.0054413984 0.045330007 -0.0025313916 0.037414297 0.011520924 0.036823496 0.02751378 0.06594893
-0.03159159 -0.014440118 -0.020508561 -0.031721745 -0.03684688 -0.06146016 -0.0021286486 -0.0060621514
0.018729528 0.033157587 0.045266453 0.021666408 0.075332545 0.001094624 -0.0903422 -0.008616057
-0.058617 0.060899306 -0.01959423 0.03313162 -0.042718392 0.058993686 0.045748703 0.030729137
0.08007296 -0.04303738 -0.039927363 -0.05487345 0.06095557 0.04326043 -0.06444219 -0.028984636
0.00247106 -0.043620475 0.04199825 -0.056025695 -0.029188786 0.05567697 -0.031063452 -0.06309979
-0.061632488 0.023668379 0.07816915 -0.014331325 -0.012024493 -0.08406638 -0.003121532 -0.0115751475
0.009641846 0.069352694 0.025122296 -0.0059486525 0.0496272 0.040884033 -0.021990974 -0.00021655568
0.060560744 -0.053250656 0.06342429 0.02146593 0.015137991 -0.033985194 -0.028851816 -0.027995303
0.04348752 -0.062755376 -0.060335763 -0.025978522 0.027273277 -0.031796675 0.032013018 -0.058617074
0.052976415 -0.04377196 0.005428393 -0.043335192 0.036634862 -0.0064221364 -0.014762943 0.04281701
0.042843502 0.01582437 0.032755323 -0.0059291217 -0.050476916 -0.020305557 -0.024280148 0.008962036
0.03646105 -0.010779678 0.013459363 0.024321917 -0.07030829 -0.07608347 0.061505824 0.028301736
0.08554793 -0.015546332 -0.07155883 0.010987796 0.0150431 0.049370274 0.024359524 0.00017966764
-0.025646063 -0.024341226 -0.03181284 -0.025503684 -0.044918437 -0.080827124 -0.040579382 -0.053648934
0.06840633 -0.02112366 0.08360889 0.06665254 -0.011245335 -0.06399937 -0.04477624 -0.031878952
-0.029888365 0.040411223 0.021129401 -0.007817069 -0.053667903 0.03801395 0.05686146 0.045014434

conv2.bias f4 [128]
00000000: f537 95bd adb8 623c 1928 bf3c 89e3 873c
00000010: 5dad 00bd d8fb 03bd f24a a53d 4517 2cbd
00000020: 073f 2e3d b92b 43bc c22f 4f3d 87f4 7ebd
00000030: 3395 63bc 2d8f 95bc 797c 3dbd db89 39bd
00000040: e857 753d d340 cf3b b467 93bd d047 2abd
00000050: b184 133d c38f 1c3d 34b3 94bd 67a1 0c3d
00000060: 5b80 5e3d d942 823d ff77 6d3d d57e 773d
00000070: 7477 5cbd 528c 683d 8452 e5bb da9e bbbc
00000080: 6249 5e3c 4a6f 853d 6927 c2bc 09b5 0e3d
00000090: a61d dc3c f7b2 e4bc e166 483b 7d3b 283d
000000a0: 4a39 da3c cf6a b9bb 559d 1ebd 62af 46bd
000000b0: bd82 b13c 9ecc 653d e0bd 063d 4961 28bd
000000c0: 4405 063c d99a 09bc ca91 323d 4f6d 1ebd
000000d0: 0325 20bd f5d8 0a3c d366 f03c 0efa ccbc
000000e0: f14f b2bc 0ff9 1139 78cc 9e3d 125c 5e3d
000000f0: 77c2 17bd fa71 603d 12f7 67bc 5f60 3f3d
00000100: aca8 793d 7df7 8f3d af45 7c3d bb5e eebc
00000110: 31f8 d8bb 7ce7 f7bc 2e6c 8c3d fc2e c03b
00000120: f2fa 80bd 6e88 263d b85d e63a ae4c 403d
00000130: adf2 b73c ed8a 3bbd 95c5 8db9 ce59 4e3d
00000140: e01e 263d 6e29 15bd 8187 c0bd fa11 c33b
00000150: 4d05 633d 9592 32bd 15e4 96bd 743e 033d
00000160: 4143 4dbd baab db3b 6233 21bd e060 15bd
00000170: 578a 86bd 4537 6cbc 44f9 77bc ed37 a03c
00000180: a1c0 41bd 4c59 1a3d 7d1a 82bd 1d8c 733d
00000190: be42 0f3b 56b0 e03c 71e5 b9bd 7026 2dbd
000001a0: 18dd d03b 87bc 14bd 8b58 51bd 1cbb 1fbd
000001b0: d135 1fbc cb5e 373c a80c 0cbd e512 cabc
000001c0: b7d3 07bd 95dd 28bd 9c79 9cbc c1af 923d
000001d0: c297 063d af0c 733c 28a5 cebd 977c 86bd
000001e0: 5c18 233d 9a0b a23d 55f2 8bbd 5a24 95bc
000001f0: 01e5 56bd 774f 0dbd 4706 66bc 2b3c 913c
-0.072860636 0.013837975 0.02333455 0.01658799 -0.031415332 -0.0322226 0.08070935 -0.04201438
0.042540576 -0.01191228 0.050582655 -0.06224492 -0.013890552 -0.018256748 -0.046261285 -0.045297485
0.059898287 0.0063248663 -0.07197514 -0.041572392 0.036015216 0.03822304 -0.07260743 0.034333613
0.054321628 0.063604064 0.057975765 0.06042369 -0.053824857 0.056774445 -0.006998362 -0.022902895
0.0135673005 0.06515367 -0.023700433 0.034840617 0.026869606 -0.027917368 0.0030578899 0.041072357
0.026638646 -0.0056584845 -0.038724262 -0.0485071 0.021668786 0.05610334 0.032895923 -0.041108403
0.008179966 -0.008398735 0.043596067 -0.038678464 -0.039097797 0.008474578 0.029345905 -0.02502158
-0.021766635 0.00013921059 0.07753843 0.054287024 -0.03705069 0.054796197 -0.014158027 0.046722766
0.060951874 0.070296265 0.061589893 -0.029097905 -0.0066213836 -0.030261748 0.06856571 0.005864976
-0.06297864 0.040657453 0.0017575538 0.046948127 0.022454584 -0.045786787 -0.00027040826 0.050378613
0.04055679 -0.036416464 -0.09400845 0.0059530707 0.055424977 -0.043596823 -0.07367722 0.03204198
-0.050112966 0.006703821 -0.039355643 -0.03646934 -0.06569355 -0.014417474 -0.015135113 0.019557917
-0.047302846 0.037682816 -0.063527085 0.059459794 0.002185985 0.027427834 -0.090769656 -0.042272985
0.0063740127 -0.036312606 -0.05110983 -0.0389968 -0.009717421 0.011192034 -0.034191757 -0.024667213
-0.03316089 -0.041226942 -0.019100957 0.07162429 0.03285957 0.014834567 -0.10090095 -0.065667324
0.039818153 0.07912369 -0.068333305 -0.01820581 -0.05246449 -0.03449961 -0.014039583 0.017728886

dense1.weight f4 [50, 768]
00000000: a24c 303d 4f3a 103c ef5f 2bbd fb30 8d3c
00000010: 7d1e c3ba 8bc8 e63b eb94 32bc 5d5a b23b
00000020: 7d97 bbbc c99e 6fbc 8aea 3bbb 8f81 423d
00000030: c329 9dbb b1c1 663c abf2 4d3c 3fd2 21bc
00000040: f12c c3bb 045b 3f3a 9c31 053c 24b1 243d
00000050: 6984 38bc 4b6d 2e3c 5713 c53c fe68 363b
00000060: 03e2 7c3c 8bcf 9cbc 217d 36bd 18e5 4ebc
00000070: b6c1 65bc 9df5 48bc 63a7 ce3c ec1f 68bc
00000080: fafa 7a3c 43f4 08bd 07a1 d3bc 9a2c 50bd
00000090: 5406 5bbc d584 4abd 0d35 c9bc fb5d 323d
000000a0: a0af 903c cf2b ec3b d04a aa3a 4452 853c
000000b0: 4e61 da3b ac0f 18bd 894a f7bc c773 89bc
000000c0: 8c43 203a 0349 fd3c a52e 83bb 67c0 ffbb
000000d0: becc 8bbc add3 39bd a5ad 0dbd dadd 91bb
000000e0: e847 2c3c 76bd 053d 02f5 1c3d b128 6d3b
000000f0: d373 a73c 3fc9 b63c 2a00 e83c 1afc c9bc
00000100: 8aaa cd3c 94e2 33bc 10f1 8c3b 5d90 353c
00000110: 904a 213c afa0 b9bc 8a17 9fbc 05d0 ed3b
00000120: e029 0dbd 1d9c a73c f523 833c 9b25 a23c
00000130: deba 8c3c 6c8c 123b ae25 3a3c 0b7b 5fbd
00000140: 9acb 70bd cef9 f43c a059 b73c fce9 98bc
00000150: ecd4 013d 7949 b33b 4a78 b53c 05a4 8ebc
00000160: 29da 3bbd 230d 91bd 4659 d0bd 06ff c9bc
00000170: 05ff 4c3d 1818 8bbb bf11 a0bd a74c 92bd
00000180: db6c a1bb 86ba 4d3b fd0a 93bc fa80 c03a
00000190: d13b 82bc 0870 e7bc 2d6c 253d f071 d83c
000001a0: 086f 81bc ec5a 5f3b b967 0ebd bac4 85bd
000001b0: 3292 b53c daeb 87bc f263 bf3a 6a01 763a
000001c0: e727 babd 12a7 e2bd ce23 a33c da31 573c
000001d0: 033c 223b 497b b43c 82c5 cb3b 7e85 39bc
000001e0: 2247 223d a69a 4dbb 1a5d 6ebb 16e6 88bc
000001f0: 57fe 263d 930d 00bd a996 2b3c e2e0 c8bb
00000200: 00e6 adbc dc0a 893c 15fb 91bc d839 14bd
00000210: cfd8 f9ba 5331 2bbd 5b87 dfbc 67bc 583c
00000220: 302c 69bd 0ee7 a9bd b098 b13d d684 473d
00000230: 1820 193d 3236 cc3c 0be6 35bc 28fa 1bbe
00000240: 5b06 cf3c 2e68 273d 8a72 09bc 5f89 00bd
00000250: 01ff cc3c f347 843c d133 4a3b d4d9 2dbc
00000260: 0145 c83b 82f8 0a3d a150 033c c2a8 10bc
00000270: c0b9 b73c 25cd fe3c 0466 7d3c b8e5 f3bc
00000280: af51 84bd f134 8cbd 2ba2 27bc bcdf 913a
00000290: d350 b93c d8ce 93bc 43c7 a2ba 2ab4 303d
000002a0: d757 e3bc f649 bb3b 85a1 c83c 4fe2 34bc
000002b0: 3131 433b c5c9 3f3c 5030 87bc fdfc 1fbc
000002c0: f8ff d33c 95c9 cdbb cc61 28bd 5ce7 1dbb
000002d0: cdeb 1b3d cc7f 613c c8bc b73c 6a7c d5bb
000002e0: 979f f63a 7d10 a13c 89f5 07bc d4de 93bd
000002f0: 8c25 39bd ffa6 383d f6aa e23c c098 63b9
00000300: 4139 633d e01a f8bc 7bb2 203d a4b2 2e38
00000310: 0bb6 dfbb 2179 e83a de17 2a3d 2d11 8bbc
00000320: 2b32 22bd d468 1cbd 3f1a 87bc bc85 b43c
00000330: 4641 4abd b5ab b0bd 7a09 c43d 24b3 d33b
00000340: ed2b 8ebd ff1c adbd 1f3b ee3c 3ef1 24bc
00000350: a6a1 b8bc c64c 39bd 302c 7abc e45d 59bd
00000360: 47d6 e03c 3ff8 293c 8f68 b6bc 43df ca3b
00000370: a411 b63c 5000 313d f985 19bd e021 c2bb
00000380: cb40 c8bc 5582 833c ae38 9d3c 8a96 0a3b
00000390: 4580 993c f4c6 8bbc 6136 0c3d 41d1 debc
000003a0: ddbc a33c 1332 043c e62f e6bb 755a a5bc
000003b0: 77c5 5cbc 0ee9 24bc 0006 433d 8e6f 643c
000003c0: 77f9 2bbc 149f 623c 003c 123d 5bf6 8fbc
000003d0: 262c d63c 4762 023d 7a7f 9dbc 2562 3d3d
000003e0: b665 133d 3988 59bc a2f8 36bd 2db6 b7bc
000003f0: f29a a1bc 9817 893c c752 6f3b 509e 22bb
0.043041833 0.008802964 -0.041839536 0.01723527 -0.0014886406 0.0070429496 -0.010899763 0.005442901
-0.022899384 -0.01462526 -0.0028673732 0.047486838 -0.004796238 0.014084266 0.012570064 -0.009876787
-0.005956285 0.0007299634 0.008129504 0.040207997 -0.011262038 0.010646175 0.024057074 0.0027833576
0.015434745 -0.019141933 -0.044552926 -0.012627862 -0.014023235 -0.01226559 0.0252263 -0.014167767
0.015318627 -0.03343607 -0.02583362 -0.050823785 -0.013368208 -0.049443085 -0.02456143 0.043546658
0.01766187 0.007207371 0.0012992267 0.016274579 0.0066644317 -0.03712432 -0.030186908 -0.01677884
0.0006113581 0.030918604 -0.004003363 -0.0078049186 -0.017065402 -0.045367885 -0.03458943 -0.0044514956
0.010515191 0.032651387 0.038319595 0.0036187584 0.020440971 0.022312758 0.02832039 -0.024656344
0.025105733 -0.010979313 0.004301198 0.011081782 0.009844437 -0.022659628 -0.019420404 0.007257464
-0.034463763 0.020460183 0.016008357 0.019793322 0.017178949 0.002236153 0.011361523 -0.054560702
-0.05878792 0.029904272 0.022381604 -0.01866626 0.0316972 0.005471405 0.022152085 -0.017412195
-0.04586235 -0.07082584 -0.101732776 -0.024657737 0.050047893 -0.0042448156 -0.07815885 -0.071435265
-0.0049263067 0.0031391694 -0.017949576 0.0014686876 -0.015897663 -0.028251663 0.040386368 0.026421517
-0.015800014 0.0034081293 -0.034766886 -0.06531663 0.022164438 -0.016591955 0.001460193 0.0009384366
-0.09089642 -0.110670224 0.019914534 0.013134444 0.0024755008 0.022031443 0.006218613 -0.011323331
0.03961862 -0.0031372695 -0.003637141 -0.016711276 0.0407699 -0.031262945 0.010472932 -0.0061303237
-0.021227837 0.016728811 -0.01781992 -0.036187977 -0.0019061806 -0.041795086 -0.027286222 0.013228512
-0.056926906 -0.08296023 0.08671701 0.048710667 0.037384123 0.024928186 -0.01110221 -0.15232146
0.025271585 0.040870838 -0.008389125 -0.031381007 0.02502394 0.01614759 0.003085364 -0.010611016
0.0061117415 0.0339284 0.008014829 -0.0088292975 0.02242744 0.03110368 0.015466217 -0.029772624
-0.064608924 -0.06846035 -0.010231535 0.00111293 0.022621548 -0.018042967 -0.0012419004 0.043140568
-0.027751846 0.005715604 0.024491081 -0.011040284 0.002978396 0.01170582 -0.01650253 -0.009764907
0.025878891 -0.006280134 -0.04110889 -0.00240942 0.038066674 0.013763379 0.022428885 -0.0065150755
0.0018815872 0.019661183 -0.008298286 -0.072202355 -0.045201823 0.045081135 0.027669411 -0.00021705311
0.055474523 -0.030286252 0.039232712 4.1651205e-05 -0.006827121 0.0017736295 0.041526668 -0.016975963
-0.039598625 -0.03818591 -0.016492007 0.022036426 -0.049378656 -0.086265005 0.0957212 0.006460564
-0.06941972 -0.08452796 0.029080926 -0.010067282 -0.022538017 -0.045239232 -0.015269324 -0.053068057
0.027445925 0.010374128 -0.022266654 0.0061911657 0.022225209 0.04321319 -0.037481282 -0.0059244484
-0.024444958 0.016053358 0.019192066 0.0021146857 0.018737921 -0.017062642 0.034231547 -0.02719939
0.019987518 0.008068579 -0.007024753 -0.020184735 -0.013474814 -0.01006533 0.047613144 0.013942612
-0.010496489 0.0138318725 0.03570175 -0.017573526 0.026144098 0.031832006 -0.019225825 0.046236176
0.03598567 -0.013277107 -0.04467071 -0.022425735 -0.019727204 0.016734883 0.0036517845 -0.00248136

dense1.bias f4 [50]
00000000: c07b 903c 48ac 713c 1ea9 563d 674e b53d
00000010: a3d4 5cbb aca1 103d 9987 6cbb 5cbc 2f3a
00000020: b4c5 5b3c 50cf 553d a1ad 443c 0786 443d
00000030: aeab 6c3d 42e1 713d 3241 c23c 8409 343c
00000040: a10c 783c ecad abbc 4172 043d bbd2 363c
00000050: 1b9c f53c 0e90 07bc 32d7 613d 0829 673c
00000060: fa36 263d 8dc7 4dbc 5d75 ef3b 5fbf e43c
00000070: 4eb5 8e3c d476 3b3d c5d9 293c 5e18 f43c
00000080: 8105 203d b1e5 9cbb 26a0 513d 9555 1b3d
00000090: 562d 393c 4964 2d3d 7f7a 4e3d 2143 303d
000000a0: da45 8c3b 545f 433d 22c1 843c 29d3 1e3d
000000b0: d6f4 853c 4f12 e13c e43b 023d 88fb 4d3d
000000c0: 1124 933c 80d6 c8bc
0.017637134 0.014750548 0.052407376 0.08852845 -0.0033696077 0.035310432 -0.0036091565 0.0006703788
0.013413835 0.05219966 0.012004287 0.04797938 0.057780914 0.059052713 0.023712728 0.010988597
0.01513973 -0.020956956 0.032335524 0.0111586405 0.029981663 -0.008274091 0.055136867 0.014108904
0.040579773 -0.012559784 0.007307692 0.027923284 0.017420437 0.04576762 0.010366862 0.029796775
0.03906775 -0.0047881235 0.05117812 0.037923414 0.011302313 0.042331968 0.05040979 0.04303277
0.004280788 0.047698334 0.016205374 0.038775597 0.016352098 0.02747455 0.031795397 0.050288707
0.017961534 -0.024516344

dense2.weight f4 [1, 50]
00000000: 0fb1 bcbd 2166 0cbd ff12 18be 2420 25be
00000010: 6a61 ff3c e706 fc3d aba6 ef3d 0824 903d
00000020: f778 93bd 195f 01be ba43 983d 202c fb3d
00000030: 8e3f f23c cd25 1a3e 7698 003d b3e3 2b3d
00000040: 9520 b13d 3d21 883d f469 033e 6867 1d3e
00000050: 180e 32bd d283 b53c 0e81 e8bd 5f72 19be
00000060: 03cf 643d 4db1 833d 70a7 6abd f637 e5bd
00000070: 0edc 19be 1d49 2f3d 18ab d7bc 8eec 1b3e
00000080: b660 1abe bd5e 413d 927a 89bd 4c26 1c3e
00000090: eaad a8bd 514e 9cbd d1b1 5ebd c416 e93c
000000a0: 01f2 19be 87f3 00be e998 fbbd be7d 003e
000000b0: 00f8 163d 57bd 83bd 7831 d0bc 5ac3 73bc
000000c0: 9943 72bd 3db2 ef3d
-0.09213459 -0.034277085 -0.14850996 -0.16125542 0.03117438 0.12306004 0.11701711 0.070381224
-0.072008066 -0.12633933 0.07434793 0.122642756 0.02957132 0.15053482 0.031395398 0.041965198
0.08648793 0.06646965 0.12833387 0.15371478 -0.043470472 0.022157583 -0.1135274 -0.14985035
0.055861484 0.06430302 -0.057288587 -0.11192314 -0.1502535 0.042794336 -0.026326701 0.15226957
-0.15075955 0.04720949 -0.067128316 0.15248984 -0.082362965 -0.07632125 -0.054368798 0.028453238
-0.15033723 -0.12592898 -0.12285025 0.12547967 0.036857605 -0.06432598 -0.025414214 -0.014878118
-0.059146497 0.11703918
