time_series_forecasting/saved_models/CNNForecastingModel/20-03-2024-001416_NO1_epoch_2.pt (torch, 260779 bytes, 7 tensors)

conv1.weight f4 [64, 6, 3]
00000000: 63fe 7f3e f547 2b3e 0083 2fbe 8b3e 393d
00000010: ce78 dcbd 3a56 573e 6bef 46be a3c0 07bb
00000020: 364d 3dbe 3b15 a8bd 7d76 36be fdb8 173e
00000030: 13fa 10be 5b19 d2bd bce8 333d f34b 66be
00000040: afab ce3c 484b 113e c16f 26be 5965 83be
00000050: 81fa 283d 2e3d da3d 1a0a 1abe 10f1 633e
00000060: f2ab 143e fa6a 823c d671 b63d f692 0dbd
00000070: 27f5 ab3d 8b45 a83d 5bb4 a9bd 36c9 d3bd
00000080: 4606 3fbe b750 eb3d 0b8b 2a3e d84e 073c
00000090: a9e9 753c 7f0a 2c3e fde2 f73d 8286 e4bd
000000a0: 7e1a 3a3e 9d80 053d 2d53 903e ff0f 4c3d
000000b0: da83 f2b9 979e 06be d292 0d3e ce1f f93d
000000c0: c469 15be 77ac 3a3c e6b5 38be 2a7a 23bc
000000d0: 9aef 66bc 6017 f13d 505d aebd 4546 6bbd
000000e0: 9aaf 7ebd e111 4e3d 4229 0a3e bc12 74be
000000f0: 4175 30bc 2f7d ba3d c02a f5bd f8e6 43be
00000100: 7ae7 893d 97c1 a33d 2dd7 623e 2009 653e
00000110: d896 2c3e 1ee4 6ebc 985d 063e 57d1 6fbe
00000120: 1714 f53c c451 2e3d 9e1e 35be 9207 f0bc
00000130: d306 bd3d 6ac2 633e 0e2d 7cbe 5a41 08be
00000140: fef5 c9bd e52b 97bd 5112 8cbb c83f b73d
00000150: d732 eebd 6573 02bb 3803 f33d 7bb2 6c3e
00000160: 7d81 76bd 7036 b73d 31e1 603d f081 de3d
00000170: 097f 493e 2c24 32bd 9bd8 213d 48f1 3f3c
00000180: b9d9 7abc 4246 01bc 3377 733e b3f7 07bd
00000190: 72e8 c1bd 6481 fb3d 3fba 57be 9a68 363e
000001a0: 680d c63c a8eb 4e3e 99f5 fa3c 2c85 303e
000001b0: 0892 42be 88c1 4c3e d58a 3b3e 2eab 1d3b
000001c0: 2915 a5bc 2ccf 05bd dde9 183d 5091 86bd
000001d0: 4012 203e 263a 1d3d c96b d2bd cecd 01be
000001e0: 185a b2bd 955f b9bd bfe9 00be d9f8 3abe
000001f0: 645a 2dbe 9198 2f3d 17c8 91bd 0f91 aabd
00000200: 2251 c63c 3aa7 093e 14c8 103e 0a75 e9bd
00000210: 5459 1dbe b354 b13c fbfc 74be c783 9a3d
00000220: cc0d 2cbe 3f87 163e b494 3cbe 2aee 223e
00000230: c0c2 853d 02d7 1d3c 5738 babd 0d31 d2bd
00000240: dc4f 693e 4e2d d83d a073 643e f5a1 48be
00000250: c121 0f3d 6eac e7bd 59ae 03bd 4616 1a3e
00000260: b019 63bd cd6e 533e f193 00be 75ac fcbd
00000270: 0a05 493e 9eb8 d03d 5add 1c3c 1841 6f3e
00000280: 6a4a 26be 7900 943d 93f2 3b3e 5c9b d5bd
00000290: 6e60 843e 3d49 a73d 99fb 6d3d 09b4 6cbe
000002a0: 90a0 b83d ac2b 043d 1e96 6c3e 342c b9bd
000002b0: fb4a 1a3e d723 043e d83b 1c3e c6aa 44be
000002c0: 85bb d6bd 4322 45be dc4e 2abe 8d2f c93c
000002d0: 37e6 ed3d d33b fd3c 7457 173e 5c00 15be
000002e0: 40a8 543c 7daa 49be 9dd5 a1bd a120 a0bc
000002f0: e497 4e3e 2a27 fb3d a0a7 653d 9615 babd
00000300: 54f2 f7bd a999 053e 7af3 35bc 9d2e 153e
00000310: cb51 1dbd adcb f5bc 168e 28be 2fff 253d
00000320: 4405 083e 368c 6bbd eb58 523e ccc3 6a3d
00000330: c905 f73d b440 6bbe dd01 543e 7931 76be
00000340: 8b06 443e 037e 44be 422d fe3d 49f8 66bd
00000350: 6a29 14be 24ac 093c f088 61be 4e31 53bd
00000360: 74e5 4c3e c31e 1abe 0769 93bd 62bb 05bd
00000370: aabb b23c fa72 9dbc 6e01 69bd 730a c3bc
00000380: e28b ecbd fa31 d23d 4f15 edbd 326e 10be
00000390: 337c 8a3d dd88 15be 9048 0d3d 156c 463d
000003a0: 18f4 e03d 4bd4 81bb ccf1 afbd 9730 3e3e
000003b0: d683 87bd 2db4 3ebe 6d9e 3f3d 1aa2 15be
000003c0: 4019 adbc 28dc 673e b434 18be 48a5 0abd
000003d0: 8ed7 0bbe e8f0 043d 302f a43b 6f24 fdbd
000003e0: 3e15 d53a 1d67 ddbb 8984 3b3e 44aa 27be
000003f0: 2063 afbb d81d e23c 97a0 1cbe 793d 39be
0.24999385 0.16726668 -0.17139816 0.04522566 -0.10765229 0.21028987 -0.19427268 -0.0020714186
-0.18486485 -0.082071744 -0.17818637 0.14816661 -0.14157896 -0.102587424 0.043923125 -0.2248991
0.02522835 0.14188874 -0.16253568 -0.2566326 0.041254524 0.106562 -0.15042916 0.22259927
0.14518717 0.015920151 0.08908431 -0.03456398 0.083963685 0.08216389 -0.08286353 -0.10341112
-0.18654737 0.114900045 0.16654603 0.008258544 0.015009322 0.16800879 0.121038415 -0.11158468
0.18174168 0.03259336 0.28188458 0.049819943 -0.00046256074 -0.13146435 0.13825539 0.121642694
-0.14591128 0.011393658 -0.18038139 -0.009977857 -0.014095211 0.117720366 -0.08513892 -0.05744006
-0.062179185 0.05031002 0.13492301 -0.23835272 -0.010770143 0.09105908 -0.119710445 -0.19131076
0.06733604 0.07995909 0.22152396 0.22366762 0.16854417 -0.014580755 0.1312164 -0.234197
0.029916806 0.042558447 -0.17687461 -0.029300485 0.09229817 0.22242132 -0.24626562 -0.1330618
-0.098613724 -0.07381419 -0.0042746444 0.08947712 -0.11630791 -0.0019905206 0.11865848 0.2311496
-0.060182083 0.0894593 0.05490226 0.10864627 0.19677366 -0.043491527 0.03951321 0.011715241
-0.015310698 -0.007890286 0.2377594 -0.03319521 -0.094681635 0.12280539 -0.21067141 0.1781334
0.024176314 0.20207083 0.030634688 0.17238301 -0.19001019 0.19995701 0.18314679 0.002405833
-0.020151692 -0.032668278 0.037332404 -0.06570685 0.15631962 0.038385533 -0.10274465 -0.12676165
-0.0870859 -0.09051434 -0.12589167 -0.1825899 -0.16929013 0.042870108 -0.07118242 -0.08328449
0.024208609 0.13442698 0.14138824 -0.113992766 -0.15366107 0.021646833 -0.2392463 0.07544666
-0.16802138 0.1470003 -0.184161 0.15911165 0.06531286 0.009633781 -0.09092777 -0.10263262
0.2278437 0.10555516 0.22309732 -0.19593032 0.0349443 -0.11312185 -0.032148693 0.15047559
-0.05544442 0.20647736 -0.12556435 -0.12337581 0.19630828 0.10191463 0.009574259 0.23364675
-0.16239324 0.07226653 0.18354253 -0.10430023 0.2585482 0.08168266 0.05810127 -0.23115553
0.09015 0.03226821 0.2310414 -0.09041634 0.15067665 0.12904297 0.15257204 -0.1920577
-0.10484985 -0.19251351 -0.16631645 0.024558807 0.116161756 0.030912315 0.14779454 -0.14550918
0.012979567 -0.19693942 -0.079020716 -0.019546809 0.20175129 0.12263329 0.056068063 -0.090861484
-0.12106767 0.13046898 -0.011105413 0.14568563 -0.038408082 -0.030004347 -0.16460451 0.040526565
0.13283259 -0.057506762 0.20541732 0.057315633 0.1206165 -0.22973901 0.20703836 -0.2404231
0.19143121 -0.19188695 0.12410976 -0.056389127 -0.14468923 0.008402858 -0.22024894 -0.051560692
0.20009404 -0.15050797 -0.07197767 -0.032649405 0.021818 -0.019219864 -0.05688613 -0.023808694
-0.11550118 0.102634385 -0.1157633 -0.14104536 0.0676197 -0.1460299 0.03449303 0.04844292
0.10984057 -0.003962075 -0.08591041 0.18573223 -0.066169426 -0.18623419 0.046781946 -0.14612618
-0.021130204 0.22642577 -0.14863855 -0.03384903 -0.13656446 0.03245631 0.005010508 -0.12360465
0.0016256941 -0.006756677 0.18312277 -0.16373545 -0.005352393 0.027602121 -0.15295635 -0.18089856

conv1.bias f4 [64]
00000000: ca11 723e 356c 0f3d a421 13be db67 cabd
00000010: 6797 0c3d ca5c 373e b5af 103e c49a 0dbc
00000020: 5184 97bc d7ba 493d 6a7c 11be 83c0 893b
00000030: 2a2e 993d f643 1ebe ea40 003e 4ccf 8c3d
00000040: af4e f03d d242 823e 8693 813d c648 473e
00000050: 58e9 ff3d dc6a 1abe 3dcc 303c 88e0 82bd
00000060: d97c 9b3d 4324 29be 6db9 12be 0715 a33c
00000070: 6b5e 563e 22da f9bc b24e da3c e118 553e
00000080: 6243 07bc cc17 6bbd 38c1 803d 9112 a83d
00000090: 002d 3dbd 17aa 41bd d972 8dbd c337 893d
000000a0: aab7 ad3d 2055 663e 1002 32be c16b 393e
000000b0: 6770 2dbe 75b7 ffbd c2f3 6c3d f5d7 83bd
000000c0: 06d4 213e d0f6 1dbe 8294 17bd a560 e03d
000000d0: 77fd 3abe e6e9 9ebd 1004 603e ac93 4f3e
000000e0: 059a 2e3e a71a ac3d f23c 17be ce05 4b3d
000000f0: 96b3 963d 6e31 95bd 7bcd 3f3d 6aaf 6b3c
0.23639598 0.035015304 -0.14368302 -0.0988309 0.034324076 0.1790649 0.14129527 -0.008642856
-0.01849571 0.04925045 -0.14207616 0.0042038574 0.07479508 -0.15455613 0.12524763 0.06875476
0.11733758 0.25441605 0.06326966 0.19461355 0.12495679 -0.15079826 0.010790882 -0.06390482
0.07592172 -0.16517739 -0.14328547 0.019907488 0.20934455 -0.030499522 0.026648853 0.20810272
-0.008255811 -0.05739574 0.062868536 0.08206666 -0.046185493 -0.04728135 -0.06906671 0.06700089
0.08482297 0.2249341 -0.173836 0.18107511 -0.1693741 -0.124861635 0.057849653 -0.06437675
0.15803537 -0.15426183 -0.037006862 0.109559335 -0.18260752 -0.07759456 0.2187655 0.20271176
0.17050941 0.08403521 -0.14769343 0.049566083 0.07358472 -0.072848186 0.04682682 0.014385084

conv2.weight f4 [128, 64, 3]
00000000: 38d6 aebc a17d 953d fb92 8abd eb75 09bd
00000010: 5116 253d 19b4 8dbd b272 313d 8f01 94bb
00000020: f76f 29bd 0eb8 81bd 54a4 1db8 a15a d5bc
00000030: f1f8 c33c 8955 d9bc 78e2 6abd ce5c 60bd
00000040: 47c2 263d a8b5 893c 432e 33bd 97bc 3fbd
00000050: d4d0 fcbc 26cf e2bc f91c 363d 0cc9 81bd
00000060: 3904 903d 378f cc3a f3db 0c3d 4cd6 73bd
00000070: 0b6d 063d f47b 8b3d 30a1 30bc da04 193d
00000080: dbfc 8f3d 9b99 92bd 8501 74bd ab54 05bd
00000090: 4fff 41bd 8748 20bd 16b4 0a3d f1e5 37bd
000000a0: 5eb2 a43d 74f8 3dbd f9af 893d a4f9 26bd
000000b0: 4ed9 51bc 6e42 f4bc fccd 453d da81 c3bc
000000c0: a69c 7cbd 1f9e d13c faa1 393d 9fd0 69bd
000000d0: 9ca1 f8bb 74aa 5cbd b6ea 05bd 98a6 7bbc
000000e0: b5c5 74bd 755c 4d3c c8b5 d4bc fa7a 9a3d
000000f0: f945 b33c 940e 3e3d b780 5f3d 6fef 62bc
00000100: 7a2c 8fbd aa59 cebc 45a9 543d f8af fe3c
00000110: 95af a6bc b139 9abd 97b5 9ebd 6bdd 6ebc
00000120: 91d1 a43c a4e5 713c 48ca f83c 0f91 e6bc
00000130: 7a6a 323d b3e5 c83c 2c44 57bd a36c b53c
00000140: 71ef 74bd ab28 dc3c 1748 83bd be51 fb3c
00000150: 895d 093d c58b ff3c 6081 99bd 559c 7e3d
00000160: 5051 973d a83d 57bd ff3a 8a3d 6969 593d
00000170: 7b2a 9e3c 9e5c 41bd f3db 6a3d a6b9 813d
00000180: 68fd 8bbd 7d3a fdbc 0ae3 4b3d cf0e d8bc
00000190: 71e3 2cbc 6bbb 263d acce ef3c 984b f0bc
000001a0: faea 913c a8d7 54bc bce4 6f3d 8920 d9bc
000001b0: 47f2 7abd 99fe 53bd eb62 9cbd 56c6 90ba
000001c0: cbfe 9c3d bc2f 043c a385 1cbb b288 75bc
000001d0: 6407 323d d1e8 793d 433a b0bc 312b 76bd
000001e0: c722 acbb 5644 403d 6305 a1bb d860 203d
000001f0: eb0b 2d3c 826f 0b3d 0565 1a3d 647c 903d
00000200: 3642 edbc 3e12 2cbc 4f4a b0bc a897 10bd
00000210: 0e1e 0abd bda7 81bd af0a d4bb 19f6 cb3a
00000220: d383 a53c 75bd 043d 99c4 393d 4e12 b83c
00000230: 0e32 9b3d 10ef 243c 2130 a5bd 677f acbb
00000240: a981 6bbd c965 6c3d 1eb6 b5bc e3d0 1b3d
00000250: bc6a 30bd d4a9 5f3d acd5 3d3d c17d bb3c
00000260: d10d 963d 47e1 26bd 4494 13bd 8bae 56bd
00000270: 99cf 833d 1e14 393d 1ec0 87bd 5f4f f0bc
00000280: fed2 a7ba b0de 47bd 7224 383d e2d6 78bd
00000290: dcfc 0ebd 58b7 653d 0cd3 04bd 0e37 84bd
000002a0: 2162 77bd 6c65 d93c cd9b 9e3d b021 603b
000002b0: 6a27 243c 0265 8ebd 8835 143b f02d 15bc
000002c0: 2c98 3a3c 9a13 923d 14c3 c83c 3352 10bc
000002d0: 7b89 563d 0ce9 2b3d d09d abbc 0428 513b
000002e0: 2e08 5d3d 39f9 6dbd f806 873d dc06 e23c
000002f0: 1499 8b3c 5f62 dabc d40b 6cbc 23df a9bc
00000300: 187e 323d 9d49 7ebd 2808 80bd 6bb8 e8bc
00000310: c411 c33c 3225 05bd e96d 863c 6bf0 81bd
00000320: 7e46 603d 84f5 17bd a219 4b3c f904 14bd
00000330: 6381 133d 689a 02bc 3d22 9cbc 9b4f 433d
00000340: 08d6 453d ba6c 733c f87d 0f3d ded9 53bb
00000350: 05c7 41bd 1471 98bc ebc8 c5bc 17d9 eb3b
00000360: 668e bf3c d0d7 0cbc 0c3d 183c dfd8 9f3c
00000370: f1c1 8abd 5a3a 8cbd 3b1b 703d 39ad af3c
00000380: 7877 963d 4ed9 39bc 76f3 8bbd c6c1 5e3c
00000390: cf94 833c f61d 373d 8b09 a43c 36d4 7c3b
000003a0: 495e febc f9b7 23bd d8ed efbc 3a44 bebc
000003b0: d6cd 2bbd 72b1 a3bd cc0d 3dbd 0f8b 73bd
000003c0: db3c 8b3d 5d35 c2bc e877 a73d ec79 7d3d
000003d0: a56b 6fbc 0a9d 80bd a60e 0dbd c9c9 dabc
000003e0: d91b 19bd 60e5 103d 8127 a03c cdfb 46bc
000003f0: d6bc 6abd 1430 0c3d 05a2 603d a816 3d3d
-0.021342382 0.072993524 -0.067663155 -0.03355972 0.040304486 -0.069191165 0.043322273 -0.0045167874
-0.041366544 -0.06333934 -3.758476e-05 -0.026044192 0.023922415 -0.026530044 -0.057344884 -0.054776005
0.04071262 0.016810253 -0.04374529 -0.046810713 -0.030861296 -0.027686667 0.044461224 -0.06337175
0.070320554 0.0015606646 0.034389447 -0.05953054 0.032818835 0.068107516 -0.010780618 0.037358142
0.0703065 -0.07158204 -0.05957176 -0.03255145 -0.047362622 -0.039131667 0.03386315 -0.044897024
0.08041833 -0.04637952 0.06723017 -0.04076542 -0.012808157 -0.029816832 0.048292145 -0.023865629
-0.06167283 0.025588093 0.04532049 -0.057083722 -0.0075876247 -0.053873494 -0.03269454 -0.015359543
-0.05975886 0.0125342505 -0.025965586 0.07542987 0.021883952 0.04640062 0.05456611 -0.013851031
-0.06990905 -0.02518924 0.05191924 0.031089768 -0.020347396 -0.07530535 -0.07749479 -0.014579157
0.02011946 0.014764223 0.030369893 -0.028145341 0.043558575 0.024523592 -0.05255525 0.022146529
-0.05979866 0.02687486 -0.064102344 0.030678626 0.033536468 0.031194577 -0.074953794 0.06216081
0.07388556 -0.052549034 0.06749534 0.053079043 0.019307366 -0.047207467 0.057338666 0.06334238
-0.06835443 -0.030911678 0.04977707 -0.026374249 -0.010552273 0.04070608 0.029273354 -0.02933292
0.01781224 -0.01299087 0.058567747 -0.026504772 -0.06126621 -0.051756475 -0.076360546 -0.0011045437
0.076657854 0.008068021 -0.0023883365 -0.014986204 0.04346408 0.061013047 -0.021512156 -0.060099784
-0.005253169 0.04694017 -0.004913972 0.039154857 0.0105619235 0.03404189 0.037693996 0.07054976
-0.028962236 -0.010502396 -0.021519808 -0.03530088 -0.03372007 -0.06330822 -0.006471 0.0015561014
0.02020446 0.032407243 0.045353506 0.022469666 0.075779065 0.010066763 -0.080658205 -0.005264211
-0.0574967 0.057714257 -0.022181567 0.038041007 -0.04307054 0.05460532 0.04634635 0.022887113
0.07326854 -0.040742185 -0.03603007 -0.05241255 0.064360805 0.0451852 -0.0662844 -0.029334722
-0.001280397 -0.048796356 0.044956632 -0.060751803 -0.034909114 0.056083053 -0.032427832 -0.06455813
-0.060396317 0.02653762 0.077445604 0.0034199767 0.010019163 -0.069528595 0.0022614915 -0.009105191
0.01138882 0.07132645 0.024507083 -0.00880866 0.052377205 0.041970298 -0.020949274 0.003191472
0.05396288 -0.058099005 0.06593126 0.027591161 0.017040767 -0.026658235 -0.014407117 -0.020736283
0.043577284 -0.06208192 -0.06251556 -0.02840825 0.023812182 -0.032506175 0.016409831 -0.06344684
0.054754727 -0.037099376 0.012396248 -0.036137555 0.036012065 -0.007971384 -0.019059295 0.04768334
0.04829982 0.014857465 0.035032243 -0.0032325904 -0.04730894 -0.018608607 -0.024143657 0.00719751
0.02338333 -0.008596376 0.009291898 0.019512592 -0.06775273 -0.06847067 0.05861972 0.021444904
0.073470056 -0.011343313 -0.06833546 0.013596004 0.016062168 0.044706307 0.020024082 0.0038578636
-0.031050818 -0.039970372 -0.029288217 -0.023225892 -0.041944347 -0.079928294 -0.046155736 -0.05945879
0.06798717 -0.023707086 0.08177167 0.061883852 -0.014613067 -0.06279953 -0.034437798 -0.026707547
-0.037380073 0.035375 0.019550087 -0.012144995 -0.057308994 0.03422554 0.054842014 0.046164185

conv2.bias f4 [128]
00000000: 5453 95bd 8dbd 453c a7b3 af3c 2d9c 823c
00000010: 1c61 0bbd 2ae7 08bd beab 9b3d cf78 24bd
00000020: a5d0 2c3d b54b 5abc 32c0 4f3d d59d 7ebd
00000030: 7e8a 67bc 8963 93bc d79a 36bd 5241 42bd
00000040: 967d 623d e19d d03b f472 8abd bb62 21bd
00000050: 1497 163d 7eb4 203d b278 98bd 9c52 213d
00000060: 26a4 5a3d ed48 843d 413b 6e3d a4f7 803d
00000070: 6798 5fbd cf19 6a3d 74e9 1fbc 261d d7bc
00000080: 5ba1 5a3c 1ed7 813d cf3b d9bc ac5e 0e3d
00000090: 18c0 d83c 7d67 04bd a7dd 123b c29d 213d
000000a0: 7334 e83c bd2f 01bc 8f35 20bd 20ac 51bd
000000b0: 7e5f b73c 888f 583d 8bfb 063d 3bb2 19bd
000000c0: 7704 a23b cb26 c9bb 5b79 2c3d 6ad5 2bbd
000000d0: fd39 1ebd 9d6f 0b3c 6b4b 013d b4cd ddbc
000000e0: b24f c3bc e539 95ba f977 9c3d 0c28 5d3d
000000f0: fbb4 12bd 3b44 573d 2c57 8ebc 05a9 4c3d
00000100: ac5c 763d b44d 8e3d 00e1 7f3d fb48 ffbc
00000110: 97f6 d3bb f601 03bd 1c76 943d 4ca6 f33b
00000120: 5af7 83bd 1b31 2b3d 13be 2fbb 857a 463d
00000130: 9617 9a3c ff54 2ebd 5953 9cbb 250f 4c3d
00000140: c37e 233d 5d99 13bd b1ad b4bd a854 da3b
00000150: c9d1 683d 8d3a 2ebd 54ee 98bd 8189 053d
00000160: 48d8 4abd be52 0c3c e5dd 29bd 13ea 0abd
00000170: bceb 4abd 89bd 8dbc be33 76bc aa45 903c
00000180: 70e9 3fbd dc2d 243d 8f8e 75bd 9c91 7e3d
00000190: 3be9 413a 9102 e53c a044 9dbd 32e3 2dbd
000001a0: 9cad b93b fdaa 0cbd 1726 48bd a54d 22bd
000001b0: d70e 22bc 7dd0 823c e253 06bd f44b ecbc
000001c0: c10f e5bc e80e 2dbd fc69 55bc 6912 8e3d
000001d0: e6aa 103d 96d0 4e3c f88d b5bd 8261 87bd
000001e0: 299b 463d ec03 9c3d acb2 8dbd a61d 3abc
000001f0: 1298 59bd 3a94 09bd 7f67 a0bc ad04 683c
-0.07291284 0.012069118 0.02144797 0.015943611 -0.034028158 -0.03342358 0.076011166 -0.040154275
0.042191166 -0.013323714 0.0507204 -0.06216224 -0.01413214 -0.017991798 -0.04458126 -0.047425576
0.05529555 0.006366477 -0.06760207 -0.039400797 0.036765173 0.03923463 -0.07444896 0.039385423
0.0533792 0.06459222 0.058161978 0.06297234 -0.0545887 0.05715352 -0.009760249 -0.026259016
0.013344134 0.063398585 -0.026517777 0.034758255 0.026458785 -0.032325257 0.0022409947 0.03945709
0.028345322 -0.007884917 -0.039113577 -0.05118954 0.022384401 0.052871257 0.032954734 -0.03752349
0.00494438 -0.0061386577 0.04210792 -0.041951574 -0.03862952 0.008510497 0.031566065 -0.027075626
-0.023841713 -0.0011385052 0.076400705 0.05399327 -0.035817128 0.052555304 -0.017375551 0.049965877
0.060146973 0.069484144 0.062470436 -0.03116273 -0.006468605 -0.031984292 0.0724909 0.0074355956
-0.06443663 0.041794877 -0.0026816174 0.048456687 0.018810075 -0.042561527 -0.004770678 0.04981913
0.03991581 -0.03603493 -0.088221915 0.006662924 0.05684069 -0.042536307 -0.074673325 0.032601837
-0.049522668 0.008564649 -0.04147138 -0.033914637 -0.04954122 -0.017302291 -0.015026985 0.017611343
-0.046853483 0.040082797 -0.059950408 0.062150583 0.000739712 0.027955325 -0.07679105 -0.042453
0.005666448 -0.034342755 -0.04886445 -0.03962483 -0.009891233 0.015968556 -0.03279484 -0.028844811
-0.027961614 -0.042250544 -0.013025757 0.06937105 0.03531923 0.012622973 -0.08864969 -0.06610395
0.048487816 0.076179355 -0.069188446 -0.011359608 -0.05312354 -0.033588625 -0.0195806 0.014161271

dense1.weight f4 [50, 768]
00000000: cc25 133d c074 143c 8442 41bd fd61 2c3c
00000010: 93d6 30bc bcf6 283c 0c47 e8bb 5390 163c
00000020: 65b0 9ebc cbfa 62bc 00b2 acba 71a6 473d
00000030: 17f1 53bc 4c6f 733c 6f60 8b3c 1abc b7bb
00000040: 763c 85bb 10bd 443a 4ca6 303c 5c1e 293d
00000050: 76fd 14bc 4624 2b3c fbe6 dd3c 9014 103c
00000060: 1bfc d33b f52c cabc 1fec 06bd 49c0 c5bb
00000070: 807d 6abc 6fdf a8bc 5306 a23c bc3b cebc
00000080: 0813 9a3c 4caf fdbc b4a7 4dbc 0d87 04bd
00000090: 0ef7 3bbc e0d1 2ebd baed aebc c20a 313d
000000a0: a7aa 953c eda1 433c 4947 22bc e88b 473c
000000b0: 0c51 ee3a a67f 2abd b8a8 07bd e68d 5fbc
000000c0: 4cc9 6ebb f5ea c13c c092 1dbc 237e 59bc
000000d0: a356 58bc b643 d4bc 7f08 16bd 46d0 dfbc
000000e0: dad9 cb3b 1f27 203d 753e 303d 387e 283c
000000f0: 928f 9f3c 254d db3c ae4f 013d defb ccbc
00000100: 8cc5 d53c f992 dbbb d9d7 f53b 5744 6b3c
00000110: 7543 3d3c 9a9b bebc 3637 9cbc 227e 4b3c
00000120: bd17 22bd 5cc7 8f3c 9f41 143c b095 583c
00000130: 6189 863c fa3d f7b9 d826 713c 45bc 30bd
00000140: 8261 05bd 8363 d83c a69d d83c 7539 a5bc
00000150: 2da6 ee3c e31d 763b 2fb9 9c3c 3733 3dbc
00000160: 5bd1 a0bc 0d85 4cbd 79d6 92bd 4c63 0cbc
00000170: 6aba cb3c 12ec f439 594c 77bd 4ddf 27bd
00000180: 2576 3fbc c481 df3a 431f 91bc 8394 3d3b
00000190: a822 20bc fe98 dcbc 2d96 073d 8b5b fe3c
000001a0: 20c4 89bc 8ce1 393c 3c81 babc 41c1 25bd
000001b0: 12e1 f83c 6f80 54bc 134f a03b e793 833a
000001c0: db9b 66bd da59 60bd 29b4 b83c 8fbc 793c
000001d0: 9f1e 733b ae4a bc3c 20b4 853b f816 9ebb
000001e0: 9b3d e03c 6208 5abb f58f bf3a a888 98bc
000001f0: c64c f93c 8620 06bd 15c0 783c c15a 31bb
00000200: dd99 b9bc 3c65 513c 8a49 94bc dd2e febc
00000210: 1b79 55bc ad4c 20bd 0d02 c6bc 75d3 873c
00000220: 1989 40bd 5302 3abd b5f2 913d 729d 853d
00000230: 3efd 303d ebd5 a53c d320 99bc 8524 f4bd
00000240: 6ff6 c53c a55f 1c3d 48f5 22bc a9da 03bd
00000250: 38dc d03c c450 923c bfc1 533b 0112 0bbc
00000260: 2f56 0a3c ce78 113d 4e9a 533c 197c 91bb
00000270: 548d cf3b e79b d43c 9ef6 753c 5128 cabc
00000280: d886 27bd 9d8e 4cbd 7b9c f0bb e901 b73b
00000290: 80d4 c63c 3eae 92bc c16b 8a39 f846 283d
000002a0: 87ff fcbc 5189 8f3b 6900 ee3c 8121 09bc
000002b0: 02b8 933b e73b 853c f820 7dbc 069b bfbb
000002c0: 70cc d53c 4a8c 7aba 3c14 24bd be2b 3d3b
000002d0: d251 223d c8c6 2c3c d053 c93c 20d3 0abc
000002e0: bbf9 9e3b 1100 983c 8ccd e1bc a947 61bd
000002f0: 8177 abbc a5ea 0e3d 9237 b63c 543e 153b
00000300: c15b 4a3d 957b d6bc 0413 1e3d 7236 14bb
00000310: e948 26bc 13a2 8d3b 0e88 c43c 1f6c d0bc
00000320: cc79 0cbd 47f0 29bd bdf0 66bc b2bc a53c
00000330: 7f96 27bd 5323 7fbd dab9 873d 1e3c 09bc
00000340: 5dfc 90bd bb4d 95bd d0f6 d13c ddeb 4bbc
00000350: 0690 dcbc 88ab 2fbd ef3b f4bb 9f6e 4cbd
00000360: 82c0 f43c 268d 703c 6636 69bc 00ba 4a3c
00000370: 7241 b43c 74f7 3c3d 6204 17bd 4191 1dbc
00000380: cf54 cdbc 3a49 6a3c 6fef 843c cd3a cd39
00000390: eaf9 923c d309 b0bc a10a 0a3d ffcc dabc
000003a0: 4c2c c23c 33cd 3c3c b681 5fbc 92d4 fbbc
000003b0: 98b5 5bbc 473e 9cbc 564f 283d a75e 9b3b
000003c0: e6d0 50bc a145 503c 8085 1a3d 3e03 72bc
000003d0: 92e9 fa3c a9f5 0c3d 4e30 9bbc c6ba 4f3d
000003e0: 6223 0c3d 13ea 0dbc 4ce2 14bd 4e38 0dbc
000003f0: 0485 23bc 3dd5 8b3c a61b da3b 001a 0eba
0.035924718 0.0090610385 -0.047182575 0.010521409 -0.010793346 0.010312732 -0.0070885476 0.009189683
-0.01937122 -0.013853739 -0.0013175607 0.048742715 -0.012935898 0.014858078 0.017013757 -0.0056071403
-0.0040660454 0.0007504979 0.010781836 0.04128872 -0.009093633 0.01044566 0.02708768 0.008793965
0.0064692623 -0.02467964 -0.032940026 -0.006034885 -0.014312148 -0.020614354 0.019778406 -0.025174968
0.018807903 -0.030967377 -0.012552191 -0.032355357 -0.011472477 -0.04268062 -0.021353591 0.04322315
0.01826985 0.011940462 -0.009904691 0.012179352 0.0018182113 -0.04162564 -0.033119887 -0.013644671
-0.00364359 0.023671607 -0.009617507 -0.013274702 -0.01320425 -0.025911193 -0.036629196 -0.027320992
0.0062210383 0.03909981 0.043028314 0.010283999 0.01947764 0.026770184 0.03157013 -0.025022443
0.026095174 -0.00670087 0.0075025377 0.014359555 0.011551728 -0.023267556 -0.019069295 0.012420209
-0.03957342 0.017551117 0.009048848 0.013219282 0.01642293 -0.00047157687 0.014718734 -0.043148298
-0.032563694 0.026414638 0.02644236 -0.020169 0.029131973 0.0037554435 0.019131271 -0.011547855
-0.019631078 -0.049931575 -0.07169814 -0.008568596 0.024869163 0.00046715193 -0.060375545 -0.04098444
-0.011685883 0.0017052223 -0.017715102 0.0028927631 -0.009773888 -0.026928421 0.033102203 0.03104951
-0.016817153 0.0113452785 -0.022766702 -0.040467504 0.03038076 -0.012970074 0.004892239 0.0010038585
-0.05630098 -0.05477319 0.022546845 0.01524271 0.003709711 0.022984829 0.0040803105 -0.0048245154
0.027373126 -0.0033269157 0.0014615046 -0.01861985 0.030432116 -0.03274586 0.015182515 -0.002706215
-0.022656376 0.012780484 -0.018101472 -0.031028206 -0.013029362 -0.039135624 -0.0241709 0.016580323
-0.047005747 -0.045412373 0.07126371 0.06524171 0.04321026 0.020243606 -0.01869241 -0.11921028
0.02416536 0.03817715 -0.009946175 -0.032190952 0.025495633 0.017860778 0.0032311527 -0.008488179
0.008443399 0.0355156 0.012915207 -0.0044398424 0.0063339863 0.025953246 0.015012411 -0.024677427
-0.04090008 -0.049940694 -0.0073428727 0.0055849445 0.02427125 -0.01790535 0.00026401694 0.041083306
-0.030883564 0.004380383 0.02905293 -0.008369804 0.0045080194 0.016263915 -0.015449755 -0.0058473377
0.02609846 -0.0009557648 -0.04005836 0.0028865184 0.03962881 0.01054544 0.024576098 -0.008473188
0.0048515475 0.01855472 -0.027563833 -0.05499998 -0.020931007 0.034891743 0.022243295 0.0022772746
0.04940391 -0.026181975 0.038592353 -0.002261546 -0.010149219 0.0043222993 0.023990657 -0.025442181
-0.034295842 -0.041488912 -0.014095482 0.020231578 -0.04091501 -0.062289547 0.06627245 -0.008376149
-0.070793845 -0.072902165 0.025630385 -0.012446371 -0.026924144 -0.042888194 -0.0074534337 -0.049910184
0.029876951 0.01468209 -0.014234161 0.012373447 0.022003863 0.046134427 -0.036869414 -0.009617151
-0.025064854 0.014299685 0.016227452 0.00039144457 0.017941434 -0.02148906 0.033701543 -0.026709078
0.023702763 0.011523533 -0.013641765 -0.03074101 -0.013409995 -0.019072665 0.041091286 0.004741508
-0.012745118 0.012711913 0.03772497 -0.014771281 0.030628953 0.034413967 -0.018943932 0.05071523
0.03421343 -0.008661765 -0.036348626 -0.008619381 -0.009980444 0.017069453 0.006656128 -0.00054207444

dense1.bias f4 [50]
00000000: 04f5 2bbb 583a babb 9761 103d a393 663d
00000010: b662 91bc 106e b23c 61fd 84bc 8181 cebb
00000020: 766f a2bb 5562 293d a858 cbba f652 093d
00000030: f6bd 2e3d 3749 383d bbed 883c 8446 a1bb
00000040: 0369 5a3b 40a6 92bc 704e 983c d1eb 9cba
00000050: c5fa 893c 9dc3 b4bc 3555 2c3d 87e1 203b
00000060: 2660 d93c fc7c 22bc c2a6 d2bb 097a bf3c
00000070: ab9c e33b 4fa8 173d 036a 2f3b f822 903c
00000080: 2f8e 613c 797c 3bbc 0836 3f3d 6310 c33c
00000090: 8123 32bc 970d aa3c e5fe 163d 0fd1 f83c
000000a0: 1430 05bc 8ff8 2f3d 5b6b 3f3c fe2e d43c
000000b0: 3d19 ddb9 c599 813c 3a0e b73c 8f32 3a3d
000000c0: 89cd 593c 1274 debc
-0.002623857 -0.0056832246 0.03524932 0.05629314 -0.017747264 0.021780998 -0.016234102 -0.006302059
-0.004957135 0.041353542 -0.0015514093 0.033526383 0.04266163 0.044991698 0.016714921 -0.004921736
0.0033326752 -0.01790154 0.01859209 -0.0011972134 0.016843209 -0.022065932 0.042073447 0.0024548487
0.026535105 -0.009917494 -0.0064285705 0.02337362 0.0069461665 0.037025746 0.0026766069 0.0175948
0.013766809 -0.011443251 0.046682388 0.023811525 -0.010872723 0.020758433 0.03686418 0.030373124
-0.0081291385 0.042961653 0.01168331 0.025901314 -0.0004217121 0.015820393 0.022345651 0.045458373
0.013293632 -0.027154956

dense2.weight f4 [1, 50]
00000000: 261d adbd 3fdf e3bc 0b0b f7bd a3fa 04be
00000010: 5563 e43c 3540 f73d a30d e73d 32f1 8b3d
00000020: 8693 8abd b232 00be 4fe2 863d 876a f43d
00000030: 7e89 d13c 19c2 163e 581a f23c 7b02 063d
00000040: b91f ab3d e615 863d e4ef 003e 7b41 1a3e
00000050: 6700 ebbc 6766 a53c 5c3b e4bd 2ab0 0abe
00000060: 5d1c 533d 3fb3 833d 9bc5 5ebd 00d5 e5bd
00000070: 3508 12be 58c8 1d3d f20c d1bc ab8a 183e
00000080: 0315 11be 8e0a 363d 921d 89bd f649 183e
00000090: 1d19 9bbd ccb9 92bd 071f 4cbd abf6 b03c
000000a0: b617 1abe b7cd 00be d520 fcbd d8cf f53d
000000b0: 7bb0 e13c fd8d 61bd 69a6 b8bc 909d 60bc
000000c0: 822e 71bd 3096 ef3d
-0.08452825 -0.027816413 -0.12062653 -0.12986235 0.027879396 0.120727934 0.11281898 0.06833114
-0.06766419 -0.12519339 0.06586134 0.11934381 0.025578257 0.1472248 0.029553577 0.03271721
0.0835566 0.065471455 0.12591511 0.15064041 -0.028686715 0.02019043 -0.111441344 -0.13543764
0.05154072 0.06430673 -0.05438767 -0.11222267 -0.14260943 0.03852114 -0.025518868 0.14896648
-0.14168172 0.04444366 -0.06695093 0.14871964 -0.07573149 -0.07164344 -0.049834277 0.021601995
-0.15048108 -0.12578474 -0.1231095 0.12002534 0.027549973 -0.05506705 -0.022540288 -0.013709441
-0.058882244 0.11698568
