time_series_forecasting/saved_models/CNNForecastingModel/20-03-2024-001814_NO1_epoch_3.pt (torch, 260779 bytes, 7 tensors)

conv1.weight f4 [64, 6, 3]
00000000: 5929 813e f834 2f3e 9dae 2fbe 9a8c 263d
00000010: bd95 e6bd 2b56 543e fa8a 4bbe 6a12 0bbb
00000020: 7a6b 37be 6039 a2bd 7405 2fbe 3cb3 213e
00000030: 622b 09be 142c c3bd b065 543d 4c2a 67be
00000040: 357f ce3c a49d 103e db07 26be eef1 83be
00000050: b4e5 243d 77bf d23d 75be 1bbe f366 643e
00000060: 4b72 183e 10e6 813c 547c a83d cd5b 11bd
00000070: 581f a93d 6ba2 a33d f376 a8bd c132 d2bd
00000080: 089d 3dbe 8788 ec3d ab6c 2b3e 2b4d 093c
00000090: 1d97 963c b4db 303e 13ca ff3d 0e5b d2bd
000000a0: aab4 413e e493 1b3d e75c 923e 66f9 5f3d
000000b0: 5340 7f3a 6f7b 0abe 4104 083e f77c ea3d
000000c0: 0f2d 13be fd9b 5f3c 24b9 35be 5b98 09bc
000000d0: 6bd2 61bc 21f1 f33d d028 a5bd 9c0b 5bbd
000000e0: 67d9 70bd 946a 4b3d 04da 0a3e e98a 72be
000000f0: 6ff3 963b d0b2 ca3d bd78 f3bd 86c6 3cbe
00000100: c4a0 943d fa0f ae3d 9911 683e 0394 6a3e
00000110: 088f 313e c0ed 99bc 4693 013e 77cf 74be
00000120: 85f8 043d bc29 353d 2574 33be 5ca8 06bd
00000130: 700a b93d a545 623e 6312 7ebe 70af 09be
00000140: 1912 d1bd ffa6 99bd 244c a2bb 215e b53d
00000150: 8416 e9bd 3231 033a 8041 f93d acb5 6e3e
00000160: 9792 6ebd 6e20 ba3d 1e50 603d d681 de3d
00000170: d372 473e c51e 2bbd 374a 253d 106e 453c
00000180: a2ce 70bc dc8a 66bb 7020 7d3e fa2b 0fbd
00000190: 90f5 c4bd ab7a fa3d 9e8e 58be 61a5 353e
000001a0: 34ab be3c 028e 4e3e b459 f63c 315c 303e
000001b0: 8b5d 42be 9bcd 503e 0c47 3e3e dc96 e13b
000001c0: 2ed0 9dbc f6f4 08bd 73b1 293d a9d8 84bd
000001d0: 2e69 223e 35ac 313d 099e c7bd 191c f8bd
000001e0: 5f1e b3bd ccd0 b8bd f354 01be 4283 39be
000001f0: 5676 2bbe 3c81 363d ed4e 93bd 6ff7 adbd
00000200: 900a c13c b762 073e b6cd 0f3e 711b eebd
00000210: 0ded 21be 0378 823c 7eae 7cbe d712 983d
00000220: 9be8 2cbe 9939 163e 03c0 40be b669 1f3e
00000230: 86a0 7e3d 792a 2e3c fb3e b8bd f5ea cdbd
00000240: f3c7 693e b5da da3d 6f5b 653e 82cc 47be
00000250: 283d 093d 4684 ebbd 284b 0abd 062f 163e
00000260: 2747 62bd dab0 523e 3261 00be ee3f fbbd
00000270: 62a9 463e ad48 cc3d a154 fd3b 427a 703e
00000280: 6df7 24be faa1 963d eb40 3c3e afd1 d0bd
00000290: 94cb 853e 2836 ac3d 344f 693d 27ba 6fbe
000002a0: 430c ae3d de12 fb3c e36b 6c3e b351 b2bd
000002b0: df6a 1e3e dbf5 093e 0a04 1d3e a84d 43be
000002c0: 8e05 d3bd d7d1 43be 6ba6 28be 45a3 d23c
000002d0: e676 ec3d d92a 013d 0d96 183e 04ce 14be
000002e0: 69a4 3f3c 2efc 4bbe 8109 9fbd ac35 afbc
000002f0: 24c6 4c3e c85a fe3d 4966 6f3d 2d5d b4bd
00000300: 11eb febd bac5 013e 3ec3 63bc 9e2a 143e
00000310: 7eee 20bd fc72 febc e9ee 25be ff38 333d
00000320: b4e2 093e 9ef7 71bd 30da 543e 5ea8 6c3d
00000330: 1788 fd3d bc4e 6cbe 2f41 4e3e 3543 72be
00000340: 6a8d 453e 8012 44be 7958 f43d 15db 7cbd
00000350: 4f6c 17be 6ddc 453b 67db 65be b4de 5fbd
00000360: 2d7e 4b3e d4a0 1dbe 01b9 95bd e08c 02bd
00000370: 3c1a bd3c aaf3 a5bc 31b9 7abd 5a16 ddbc
00000380: 143b ecbd 8631 d33d 395b ecbd 8fad 0fbe
00000390: d144 8e3d cda2 14be a6a0 183d 11d1 413d
000003a0: 0c86 de3d 0337 a8bb 4c92 b3bd dc45 463e
000003b0: 7efa 6ebd f0a0 3fbe d785 1b3d 6861 1cbe
000003c0: f639 90bc e385 673e 3795 1bbe dc23 09bd
000003d0: ae86 0bbe 1155 083d 772d 403c 3c19 efbd
000003e0: 098f ec3b f2a7 27bc 37ef 373e 3259 29be
000003f0: 324a 11bc 7ba4 d23c de23 1dbe 9efd 3dbe
0.25226858 0.1711005 -0.17156453 0.04066143 -0.11259029 0.20735995 -0.19877234 -0.0021220692
-0.17912093 -0.079211 -0.17091924 0.15791029 -0.13395455 -0.095298916 0.05185479 -0.22574729
0.025207141 0.14122635 -0.16213934 -0.25770515 0.040258124 0.10290425 -0.15209372 0.22304897
0.1488735 0.015856773 0.08226839 -0.03548794 0.082579315 0.07989963 -0.08225813 -0.10263587
-0.18516934 0.11549478 0.16740672 0.008380215 0.018382603 0.1727131 0.124897145 -0.102712736
0.18916574 0.037982836 0.28586504 0.054681204 0.0009737063 -0.13523649 0.13282873 0.114496164
-0.14372657 0.01364803 -0.17746407 -0.008398141 -0.013783078 0.11911226 -0.08064425 -0.05347787
-0.05880108 0.049662188 0.13559729 -0.23685803 0.0046066563 0.09897387 -0.118882634 -0.18435106
0.07257226 0.08499141 0.22662963 0.22908024 0.17339718 -0.018790126 0.12653837 -0.23907267
0.03246357 0.044229254 -0.17524774 -0.032875404 0.09035194 0.2209688 -0.24811701 -0.1344583
-0.1020853 -0.07502555 -0.0049529243 0.08855844 -0.11381248 0.0005004584 0.12170696 0.2331149
-0.058245268 0.09088217 0.054763906 0.10864608 0.19477396 -0.04177739 0.04035398 0.012050167
-0.014697703 -0.0035177981 0.24719405 -0.03495405 -0.0961715 0.12230428 -0.21148154 0.17738868
0.023274995 0.20171359 0.03007207 0.17222668 -0.18980996 0.20390932 0.1858179 0.006884439
-0.019264307 -0.033436738 0.041428994 -0.06486637 0.15860435 0.04337712 -0.0974694 -0.12114734
-0.08746027 -0.090242 -0.12630062 -0.18116477 -0.1674436 0.04455684 -0.07192788 -0.0849446
0.023564607 0.1322125 0.14043316 -0.11626328 -0.15813084 0.015926367 -0.24675938 0.074254684
-0.16885607 0.1467041 -0.18823247 0.1556767 0.062164806 0.010630243 -0.089963876 -0.1005458
0.22830181 0.10686246 0.2239816 -0.19511607 0.03350559 -0.114998385 -0.03376308 0.14666376
-0.055243637 0.20575276 -0.12537077 -0.12268053 0.19400552 0.09974799 0.007731036 0.23484138
-0.1611001 0.07355113 0.18384139 -0.10196244 0.2613188 0.08408767 0.0569603 -0.23410855
0.084984325 0.030648645 0.2308803 -0.08706989 0.15470456 0.13472693 0.15333572 -0.19072592
-0.10303794 -0.19123016 -0.16469733 0.025712619 0.115461156 0.031535003 0.1490099 -0.14531714
0.011696913 -0.19920418 -0.077654846 -0.021387897 0.1999746 0.12419659 0.058447156 -0.08806834
-0.12447179 0.12673083 -0.01390153 0.14469382 -0.039289944 -0.031060688 -0.16204418 0.043755528
0.13465387 -0.059074037 0.20786357 0.057777755 0.12379473 -0.2307691 0.20142053 -0.2365845
0.19292226 -0.19147682 0.11930937 -0.06173237 -0.1478741 0.0030191198 -0.22446977 -0.054655746
0.19872351 -0.15393382 -0.07310677 -0.03187263 0.023083799 -0.02025779 -0.06121177 -0.026988197
-0.11534706 0.1031218 -0.11540837 -0.14031051 0.069467194 -0.14515229 0.03726258 0.047318522
0.10865411 -0.005133511 -0.08768138 0.19362587 -0.058344357 -0.18713737 0.037969436 -0.15271533
-0.017605763 0.22609667 -0.1519364 -0.033481464 -0.13625595 0.03328425 0.01172959 -0.11674735
0.0072191996 -0.010232912 0.17962347 -0.16537932 -0.008867787 0.025713196 -0.15345713 -0.18553779

conv1.bias f4 [64]
00000000: 61b7 7b3e 88b9 0e3d 7ad5 11be c092 c8bd
00000010: b048 123d 4583 393e c4d8 123e 4936 27bc
00000020: db25 8bbc 6c34 483d 3509 12be 2588 9e3a
00000030: 55f5 9a3d 29ab 24be 77ab 003e e781 893d
00000040: 3157 f03d 7d64 833e dfcf 843d 2750 483e
00000050: 1745 003e 3849 19be 26e6 1d3c 8539 81bd
00000060: 1f3c 9b3d beb9 26be 5a06 12be 0b65 993c
00000070: d145 573e 834b d4bc ed3d 093d aabd 583e
00000080: 4500 3abc b255 76bd 260b 713d c88c aa3d
00000090: ea50 35bd 5283 66bd 6927 8abd 2318 853d
000000a0: dd86 a63d d6a2 683e 1d94 34be a6ca 393e
000000b0: cad9 2fbe f702 00be 0038 5f3d ca08 7dbd
000000c0: 234e 243e 580f 2abe 8e80 02bd 6a3a dd3d
000000d0: 5686 29be 796e 9bbd 8991 603e 00e5 503e
000000e0: b461 2c3e 8408 bd3d 6435 13be d26d 4a3d
000000f0: 30a8 9b3d 5f6d 97bd a9f1 333d 5617 5a3c
0.24581672 0.034844905 -0.14241591 -0.09793615 0.03571385 0.18116482 0.14340502 -0.010205814
-0.016985824 0.04887812 -0.14261325 0.0012095018 0.075663246 -0.16080917 0.12565409 0.0671423
0.117353804 0.25662604 0.06484961 0.19561826 0.12526356 -0.14969337 0.009637391 -0.06309799
0.075798266 -0.16281793 -0.14260235 0.018724939 0.21022727 -0.025914913 0.033506323 0.21166101
-0.011352603 -0.06014032 0.058848523 0.08327633 -0.04426662 -0.05627758 -0.06745798 0.06498744
0.08131192 0.22718367 -0.17634626 0.1814371 -0.17172924 -0.12501131 0.054496765 -0.06177596
0.16045432 -0.16607416 -0.03186088 0.10802157 -0.16555151 -0.0758943 0.21930517 0.20399857
0.16834146 0.0923014 -0.14375836 0.04942114 0.076004386 -0.07393908 0.043931637 0.013311228

conv2.weight f4 [128, 64, 3]
00000000: b322 bcbc 9265 9a3d 9f2c 85bd 84a0 16bd
00000010: b5eb 0e3d 55bd 91bd 6009 2f3d 01cb 6fbb
00000020: cfe7 21bd de22 84bd 4e2c 98ba f933 dabc
00000030: 122e 833c 6f3e ffbc 833c 70bd 0c38 62bd
00000040: 551f 2a3d f6ee 963c 1733 2dbd e186 32bd
00000050: dae1 e7bc 9ce8 fabc 2cc7 243d 5a1f 82bd
00000060: 6745 8e3d 0aa7 1c3b 88d9 113d 36e5 6fbd
00000070: c8e2 133d 56d3 923d 7f40 39bc b57c 203d
00000080: 57e4 943d 9942 a0bd ed6a 89bd f2aa 03bd
00000090: 5f7c 46bd 93cb 20bd 4093 0c3d 0488 36bd
000000a0: 236c aa3d c387 38bd afc3 873d 9d91 2dbd
000000b0: dc55 4ebc 3df4 f6bc e185 493d bfd4 b7bc
000000c0: 2b22 86bd c5c7 973c 5c77 2b3d 25d1 74bd
000000d0: 5940 39bc d556 5bbd 55f2 07bd f8fb 55bc
000000e0: abff 68bd f33a 443c 22e9 c2bc 7b5a 9f3d
000000f0: aeea 973c aa31 3e3d 5135 663d ddaf 81bc
00000100: 4ff6 94bd 8943 c2bc 0ffa 533d 174d f73c
00000110: 63ed 93bc 54a9 a1bd 602b a3bd 6811 82bc
00000120: 90db 8c3c 2908 5f3c f162 ff3c f706 edbc
00000130: fcfd 293d 0a8e d63c a0a6 64bd 3a86 b93c
00000140: c545 6fbd 55e3 d63c 10b6 89bd cf74 ec3c
00000150: 2d6a 053d 7cd0 fe3c aef6 96bd 218a 803d
00000160: 2a9e 993d 0e2e 50bd 7e35 863d 43a3 523d
00000170: 5802 9e3c 6b36 47bd e81c 703d eb8d 863d
00000180: f95e 9bbd 0bf6 23bd 1d0f 3d3d 53d9 dabc
00000190: 7752 2bbc 889e 253d e213 ec3c 0520 e0bc
000001a0: 42fc aa3c 53e4 4abc 5487 743d 254b cfbc
000001b0: 3cc5 82bd 1815 47bd 5b71 96bd 5200 a5ba
000001c0: cedb a03d 5036 3b3c e2f2 27bb 0b15 5abc
000001d0: 6ba2 363d 284a 753d eee1 a9bc f993 6bbd
000001e0: 6bf4 96bb 6dad 3f3d 7497 3bbb 1baf 1f3d
000001f0: dea4 423c 0f42 133d 1a95 033d 9d3b 8b3d
00000200: ff38 f5bc 098c 4cbc 95d0 a9bc 03a8 07bd
00000210: ac3b 10bd 4a68 7ebd 5354 87bb 1ce5 09bb
00000220: 1955 a43c 411e 0a3d 0d0f 3d3d edfb bb3c
00000230: 38ab 9c3d 33ea 963b 014f b1bd 0068 fbbb
00000240: 2008 6cbd b7e8 753d d5f7 a4bc 0aa3 0f3d
00000250: cfed 2fbd 6be8 6a3d e1f4 3d3d d36e e13c
00000260: 0e0c 9e3d 9923 2bbd da2a 1bbd 0b71 58bd
00000270: cd98 7e3d 5562 323d f46e 86bd 2bd6 ecbc
00000280: e2ee 703a 6ba2 3bbd 7156 303d 53a3 6fbd
00000290: a217 02bd 51db 663d 154d ffbc 696e 81bd
000002a0: 69a4 79bd c64e ce3c cf6f a03d 7eac d8bb
000002b0: 5a01 0abb 9de6 9dbd 6e36 61ba b9aa 2ebc
000002c0: 2174 283c 2e5c 8f3d 1978 cb3c a5b2 d8bb
000002d0: e7f3 503d 43f2 283d 3359 b0bc 20b0 96ba
000002e0: c472 6a3d fa6d 5cbd 1ba6 833d 3bf5 c33c
000002f0: 230a 873c ee85 ffbc 3d34 bbbc 880c c7bc
00000300: 771d 303d 237d 80bd 5cc7 7cbd 62ea d9bc
00000310: 1aa2 d33c ac69 04bd 288f ce3c e40d 7bbd
00000320: 5440 593d 7862 29bd f8c9 043c 97fa 24bd
00000330: 96c1 133d 8e27 f2bb 059a 8cbc 974f 3f3d
00000340: 6a7e 383d 48d9 773c ced1 083d 1833 a4bb
00000350: 96bf 49bd c943 a3bc 4965 c9bc fad0 fd3b
00000360: c3a1 f03c cfd3 17bc 7742 2d3c 7536 b43c
00000370: 5600 8fbd 4dc8 94bd 5a99 783d 6fdd c73c
00000380: 04c6 a13d c5b3 64bc 3631 90bd e5b2 423c
00000390: 6e74 803c cc0b 443d 9196 bd3c 8c41 ba3a
000003a0: 0626 f3bc c167 05bd f642 fcbc 2aba c9bc
000003b0: 9c0c 33bd 6d4c a5bd ff6f 2ebd 1cd8 62bd
000003c0: 74cd 8b3d 055c b7bc b2dd a83d e5f5 833d
000003d0: c416 54bc 7919 82bd 3112 17bd 2743 debc
000003e0: f244 04bd a9bd 1b3d 680f ae3c 06b6 15bc
000003f0: c9c9 60bd 1060 183d c8e0 683d 5ba2 3b3d
-0.022965765 0.07538904 -0.065026514 -0.036774173 0.034892756 -0.0711619 0.04273355 -0.0036589506
-0.03952771 -0.06451963 -0.0011609884 -0.02663611 0.016013179 -0.0311577 -0.05865146 -0.05522923
0.041533787 0.018424492 -0.04228505 -0.04358566 -0.028305937 -0.030628495 0.040229008 -0.06353636
0.06946831 0.0023903274 0.035607845 -0.058568202 0.036104947 0.071692154 -0.011306881 0.03918143
0.07270115 -0.078252025 -0.067098476 -0.032145448 -0.048458453 -0.039256644 0.034320116 -0.04456331
0.08321407 -0.045051347 0.066291206 -0.042375196 -0.012593713 -0.030145759 0.049199942 -0.022440312
-0.06549486 0.018527875 0.041861877 -0.05976977 -0.011306846 -0.053549606 -0.03319009 -0.013060562
-0.05688445 0.011976945 -0.023792807 0.0778093 0.018544521 0.046434082 0.05620319 -0.015830928
-0.07273542 -0.023713844 0.051752146 0.030188126 -0.01805753 -0.07893625 -0.079672575 -0.01587744
0.01719454 0.013612785 0.031175109 -0.028933985 0.041501984 0.026190776 -0.05582297 0.022647012
-0.058416147 0.026231447 -0.06724179 0.028864292 0.03257196 0.031105272 -0.07371269 0.06276346
0.075008705 -0.05082517 0.065531716 0.05142523 0.019288227 -0.04863588 0.058621317 0.065700375
-0.07586474 -0.040029567 0.04615699 -0.026714956 -0.010456673 0.04043439 0.028818075 -0.027359018
0.020872239 -0.012383538 0.05969937 -0.025304386 -0.06385276 -0.0486041 -0.073458396 -0.0012588596
0.078544244 0.011426523 -0.0025626947 -0.013310681 0.044588488 0.059885174 -0.020737614 -0.057514165
-0.0046067736 0.04679625 -0.0028624209 0.038985353 0.011880128 0.03595167 0.032124616 0.0679848
-0.029934404 -0.012484559 -0.020729342 -0.033119213 -0.035213158 -0.062111177 -0.0041299253 -0.00210411
0.020060109 0.03372026 0.04615693 0.022947276 0.07649845 0.0046055554 -0.08657647 -0.00767231
-0.057624936 0.060036387 -0.020137707 0.035067596 -0.0429514 0.057350557 0.046376113 0.027518665
0.07717143 -0.041781995 -0.037882663 -0.05284218 0.06215744 0.043550808 -0.065641314 -0.028910717
0.000919087 -0.04580919 0.043051187 -0.058505367 -0.03176082 0.0563615 -0.031164685 -0.06319887
-0.06094781 0.025184046 0.07833826 -0.0066123595 -0.0021057935 -0.077100016 -0.00085911795 -0.010660821
0.010281594 0.07000004 0.02483754 -0.006613093 0.051013853 0.041246664 -0.021526909 -0.0011496581
0.057238355 -0.05381582 0.064281665 0.023920646 0.016484326 -0.031191792 -0.022852058 -0.024297968
0.04299685 -0.06273868 -0.06171356 -0.02660102 0.025834132 -0.03232734 0.025214747 -0.061292544
0.053039864 -0.041353673 0.008104794 -0.040278044 0.03607329 -0.007389969 -0.017163286 0.046706762
0.045042433 0.0151274875 0.03340321 -0.0050109737 -0.049254976 -0.019929783 -0.02458443 0.007745859
0.029374009 -0.009266808 0.0105749285 0.021998623 -0.06982486 -0.07264767 0.060693122 0.02439758
0.078990966 -0.013958876 -0.07040636 0.011883472 0.015680518 0.047862813 0.023143085 0.0014210208
-0.029681217 -0.03256965 -0.030793648 -0.024624903 -0.043713197 -0.08071218 -0.042587277 -0.05538188
0.068262964 -0.022382746 0.0824541 0.06443385 -0.012944881 -0.06352515 -0.036882583 -0.02713163
-0.032292314 0.03802267 0.02124758 -0.009137636 -0.054879937 0.037200987 0.056854993 0.04580913

conv2.bias f4 [128]
00000000: e494 94bd 4dd1 553c 9100 b23c 6d98 873c
00000010: f1bf 04bd 334c 08bd 08da a13d 9519 29bd
00000020: 0593 2e3d f1a4 43bc 35ab 4f3d 9241 7ebd
00000030: 7aef 61bc 7a45 97bc 2d3b 3cbd 4af7 3bbd
00000040: 69f6 6b3d 0557 bd3b 02d7 90bd 0912 28bd
00000050: 1f4e 143d de67 203d b360 96bd d8e1 143d
00000060: 274e 5c3d e326 833d a98f 6d3d 40e9 7c3d
00000070: 952d 5bbd a1a1 693d 6c71 fdbb 0562 c4bc
00000080: 2be3 653c 15e0 843d b23e c9bc 9883 0d3d
00000090: 97ce dc3c 3596 f4bc f6d1 3d3b 90c7 263d
000000a0: 2873 e03c 0e9d d3bb 040b 24bd 0a68 4abd
000000b0: 0a9b b43c 3d37 603d a122 073d 26e4 20bd
000000c0: ecbc da3b fd36 efbb aab4 303d d23a 25bd
000000d0: f28c 1ebd 1152 133c 48ab f73c 0ce7 d3bc
000000e0: d779 bcbc 8749 8ab9 4a3c 9e3d c164 603d
000000f0: afdc 14bd 1953 5d3d 9a5c 82bc 63ea 443d
00000100: 3b71 783d 9943 8f3d 98f3 7d3d ac3f f5bc
00000110: b18a dcbb 1246 fdbc 2b7d 8f3d f041 d33b
00000120: e5cd 82bd 2a34 283d 46b4 30b9 2e40 433d
00000130: e818 aa3c ad22 35bd 5f10 1bbb 0dcc 4d3d
00000140: 734b 243d eb47 13bd 1975 bdbd aece d43b
00000150: c4a5 653d 77d5 2fbd 8061 97bd 4be2 013d
00000160: 5ea3 4cbd 801f f83b d46d 24bd 85b9 10bd
00000170: ff74 75bd c77e 82bc 3eea 7ebc 9c90 993c
00000180: 7b31 41bd ecf9 1c3d b85f 7dbd 92d2 773d
00000190: 2586 dd3a 4119 e43c 4a2a b0bd a507 2dbd
000001a0: ce75 c13b 2d32 11bd d72d 4fbd 6a0d 20bd
000001b0: 7880 2bbc 8c60 503c deb4 08bd eb09 d4bc
000001c0: ad75 fbbc 7c2b 2bbd 534b 8bbc 33c9 903d
000001d0: 3c8b 073d 88a3 623c f001 c5bd 9b6f 86bd
000001e0: 47a3 343d 2b05 9e3d b8d2 8cbd c4e4 6cbc
000001f0: 259b 5abd 887f 0cbd aecc 82bc 3317 853c
-0.07254961 0.0130503895 0.021728786 0.016552174 -0.032409612 -0.033275794 0.07902914 -0.041284163
0.042620678 -0.011941181 0.050700385 -0.06207425 -0.013790006 -0.018465746 -0.045954872 -0.04589013
0.057608042 0.005778196 -0.070722595 -0.041032825 0.036207315 0.039161555 -0.07342663 0.036348194
0.05378547 0.064039014 0.057998333 0.061745882 -0.053510267 0.057038907 -0.007734468 -0.02397252
0.014031212 0.06488053 -0.024566028 0.034549326 0.026953978 -0.02985678 0.0028964258 0.04071766
0.02739866 -0.0064579314 -0.040049568 -0.049415626 0.022046585 0.05474018 0.03299201 -0.03928008
0.0066753533 -0.0073002563 0.043141045 -0.0403393 -0.038708635 0.008991734 0.03023304 -0.025867008
-0.023007317 -0.00026376193 0.07726343 0.054783586 -0.036343273 0.054034326 -0.015913296 0.04807509
0.06065486 0.06995315 0.061999887 -0.029937588 -0.0067304005 -0.030917201 0.07006296 0.0064470693
-0.063869275 0.041065373 -0.00016851825 0.04766863 0.02076383 -0.044222523 -0.002366088 0.050243426
0.040111016 -0.03595726 -0.0925085 0.0064943647 0.05606629 -0.042928185 -0.073916435 0.03170995
-0.049960487 0.0075721145 -0.040143803 -0.035333175 -0.05992603 -0.015929593 -0.015558777 0.018745713
-0.04716633 0.03832428 -0.061858863 0.06050355 0.001690094 0.027844073 -0.08601816 -0.04224362
0.005903936 -0.035448242 -0.050580826 -0.039075293 -0.010467641 0.012718331 -0.033375613 -0.025883636
-0.03069576 -0.041789517 -0.01700369 0.07069626 0.03309177 0.013832934 -0.0961951 -0.06564256
0.044101026 0.077158295 -0.06876129 -0.014458839 -0.053370614 -0.03430131 -0.01596674 0.016246414

dense1.weight f4 [50, 768]
00000000: 6f73 293d 089d 2e3c 04e8 3bbd 41dc 843c
00000010: fdb8 e8ba ed0e 3d3c 15d4 16bc 0611 d83b
00000020: 57be acbc 80f1 6ebc ffda fcba ffea 493d
00000030: 8bca 1abc 9d35 633c 6d37 723c 84df 00bc
00000040: edff afbb 9d97 033a 52af 1a3c 84b5 263d
00000050: 7cfd 29bc eac6 363c 1911 ca3c 30b4 b03b
00000060: b4ef 4f3c 01df b4bc 2312 27bd e3b5 2dbc
00000070: ccdd 7cbc cfb4 88bc a670 bd3c f343 a5bc
00000080: 5f0a 883c c445 03bd f63e a0bc 1c37 31bd
00000090: 0aab 5abc 7053 34bd 77fc 99bc e854 343d
000000a0: b745 903c 28c5 303c c02f 15bb 5e4d 843c
000000b0: ca2f a83b 54d7 1ebd 4d76 fabc e6f1 88bc
000000c0: db5b faba cfd9 e53c 268c bbbb 4f20 15bc
000000d0: d4a2 77bc 750e 17bd 39a2 08bd 8f59 83bc
000000e0: 3a80 1a3c ac63 1a3d 01f8 283d c500 ea3b
000000f0: 7baf a83c 35ed c83c 3eef f43c 8be5 d0bc
00000100: 213d d53c 822c 13bc 02cf b43b 60b2 4c3c
00000110: b73f 3a3c a875 bfbc 0dcb a1bc 9afd 233c
00000120: 5eb6 0ebd 4710 ab3c d938 713c 642d 993c
00000130: a8b9 863c e4ec 4a3a 4026 6e3c 38f1 44bd
00000140: 89b2 2fbd 7060 f03c fd2a d93c 7ee8 9ebc
00000150: 93ee 033d a488 9d3b 1df3 b53c a64b 78bc
00000160: 08b6 04bd 6984 77bd 7929 afbd 36f5 8fbc
00000170: e731 303d 4900 daba 0fb0 94bd 9e39 5cbd
00000180: ab97 01bc 7262 093b ec36 91bc 3cc9 293b
00000190: 101c 50bc faf2 e7bc 899e 1e3d 9974 ed3c
000001a0: 82cd 79bc 2d86 0e3c 8e5d e9bc 934b 5dbd
000001b0: a38b d53c 2104 63bc 7b5f 493b 1d91 063b
000001c0: e654 90bd db85 aabd 968f a93c 27ab 763c
000001d0: a16a 883b fbdc bc3c 8fa4 ae3b ea7d eabb
000001e0: 7540 0f3d b6cb 1ebb 861b aeba a00c 88bc
000001f0: 1120 133d 26c5 05bd 4259 473c f552 89bb
00000200: 3da9 adbc 7e9b 6c3c f693 91bc f949 09bd
00000210: 3f90 c6bb de27 30bd 2f2a e9bc 2886 893c
00000220: d251 55bd ee85 87bd de5e b03d e4de 683d
00000230: f811 203d 5e0f ac3c 7bbe 75bc 3336 0fbe
00000240: ba80 ca3c dfdc 223d 0007 04bc 9155 04bd
00000250: fc46 c23c 59f3 8f3c c6bd 883b 7912 19bc
00000260: b4f4 e33b 6a0a 0e3d 1b8c 333c 1566 c7bb
00000270: 59c4 7b3c 0caf ec3c 41da 993c a905 b4bc
00000280: e376 5dbd e579 66bd cd33 11bc b5cf 383b
00000290: d70a bf3c 574c 9cbc 02e9 edb9 e136 303d
000002a0: 646d f0bc 9710 ab3b 73a3 de3c ceca 19bc
000002b0: 6490 813b b045 5f3c 3f20 6fbc dfda d1bb
000002c0: 9341 e43c 6404 39bb 8201 1dbd e64d 02bb
000002d0: d69b 203d da0b 553c c63f b93c caea dabb
000002e0: 6250 7d3b d21a a83c ae1d a6bc 7d5a 87bd
000002f0: d82f fabc bb9a 333d 4cd9 c53c 9ae0 f53a
00000300: dd73 5d3d 72bb e8bc e465 233d beab d2b9
00000310: 3ca8 fbbb 94a0 ea3a a433 113d 22cd c5bc
00000320: 32d3 16bd cb2d 17bd 4c14 60bc 7e14 b93c
00000330: b5c8 32bd 4340 9bbd 90be b23d 585b 863a
00000340: 807e 97bd 3fcd a7bd ac67 e83c dbcd 32bc
00000350: e3aa d4bc 38cd 3fbd a2ee 67bc 593f 58bd
00000360: d031 e83c 41ab 4c3c 14b3 99bc 5b77 173c
00000370: 36d5 bf3c b4c7 3d3d e851 16bd 0306 fcbb
00000380: 92e3 cfbc f353 8c3c 9f3c 8e3c d33a cc3a
00000390: 5b3f 8f3c a02f 96bc 5202 0d3d d13b d4bc
000003a0: 6fff af3c fe90 2e3c 2cc5 d6bb 1736 c9bc
000003b0: 5c82 34bc f2d3 4ebc 5473 3d3d 7588 2b3c
000003c0: dc22 46bc dafc 673c 31f0 153d 33a9 87bc
000003d0: 3b4c ea3c 8b21 093d 7830 88bc 2147 4f3d
000003e0: 9692 143d b825 1fbc a525 20bd bf91 89bc
000003f0: e516 79bc c662 833c d1bd 653b 6dcf 00bb
0.04136985 0.010657556 -0.045875564 0.016218306 -0.0017755326 0.011539203 -0.009205838 0.006593826
-0.021086855 -0.014583945 -0.001929134 0.049296375 -0.009447704 0.013867763 0.014783722 -0.00786579
-0.005371085 0.00050198456 0.009441214 0.04070045 -0.010375377 0.011155823 0.024666356 0.005392574
0.012691427 -0.022078993 -0.04078878 -0.010602447 -0.01543374 -0.016687779 0.023125004 -0.020174002
0.016606508 -0.032048956 -0.019561272 -0.043265447 -0.013346443 -0.044024885 -0.018797142 0.044026285
0.017611368 0.010789193 -0.0022764057 0.016150173 0.00513265 -0.03877957 -0.030573988 -0.016716909
-0.0019100861 0.02805796 -0.005723494 -0.009101941 -0.015114505 -0.03687902 -0.033357833 -0.016033916
0.009429986 0.03769271 0.04125214 0.007141205 0.020591488 0.024527172 0.029899236 -0.02550008
0.026030125 -0.008982779 0.0055178413 0.0124937 0.01136773 -0.023371533 -0.019750142 0.010009194
-0.034841888 0.020881785 0.014723026 0.018698402 0.01644595 0.0007740988 0.014535487 -0.048081607
-0.042894874 0.02934286 0.026509756 -0.01939797 0.032209944 0.0048075486 0.022210652 -0.015154755
-0.03240016 -0.06042901 -0.08552832 -0.01757298 0.04301634 -0.0016632165 -0.07260143 -0.053765886
-0.007909696 0.002096322 -0.017726384 0.0025907299 -0.012702003 -0.028314102 0.03872541 0.028986262
-0.015246751 0.008698982 -0.028486993 -0.05402715 0.02606756 -0.013855965 0.0030727077 0.0020533272
-0.07047443 -0.08326312 0.02069835 0.015055454 0.004163102 0.02305459 0.0053296755 -0.0071561234
0.03497358 -0.0024230308 -0.0013283349 -0.016607583 0.035919253 -0.03265872 0.012167277 -0.0041907975
-0.021198863 0.014441369 -0.017770749 -0.03351781 -0.006059676 -0.04300677 -0.028462498 0.016787603
-0.052079983 -0.06617342 0.086118445 0.05685319 0.039079636 0.021003421 -0.014999027 -0.13985519
0.024719585 0.03976142 -0.00805831 -0.032308165 0.023715489 0.017572092 0.0041730134 -0.009342783
0.006956661 0.0346779 0.010958697 -0.006085167 0.015366637 0.028892063 0.01878083 -0.021975355
-0.054068457 -0.05626859 -0.008862448 0.0028199975 0.023320599 -0.01907937 -0.00045377767 0.043021087
-0.029349037 0.0052204835 0.027177548 -0.009386731 0.0039539803 0.013627455 -0.01459509 -0.0064042653
0.0278633 -0.0028231377 -0.038331516 -0.0019882857 0.039211117 0.013003314 0.022613417 -0.006680821
0.0038652648 0.020520601 -0.020277824 -0.06609056 -0.030540392 0.043848734 0.024151467 0.0018758953
0.054065574 -0.028409693 0.039892092 -0.0004018228 -0.007679967 0.0017900639 0.03544964 -0.024145667
-0.036822505 -0.036908906 -0.013676714 0.02259278 -0.04364844 -0.07580616 0.08727753 0.0010250611
-0.07397175 -0.081934445 0.028369747 -0.010913338 -0.025960391 -0.04682657 -0.014156016 -0.052794788
0.028344065 0.012492002 -0.018762149 0.009244765 0.023417097 0.04633303 -0.036699206 -0.0076911463
-0.025377069 0.017129874 0.01736289 0.0015581496 0.017486265 -0.018333256 0.03442604 -0.025907429
0.021484105 0.010654686 -0.0065542664 -0.024561925 -0.011017408 -0.012623774 0.046252564 0.010469546
-0.012093272 0.014159406 0.036606018 -0.016560173 0.028600803 0.033479255 -0.016624674 0.050604943
0.036272608 -0.009713583 -0.0390984 -0.01679313 -0.015203212 0.01603831 0.0035055766 -0.0019654885

dense1.bias f4 [50]
00000000: 520c 053c 82c3 b13b 16a7 333d 5122 953d
00000010: 074f 28bc b799 e93c e7c2 1ebc 340d 28bb
00000020: 8e6e 873b a0d3 3f3d b13f ae3b 84a5 283d
00000030: 22ed 503d 7c20 563d 414a a63c 2aab 673b
00000040: 5ccf 1b3c 6ab2 9dbc 7fd1 d13c 64ae a33b
00000050: b8d2 bb3c 4f50 77bc 418b 463d 4c8e 0f3c
00000060: ff57 0a3d af7c 34bc 6077 683a eaf3 d23c
00000070: 7c2e 413c 4503 2a3d a192 e43b 4a25 c43c
00000080: 0a56 d63c 610a febb ea62 483d df87 ff3c
00000090: 8b04 96b9 1d2b 033d 3fba 333d 0f27 143d
000000a0: 9cf2 f6ba 331c 3a3d 2cd7 663c 2eb2 043d
000000b0: c32e 0e3c 790c af3c a245 dd3c 481d 453d
000000c0: 6fd3 803c c080 d2bc
0.008120613 0.0054249177 0.043860517 0.07281936 -0.010272748 0.02851568 -0.009690023 -0.0025642635
0.004133052 0.04683268 0.005317651 0.041173473 0.051007397 0.052277073 0.020299079 0.0035349824
0.009509888 -0.019250114 0.02561259 0.004995154 0.022927627 -0.015094831 0.048472647 0.008761954
0.033775326 -0.011016055 0.0008867886 0.025751073 0.011790868 0.041507024 0.0069754873 0.023943562
0.026164073 -0.007752702 0.048922457 0.031192718 -0.00028613614 0.032023538 0.04387879 0.03617006
-0.0018840614 0.04543705 0.014089387 0.032396488 0.008678141 0.021368252 0.027010743 0.048123628
0.01572582 -0.025696158

dense2.weight f4 [1, 50]
00000000: b7a1 b5bd 60a9 00bd cbcd 0cbe 85b8 16be
00000010: 601c f43c fcc3 f93d 0e1f ec3d 181f 8e3d
00000020: e63b 8fbd 4909 01be 86e0 913d a833 f83d
00000030: 52ac e53c f6b6 183e 1e5f fb3c ccf1 1b3d
00000040: 38a8 ae3d 83ae 873d 205f 023e 2d24 1c3e
00000050: 0c1e 17bd 51ef ae3c 43b0 e6bd 32a9 13be
00000060: e3ca 5d3d e7f4 833d 6e2a 65bd cdfb e5bd
00000070: f552 16be f33b 283d 8669 d7bc 4882 1a3e
00000080: c2b1 15be 89d5 3c3d 8edc 89bd 1d94 1a3e
00000090: 2267 a1bd 940a 98bd 8d9b 55bd ed77 ce3c
000000a0: 2f4f 1abe 7e27 01be 033d fcbd 5529 fc3d
000000b0: e396 073d 0c15 77bd 278c c6bc 9f6c 6dbc
000000c0: 4b85 72bd 3d11 f03d
-0.08868735 -0.03141153 -0.13750379 -0.14718826 0.029798687 0.12195584 0.11529361 0.069395244
-0.069938466 -0.12601198 0.071229026 0.12119228 0.02803627 0.14913544 0.030685004 0.038072392
0.08528179 0.06625082 0.127316 0.15248175 -0.03689389 0.02135435 -0.11264088 -0.14420012
0.054148566 0.06443196 -0.055948667 -0.11229668 -0.14680083 0.041072797 -0.026295435 0.15088761
-0.1461859 0.04610208 -0.067315206 0.15095563 -0.07880999 -0.074238926 -0.052150298 0.02520367
-0.15069269 -0.12612721 -0.123163246 0.12312571 0.03310288 -0.060322806 -0.024236752 -0.014491229
-0.05920915 0.11722038
