time_series_forecasting/saved_models/CNNForecastingModel/20-03-2024-002945_NO1_epoch_6.pt (torch, 260779 bytes, 7 tensors)

conv1.weight f4 [64, 6, 3]
0	0x3e81d753	0.25359592
1	0x3e36eef6	0.17864594
2	0xbe307ecf	-0.17235874
3	0x3d0ebbc8	0.03484705
4	0xbdf98e75	-0.12185375
5	0x3e4bde65	0.19909056
6	0xbe5230ee	-0.20526478
7	0xba2b22c3	-0.0006528312
8	0xbe2c4888	-0.16824543
9	0xbd9ef240	-0.07761049
10	0xbe24023c	-0.16016477
11	0x3e2fd85f	0.17172383
12	0xbdf397d0	-0.1189419
13	0xbda17ca5	-0.07885102
14	0x3d907b26	0.07054739
15	0xbe671bf9	-0.22569264
16	0x3cc67b84	0.024228819
17	0x3e0e7432	0.13911512
18	0xbe21bc20	-0.1579442
19	0xbe840ddc	-0.25791824
20	0x3d236e05	0.039899845
21	0x3dbe1ae9	0.092824765
22	0xbe216c54	-0.1576398
23	0x3e63acf7	0.2223395
24	0x3e1a46f9	0.15066136
25	0x3c4574de	0.012051789
26	0x3d85c630	0.06531942
27	0xbd20a5ee	-0.039220743
28	0x3da03d99	0.07824249
29	0x3d99dc51	0.07512725
30	0xbdad7e9e	-0.08471416
31	0xbdd7ad8a	-0.10531147
32	0xbe3e8baa	-0.18607965
33	0x3defdfc7	0.11712604
34	0x3e2e1cad	0.17003126
35	0x3c18b766	0.009321069
36	0x3ccdcf78	0.025123343
37	0x3e37c824	0.17947441
38	0x3dfec874	0.12440577
39	0xbdaaa50b	-0.08332261
40	0x3e5920af	0.21203874
41	0x3d78e26e	0.060762815
42	0x3e9589a5	0.29206577
43	0x3d83e1f5	0.06439582
44	0x3ba14574	0.0049216095
45	0xbe0d74e7	-0.13814126
46	0x3e046072	0.12927416
47	0x3dde738c	0.108618826
48	0xbe0b0a9a	-0.13578263
49	0x3ca4ef42	0.020133618
50	0xbe2da80c	-0.16958636
51	0xbc297795	-0.010343452
52	0xbc9c54a5	-0.01908333
53	0x3decfb32	0.11571349
54	0xbd9989e2	-0.07497002
55	0xbd43247f	-0.047642227
56	0xbd5a6b3c	-0.053324923
57	0x3d563059	0.0522922
58	0x3e0e7b81	0.139143
59	0xbe6e99ba	-0.2330083
60	0x3d068c20	0.032848477
61	0x3de3d055	0.111237206
62	0xbdfa9ea2	-0.12237288
63	0xbe30119c	-0.17194217
64	0x3da7aa59	0.08186788
65	0x3dbf56b4	0.09342709
66	0x3e6bf0d5	0.23041089
67	0x3e6f862d	0.23391028
68	0x3e35f17b	0.17767899
69	0xbcda1e31	-0.026625725
70	0x3df1c122	0.11804415
71	0xbe7d6864	-0.24746853
72	0x3d10d83d	0.03536247
73	0x3d3a6b99	0.04551277
74	0xbe321769	-0.17391743
75	0xbd282dbb	-0.041059237
76	0x3dae2d44	0.085047275
77	0x3e5dcd1b	0.21660273
78	0xbe819d5b	-0.25315365
79	0xbe0c225b	-0.1368498
80	0xbddc6f5f	-0.1076343
81	0xbd9e85c5	-0.07740358
82	0xbbd7ab49	-0.006581698
83	0x3db17e61	0.08666683
84	0xbde7706c	-0.1130074
85	0x3aee2090	0.0018167663
86	0x3dfd546a	0.12369616
87	0x3e705190	0.23468614
88	0xbd686493	-0.05673654
89	0x3dbb8b8a	0.09157474
90	0x3d5a9c94	0.05337198
91	0x3ddd6842	0.10810901
92	0x3e425bcc	0.1898033
93	0xbd1e6749	-0.03867272
94	0x3d29c67a	0.041449048
95	0x3c3d4b82	0.011553647
96	0xbc92847d	-0.017885441
97	0x3a91985c	0.0011108029
98	0x3e8870e3	0.26648626
99	0xbd13c930	-0.03608054
100	0xbdc6c942	-0.09706356
101	0x3dfbdc7c	0.122979134
102	0xbe594620	-0.21218157
103	0x3e349039	0.17633142
104	0x3cb3f68e	0.021968152
105	0x3e4b53e7	0.19856225
106	0x3cdbb30b	0.026818773
107	0x3e2e55e9	0.1702496
108	0xbe444d51	-0.19170119
109	0x3e560cd4	0.20903331
110	0x3e4050b5	0.18780787
111	0x3c8a08a2	0.01684982
112	0xbc81761e	-0.015803393
113	0xbd05dd48	-0.032681733
114	0x3d5ba946	0.05362823
115	0xbd7da8ac	-0.061928436
116	0x3e2837cc	0.16427535
117	0x3d62c700	0.055365562
118	0xbdaba706	-0.083814666
119	0xbdd99fdf	-0.10626196
120	0xbdb329fb	-0.087482415
121	0xbdb716ee	-0.0893992
122	0xbe03eac2	-0.12882522
123	0xbe3669ba	-0.17813769
124	0xbe27fa65	-0.16404112
125	0x3d45eaa0	0.04831946
126	0xbd952e99	-0.072842784
127	0xbdb351c1	-0.08755828
128	0x3ccc339e	0.024926957
129	0x3e0159bc	0.12631887
130	0x3e0bf8cb	0.13669126
131	0xbdfc920d	-0.123325445
132	0xbe289f3b	-0.16466992
133	0x3c0ac9a0	0.008470923
134	0xbe852334	-0.2600342
135	0x3d8d9571	0.06913269
136	0xbe30f2ca	-0.17280117
137	0x3e144a15	0.14481385
138	0xbe46de7a	-0.19420806
139	0x3e1ab272	0.15107134
140	0x3d6bf20a	0.057603873
141	0x3c3f7e4c	0.011687826
142	0xbdb62b0b	-0.088949285
143	0xbdc5941e	-0.09647392
144	0x3e69a7d2	0.22817925
145	0x3dddf5e3	0.10837915
146	0x3e6687d8	0.22512758
147	0xbe4559d4	-0.19272548
148	0x3cff09b8	0.031132564
149	0xbdf22acc	-0.11824569
150	0xbd022e51	-0.031782452
151	0x3e11afa7	0.14227162
152	0xbd4cdbc9	-0.05001429
153	0x3e531920	0.20615053
154	0xbdfca3ae	-0.12335907
155	0xbdf345c2	-0.118785396
156	0x3e42df60	0.19030523
157	0x3dc47805	0.095932044
158	0x3b9a990a	0.0047179507
159	0x3e71c285	0.2360936
160	0xbe239315	-0.15974076
161	0x3d98ee28	0.074673
162	0x3e3a51c0	0.18195248
163	0xbdcc0c34	-0.09963265
164	0x3e878579	0.2646902
165	0x3db25ac4	0.087087184
166	0x3d56812b	0.052369278
167	0xbe78b4d7	-0.24287735
168	0x3d95cce6	0.07314472
169	0x3cbc6c68	0.02300091
170	0x3e6760ae	0.22595474
171	0xbdad3532	-0.08457412
172	0x3e22ab2b	0.15885608
173	0x3e112fd5	0.14178403
174	0x3e1fec54	0.15617496
175	0xbe3ec83a	-0.18631068
176	0xbdca1a31	-0.09868277
177	0xbe432d54	-0.1906026
178	0xbe277753	-0.16354112
179	0x3cd79c5d	0.026319677
180	0x3deb5ea1	0.114926584
181	0x3d09c8cf	0.03363877
182	0x3e1ba9c9	0.15201487
183	0xbe15cc2c	-0.14628667
184	0x3bdc1217	0.0067160237
185	0xbe521885	-0.20517166
186	0xbd9f7eaa	-0.07787831
187	0xbcef0530	-0.029177278
188	0x3e446004	0.19177252
189	0x3e02a1f3	0.12757091
190	0x3d8287b3	0.06373539
191	0xbda9ffa4	-0.08300713
192	0xbe02c4f3	-0.12770443
193	0x3dfc0fe6	0.1230772
194	0xbc7cb640	-0.015424311
195	0x3e13fa42	0.14450935
196	0xbd21376f	-0.039359506
197	0xbd038c4a	-0.032116212
198	0xbe22f9ef	-0.15915655
199	0x3d46fe4f	0.04858237
200	0x3e0b67bc	0.1361379
201	0xbd865455	-0.06559054
202	0x3e555f74	0.20837194
203	0x3d5bd08e	0.05366569
204	0x3df2dc02	0.118583694
205	0xbe7724dd	-0.24135156
206	0x3e3fe53a	0.18739787
207	0xbe6d80a1	-0.231936
208	0x3e48c1d1	0.19605185
209	0xbe405f8b	-0.18786447
210	0x3de12cda	0.10994883
211	0xbd9529c8	-0.0728336
212	0xbe1e48ea	-0.15457502
213	0xbb9e96d7	-0.004839759
214	0xbe69efa9	-0.2284533
215	0xbd65f97a	-0.056146123
216	0x3e4d1e44	0.20031077
217	0xbe25121d	-0.16120191
218	0xbd965846	-0.073410556
219	0xbd305e0b	-0.043058436
220	0x3c93d146	0.018044125
221	0xbcdd590d	-0.027020002
222	0xbd9401b4	-0.07226887
223	0xbd0c51d8	-0.03425774
224	0xbdf11872	-0.11772241
225	0x3ddd305e	0.10800241
226	0xbde9da47	-0.11418586
227	0xbe1046a1	-0.14089443
228	0x3d8addd3	0.06780591
229	0xbe185ade	-0.14878413
230	0x3d239c98	0.03994426
231	0x3d4c4705	0.049872417
232	0x3de2407e	0.11047457
233	0xbbb9cd6c	-0.00567024
234	0xbdc777d3	-0.097396515
235	0x3e4fdc23	0.20298819
236	0xbd47cd2a	-0.048779644
237	0xbe3f0deb	-0.18657653
238	0x3cb1e23b	0.02171432
239	0xbe271729	-0.16317429
240	0xbc4363fa	-0.011925692
241	0x3e673a22	0.2258077
242	0xbe1ebd81	-0.15501978
243	0xbcc399b6	-0.023877006
244	0xbdffcec8	-0.12490612
245	0x3d2da482	0.042393215
246	0x3ca01451	0.019540938
247	0xbddf16c2	-0.108930126
248	0x3c851ee2	0.016250078
249	0xbc11f8bc	-0.008909401
250	0x3e391849	0.1807567
251	0xbe272427	-0.16322385
252	0xbc4a39d8	-0.012342893
253	0x3cc33da9	0.023833113
254	0xbe1ce8f6	-0.15323243
255	0xbe42b9a5	-0.1901613

conv1.bias f4 [64]
0	0x3e875665	0.264331
1	0x3d075ff9	0.03305051
2	0xbe0bfe2b	-0.13671176
3	0xbdc82dac	-0.09774336
4	0x3d1bf1b7	0.038072314
5	0x3e3e1988	0.18564427
6	0x3e15a7fe	0.14614865
7	0xbc6b7b54	-0.014372665
8	0xbc8c0484	-0.017091997
9	0x3d3df443	0.046375524
10	0xbe10ad13	-0.14128523
11	0xbc15e748	-0.00914938
12	0x3da367c8	0.07978779
13	0xbe2d30bc	-0.16913122
14	0x3dfd2d93	0.12362208
15	0x3d833666	0.0640686
16	0x3ded9ac7	0.11601787
17	0x3e83d81d	0.2575082
18	0x3d8c6232	0.06854667
19	0x3e4a8542	0.19777396
20	0x3e011faf	0.12609743
21	0xbe17e1a9	-0.14832176
22	0x3b95c38a	0.004570429
23	0xbd7af717	-0.0612708
24	0x3d971bc3	0.07378342
25	0xbe253495	-0.1613334
26	0xbe10964c	-0.14119834
27	0x3ca3394f	0.019924788
28	0x3e569d5d	0.20958467
29	0xbcbb570b	-0.022868654
30	0x3d381898	0.04494533
31	0x3e5e91c4	0.21735293
32	0xbca4f645	-0.020136962
33	0xbd742e57	-0.059614506
34	0x3d518990	0.05115658
35	0x3db0904d	0.08621273
36	0xbd28ddb7	-0.04122707
37	0xbd965544	-0.07340482
38	0xbd810d1c	-0.063013285
39	0x3d7ad20d	0.061235476
40	0x3d9e025e	0.07715295
41	0x3e6b1557	0.22957359
42	0xbe36a171	-0.17835023
43	0x3e38c36b	0.18043296
44	0xbe311e27	-0.17296658
45	0xbe02a787	-0.12759219
46	0x3d541b8b	0.05178408
47	0xbd8664bb	-0.065621816
48	0x3e28232d	0.16419668
49	0xbe381cf8	-0.179798
50	0xbcd3093b	-0.025761237
51	0x3ddb45c3	0.10706665
52	0xbe214726	-0.15749797
53	0xbd937973	-0.07200899
54	0x3e622bdc	0.22087044
55	0x3e5224d8	0.20521867
56	0x3e263e35	0.16234668
57	0x3ddb7345	0.10715345
58	0xbe13d7e4	-0.14437824
59	0x3d4674c9	0.04845122
60	0x3da978e2	0.0827501
61	0xbd9aba72	-0.07555093
62	0x3d23d096	0.039993845
63	0x3c026006	0.007957464

conv2.weight f4 [128, 64, 3]
0	0xbcd65473	-0.026163315
1	0x3da26094	0.07928577
2	0xbd7cd7f6	-0.061729394
3	0xbd1a3153	-0.037644695
4	0x3ce89890	0.02839306
5	0xbd985397	-0.074378185
6	0x3d2969a4	0.041360512
7	0xbba0bf03	-0.004905583
8	0xbd230fd3	-0.039810013
9	0xbd8138af	-0.0630964
10	0xbabe63a5	-0.0014525546
11	0xbce6e0e7	-0.028183414
12	0x3baf9329	0.005358119
13	0xbd15d86c	-0.03658335
14	0xbd6eb8ef	-0.058281835
15	0xbd6c10c3	-0.057633173
16	0x3d2892a3	0.04115547
17	0x3ca5fb6c	0.020261489
18	0xbd27fa66	-0.041010283
19	0xbd1cd2a3	-0.038286816
20	0xbcd25fae	-0.02568039
21	0xbccdec63	-0.025137132
22	0x3d519751	0.051169697
23	0xbd461c8c	-0.04836707
24	0x3d85fed5	0.06542746
25	0x3acfb7a6	0.0015847578
26	0x3d12d44d	0.035846997
27	0xbd6be951	-0.057595555
28	0x3d258ab2	0.040415473
29	0x3d9d7aec	0.07689461
30	0xbc72de3c	-0.014823493
31	0x3d24066d	0.04004519
32	0x3d9c7a20	0.07640481
33	0xbd844ead	-0.06460319
34	0xbd75c3af	-0.06000107
35	0xbcb25a05	-0.02177144
36	0xbd58d134	-0.052933887
37	0xbd266b92	-0.04062993
38	0x3d0ec319	0.03485403
39	0xbd44d081	-0.048050407
40	0x3daeb011	0.08529676
41	0xbd35f805	-0.044425983
42	0x3d897c7a	0.06713195
43	0xbd328b85	-0.043590087
44	0xbc699773	-0.0142573
45	0xbd0915c6	-0.03346803
46	0x3d4c3134	0.04985161
47	0xbc98a74e	-0.018634465
48	0xbd85cb63	-0.065329336
49	0x3c23b175	0.0099910395
50	0x3d11f521	0.035634164
51	0xbd7ee7d6	-0.062232815
52	0xbc9f2d1b	-0.019430688
53	0xbd737297	-0.059435453
54	0xbd136a70	-0.03599018
55	0xbc31dd62	-0.010856004
56	0xbd568043	-0.052368414
57	0x3c0f6386	0.008751756
58	0xbcb1aed3	-0.021689808
59	0x3da5c78d	0.08094702
60	0x3c2e2503	0.0106289415
61	0x3d399ffc	0.04531859
62	0x3d71b7c0	0.05901313
63	0xbcbe8e54	-0.023261227
64	0xbda93883	-0.08262732
65	0xbce99518	-0.028513476
66	0x3d6aba1a	0.057306387
67	0x3d000051	0.0312503
68	0xbc624503	-0.013810399
69	0xbda14853	-0.07875123
70	0xbd93d6c1	-0.072186954
71	0xbc306f95	-0.010768791
72	0x3c2f6516	0.010705253
73	0x3c1f3679	0.009717577
74	0x3d002379	0.03128383
75	0xbccdaf58	-0.025108024
76	0x3d336cb7	0.04380485
77	0x3c3fd3b9	0.011708193
78	0xbd84da5f	-0.064869635
79	0x3caf62d0	0.021409422
80	0xbd6a96ab	-0.057272594
81	0x3cbace25	0.022803375
82	0xbd991e8e	-0.07476531
83	0x3cb3a134	0.021927454
84	0x3d0dc68d	0.03461318
85	0x3d095893	0.033531737
86	0xbd9d338d	-0.07675848
87	0x3d83df91	0.06439126
88	0x3da001f9	0.07812876
89	0xbd4a4344	-0.049380556
90	0x3d79014b	0.06079225
91	0x3d3b9826	0.045799397
92	0x3c81a66b	0.015826425
93	0xbd569aca	-0.052393712
94	0x3d740669	0.059576426
95	0x3d8ca7e3	0.06867959
96	0xbda7ee0f	-0.08199703
97	0xbd4cd2d9	-0.050005767
98	0x3cf3a2c5	0.0297407
99	0xbce9ce83	-0.028540855
100	0xbc49ce39	-0.012317234
101	0x3d19415e	0.037415855
102	0x3cd0afb3	0.025474405
103	0xbcd7b531	-0.026331516
104	0x3cb23f20	0.021758616
105	0xbc6795fa	-0.014134878
106	0x3d747823	0.059684884
107	0xbcc29449	-0.023752348
108	0xbd8ad698	-0.06779212
109	0xbd381226	-0.044939183
110	0xbd9c2416	-0.0762407
111	0xba9f075d	-0.0012132932
112	0x3da29226	0.07938032
113	0x3c5715ec	0.013127785
114	0xbbce46ab	-0.0062950454
115	0xbc598a8c	-0.013277661
116	0x3d386841	0.0450213
117	0x3d67051a	0.05640135
118	0xbcacb1e1	-0.021080913
119	0xbd58d68e	-0.05293899
120	0xbbc4cc19	-0.0060057756
121	0x3d3698f4	0.04457946
122	0x3a637af3	0.00086776837
123	0x3d1779c5	0.036981363
124	0x3c5f9f46	0.013648814
125	0x3d25607d	0.04037522
126	0x3ca72beb	0.020406684
127	0x3d824608	0.06361014
128	0xbd032797	-0.032020178
129	0xbc8c1043	-0.017097598
130	0xbca8c65b	-0.020602396
131	0xbcf53687	-0.029933227
132	0xbd234013	-0.039856028
133	0xbd7b28e7	-0.061318304
134	0x39f0887a	0.0004587805
135	0xbc2573e8	-0.010098435
136	0x3c923706	0.017848503
137	0x3d020f2c	0.03175275
138	0x3d39edaf	0.04539269
139	0x3cbb8e8f	0.022895126
140	0x3d9d04cf	0.07666933
141	0xbb4d65b8	-0.0031341147
142	0xbdbff8a3	-0.093735956
143	0xbc0a7c73	-0.008452523
144	0xbd70e5b0	-0.058812797
145	0x3d81c94f	0.06337225
146	0xbc941846	-0.01807798
147	0x3cf1e211	0.029526742
148	0xbd31fcd8	-0.04345402
149	0x3d7546ad	0.059881855
150	0x3d356f2b	0.04429547
151	0x3d12dbfb	0.03585432
152	0x3db08438	0.08618969
153	0xbd344fe8	-0.044021517
154	0xbd298b16	-0.04139241
155	0xbd6845ba	-0.05670712
156	0x3d752d1c	0.059857473
157	0x3d378b21	0.044810418
158	0xbd793f2b	-0.060851257
159	0xbceb3a8f	-0.028714446
160	0x3b8928c3	0.0041857674
161	0xbd254720	-0.040351033
162	0x3d294b78	0.04133174
163	0xbd512040	-0.051056147
164	0xbccbb7bd	-0.024867887
165	0x3d699a66	0.05703201
166	0xbcea2e56	-0.028586548
167	0xbd7d7fca	-0.061889447
168	0xbd79aa66	-0.06095352
169	0x3cbaccd8	0.022802755
170	0x3da13ce3	0.07872941
171	0xbc9c649c	-0.019090943
172	0xbcbf426f	-0.023347108
173	0xbdc18652	-0.09449448
174	0xbc027193	-0.0079616485
175	0xbc6f1791	-0.014593021
176	0x3c0ed2cb	0.008717249
177	0x3d8fe642	0.0702634
178	0x3cdea510	0.027178317
179	0xbb839eb5	-0.004016722
180	0x3d475c4e	0.048672013
181	0x3d2f01f6	0.04272648
182	0xbcaae5be	-0.020861503
183	0x3c2dbfa2	0.010604771
184	0x3d924a4b	0.071430765
185	0xbd4820a2	-0.048859246
186	0x3d828411	0.06372846
187	0x3ca6fb14	0.020383395
188	0x3c769517	0.015050194
189	0xbd147e5a	-0.03625331
190	0xbd1090ef	-0.03529447
191	0xbd0332c2	-0.03203083
192	0x3d3b6150	0.0457471
193	0xbd7e1f94	-0.062041834
194	0xbd6c547b	-0.057697754
195	0xbcd5a4a7	-0.026079489
196	0x3ceefd65	0.029173562
197	0xbcfc8fd0	-0.030830294
198	0x3d1e323f	0.038622137
199	0xbd5de032	-0.054168887
200	0x3d5fe639	0.054662917
201	0xbd403adb	-0.04693113
202	0x3b10833f	0.0022050885
203	0xbd40d08d	-0.04707389
204	0x3d191540	0.03737378
205	0xbbb22a49	-0.0054371697
206	0xbc3ec99e	-0.011644749
207	0x3d07fc76	0.03319975
208	0x3d19d4bb	0.03755639
209	0x3c7e0505	0.015504126
210	0x3d073c79	0.033016656
211	0xbbe7b1ef	-0.007070772
212	0xbd576c55	-0.052593548
213	0xbcae8a8a	-0.021306295
214	0xbcc79d0b	-0.024366876
215	0x3c2b47de	0.010454146
216	0x3d418c40	0.047252893
217	0xbc84bf71	-0.016204568
218	0x3c58334b	0.013195823
219	0x3cf06855	0.029346624
220	0xbd919f10	-0.07110417
221	0xbda6e823	-0.08149745
222	0x3d7b8c17	0.061412897
223	0x3cfb850a	0.030703086
224	0x3db44762	0.08802678
225	0xbc93c6a5	-0.018039057
226	0xbd96fac5	-0.07372049
227	0x3c14aece	0.00907488
228	0x3c8d9705	0.017283926
229	0x3d5924bf	0.05301356
230	0x3cd8eede	0.026481088
231	0xbbad3c0b	-0.0052866987
232	0xbcab03dd	-0.020875866
233	0xbc81a07e	-0.015823599
234	0xbd057dee	-0.0325908
235	0xbcd6ce69	-0.02622147
236	0xbd3ea08b	-0.046539824
237	0xbd9e0786	-0.07716279
238	0xbd150f2b	-0.03639142
239	0xbd524e4e	-0.05134421
240	0x3d8a2d5d	0.067469336
241	0xbca4be56	-0.02011029
242	0x3dae3c1f	0.08507561
243	0x3d8cbdc0	0.068721294
244	0xbc191e55	-0.009345611
245	0xbd84cba4	-0.06484154
246	0xbd536948	-0.051614076
247	0xbd2e498b	-0.042550605
248	0xbd045552	-0.03230793
249	0x3d4f8b98	0.050670236
250	0x3cc9e737	0.024646385
251	0xbbd7c735	-0.0065850266
252	0xbd454c94	-0.048168734
253	0x3d29a020	0.041412473
254	0x3d6cd52e	0.05782049
255	0x3d2e634c	0.042575166

conv2.bias f4 [128]
0	0xbd913e7b	-0.07091995
1	0x3c75f89a	0.0150128845
2	0x3cc93db4	0.024565555
3	0x3c8c2f63	0.01711244
4	0xbcf596bf	-0.029979108
5	0xbcf8a1e0	-0.030350626
6	0x3daab71c	0.083357066
7	0xbd2fb1a2	-0.042894013
8	0x3d31db2e	0.043421917
9	0xbc3ce727	-0.01152972
10	0x3d4ee798	0.050513834
11	0xbd80868c	-0.06275663
12	0xbc6db4e4	-0.01450846
13	0xbc91b48e	-0.01778629
14	0xbd3b7ffc	-0.045776352
15	0xbd36dab1	-0.044642154
16	0x3d7efcb3	0.06225271
17	0x3be76d1a	0.0070625665
18	0xbd99d02a	-0.07510407
19	0xbd3277c7	-0.04357126
20	0x3d0f990c	0.035058066
21	0x3d183164	0.037156478
22	0xbd90ddf4	-0.07073584
23	0x3d04d293	0.03242738
24	0x3d62bfc5	0.055358667
25	0x3d808754	0.06275812
26	0x3d7183ef	0.058963712
27	0x3d7032ca	0.058642186
28	0xbd62d8fb	-0.05538271
29	0x3d6fa292	0.05850465
30	0xbbca6271	-0.006176286
31	0xbca9c7cd	-0.020725155
32	0x3c48140d	0.012211812
33	0x3d88424a	0.06653269
34	0xbcaf4cd1	-0.021398934
35	0x3d0fd3ab	0.03511397
36	0x3cd488fe	0.02594423
37	0xbcca5e9a	-0.024703313
38	0x3b4d1a41	0.0031296166
39	0x3d2a0e6e	0.041517667
40	0x3cd06380	0.02543807
41	0xbb986bf0	-0.004651539
42	0xbd1bba85	-0.038019676
43	0xbd3d280d	-0.046180774
44	0x3cb4b78d	0.02206018
45	0x3d6db2d3	0.05803187
46	0x3d056c09	0.032573733
47	0xbd334c6d	-0.043774057
48	0x3c2d02eb	0.010559778
49	0xbc1cf48b	-0.009579788
50	0x3d385435	0.04500218
51	0xbd151773	-0.036399316
52	0xbd24dd9d	-0.04025041
53	0x3c093fc1	0.0083770165
54	0x3cdda477	0.027055962
55	0xbcba08e4	-0.022709318
56	0xbc9abcf0	-0.01888892
57	0x3a8f6f30	0.0010943171
58	0x3d9f4238	0.07776302
59	0x3d5c99ed	0.053857733
60	0xbd1d500c	-0.038406417
61	0x3d6959b9	0.05697033
62	0xbc272414	-0.010201473
63	0x3d393356	0.045214973
64	0x3d816bde	0.06319402
65	0x3d903bb2	0.07042636
66	0x3d7dd8b7	0.061974254
67	0xbce6a93e	-0.028156873
68	0xbbb51f04	-0.005527379
69	0xbcee10f3	-0.029060816
70	0x3d8506b7	0.064954214
71	0x3bc57537	0.006025936
72	0xbd7fe7aa	-0.06247679
73	0x3d24670c	0.040137336
74	0x3ba3c860	0.004998252
75	0x3d38a508	0.04507926
76	0x3cd11a4c	0.025525235
77	0xbd41c526	-0.047307156
78	0x3b75c8de	0.003750376
79	0x3d4e8568	0.050420195
80	0x3d28b8e0	0.041191936
81	0xbd1833f4	-0.03715892
82	0xbdc87a33	-0.09788933
83	0x3bbabe01	0.0056989198
84	0x3d60a1af	0.054841693
85	0xbd3a5f27	-0.0455009
86	0xbd93ecf6	-0.07222931
87	0x3d01735d	0.03160416
88	0xbd4c918a	-0.049943484
89	0x3bc091e2	0.0058767656
90	0xbd1974e1	-0.03746498
91	0xbd1cff10	-0.038329184
92	0xbd91438e	-0.07092963
93	0xbc4bd413	-0.012440699
94	0xbc6a8765	-0.014314507
95	0x3cac96fc	0.021068089
96	0xbd40e3ba	-0.047092177
97	0x3d144bac	0.03620498
98	0xbd870c15	-0.06594101
99	0x3d770629	0.06030861
100	0x3b1402da	0.0022584707
101	0x3cdc0274	0.026856638
102	0xbdc39196	-0.09549253
103	0xbd2fefc2	-0.04295326
104	0x3bdcd7c3	0.006739588
105	0xbd1ac9ff	-0.037790295
106	0xbd59e6fe	-0.053198807
107	0xbd20a196	-0.0392166
108	0xbc09282d	-0.008371395
109	0x3c1749ad	0.009233874
110	0xbd124a43	-0.035715353
111	0xbcbf27d3	-0.02333442
112	0xbd17b10f	-0.03703409
113	0xbd2289b1	-0.039682094
114	0xbcbb9f41	-0.022903087
115	0x3d94682c	0.07246432
116	0x3d0cc3d9	0.034366462
117	0x3c872d27	0.016501023
118	0xbddacd2c	-0.10683665
119	0xbd847123	-0.064668916
120	0x3d09242a	0.033481754
121	0x3da480e2	0.08032395
122	0xbd873dc3	-0.06603577
123	0xbcb2f1eb	-0.021843871
124	0xbd4f9cfc	-0.05068682
125	0xbd0ddbe6	-0.03463354
126	0xbc3c435d	-0.01149067
127	0x3c9e6e1c	0.019339614

dense1.weight f4 [50, 768]
0	0x3d44031f	0.04785454
1	0x3c3fc449	0.011704513
2	0xbcfaedd7	-0.030630989
3	0x3c929811	0.017894777
4	0xbb042cda	-0.0020168335
5	0x3ad2c13a	0.0016079315
6	0xbc819dda	-0.01582234
7	0x3bbfa813	0.0058488934
8	0xbcc7d9b6	-0.024395805
9	0xbc7ed8f6	-0.015554657
10	0xbbb2479e	-0.0054406663
11	0x3d2cbe56	0.042173706
12	0xbad3525f	-0.0016122571
13	0x3c7bc6c4	0.015367214
14	0x3bda8c4e	0.0066695577
15	0xbc782c19	-0.015147232
16	0xbc10e905	-0.008844619
17	0xbad9b1a2	-0.0016608725
18	0x3ba03fc3	0.0048904135
19	0x3d246795	0.040137846
20	0xbc4aab7c	-0.012369987
21	0x3c356981	0.011072517
22	0x3cb37ad1	0.02190915
23	0xba113b08	-0.00055401074
24	0x3ca54089	0.020172374
25	0xbc881162	-0.016609851
26	0xbd318f37	-0.04334947
27	0xbc56dc7b	-0.01311409
28	0xbc1fd117	-0.009754441
29	0xbb71c44a	-0.003689068
30	0x3d0bdf19	0.03414831
31	0xbad885b0	-0.0016519334
32	0x3ca2e575	0.019884804
33	0xbcfc35b4	-0.030787326
34	0xbcf05087	-0.029335273
35	0xbd63ebf5	-0.055644948
36	0xbc656e30	-0.0140033215
37	0xbd5e281a	-0.054237463
38	0xbcc9d54d	-0.024637843
39	0x3d27d617	0.040975656
40	0x3c935c51	0.017988356
41	0x3b6f929b	0.003655589
42	0x3be6b85f	0.0070410217
43	0x3c7edae3	0.015555116
44	0x3bca2a03	0.006169559
45	0xbd049feb	-0.032379072
46	0xbcd4d58c	-0.025980733
47	0xbc979d04	-0.018507488
48	0x3b83cd12	0.004022249
49	0x3d0cc4fb	0.034367543
50	0x3b4a379e	0.0030855904
51	0xbb706a0d	-0.0036684305
52	0xbc81622c	-0.015793882
53	0xbd4d65ad	-0.050145794
54	0xbd19fddd	-0.03759562
55	0x3c236bfb	0.009974475
56	0x3c5b08cf	0.013368799
57	0x3cee6a69	0.029103475
58	0x3cfc49a5	0.030796835
59	0x3accce8c	0.0015625521
60	0x3ca5e467	0.020250512
61	0x3c862d44	0.016379006
62	0x3ccb2c9e	0.024801549
63	0xbcca16f0	-0.02466914
64	0x3cb99b9e	0.022657212
65	0xbc6db05c	-0.014507379
66	0x3b49279c	0.0030693775
67	0x3c3119fe	0.01080942
68	0x3c17c096	0.009262225
69	0xbcc04ecf	-0.023475079
70	0xbc9c5417	-0.019083066
71	0x3b97d896	0.0046339734
72	0xbcce930c	-0.025216602
73	0x3cba5f74	0.022750594
74	0x3c992ff3	0.018699622
75	0x3caeedee	0.021353688
76	0x3c872f9c	0.016502194
77	0x3b8f7678	0.0043781362
78	0x3c698b07	0.014254338
79	0xbd85c2ea	-0.065313175
80	0xbda4a92e	-0.08040081
81	0x3cf2d225	0.02964122
82	0x3c95597a	0.018231142
83	0xbc8f6ed7	-0.017508907
84	0x3d12624f	0.035738286
85	0x3ba7d0af	0.0051213126
86	0x3cd09adc	0.025464468
87	0xbccb8e0c	-0.024848007
88	0xbd97d8bc	-0.07414386
89	0xbd9d99e0	-0.07695365
90	0xbde333da	-0.11093874
91	0xbc05bb13	-0.008162278
92	0x3d6f53c0	0.05842948
93	0xbbe2d274	-0.0069220606
94	0xbda4f9a9	-0.080554314
95	0xbdcf0c45	-0.10109762
96	0xb91b6722	-0.00014820372
97	0x3bbf50d0	0.005838491
98	0xbc9a8420	-0.01886183
99	0xb9b8d80c	-0.00035256182
100	0xbc8a23be	-0.016862746
101	0xbcedba23	-0.029019421
102	0x3d336643	0.043798696
103	0x3ce43708	0.027858272
104	0xbc52bb69	-0.012862065
105	0xbada2324	-0.0016642553
106	0xbd1fb2fa	-0.038989045
107	0xbd9b6794	-0.07588115
108	0x3cac1e85	0.021010647
109	0xbca2b095	-0.019859591
110	0xb952bd0b	-0.00020097585
111	0xba267ef9	-0.0006351318
112	0xbe194e34	-0.14971238
113	0xbe2294cd	-0.15877075
114	0x3ca10ef1	0.019660445
115	0x3c627cb1	0.013823674
116	0x3accf7ce	0.0015637816
117	0x3ca0fadd	0.019650871
118	0x3bbd1a0b	0.005770927
119	0xbca99ef7	-0.020705683
120	0x3d41901b	0.04725657
121	0x3984f276	0.0002535765
122	0xbbb36532	-0.00547471
123	0xbc63eaf7	-0.013911
124	0x3d1fcbee	0.039012842
125	0xbced035f	-0.028932272
126	0x3c26f0d1	0.010189251
127	0xbbde8e52	-0.0067918682
128	0xbcaa9d59	-0.020826982
129	0x3c92c9f8	0.017918572
130	0xbc8b752f	-0.01702365
131	0xbd1741a4	-0.036927834
132	0x3c033ea1	0.008010537
133	0xbd19ada7	-0.037519123
134	0xbca4db0e	-0.020123985
135	0x3c174e15	0.009234925
136	0xbd6221ca	-0.055208005
137	0xbdcdd381	-0.10050107
138	0x3dadaeaf	0.08480584
139	0x3d33eff2	0.04393
140	0x3d1161cd	0.03549366
141	0x3d076bcc	0.033061787
142	0xba040903	-0.0005036743
143	0xbe35bd16	-0.17747912
144	0x3cdf1105	0.027229795
145	0x3d331de3	0.043729674
146	0xbbac2ff3	-0.0052547394
147	0xbcdf3e6a	-0.027251441
148	0x3cc454d3	0.023966229
149	0x3c87ef3a	0.016593564
150	0xb9f33920	-0.00046391133
151	0xbc46e263	-0.012138936
152	0x3b9ece9d	0.0048464076
153	0x3d09e5c0	0.033666372
154	0x3ba3f482	0.005003513
155	0xbc379fe9	-0.011207559
156	0x3cff1ccf	0.031141667
157	0x3d17e6d1	0.037085358
158	0x3c21fa95	0.009886404
159	0xbd444bc7	-0.04792383
160	0xbdb25c65	-0.08709029
161	0xbda898ce	-0.0823227
162	0xbc28b78e	-0.010297669
163	0xbb054089	-0.0020332655
164	0x3cbbbb92	0.022916589
165	0xbc8344e3	-0.016024059
166	0x3a1b3907	0.00059212785
167	0x3d2a5190	0.04158169
168	0xbcb46b22	-0.022023741
169	0x3c0d915d	0.008640614
170	0x3cadb384	0.021203764
171	0xbc4d62ce	-0.012535764
172	0x3b1adbb1	0.0023629481
173	0x3c361219	0.011112713
174	0xbc5193d4	-0.012791593
175	0xbc306dc8	-0.010768361
176	0x3cc63ed4	0.02419988
177	0xbc2a2b4b	-0.010386298
178	0xbd25d185	-0.040483017
179	0xba082efa	-0.00051949883
180	0x3d2223c8	0.039584905
181	0x3c91fd39	0.017820941
182	0x3cb0b1f0	0.021569222
183	0xbba2c1ff	-0.004966974
184	0x3a2a5290	0.0006497288
185	0x3c8da0c6	0.017288577
186	0x3b73f7b4	0.00372265
187	0xbdacc205	-0.08435444
188	0xbd82dfd3	-0.06390347
189	0x3d50cfab	0.050979298
190	0x3ceaba3d	0.028653258
191	0x3b5a03f7	0.0033266523
192	0x3d6b8945	0.057503957
193	0xbd09dafc	-0.033656105
194	0x3d240b1b	0.040049654
195	0x394c1597	0.00019462999
196	0xbb1ff537	-0.0024407634
197	0x3b085b6c	0.0020806445
198	0x3d57322b	0.05253808
199	0xbc28a4bd	-0.010293183
200	0xbcfd410d	-0.030914808
201	0xbd12a41d	-0.035801042
202	0xbcb30ab3	-0.021855688
203	0x3cc8ac56	0.024496239
204	0xbd842fe1	-0.06454445
205	0xbdbe0be9	-0.092796154
206	0x3dc5b864	0.0965431
207	0x3c60ea27	0.013727701
208	0xbd77da98	-0.0605112
209	0xbd999311	-0.07498754
210	0x3d04f3da	0.032459117
211	0xbbe04524	-0.0068441797
212	0xbc66a79f	-0.01407805
213	0xbd1a5aff	-0.037684437
214	0xbc5d928d	-0.01352371
215	0xbd4c8a27	-0.04993644
216	0x3cea03ab	0.028566202
217	0x3c0ceac5	0.008600895
218	0xbcc9bfc9	-0.024627583
219	0x3b6d9383	0.0036251254
220	0x3c8db9b7	0.01730047
221	0x3d150e57	0.03639063
222	0xbd083bbd	-0.033260096
223	0xb96b0008	-0.00022411358
224	0xbcacbe72	-0.021086905
225	0x3c935bac	0.017988048
226	0x3c6590e2	0.014011594
227	0x3b407374	0.002936569
228	0x3c8c4b22	0.01712567
229	0xbc65724c	-0.014004301
230	0x3d104450	0.035221398
231	0xbce00ec3	-0.027350789
232	0x3c9c6b22	0.019094054
233	0x3ba9d883	0.005183281
234	0xbbe01df7	-0.0068395096
235	0xbc85d23f	-0.016335605
236	0xbc0dbc07	-0.008650786
237	0xbb19ef5d	-0.002348862
238	0x3d42e75d	0.047583926
239	0x3c8c4491	0.017122539
240	0xbc2dc0b1	-0.010605023
241	0x3c67fa0d	0.014158738
242	0x3d110b5e	0.03541123
243	0xbc9bf279	-0.019036518
244	0x3cb95b3c	0.022626512
245	0x3ce9a943	0.028523093
246	0xbc91b1ba	-0.017784942
247	0x3d3ea7f3	0.046546888
248	0x3d1525fb	0.036413174
249	0xbc8d8721	-0.017276349
250	0xbd47e500	-0.048802376
251	0xbd128c3d	-0.035778273
252	0xbce39064	-0.027778812
253	0x3c9ddab6	0.019269329
254	0x3b3f9386	0.0029232218
255	0xbbb25c76	-0.005443151

dense1.bias f4 [50]
0	0x3d192580	0.03738928
1	0x3d0222bb	0.031771403
2	0x3d8e0241	0.06934024
3	0x3df02dc7	0.11727481
4	0x3c13c99c	0.009020235
5	0x3d448800	0.047981262
6	0x3c1c462b	0.009538214
7	0x3bd50f2a	0.006502052
8	0x3d023b86	0.031795047
9	0x3d7f1ed3	0.062285256
10	0x3ccb52aa	0.02481969
11	0x3d76b20f	0.060228404
12	0x3d908a80	0.07057667
13	0x3d92cd41	0.07168055
14	0x3cf3e268	0.029771045
15	0x3ccf2ab1	0.025288912
16	0x3cd59d16	0.026075881
17	0xbcc9c43f	-0.02462971
18	0x3d39103e	0.045181505
19	0x3cca7f66	0.024718951
20	0x3d395322	0.045245297
21	0x3b81463a	0.0039451392
22	0x3d8dccfb	0.069238625
23	0x3cc1ea07	0.023671163
24	0x3d5f6241	0.05453706
25	0xbc8483d6	-0.016176146
26	0x3ca1f1d3	0.019768631
27	0x3d030458	0.031986564
28	0x3cf48778	0.029849753
29	0x3d5b5afe	0.053553574
30	0x3c8f1134	0.017464258
31	0x3d276811	0.04087073
32	0x3d816105	0.06317333
33	0x399f2778	0.0003035625
34	0x3d62bd57	0.05535635
35	0x3d4e283d	0.050331343
36	0x3d107783	0.035270225
37	0x3d7ce4a1	0.061741475
38	0x3d83e05c	0.064392775
39	0x3d6a12b6	0.05714675
40	0x3c88cf7d	0.0167005
41	0x3d56ad73	0.052411508
42	0x3ca9a116	0.020706695
43	0x3d559f26	0.05215373
44	0x3cfa6319	0.030564832
45	0x3d24bf3d	0.04022144
46	0x3d2f1a8e	0.042749934
47	0x3d6617fb	0.056175213
48	0x3cb7191d	0.022350842
49	0xbcaf5684	-0.021403559

dense2.weight f4 [1, 50]
0	0xbdced69f	-0.100995295
1	0xbd21e8b8	-0.03952858
2	0xbe27944d	-0.16365166
3	0xbe3cee58	-0.18450296
4	0x3d07fb63	0.033198725
5	0x3dff3fa8	0.12463313
6	0x3df55be3	0.119804166
7	0x3d932a9f	0.07185864
8	0xbd9cab6c	-0.07649884
9	0xbe020a86	-0.12699327
10	0x3da136c1	0.078717716
11	0x3dff6110	0.12469685
12	0x3d02bf2f	0.031920608
13	0x3e1c9b50	0.15293622
14	0x3d036e9a	0.0320879
15	0x3d4354ac	0.04768817
16	0x3db41ffd	0.08795164
17	0x3d8795ed	0.06620393
18	0x3e050936	0.12991795
19	0x3e1f2926	0.1554304
20	0xbd5ba987	-0.05362847
21	0x3cbf3290	0.02333954
22	0xbdeb51fd	-0.114902474
23	0xbe20bb9a	-0.15696564
24	0x3d6e8a70	0.058237493
25	0x3d82c289	0.06384761
26	0xbd78b846	-0.06072261
27	0xbde3fae8	-0.11131841
28	0xbe1e87ba	-0.15481463
29	0x3d3908b7	0.045174327
30	0xbcd561e3	-0.026047653
31	0x3e1db370	0.15400481
32	0xbe231818	-0.1592716
33	0x3d45c68f	0.048285063
34	0xbd893006	-0.06698613
35	0x3e1e5af9	0.15464391
36	0xbdbb65ee	-0.09150301
37	0xbda6360f	-0.081157796
38	0xbd74ae1d	-0.05973636
39	0x3d2632dc	0.040575847
40	0xbe191e52	-0.14952973
41	0xbe00eb5c	-0.12589782
42	0xbdfa25df	-0.122142546
43	0x3e04b221	0.12958576
44	0x3d313d99	0.043271635
45	0xbd902e87	-0.070401244
46	0xbce8bf28	-0.028411463
47	0xbc7e1521	-0.015507967
48	0xbd70cbca	-0.0587881
49	0x3dee1f77	0.11627095
