time_series_forecasting/saved_models/CNNForecastingModel/20-03-2024-001009_NO1_epoch_1.pt (torch, 260779 bytes, 7 tensors)

conv1.weight f4 [64, 6, 3]
00000000: 88f3 743e 482a 1f3e 35a2 35be 0728 5d3d
00000010: 117a cdbd cca5 593e 1ddc 3ebe 702a 14ba
00000020: 9b0b 44be 8be4 a0bd 5025 38be 4d7e 113e
00000030: 97d4 1abe 8e47 e5bd 352d 0f3d 2d7b 69be
00000040: e7d2 af3c c318 0f3e 4faf 24be dcdd 81be
00000050: 8e0d 333d 8216 e13d ac9b 18be 9e54 633e
00000060: 008f 103e 90d8 8c3c 0b20 c93d 2f0b 0dbd
00000070: 24e8 ac3d 110f ac3d 8cc0 b5bd 4e51 e0bd
00000080: 68a7 45be 9033 ed3d 2735 2b3e f409 203c
00000090: 50dc 4f3c 2641 263e acb7 ee3d 5ab6 02be
000000a0: f68e 2f3e 800b d73c 5cbb 8b3e 6bbd 233d
000000b0: f425 b3bb 65aa 03be b55b 133e 464a 043e
000000c0: 80d3 15be a572 393c b1e1 38be 1654 4dbc
000000d0: 4209 8bbc cd71 e73d 5476 c0bd a938 86bd
000000e0: 383d 8ebd 35b5 653d 7e91 0d3e 638f 72be
000000f0: 5a39 1abd 8c03 973d 4982 01be af28 4ebe
00000100: fd60 743d 233a 943d c4a4 573e 2b6e 593e
00000110: 7bd0 213e 8f85 eebb 359c 0e3e e2d3 66be
00000120: d0dd c13c 4ff7 193d 6ae7 39be ac7a c5bc
00000130: 93b8 c33d 52d6 663e 03ca 77be 57bd 03be
00000140: 440f b9bd 7c07 8fbd 3b50 b7ba 33f0 bc3d
00000150: b76b f8bd ba48 e0bb ce91 e63d 55de 653e
00000160: 6bb2 88bd b1e0 aa3d 5416 5f3d b7b8 dc3d
00000170: 4112 4b3e 8fa3 3dbd 95d3 1c3d 31b4 363c
00000180: 53b2 75bc b828 4ebc 9e17 693e de78 febc
00000190: c581 bebd 8e84 fc3d 65d7 56be e021 373e
000001a0: 3761 ce3c ed09 4f3e 3fab fe3c 3aa4 303e
000001b0: 77af 44be bbca 453e 4924 363e e8c8 68ba
000001c0: 2aee 99bc 9601 ecbc fdeb 023d cfbc 8cbd
000001d0: ab11 1b3e 12fc 113d 7cf5 d7bd 8ce0 05be
000001e0: a3ec acbd 2851 b5bd 7c1c febd 3a7f 3ebe
000001f0: 1020 31be a26a 243d 84ae 93bd a6f2 aabd
00000200: fe58 c13c 7563 0d3e 941f 133e 394b e2bd
00000210: 871f 14be 8c82 0f3d 76ca 63be fdda 9e3d
00000220: 0980 2abe 6c4b 173e 26c9 37be 6cd4 263e
00000230: 9ece 8c3d 2036 c13b fce8 c1bd 0aac dbbd
00000240: 2e9c 683e e2eb d43d b2a6 633e 1060 4abe
00000250: b8f8 123d 38f3 e4bd 2bbb 00bd eb05 1d3e
00000260: dfc1 6cbd f44d 523e 4965 02be 5c8a 00be
00000270: bcd2 4c3e e4dc d73d 796f 4d3c a17a 6d3e
00000280: 4649 28be 7063 903d 997d 383e bd1e e0bd
00000290: e9e9 813e 8eee 9b3d 46fc 673d 9550 6cbe
000002a0: 1e1d be3d f4d5 f63c ba9c 693e f881 c3bd
000002b0: d1c4 143e df9e fa3d 95a3 1f3e 79cd 41be
000002c0: 09ca d1bd 9b1d 4abe eacd 2fbe 9df6 9f3c
000002d0: 5d0c ef3d ab5c f53c 8dae 153e afeb 16be
000002e0: d13e 4e3c 13ab 48be 75c0 a6bd 8e73 9ebc
000002f0: 879e 4f3e a870 fb3d 2261 643d fb18 bcbd
00000300: 53ab f0bd d3b1 093e 87b3 00bc f3e7 173e
00000310: 9865 13bd e982 e1bc 4f53 2bbe 1af3 163d
00000320: 5a8f 053e 3687 61bd 7a57 513e fe36 6d3d
00000330: 1900 ec3d de33 6cbe dad2 573e 96c6 72be
00000340: 52bf 4b3e 4fab 3cbe c63f 043e 3743 50bd
00000350: 8fb8 10be 0d13 223c 8c9e 60be ce46 4ebd
00000360: b89d 4e3e 30a5 17be e9b4 91bd 641a 11bd
00000370: a260 a73c c20c 93bc ea81 5ebd e034 aebc
00000380: 2d84 eabd 5e55 d13d 3a47 f0bd ebec 11be
00000390: e2ca 883d e591 15be f682 083d e626 503d
000003a0: f4d9 e53d faf1 03bb dd65 a6bd c8ac 393e
000003b0: cdb3 95bd 3184 3ebe d7ef 643d dc77 0bbe
000003c0: f29d c6bc 9977 6a3e 2556 10be 881f fabc
000003d0: 7bd4 08be be40 073d f26e 4d3a e596 03be
000003e0: d9c9 2dbb 79a4 9c3a 15e9 443e 48c3 21be
000003f0: 0255 5439 e3cc fd3c 59af 1abe 5603 30be
0.23921025 0.15543473 -0.17737658 0.05399325 -0.10033048 0.21254653 -0.18638654 -0.00056520756
-0.19145052 -0.07856091 -0.17982984 0.14208336 -0.15120159 -0.111952886 0.034955222 -0.22800894
0.02146287 0.1397429 -0.160825 -0.25364578 0.0437141 0.10990621 -0.14903134 0.22200248
0.1411705 0.017193109 0.09820565 -0.034434494 0.08442715 0.08401311 -0.08874616 -0.10953008
-0.19302142 0.115821004 0.16719495 0.009767998 0.012686804 0.1623579 0.116561264 -0.12764874
0.17144379 0.0262506 0.2729138 0.039975565 -0.005467171 -0.12857969 0.14390452 0.12918958
-0.14631462 0.011318837 -0.18054844 -0.012532255 -0.016972188 0.11301003 -0.09397569 -0.06553776
-0.0694527 0.056081016 0.13825032 -0.2368751 -0.03765235 0.073737234 -0.12647356 -0.20132707
0.059662808 0.07237651 0.21058947 0.21233432 0.15802185 -0.007279105 0.13926776 -0.22541764
0.023665339 0.037589367 -0.18154684 -0.024106346 0.09556689 0.22542694 -0.24198155 -0.12865196
-0.09036115 -0.069838494 -0.0013985703 0.09225502 -0.1212992 -0.006844607 0.11258279 0.22448094
-0.066746555 0.08343638 0.054464653 0.10777419 0.19831182 -0.04629856 0.038287718 0.011151359
-0.014996129 -0.01258295 0.22762915 -0.031063493 -0.09302095 0.1232997 -0.20980604 0.17884016
0.02519284 0.2021863 0.031087516 0.17250147 -0.1920756 0.19315617 0.17787279 -0.0008880035
-0.018790323 -0.02880935 0.031963337 -0.0687195 0.15143459 0.035640784 -0.10544869 -0.13073939
-0.08443572 -0.0885337 -0.12407777 -0.1860322 -0.17297387 0.040140755 -0.072110206 -0.08347063
0.023602005 0.13807471 0.14367515 -0.11049504 -0.14465152 0.03503661 -0.22245201 0.077566124
-0.16650404 0.14774865 -0.17947826 0.1629197 0.068753466 0.005896345 -0.09468266 -0.10726173
0.22715828 0.103965536 0.22231558 -0.19763207 0.035881728 -0.11179203 -0.031428497 0.15334289
-0.057802077 0.2053755 -0.1273395 -0.1255278 0.20002264 0.105401784 0.012538784 0.2319131
-0.16434202 0.07050216 0.18016662 -0.10943363 0.25373772 0.0761386 0.05663707 -0.23077615
0.092828974 0.030131318 0.22813693 -0.09546274 0.14528205 0.122373335 0.15589745 -0.18926038
-0.10243613 -0.19737856 -0.17168394 0.019526774 0.1167228 0.029951414 0.14617367 -0.14738344
0.012588219 -0.1959651 -0.08142177 -0.01934221 0.20275317 0.12277347 0.055756696 -0.09184452
-0.117514275 0.13446741 -0.007855303 0.14834575 -0.03598556 -0.027528243 -0.16730998 0.036852933
0.13042966 -0.055060588 0.20443526 0.057913773 0.11523456 -0.23066661 0.21076527 -0.23708567
0.19897202 -0.18424724 0.12914953 -0.05084535 -0.14132904 0.009892237 -0.21935481 -0.050360493
0.20177352 -0.14809108 -0.07114584 -0.03542556 0.02043182 -0.01795042 -0.054323114 -0.021265447
-0.11450992 0.102213606 -0.117323354 -0.14250533 0.06679322 -0.14606436 0.03332802 0.050818346
0.11223212 -0.0020133243 -0.08124898 0.18132317 -0.07309685 -0.18605115 0.05589279 -0.13619941
-0.024245236 0.22897185 -0.14095362 -0.030532613 -0.13362305 0.033020727 0.00078366615 -0.1285053
-0.0026518016 0.0011950872 0.19229539 -0.1579715 0.00020249563 0.030981487 -0.15105952 -0.17188773

conv1.bias f4 [64]
00000000: 32d1 673e 05d4 0c3d 549e 14be db48 d7bd
00000010: 15f5 033d b5c0 353e 3e76 0e3e c878 fdbb
00000020: ba15 9fbc f355 463d e4ae 0ebe 9258 b73b
00000030: 2069 943d b056 14be b20e 003e a66a 923d
00000040: 5b40 ef3d 7bcb 783e c730 7f3d 241b 473e
00000050: f11a 003e db48 1dbe f868 3b3c db93 84bd
00000060: cd70 923d 536c 2ebe e563 17be c371 9f3c
00000070: c0b5 543e f4c3 1bbd d252 843c d7e9 503e
00000080: 4df0 e5bb fdef 5dbd ebdf 8f3d ac22 aa3d
00000090: 49c6 37bd a7a5 17bd f1f7 90bd b0bd 8d3d
000000a0: 1269 b43d ddb0 623e 4cec 2cbe 6b22 3a3e
000000b0: 950f 2cbe e557 ffbd 481e 5b3d be0b 8dbd
000000c0: c4f6 1f3e c4fe 04be f755 49bd ee24 df3d
000000d0: 7633 38be e171 a3bd 8e6b 5f3e f72d 4e3e
000000e0: d121 303e 7a03 8a3d b331 1dbe 5ed1 4f3d
000000f0: a81c 8d3d 4980 92bd 0221 4e3d 228d 703c
0.22638395 0.034381885 -0.14513522 -0.10511943 0.03221615 0.17749293 0.13912293 -0.0077353455
-0.01941954 0.04842181 -0.13933903 0.005595275 0.072466135 -0.14486194 0.12505606 0.07149248
0.11682197 0.24296372 0.062302377 0.19443947 0.12510277 -0.15359823 0.011438601 -0.06473514
0.07150421 -0.1703351 -0.147842 0.019463426 0.20772457 -0.038028672 0.016152773 0.20401703
-0.0070171715 -0.05418395 0.07025131 0.083073944 -0.044866834 -0.037023213 -0.07078541 0.06920946
0.08809103 0.2213778 -0.16887015 0.18177192 -0.16802819 -0.124679364 0.053495675 -0.06887005
0.15621477 -0.1298781 -0.049154248 0.10895716 -0.17988381 -0.07980705 0.21818373 0.20134722
0.172004 0.06738944 -0.1535099 0.050736777 0.06890231 -0.07153375 0.050324447 0.014682086

conv2.weight f4 [128, 64, 3]
00000000: 4887 9abc 633c 923d 4fd2 8cbd 464f e6bc
00000010: 2395 433d b719 87bd ab5c 3f3d 95fc 97bb
00000020: 444d 30bd 7b2a 79bd 81d9 343b ff47 c4bc
00000030: e936 083d 5d8e 95bc 5411 50bd 360c 5cbd
00000040: 06ae 243d 3c16 843c 9377 39bd da9e 4ebd
00000050: 06af 06bd be22 dbbc 6079 4a3d dd36 76bd
00000060: 031f 923d 4fef d239 6455 083d 58cb 72bd
00000070: d5b2 f13c fefc 853d 0b4a 26bc a325 0f3d
00000080: 4d35 8b3d e3e4 79bd dabe 42bd 6b02 e2bc
00000090: 80e6 38bd 7b8d 1bbd e12f 0e3d f555 36bd
000000a0: 1a82 9e3d f620 43bd e4e4 873d 69b5 26bd
000000b0: 2e3d 6cbc 54f3 e8bc 7144 473d 49c7 c1bc
000000c0: 6130 6fbd 1ec1 033d 948f 463d eb9c 4cbd
000000d0: 694f 5eba 98da 57bd 04d7 00bd 33b2 8fbc
000000e0: e9d4 7cbd aaa0 603c 8b8c e5bc 6115 973d
000000f0: 8f2c e03c c8db 443d 24f3 613d 28a7 51bc
00000100: 40ab 8cbd cf1d e1bc 46f7 663d 2a3f 0e3d
00000110: 2b38 adbc 9301 92bd 02ba 98bd fb69 5dbc
00000120: 6c7a c63c f7c1 873c 29dc fa3c ecb0 f0bc
00000130: 62ed 373d 38db b03c d402 40bd d3ed bf3c
00000140: c2e7 6fbd 70c5 cd3c 2f63 81bd de11 f33c
00000150: 6825 1a3d 9822 0b3d 4497 97bd 5757 813d
00000160: f225 973d 80dd 57bd 759f 8f3d 8d86 5d3d
00000170: 4df0 973c 6284 37bd c98e 663d ef33 7d3d
00000180: be0a 70bd 9c86 a3bc b2ab 6e3d 5395 c7bc
00000190: 8619 26bc 7543 273d 4316 023d 25a9 00bd
000001a0: c850 7b3c 949e 5abc dc6d 6b3d ce0b dfbc
000001b0: 0480 5dbd 8805 5bbd 28b9 9abd f3cc bc3a
000001c0: 4689 9a3d 9f76 c13b 3063 c4ba a5c4 88bc
000001d0: dd70 2e3d f798 7f3d 1241 b4bc b021 7ebd
000001e0: e6ee d3bb 7599 3d3d d7ea d6bb de26 283d
000001f0: abba 303c 5f58 0a3d f9c1 2e3d 53f0 953d
00000200: 0f64 cabc 282f f4bb 23f2 b1bc 7e0d 15bd
00000210: ad10 fdbc f05b 83bd ef3f 0abc 09fb c63b
00000220: 9078 a63c e0fc 013d 3cea 293d 439b 9e3c
00000230: 2bf1 943d ef43 983c f93c 92bd 7332 e23a
00000240: 6d05 68bd 412d 643d 2618 bebc 8732 303d
00000250: 6a15 33bd e935 543d ba18 3b3d 3e05 863c
00000260: 3b19 8f3d b68e 28bd 6c25 11bd 4a19 5abd
00000270: cd0d 893d 782f 4c3d a738 72bd e450 efbc
00000280: 59f4 80bb a26e 54bd 305f 3f3d ad65 7fbd
00000290: 66d6 11bd 6a79 643d 6a31 0bbd 8a94 87bd
000002a0: c851 6dbd 98e6 ed3c d41c 9f3d 621f 823c
000002b0: 3c0c c13c 9a38 79bd d603 e43b d45f a4bb
000002c0: 1037 8c3c c195 963d 9dfc c73c 90b1 2cbc
000002d0: bfe1 5d3d 8fb2 353d 963c 8dbc 6c71 2e3c
000002e0: 1a5e 513d e2c6 75bd 26f2 8f3d 2b1a 103d
000002f0: 27dd ac3c a297 acbc bfde 6fbb 41bb 7cbc
00000300: 4979 3b3d 1899 73bd 13b6 7bbd 7a5d efbc
00000310: 1f27 b63c 0003 02bd 292a 363c 1888 82bd
00000320: 28c2 6b3d 48e7 fbbc 522f 953c c99f fbbc
00000330: 3efe 113d 419b 14bc d748 adbc aee6 4e3d
00000340: 7994 5e3d 4c73 933c 323e 1e3d b9e8 843a
00000350: 0fff 31bd 8883 87bc 2f31 bfbc eca6 e63b
00000360: 221f af3c d93e bfbb 9608 123c afb2 a63c
00000370: ab3d 83bd b606 82bd 9f97 6a3d 9432 993c
00000380: cfc6 8d3d 961e 0dbc ad52 88bd 8edd 783c
00000390: 1271 973c ee39 393d 02c7 a53c de79 e43b
000003a0: d847 f1bc 0659 31bd 8d29 e9bc 420d b7bc
000003b0: 07a3 25bd b4f4 98bd 31bf 2dbd 645b 65bd
000003c0: 5ee0 8a3d bfe5 d0bc c746 a53d 42e0 793d
000003d0: 4da6 80bc 9014 7dbd fe03 e9bc 40b2 babc
000003e0: 08e9 20bd c702 223d 9647 d83c 7464 10bc
000003f0: 7f12 69bd 45ee 163d 6cd8 6e3d 41ac 3b3d
-0.018863335 0.07140424 -0.06876051 -0.028113972 0.04774965 -0.065967016 0.046719234 -0.0046382644
-0.043042436 -0.06083153 0.0027595463 -0.023960112 0.03325549 -0.01825636 -0.050797775 -0.053722583
0.040205024 0.016123883 -0.04528005 -0.05044446 -0.03288176 -0.026749965 0.04943216 -0.060110915
0.07134821 0.0004023262 0.03328456 -0.059275955 0.02950422 0.06542395 -0.010149489 0.034948003
0.06797276 -0.0610093 -0.04754529 -0.027589044 -0.045141697 -0.037976723 0.03471363 -0.04451557
0.07739659 -0.047638856 0.06635454 -0.04070035 -0.014418883 -0.02843634 0.048649255 -0.023654597
-0.058395747 0.032166593 0.04847677 -0.049954336 -0.0008480461 -0.0526987 -0.031455055 -0.017541027
-0.061726484 0.01371018 -0.028021118 0.073771246 0.027364997 0.048061162 0.055163518 -0.012796201
-0.06868601 -0.027480034 0.056388162 0.034728207 -0.021144947 -0.071292065 -0.07457353 -0.013514037
0.024228297 0.016571982 0.030622559 -0.029381238 0.04490412 0.021588907 -0.046877697 0.023428833
-0.05857063 0.02511856 -0.06317746 0.029671606 0.03763333 0.033968538 -0.074018985 0.06315487
0.07380284 -0.052701473 0.07012836 0.054083396 0.018547202 -0.044803984 0.056288514 0.061817106
-0.058603995 -0.019961648 0.05826921 -0.024363196 -0.010137921 0.040835816 0.03175951 -0.03141131
0.015339084 -0.013343472 0.057477817 -0.027227309 -0.054077163 -0.053472072 -0.07554847 0.0014404341
0.07545714 0.0059040333 -0.0014983173 -0.01669533 0.042588104 0.062401738 -0.022003684 -0.062043846
-0.006467688 0.046288926 -0.006558757 0.04105269 0.010786693 0.033775683 0.042665455 0.07321229
-0.024705915 -0.0074519105 -0.021721905 -0.03638982 -0.03089174 -0.0641402 -0.0084380945 0.006072406
0.02032116 0.0317353 0.04148315 0.019361144 0.07272562 0.01858708 -0.07140536 0.0017257467
-0.0566458 0.05570722 -0.023204874 0.043016937 -0.043721594 0.051809225 0.045677878 0.016359922
0.06987234 -0.041151725 -0.03543608 -0.053246774 0.066920854 0.049849957 -0.05913606 -0.029213376
-0.0039353785 -0.05186332 0.046721637 -0.062352825 -0.035604857 0.055779852 -0.03398267 -0.066201285
-0.05793932 0.02904062 0.077691704 0.015884105 0.023565404 -0.060844995 0.006958465 -0.0050163064
0.0171161 0.07352782 0.024412448 -0.010540381 0.054170366 0.04435974 -0.017240804 0.010647159
0.051115133 -0.060004123 0.07028608 0.035181206 0.021101547 -0.021068398 -0.0036601273 -0.015425504
0.045769963 -0.059472173 -0.061452936 -0.029219378 0.022235451 -0.031741142 0.01111845 -0.06373614
0.05755821 -0.030749932 0.01821104 -0.03071584 0.035642855 -0.009070219 -0.021152897 0.050512962
0.054340813 0.017999314 0.038633533 0.0010140158 -0.043456133 -0.016542211 -0.023338882 0.0070389416
0.02137715 -0.0058363494 0.00891318 0.020348875 -0.064082466 -0.06348936 0.057273503 0.018700875
0.06922685 -0.008613249 -0.06656394 0.0151895415 0.018486533 0.04522126 0.020236496 0.0069725355
-0.029453203 -0.04329779 -0.028462196 -0.022345189 -0.040438678 -0.074685484 -0.042418662 -0.05599536
0.06781076 -0.025500176 0.0807014 0.061004885 -0.015704298 -0.061787188 -0.028444286 -0.022790074
-0.039284736 0.03955343 0.026401322 -0.008813012 -0.056902405 0.036848325 0.058311865 0.04581857

conv2.bias f4 [128]
00000000: b5d7 93bd 3d9f 423c de22 a63c f39f 813c
00000010: 556c 0ebd cd62 05bd 1b10 8e3d 8470 1ebd
00000020: a3c5 373d 9fa9 5cbc c1b3 4d3d 6060 81bd
00000030: 883c 71bc 8e9b 89bc 9cc0 2ebd 8d1d 49bd
00000040: d9dd 593d f3cf 0c3c d52f 7cbd c2ae 1cbd
00000050: 4078 143d 7d4c 223d 09ec 95bd 2fc3 3d3d
00000060: eb39 583d 892c 863d a52b 743d 4d53 853d
00000070: 90e2 61bd 1c30 733d 285b 2dbc 1bbb e2bc
00000080: b254 683c a28e 813d 302b ffbc 639f 113d
00000090: 1c43 dc3c 118c 0bbd b788 d73a 445a 213d
000000a0: 25e4 f83c 3186 1bbc 4d04 1abd 9799 5cbd
000000b0: fca1 cc3c b1c6 4e3d 1b72 103d b2c2 0fbd
000000c0: 4d0b 3c3b 8b18 b4bb 36cd 333d 7537 24bd
000000d0: 74e8 1ebd 7328 263c d8fa 0b3d 0dcb e2bc
000000e0: e45a b2bc 8e41 a7ba 36dc 963d ff32 623d
000000f0: 11b9 0dbd e164 5e3d 5980 92bc 5553 533d
00000100: 9102 763d 3cc7 8e3d fee3 843d c229 01bd
00000110: 75fc babb c6d1 00bd f592 9a3d b563 1b3c
00000120: be36 80bd 1df6 2e3d c520 71bb 2f5e 4b3d
00000130: 8454 923c 70b5 2cbd 3cfd a2bb 4911 523d
00000140: 80c1 233d 556f 13bd e624 9ebd 7c80 5a3b
00000150: 2573 6e3d 5c68 2cbd fd9b 97bd 3fed 113d
00000160: ed0d 4ebd 120d 313c 46b8 2cbd f467 07bd
00000170: 6074 a9bc 7d88 9abc d38d 6cbc 525d 8a3c
00000180: 6651 3dbd 4645 313d 7571 70bd 7708 883d
00000190: a511 0e3a 45e2 e53c f860 89bd 5eb0 29bd
000001a0: 8121 a23b 33fb 0cbd b366 3fbd 3227 24bd
000001b0: 736e 1cbc 5f25 b93c a5b4 f7bc 2eec 09bd
000001c0: 96e9 c8bc fc37 29bd 45f0 04bc 513a 8c3d
000001d0: 733c 233d dadd 4e3c 5caf 9cbd 6764 86bd
000001e0: fc1d 563d 6a2a 9b3d ab1d 8abd ded7 3fbb
000001f0: 4b13 55bd 8c4c 09bd 9884 c3bc 9c5e 453c
-0.07218877 0.011878786 0.020280298 0.01582334 -0.034771282 -0.032564927 0.069366656 -0.038681522
0.044866215 -0.013468175 0.050220255 -0.0631721 -0.014723904 -0.016797807 -0.042664155 -0.049100447
0.053190086 0.008594501 -0.061569054 -0.0382526 0.03624749 0.039623726 -0.07320411 0.04632872
0.05278961 0.06551463 0.059611935 0.06510029 -0.055147707 0.059372053 -0.010580815 -0.02767711
0.014180349 0.06326033 -0.031148523 0.035552394 0.026887469 -0.034069125 0.0016443942 0.039392725
0.030382225 -0.009492443 -0.037601758 -0.053857412 0.024979584 0.050482456 0.03526507 -0.035097785
0.002869326 -0.00549609 0.043896876 -0.04009195 -0.038795903 0.01014148 0.03417477 -0.027684713
-0.021771856 -0.0012760626 0.07366221 0.055224415 -0.03460032 0.054295424 -0.017883467 0.051593143
0.06006104 0.06971595 0.064887986 -0.031533964 -0.0057063648 -0.031450056 0.07547561 0.009484221
-0.06260441 0.04271518 -0.0036793214 0.049650367 0.017862566 -0.04216522 -0.0049740355 0.051286016
0.039979458 -0.035994846 -0.077218816 0.0033340743 0.05821528 -0.042091712 -0.07402799 0.035626646
-0.05030625 0.010806339 -0.042167924 -0.03305812 -0.020685375 -0.01886391 -0.01443811 0.016890202
-0.046220206 0.043278955 -0.05870195 0.066422395 0.00054194994 0.028061995 -0.067079484 -0.041427962
0.0049478416 -0.03441925 -0.0467288 -0.040076442 -0.0095478175 0.022600828 -0.030237505 -0.033672504
-0.024525445 -0.041313156 -0.008113925 0.068470605 0.03985257 0.012626136 -0.07650635 -0.06562119
0.05227469 0.07576449 -0.0674394 -0.0029272954 -0.052020352 -0.033520266 -0.023866937 0.012046482

dense1.weight f4 [50, 768]
00000000: dafb 013d c4db 5b3c e986 39bd 3861 513b
00000010: 9b46 8cbc e980 1d3c 4792 f0bb 2669 203c
00000020: 0dc1 8bbc bb66 6abc ee05 1dba 33a6 3a3d
00000030: 339c 93bc f2c1 863c f706 893c 7001 35bb
00000040: e8a1 4fbb 7039 1c3a 335f 443c 6dd5 283d
00000050: 33c2 0fbc f31a 163c 2ccd f63c 0d21 1f3c
00000060: 03c7 4c3b 494f 87bc 3c13 97bc 4d8b 893b
00000070: 0dd7 d2bb 9cd4 8abc 8007 c43c 9696 c3bc
00000080: c63f c93c 5b3b e8bc b753 46bb 45e7 a0bc
00000090: 6d64 a5bb 5001 21bd b75a c9bc 969b 203d
000000a0: 0b96 9c3c 452e 833c eefc 86bc 27b0 263c
000000b0: 878d ac3a 84f3 25bd 3f9e d0bc aad8 33bc
000000c0: 8b07 11bb f0b1 b03c 421d 5ebc 5281 28bc
000000d0: 3da4 fabb 1928 72bc 7068 02bd 3fa5 07bd
000000e0: 9551 043c 86a4 323d 3ccb 373d 7879 9f3c
000000f0: 0c9e 913c 48c0 e43c f7e5 073d e8c5 c7bc
00000100: d593 de3c 2204 a6bb 644d 3c3c a16a 7f3c
00000110: 775a 463c 57e5 b2bc eb2c a1bc c9aa 483c
00000120: 6c10 1ebd 91b0 483c f728 063c b207 d73b
00000130: c99b 3e3c d9b8 f33a eea5 563c 0e12 13bd
00000140: 46df debc fd89 d63c 7894 de3c 386c aebc
00000150: 7ff7 e23c 2e5d 1a3b 16f5 a13c e0b7 01bc
00000160: 6faf 26bc 33fe 13bd fc13 60bd 4f77 323b
00000170: 196c 82ba 9a8b 613c baf9 2abd df6f cfbc
00000180: e59c 69bc 1292 2a3b dc38 bbbc 4b76 8c3b
00000190: 708c aabb d837 e4bc 972f ed3c 7fbf 083d
000001a0: 61bb 85bc d5a7 793c d894 76bc fdd4 c3bc
000001b0: 637c 0b3d fe08 36bc 0d19 bb3b 432e 3aba
000001c0: 6f12 4ebd 62cb 04bd fd1a b53c 5caf 903c
000001d0: c05e 7a3b 4f83 af3c 2f5a b53b 5f92 efbb
000001e0: b9d6 c43c 1990 d33a f6e4 823b e234 bcbc
000001f0: 2ba1 d83c 89d8 01bd 32ac 953c b096 b9ba
00000200: a554 cebc 9de6 363c b50f 8fbc 7531 f4bc
00000210: 48fb acbc b637 07bd 047e bcbc 089d 583c
00000220: f8d4 1bbd 9dd7 ffbc e37a 293d 71ef 683d
00000230: 47cf 183d 465d 1d3c 18e5 8cbc 3b78 98bd
00000240: 79fa a53c 24f9 193d 6288 65bc d794 05bd
00000250: 96aa d83c e183 823c 08c3 273b 34c3 e1bb
00000260: 2448 143c 8e4c 123d dbb3 553c 0f06 1ebb
00000270: 9b5f a7b9 ab4b aa3c 7bc1 803c e233 d0bc
00000280: f043 c8bc a4a5 1dbd 3138 92bb 05b8 ea3b
00000290: dac0 cb3c b091 81bc 1bc8 ba3a 5f7a 183d
000002a0: 9348 02bd 31e7 a03b fd47 073d 802d 15bc
000002b0: 452e f33b 009e 8a3c 0290 90bc 1562 ecbb
000002c0: 597e c53c 1d64 1a39 32c4 2abd 3138 063c
000002d0: dff0 213d 5279 023c 48fe e83c f161 b4bb
000002e0: 7c86 943b bb4f 903c e876 e3bc fe98 3bbd
000002f0: 4e46 9bbc 54d0 be3c cff8 b13c edea 103c
00000300: 3c95 373d 6c5d c6bc c618 143d 392f f0bb
00000310: 48ad 39bc f992 203c f842 363c d682 eebc
00000320: f4de 07bd f3e5 3abd af15 bebc 3522 8d3c
00000330: e419 19bd 18e7 5bbd 24ec e53c b663 72bc
00000340: fbe8 58bd 70eb 4cbd 30ad a93c 1aa0 09bc
00000350: a5b6 c5bc 9674 11bd 013e 03ba df9d 3fbd
00000360: e909 fd3c 9f8a 8f3c 4cd9 2ebc a03c 643c
00000370: 5398 943c 5ef1 2b3d d5f4 f0bc ab86 13bc
00000380: 541e cdbc cbc0 483c 5d6a 003c 227e 123c
00000390: 5e07 873c fe78 c2bc 3be2 043d f318 f5bc
000003a0: 072e c13c 744b 313c b4e3 a4bc 860c 0bbd
000003b0: 14e7 5ebc 05cb c4bc cb3c 0c3d 428f 3a3a
000003c0: 7c69 41bc 38bf 5d3c d552 203d 425a 58bc
000003d0: da9c fe3c 4855 0a3d 4a96 c0bc dc80 2e3d
000003e0: d569 ab3c b4d4 2abc e7a2 fdbc 895f 97ba
000003f0: 83ca 91bb dda3 a53c 1068 1a3c 9e35 d0b9
0.031734325 0.013419095 -0.045294676 0.0031948816 -0.017123511 0.009613254 -0.0073416564 0.009790694
-0.017059827 -0.014306719 -0.00059899583 0.045568656 -0.018018818 0.016449902 0.016726954 -0.0027619265
-0.0031682197 0.00059594866 0.011985588 0.041219164 -0.008774328 0.009161699 0.03012713 0.00971247
0.003124655 -0.016517298 -0.018441789 0.004197514 -0.0064343275 -0.016947083 0.023929358 -0.023875516
0.024566542 -0.028348615 -0.00302623 -0.019641528 -0.005047372 -0.039307892 -0.024579389 0.03921088
0.019114515 0.016013274 -0.016478028 0.010173834 0.0013164737 -0.040515438 -0.025466083 -0.01097695
-0.002212974 0.021569222 -0.01355678 -0.010284739 -0.0076489733 -0.014780068 -0.03183788 -0.033116575
0.008076091 0.043613933 0.044871554 0.0194671 0.017775558 0.027923718 0.033178296 -0.024386361
0.027170101 -0.0050664106 0.011493061 0.015589387 0.012106529 -0.021837873 -0.019674739 0.01224775
-0.03858988 0.012249128 0.008188478 0.0065621966 0.011633822 0.0018594518 0.013101084 -0.03590589
-0.027206074 0.026188845 0.027170405 -0.021291837 0.027705906 0.0023554075 0.019770186 -0.007917374
-0.010173663 -0.036131095 -0.05470656 0.0027231758 -0.0009950429 0.013766194 -0.041742064 -0.025321899
-0.014258598 0.0026027006 -0.022854261 0.0042865626 -0.0052047297 -0.02785866 0.028953357 0.03338575
-0.0163247 0.015237768 -0.015050136 -0.023905272 0.03405417 -0.011110542 0.0057097734 -0.00071022304
-0.05031055 -0.032420523 0.022107596 0.017661743 0.0038203448 0.021424918 0.0055344324 -0.00731115
0.024028169 0.0016140967 0.0039945794 -0.022974435 0.026444038 -0.031700645 0.018270586 -0.0014159288
-0.025186846 0.011163381 -0.017463544 -0.02980874 -0.021115914 -0.033012114 -0.023009308 0.013221033
-0.0380449 -0.031230742 0.04137696 0.056868974 0.03730705 0.009604758 -0.017199084 -0.07444807
0.020261036 0.037591115 -0.014009567 -0.032612648 0.02644853 0.015932025 0.0025598425 -0.006889725
0.009050403 0.03571754 0.013043369 -0.0024112498 -0.00031923954 0.020788034 0.015717259 -0.025415365
-0.024446458 -0.038488045 -0.004462265 0.00716305 0.024872232 -0.01581654 0.001425031 0.037226077
-0.031807493 0.0049103727 0.033027638 -0.009105086 0.0074212872 0.016921043 -0.017646793 -0.0072138407
0.024108099 0.0001472388 -0.041691013 0.008192108 0.039536353 0.007963495 0.028441563 -0.0055048396
0.0045326333 0.017616143 -0.02776666 -0.0458002 -0.018954422 0.023292698 0.021725086 0.008845073
0.044820055 -0.024214469 0.03615644 -0.007329848 -0.011332817 0.009800666 0.011124365 -0.029115122
-0.03317161 -0.045629453 -0.023203699 0.017228225 -0.037378207 -0.053687185 0.028066702 -0.014794281
-0.052956562 -0.05002922 0.020712465 -0.008399988 -0.024134943 -0.035511576 -0.0005006493 -0.046781417
0.030888515 0.017522154 -0.010671925 0.01393047 0.01813904 0.041978233 -0.02941362 -0.009004275
-0.025038876 0.012252997 0.007837859 0.008941205 0.016483005 -0.023739334 0.032442313 -0.029919123
0.023581518 0.010821212 -0.020128109 -0.03394749 -0.013604898 -0.024022589 0.034237664 0.0007116684
-0.011804935 0.01353436 0.039141495 -0.013205113 0.031080652 0.033772737 -0.023509163 0.04260336
0.020924488 -0.010426689 -0.030961467 -0.0011548857 -0.00444919 0.020219738 0.0094242245 -0.000397128

dense1.bias f4 [50]
00000000: 8b98 55bc b770 95bc 4112 c33c f9ee 243d
00000010: 98c6 cdbc 8d64 903c 5f18 b5bc 9aea 26bc
00000020: db38 77bc 6b1f 133d 70fa 14bc ab62 d43c
00000030: 67ed 0c3d 09d4 193d b842 633c 5b86 62bc
00000040: 1f72 34bb 3e86 8cbc 583e 4a3c 00d1 dabb
00000050: 7b0b 513c aa23 e1bc 1895 133d faa9 91bb
00000060: db0c 9d3c 0e24 1cbc 0bf3 77bc 37aa a43c
00000070: 98d3 803b 0dff 063d 96a1 ecba 1559 433c
00000080: 9427 113b 953b 7fbc cbf3 313d 5c61 813c
00000090: f7c0 9cbc 9b21 1c3c 225d f03c fcc3 f13c
000000a0: 4c11 65bc 2252 233d 5f28 0b3c a67c a83c
000000b0: 1108 12bc 5ada 353c aa30 8d3c fa69 2e3d
000000c0: 1858 1b3c 902c e4bc
-0.013036857 -0.018242223 0.023812415 0.040266965 -0.025119111 0.017626071 -0.022106348 -0.010187769
-0.015089239 0.035918634 -0.009092912 0.025925955 0.034406092 0.037555728 0.013870887 -0.013825978
-0.0027533842 -0.017153855 0.0123439655 -0.006677747 0.012759085 -0.027482826 0.03603086 -0.0044453116
0.019171169 -0.0095300805 -0.01513363 0.020100696 0.003931474 0.03295808 -0.0018053527 0.011923094
0.0022148835 -0.01557817 0.04344539 0.015793495 -0.019134982 0.009529497 0.029341284 0.029512398
-0.013981175 0.03987325 0.008493512 0.02056725 -0.008913056 0.011099422 0.017235119 0.042581536
0.009481452 -0.02785328

dense2.weight f4 [1, 50]
00000000: 0b6e a1bd 5a14 b8bc 5296 b0bd 1603 ddbd
00000010: 8b5f cf3c 000f f43d 2efb e03d b1b3 883d
00000020: ced8 84bd 9e74 fcbd ff7d 6a3d 2005 ef3d
00000030: 8dca b53c bfb6 143e f822 e53c 76f7 cb3c
00000040: a681 a63d 6f7e 833d e13f fe3d 2e14 183e
00000050: 652e a6bc 0b9c 9a3c 7a09 e0bd 39d4 f7bd
00000060: c343 453d 88eb 813d 28b5 53bd 0a32 e4bd
00000070: 8f86 0cbe fbfb 113d 4103 c3bc 74f1 153e
00000080: cf8a 0abe 730d 2d3d aebe 86bd 5fb7 153e
00000090: 5cef 94bd 7571 8bbd 172c 41bd 6573 943c
000000a0: b6b8 18be 2c64 00be 9499 fabd 2fca ef3d
000000b0: 41ca aa3c efcd 48bd 802d a1bc c3ca 48bc
000000c0: af33 6ebd e0e9 ee3d
-0.07882317 -0.022470642 -0.08622421 -0.10791604 0.025314113 0.119169235 0.10985409 0.066748984
-0.06486665 -0.123269305 0.057249065 0.116708994 0.02219131 0.14522837 0.027970776 0.024898272
0.08130197 0.064206 0.12414528 0.14851448 -0.020285795 0.018873235 -0.109393075 -0.12101025
0.048160326 0.06343752 -0.051686436 -0.11142357 -0.13723205 0.035640698 -0.023805263 0.14642888
-0.13529514 0.042249154 -0.06579338 0.14620732 -0.07272217 -0.068087496 -0.047161188 0.01812143
-0.14914212 -0.12538213 -0.12236324 0.11708485 0.020848395 -0.04902452 -0.019675016 -0.012255373
-0.058154758 0.11665702
