time_series_forecasting/saved_models/CNNForecastingModel/time_14-03-2024-19-03-13_epoch_1.pt (torch, 257737 bytes, 7 tensors)

conv1.weight f4 [64, 2, 3]
000000 81 5b 55 3e 27 18 be be 1f ac bf be d6 1e 99 3e
       0.20835687 -0.37127802 -0.37436005 0.29906338
000010 46 de 87 bc 10 c5 b8 3e 73 ac 95 3d c1 ce 18 be
       -0.01658548 0.36087847 0.07308283 -0.1492262
000020 a1 7d d1 3e e8 66 f8 3d fd 7e 24 3e 16 63 a2 3e
       0.4091616 0.12129003 0.16064067 0.31716222
000030 02 2b 54 bd cb ce 7a 3e 01 37 3d 3e c7 05 8d be
       -0.051798828 0.24492948 0.18478014 -0.2754347
000040 54 91 5b be eb a8 80 be 1b 7a a8 be 91 45 93 bd
       -0.21442157 -0.25128874 -0.3290566 -0.07191003
000050 0f e0 97 3d eb bb c9 be 41 2d 4e 3e 64 2a c5 3c
       0.07415783 -0.39401183 0.2013445 0.024068065
000060 4a 11 2c 3e 70 0e b4 be ad 98 77 bd 2d 97 17 3e
       0.1680347 -0.35167265 -0.060448337 0.14803763
000070 25 69 60 3e 1b a3 b8 bd b1 71 b9 be df 56 c8 3d
       0.2191511 -0.09015485 -0.36219552 0.09782194
000080 d1 b7 ce 3c 37 d5 d0 3d 08 5b 90 be 1a fb b1 3e
       0.025234135 0.101969175 -0.2819445 0.34761888
000090 a3 3f e8 3d ce f9 9f be 90 8e 0a 3e 7e 28 a8 be
       0.11340263 -0.31245273 0.13530946 -0.32843393
0000a0 91 79 39 3e 7b 5a 62 be 5b a8 8e be a4 39 94 be
       0.1811278 -0.22104828 -0.2786282 -0.28950226
0000b0 7e 5c 80 bd 48 0d db 3c ff 7d 06 3e 30 b2 9b 3e
       -0.062676415 0.026739731 0.13134001 0.30409384
0000c0 56 7a 8f 3e 7a 96 b6 bd 40 a7 93 3e e2 8e a3 3e
       0.28023022 -0.0891542 0.2883854 0.31944948
0000d0 55 e4 ac 3e 5c ee 8e be 05 93 ae 3e 8e 64 f2 3d
       0.33767954 -0.2791623 0.34096542 0.118355855
0000e0 84 e1 12 3d 25 f4 1f be 0c 90 c4 3d 86 3f 81 be
       0.0358596 -0.15620477 0.09597787 -0.25243777
0000f0 0c 34 7c be 96 5f fa bd 26 ba bd 3e 8c d9 e9 bd
       -0.2462923 -0.12225263 0.37056082 -0.11418447
000100 89 52 19 be 2c 87 5b be 1a c9 10 bd 29 93 d6 bd
       -0.14972891 -0.21438283 -0.035348035 -0.10477287
000110 76 65 25 3e a9 4f 09 3e b9 1a 32 3e 78 b9 9b 3e
       0.16151986 0.13409294 0.17393006 0.3041494
000120 a8 d1 a4 bd bb ba 84 be 12 77 48 3e 50 5f a4 3e
       -0.08047801 -0.25923714 0.19576672 0.32103968
000130 a6 e5 b5 3e 3e 69 94 3e 26 95 a1 3e 92 5d 74 be
       0.3552677 0.28986543 0.31559104 -0.23863819
000140 60 b8 19 be f6 77 a9 bc f1 e7 b3 bd 86 e2 2c be
       -0.1501174 -0.020687085 -0.08784474 -0.16883287
000150 29 4a c7 3e 39 fa cf 3e 98 93 a4 3e 4b 05 cc 3e
       0.38923767 0.40620592 0.32143855 0.39847788
000160 eb 83 45 3e 3b 6c 10 be 32 3a ac 3e df c2 3f be
       0.19288604 -0.14103787 0.3363815 -0.18726681
000170 9d 87 97 3e 25 4b b4 3c b4 c0 a6 3e af 6e ce be
       0.29595652 0.022008488 0.32568896 -0.4031882
000180 ff 2b 39 3e 7e 1b 3e be 0c 4c 42 bd ba 92 47 be
       0.1808319 -0.18565175 -0.047435805 -0.19489565
000190 25 a4 92 3d 51 d1 20 be f5 71 53 be fa dc fd bd
       0.07160214 -0.15704848 -0.2064894 -0.123956636
0001a0 0b 5b cd be dd 82 78 3e 12 f4 a6 bd e4 1f a5 3e
       -0.40108523 0.2426867 -0.081520215 0.32250893
0001b0 0c ea cc be e3 50 81 be 05 f6 db bd 4b ae 9e bd
       -0.40022314 -0.25257024 -0.10740284 -0.077480875
0001c0 0e ae 66 3d 78 0e e1 bd c6 83 94 bd 9f ec df bc
       0.056318335 -0.10989088 -0.07251696 -0.02733451
0001d0 80 d4 05 bd ff 74 fa 3d 63 ac 5c bb 77 c6 7f 3e
       -0.03267336 0.122293465 -0.0033672086 0.24978052
0001e0 b4 bf 32 be d9 9e b2 be e0 f5 18 3e 7c 28 94 be
       -0.17455941 -0.34886816 0.14937544 -0.28937137
0001f0 5b cb 8e 3e 75 95 96 be 92 87 5b 3e 1e 14 f8 bd
       0.27889523 -0.29410902 0.21438435 -0.12113212
000200 a6 72 da 3e 8d 26 a4 be 7f f4 d1 3d f1 de 00 3e
       0.42665595 -0.32060662 0.10251712 0.12585045
000210 99 ba cb 3e d2 82 4e be bf b4 8c be 79 82 8f be
       0.397908 -0.20167091 -0.27481648 -0.2802923
000220 c4 22 70 3d 20 2c 14 be 37 e4 c8 be 86 ef c3 bd
       0.058626905 -0.14469957 -0.39236614 -0.0956717
000230 77 2a 97 3e d8 a5 25 3e 8c 56 94 be da 49 e8 3d
       0.29524586 0.16176546 -0.2897228 0.11342211
000240 00 cf ad 3e c7 10 92 3d 5c 39 b3 bd 8c dc 7c 3e
       0.3394699 0.07132106 -0.08751175 0.24693507
000250 22 29 9d 3c 18 29 cc be b9 67 95 3e ec b6 57 bd
       0.019184653 -0.39875102 0.29180697 -0.052664682
000260 4d a1 e5 3d 33 1c 85 be 61 ec a0 be d0 72 6a bd
       0.11212406 -0.25998077 -0.31430343 -0.0572384
000270 12 df 99 be 82 51 2f be e8 d5 b3 3c 82 e1 76 be
       -0.30053002 -0.17120937 0.021952584 -0.24109462
000280 b8 7b b9 be ee f8 7e 3e 56 e2 8e be 1e e3 86 3d
       -0.36227202 0.24899647 -0.27907056 0.06586288
000290 77 5a 2e 3e 7b 21 85 be de 2e 6b bd c9 16 bf 3e
       0.17026697 -0.26002106 -0.057417743 0.3732207
0002a0 7e 00 a9 be 2f c5 0b be 15 83 b6 3e e7 56 63 3d
       -0.33008188 -0.13649438 0.35646883 0.0555028
0002b0 94 07 4f 3d ab 2c 94 be 38 44 9f 3e e2 f6 ad be
       0.050544336 -0.2894033 0.31106734 -0.3397742
0002c0 99 9a 01 be 4c 6b 8a 3c 70 83 d0 3e 99 20 99 3e
       -0.1265663 0.016896866 0.4072528 0.29907683
0002d0 db ee 99 3e 2b a3 f6 bd ab 39 88 3e 6f 9d 14 be
       0.30065045 -0.120428406 0.26606497 -0.14513181
0002e0 e7 7d a1 3d f9 00 1f 3e d0 79 8f 3e 7f db a6 bd
       0.07885342 0.15527715 0.28022623 -0.08147334
0002f0 72 35 36 3e 70 21 d8 bd 3e ea 83 3d 5a e4 24 be
       0.17793825 -0.10553253 0.064411625 -0.16102734
000300 1f db ab 3e bb 23 9a bd 75 3f 83 3d 8d 30 be bd
       0.33565614 -0.07526346 0.06408588 -0.09286604
000310 2e 6a 9e bd 73 ed a3 be 5d 1f 21 be a3 07 f5 3e
       -0.07735096 -0.32017097 -0.1573462 0.4785739
000320 8d 71 83 be 48 67 85 3e 86 c4 47 bd 4f 6d f5 bd
       -0.2567257 0.2605536 -0.048771404 -0.119837396
000330 cc e2 37 3e ac 77 06 be 70 3e 44 be af 65 d9 3d
       0.1795761 -0.13131589 -0.19164443 0.10615098
000340 61 67 8e be cd b0 81 be 81 1a c0 3e 81 4d 3b be
       -0.27813247 -0.253302 0.3752022 -0.18291284
000350 91 53 09 be 1f 8a 70 be 8f 67 ad 3e 48 94 64 be
       -0.13410784 -0.23490189 0.3386807 -0.2232219
000360 2a 33 96 3e 08 40 a5 be d2 90 36 be d2 98 f8 3d
       0.2933591 -0.32275414 -0.17828682 0.12138523
000370 bd 11 a0 be b1 ef 85 3a c6 4d 50 3e 13 0a 98 3e
       -0.31263533 0.0010218528 0.20342168 0.29695186
000380 13 a5 b5 3d c5 35 89 3e d2 c8 ad 3e 73 33 8e 3e
       0.08869376 0.26798835 0.33942276 0.27773628
000390 a8 7b 7d 3e 2e 38 d3 3d ac 80 af 3d 84 33 1e 3e
       0.24754202 0.1031345 0.08569464 0.15449339
0003a0 cb d8 bb 3e 8c bd 81 be b6 6e 9a 3e f3 67 de bd
       0.36688837 -0.25339925 0.3016259 -0.108596705
0003b0 ab f3 a9 3e 87 73 c2 3e fa 39 9b be ea 53 13 be
       0.33193716 0.37978765 -0.3031767 -0.1438748
0003c0 ad b9 cf be 49 87 ba bd 7c ce 50 3e 9a a8 b5 3c
       -0.40571347 -0.09107835 0.20391268 0.022175122
0003d0 b3 d3 07 be 7a 7c 45 be e4 88 45 be 91 56 ac bd
       -0.1326435 -0.19285765 -0.19290501 -0.08414949
0003e0 b6 15 65 ba 3a 30 77 3e 65 d1 22 bd e5 6c a0 3d
       -0.0008738892 0.2413949 -0.039750475 0.0783327
0003f0 6e 6b cb be 81 c2 a1 be 88 84 4e 3e 27 58 5a be
       -0.397304 -0.31593707 0.20167744 -0.2132269

conv1.bias f4 [64]
000000 54 8e 88 3e ee 15 cc 3e 5a eb 6f be cf ba bd 3d
       0.26671088 0.3986048 -0.23429623 0.092641465
000010 20 f6 3b bd fc 00 7a 3e 1a d6 8b be fd 28 bf 3e
       -0.04588902 0.24414438 -0.27311784 0.3733596
000020 ed 1f 28 3e 26 bc 97 be 5c 88 ac be 00 92 89 3e
       0.16418429 -0.29635733 -0.33697784 0.26869202
000030 6e 10 18 be 86 16 98 bd 63 19 b6 bd 2d d5 95 bd
       -0.14850017 -0.07426171 -0.08891561 -0.07316051
000040 e5 c1 c9 3e 34 92 3d 3e cf c5 80 3e 46 e8 18 be
       0.39405742 0.18512803 0.25150916 -0.14932355
000050 92 8e 36 3d 9e 78 28 be ae 98 87 3e 0f 12 62 bd
       0.04456956 -0.16452262 0.26483673 -0.055193003
000060 d8 86 1a bc ce 9d b5 3e 88 e8 8e 3e 0f ad 9f bd
       -0.009431563 0.35471958 0.27911782 -0.0779668
000070 04 4f 71 be 1d 8b 54 be 95 cc a4 be a6 60 a7 be
       -0.23565298 -0.20756193 -0.32187334 -0.32690924
000080 26 66 9e be 40 02 8f 3e f5 08 a1 3e 0f 14 4b be
       -0.30937308 0.27931404 0.31452146 -0.1983187
000090 5f 93 bb 3e 65 d8 82 3e 89 54 b9 3d c1 36 35 be
       0.36635873 0.2555572 0.09049327 -0.17696668
0000a0 c9 55 f8 bd 3c 83 40 3c bc 8a bf be 19 32 20 bd
       -0.12125737 0.011750039 -0.37410533 -0.039110277
0000b0 03 54 c3 bd 88 c2 d0 3e f6 a6 af be d4 82 9a bd
       -0.09537508 0.40773416 -0.3430707 -0.07544485
0000c0 26 65 b5 be e3 9d c6 3e c9 b3 c6 be 86 e1 a1 3d
       -0.35428733 0.38792333 -0.3880904 0.07904343
0000d0 8e cd c2 be 15 9a 1e be de 09 ad bd ba 3e 35 be
       -0.3804745 -0.15488465 -0.08449148 -0.1769971
0000e0 e6 33 a4 3e 2f a3 68 be d6 7d aa 3e 1f d0 db 3c
       0.32070845 -0.227185 0.3329913 0.026832638
0000f0 2c 8f 0f 3e a9 9a 5e be 47 4f be 3e 85 73 4c bd
       0.1401946 -0.21738686 0.3716986 -0.049914856

conv2.weight f4 [128, 64, 3]
000000 1a a8 6b 3d 4e 80 02 bd 4d 79 6a 3d 22 4d 4c 3d
       0.05753336 -0.031860642 0.057244588 0.049878247
000010 de 14 c5 3c c4 12 71 3d 1d 9e cf bc bf 2e 3b bd
       0.024057802 0.058855787 -0.025343949 -0.045698877
000020 12 5c 0c 3d 46 66 97 bc e3 bc 7c 3d f2 e2 65 bd
       0.034267493 -0.018481385 0.061703574 -0.056124635
000030 3c fa 73 3d 9c 0c 27 3d 36 7c cb 3c 03 2b 54 bd
       0.059564814 0.04078351 0.024839502 -0.05179883
000040 6c d1 c1 3b fa 74 d9 39 ba d2 a3 bc 49 10 12 bb
       0.0059148576 0.0004147662 -0.019997943 -0.0022287539
000050 f6 5d fd 3c fb 7c 43 bc 13 18 c9 bc 9b 09 fe 3c
       0.030928593 -0.011931653 -0.024547612 0.03101044
000060 ed 71 70 bd 1d 0d 83 3d b0 ca 89 bd 2e a5 ae 3c
       -0.058702398 0.063989855 -0.06728113 0.021318998
000070 47 f4 91 3d 71 ef 2a bc d0 e0 64 3d e2 cc c4 3a
       0.0712667 -0.010433064 0.05587846 0.0015014673
000080 69 90 81 bd 49 92 be bb f0 f1 17 bd 5f ba 61 bc
       -0.06326372 -0.0058157784 -0.037095964 -0.0137773445
000090 33 91 24 3d 14 86 4c 3d b8 ed 64 bb 1f 3b 26 bc
       0.040177535 0.049932554 -0.003493173 -0.0101459315
0000a0 55 53 3c bd e4 9e 47 bd bb 87 f2 3b ed 07 49 3d
       -0.04597791 -0.048735514 0.0074014342 0.049079824
0000b0 65 48 d5 3c 0c 5f 60 3d 8d cf 0f 3c 03 3b 26 bc
       0.026035497 0.054778144 0.008777511 -0.010145905
0000c0 2a 8e 7c 3c ae 21 d6 3c 87 eb b6 bc 14 76 0e 3d
       0.015414754 0.026139107 -0.022329105 0.034780577
0000d0 73 71 cf 3c 16 46 02 bd 48 5b 73 3d 23 0c 88 bd
       0.025322651 -0.03180512 0.059413224 -0.0664294
0000e0 97 7d fc 3c 81 2f 96 3d 6d ef 68 3b f2 75 7c bd
       0.030821605 0.073332794 0.00355431 -0.06163592
0000f0 25 04 c3 3c 64 23 83 3d 83 64 a2 bc 3c 5b 70 bd
       0.023805687 0.064032346 -0.019823318 -0.058680758
000100 8a 5e 95 3d 93 c2 41 bb 68 19 39 3c bb dc 12 bd
       0.072934225 -0.0029565438 0.011297561 -0.035855036
000110 9c 5f 00 3c 42 8a 90 bb 5b 94 30 bd 61 30 11 3d
       0.007835295 -0.004411013 -0.043110233 0.03544653
000120 38 fe e7 bc 64 53 44 3d d9 21 a9 3d 54 0b a5 bc
       -0.028319463 0.04793109 0.08258409 -0.020147003
000130 55 0a 1e bd ff c2 71 bd 5a 85 53 bd 60 70 51 bd
       -0.038584072 -0.059023853 -0.051640846 -0.05113256
000140 5f 6b 04 3d 47 87 30 bd 38 c4 48 bd db 15 1d bd
       0.03232896 -0.04309776 -0.049015254 -0.03835092
000150 4c 83 17 bd 75 a9 93 3d 20 45 05 bd 14 e8 ee bc
       -0.03699045 0.07210056 -0.032536626 -0.029163398
000160 91 d2 3c bd f4 11 90 3d 2f 45 b1 3c c8 1e 8a 3d
       -0.04609925 0.07034674 0.021639435 0.06744152
000170 d4 3d 8d bd d1 f4 eb bc a1 63 2e bd fc 86 88 bd
       -0.068965584 -0.028803261 -0.042575482 -0.06666371
000180 ab 61 57 bd 6e fb d0 3c fc cf 76 3b 72 a7 53 bd
       -0.052583378 0.025510516 0.003766059 -0.05167336
000190 2c 97 14 3d 6c bb 2c bd 85 0e 05 3c a6 ef 6b 3c
       0.03627698 -0.042170927 0.0081211375 0.014400398
0001a0 f1 cc ee 3c 42 2d cf 3c cb 14 41 3d 5e 1d 91 3d
       0.029150458 0.025290135 0.04713897 0.070856795
0001b0 a7 ec 90 bd 2c 20 db 3c 20 8e 7b 3c 35 ec 12 3d
       -0.07076388 0.02674874 0.015353709 0.035869796
0001c0 6a 9d fa 3c ed 92 58 bd 97 c9 ab 3c 1c a6 1e 3d
       0.030592639 -0.052874494 0.020970149 0.038732633
0001d0 fb 00 8d 3d f5 81 66 3d fd 39 d3 bc 5b aa 70 bd
       0.06884953 0.05627628 -0.025784487 -0.058756214
0001e0 a7 17 21 3d 7e 40 59 3d 7f 77 14 3c 28 48 84 bd
       0.039329197 0.05304002 0.009061693 -0.06459075
0001f0 f1 0e 97 3c ef df b1 bb c7 02 40 3c 29 c4 85 bd
       0.018439742 -0.0054283063 0.011719412 -0.06531555
000200 1c 69 17 bb b2 5a 63 bd 4c b5 ed bc be f4 68 bd
       -0.0023103422 -0.055506416 -0.029017113 -0.05687403
000210 1d a6 cd bc 5d d3 5d 3d d5 28 58 bd d9 73 a3 3c
       -0.025103623 0.05415665 -0.052773315 0.019952701
000220 83 66 7c 3b c8 ad a2 ba f9 48 84 bd 31 75 1b bd
       0.003851325 -0.001241141 -0.06459231 -0.03795356
000230 14 21 1c bb ae f6 90 bc 00 ae 8c 3d c0 f2 9b 3d
       -0.0023823427 -0.017695751 0.06869125 0.0761466
000240 c6 8e d0 3c eb 81 5c bd 3a 1c ae 3d 0e 03 0a bd
       0.025458705 -0.053834837 0.085014775 -0.03369432
000250 ec 75 10 3c a6 d7 bc bb af 17 81 3d 98 03 94 3c
       0.008817177 -0.005763012 0.063033454 0.01806812
000260 45 58 cd bb 73 57 c0 bd d3 96 42 bd ab a0 21 bd
       -0.006266626 -0.093916796 -0.04750712 -0.039459866
000270 fd 0e 63 bc a8 48 92 3d 5f 87 2e bd 5c ab 9d 3c
       -0.013858554 0.07142764 -0.04260957 0.01924675
000280 0a aa ab 3c 0b 19 0f 3d 92 c5 30 3c ce 22 0d 3d
       0.020955104 0.034935992 0.010789292 0.03445702
000290 90 16 29 bd 99 e0 90 bd 18 e8 53 bd ca f3 2d bd
       -0.041281283 -0.070740886 -0.051735014 -0.042468823
0002a0 5a 50 67 3c d3 17 45 3d 84 e5 85 3c b7 8a 4f bd
       0.014118278 0.048118424 0.016344793 -0.0506694
0002b0 ff 5f 97 3c c8 d2 14 3d 78 b0 0e 3c 43 1b 33 bd
       0.018478392 0.03633383 0.008709066 -0.04372717
0002c0 a5 f6 80 3d e4 d2 42 bd 3a cb 7f 3d 41 1d 44 3d
       0.06297044 -0.047564402 0.06244967 0.04787946
0002d0 51 c3 81 bd 2a 62 88 bd 01 eb 9e 3c 0f a8 1b 3b
       -0.06336082 -0.06659348 0.019399168 0.0023751294
0002e0 af d5 ea 3c e5 a4 34 3d 93 67 ec bc 96 62 e6 bc
       0.028666345 0.04410257 -0.028857982 -0.028123181
0002f0 14 6d d2 3c 68 dd 4c bd 08 91 e5 3c 96 60 cf 3c
       0.025686778 -0.050015837 0.028023258 0.02531461
000300 98 a7 11 bd 74 67 3f 3d df d7 b7 3a e1 6b 8f 3d
       -0.03556022 0.04672952 0.0014026127 0.07002998
000310 61 a7 36 bd 3e f8 49 3d bf 6a 3f bd e7 ed 6f bd
       -0.04459322 0.049309008 -0.04673266 -0.05857649
000320 8e d0 31 bd c8 a5 80 3c 28 62 63 3d f1 88 a0 ba
       -0.043411784 0.01570405 0.05551353 -0.0012247843
000330 47 47 da 3c 3e 21 59 3d b8 70 56 bc b1 15 4e bd
       0.026645316 0.053010218 -0.013088398 -0.050313655
000340 c8 8f cb bc 61 d6 fa 3a 50 0c 55 bd ea 39 c4 bc
       -0.024848834 0.0019137376 -0.052013695 -0.023953397
000350 aa 44 82 3d 71 d8 11 bd 9d 9d 19 3c 92 8c b1 3c
       0.06360753 -0.035606805 0.009375957 0.021673474
000360 3f f4 25 bd d4 96 46 bd 21 71 8c bc e4 99 8c 3d
       -0.040516134 -0.048483685 -0.017143788 0.0686529
000370 42 24 85 3d 02 ab 13 3d 96 92 28 3c ab eb 70 bd
       0.06501056 0.036051758 0.010288855 -0.0588185
000380 ed dc 83 3d 52 e3 e7 3c 50 72 31 3d e0 42 37 3d
       0.064386226 0.028306637 0.043321908 0.04474151
000390 30 39 3e bc 02 56 3b 3d ec 25 30 bc fe cd 2d 3d
       -0.011610314 0.04573632 -0.010751229 0.042432778
0003a0 a3 84 3a 3d 85 68 1d 3c 6d 00 ca ba 61 dd 82 bd
       0.04553665 0.009607439 -0.0015411504 -0.06389881
0003b0 6d 60 c3 bc 02 55 c8 3c 80 14 5c bd 11 7c f4 bc
       -0.02384969 0.024454597 -0.053730488 -0.029844316
0003c0 bd 77 31 bd f2 b0 30 bc d9 28 91 bd 8e a2 4e bd
       -0.043327082 -0.010784375 -0.07087869 -0.050447993
0003d0 28 0d e6 ba 5a 83 0b bc a1 ce 19 3d 51 3a 1b bd
       -0.0017551528 -0.008515203 0.037550572 -0.03789741
0003e0 d6 d2 7d 3d 88 b3 6b bd 58 3a 77 bb d0 8a 6d 3d
       0.061968647 -0.05754426 -0.0037723985 0.05799371
0003f0 2c 3e b9 3d b2 dc 10 3d 5e 4b 22 3d 12 f1 56 bc
       0.090450615 0.03536672 0.039622657 -0.013118999

conv2.bias f4 [128]
000000 d2 d3 81 bd 60 4e ca bc 18 a7 4c 3d 82 fe 77 bd
       -0.0633923 -0.024695575 0.04996404 -0.060545452
000010 f5 5b 46 bd 7d 34 7b bd 32 6d 81 3d d4 cd f8 bc
       -0.04842754 -0.061329354 0.063196555 -0.030371584
000020 97 4c 32 bd 20 28 d5 bb 5b 7d a8 3b ab 7f 0a bd
       -0.043530073 -0.0065050274 0.0051418967 -0.03381316
000030 b2 91 4f 3d cc 78 24 bd 57 2f bb bc 90 29 ec bb
       0.050676055 -0.040154263 -0.022849722 -0.007207103
000040 d5 45 a9 3d df 3e 8c bc e0 c8 d7 3c c9 e6 b5 bc
       0.082652725 -0.017119823 0.026340902 -0.022204774
000050 4d be 6d 3d 76 bb ae 3c af d4 70 bd e1 16 12 bd
       0.058042813 0.021329623 -0.05879658 -0.03566635
000060 b6 4c 54 bd 8b 30 5b bd 2e 1b b1 bc e1 32 86 3d
       -0.05183097 -0.05351309 -0.021619406 0.06552673
000070 26 e5 ce 3c c2 26 3c bd bf a5 58 bd 97 95 08 bd
       0.02525575 -0.0459354 -0.052892443 -0.033345785
000080 a7 02 17 bd fc 26 95 3c 9f 25 be bc 26 02 85 bc
       -0.036867764 0.018207066 -0.023211299 -0.016236376
000090 ef 70 8b bd 7e 05 93 3d e5 97 79 3d 4f 5a 2f bd
       -0.0680865 0.07178782 0.060935874 -0.042810734
0000a0 aa 44 d2 39 2a a1 9d 3b 43 26 62 bd 6a 53 e3 bc
       0.0004010548 0.004810472 -0.05521227 -0.027749736
0000b0 e7 59 71 3c 5d ad 2b 3c 48 4e dc 3c 55 85 9b 3a
       0.014730907 0.010478345 0.026892796 0.0011865298
0000c0 20 e7 27 3d df 9f 7a bd 14 80 15 bd 75 3f 03 bd
       0.040991902 -0.06118762 -0.036499098 -0.03204294
0000d0 82 01 7b bd e6 ef f0 bc bd a1 57 bd d4 bd 54 bd
       -0.061280735 -0.029411267 -0.05264448 -0.051938847
0000e0 88 f3 76 3c 75 2c 7d 3d cd e1 07 3d 1a 4d 3a 3d
       0.015072711 0.061809976 0.033174325 0.045483686
0000f0 19 e1 0c 3c 60 ee 1a bd f9 17 7a 3d b1 e1 6e bd
       0.008598589 -0.03782499 0.06105802 -0.058320705
000100 ab a7 6e bd d3 69 f6 bc 46 85 71 3d 00 3c d7 3a
       -0.05826537 -0.030079758 0.05896499 0.001642108
000110 56 e4 8d 3d cb 65 5b 3c 1f 58 ff 3c 72 59 59 3d
       0.06928317 0.013390969 0.03116995 0.053063817
000120 d2 36 c9 bb cf d3 53 3b 57 ca 30 bd af 10 3f 3d
       -0.0061405683 0.0032322293 -0.043161716 0.04664677
000130 e2 14 c6 3c f6 b0 3c 3d 7a 69 d2 ba dc 33 27 3d
       0.02417988 0.0460672 -0.0016053163 0.04082094
000140 3d 4b 90 3d b2 63 3d 3d 62 9c c6 bc 10 26 55 bd
       0.070456006 0.046237655 -0.024244491 -0.052038252
000150 2e d8 9e 3d f3 d9 5b 3d db 9d 1f bd 57 ed 80 bd
       0.07756077 0.05367465 -0.038968902 -0.06295269
000160 2f a4 27 bd da 2a 19 3d 8b 05 58 bd 4e 51 68 bd
       -0.040928062 0.037394382 -0.05273966 -0.056718163
000170 dd 33 0f bd d8 36 70 bd 92 65 76 b8 aa 57 3a 3c
       -0.03496157 -0.058646053 -5.8745565e-05 0.01137344
000180 00 72 76 bd bb 8f ae bc 47 ee 45 bd 7d 3d 7b bd
       -0.060167313 -0.02130877 -0.048322942 -0.061337937
000190 16 4d 9b 3d e5 0b 5c bd 9c 84 16 bd 5c 0c a1 3c
       0.07583062 -0.05372228 -0.03674756 0.019659214
0001a0 b9 80 60 bd a4 51 52 bc 9e 2e 89 bc a2 19 46 bd
       -0.05481026 -0.012836847 -0.016745862 -0.04836429
0001b0 42 08 52 3d c5 c8 e4 3c c0 a2 c2 ba bd d6 8d bd
       0.051277407 0.027927766 -0.0014849529 -0.06925724
0001c0 db 81 14 bd 38 98 b4 3c 4f bb 0d 3d a8 af 7a 3d
       -0.036256652 0.02204524 0.03460246 0.061202675
0001d0 32 c6 4a bd 9f 8f f2 ba 2c 1b 9a bc c8 de 54 3c
       -0.04950542 -0.0018505937 -0.018811785 0.012992568
0001e0 c7 6d 65 3d 37 98 35 3d 0d a8 2b 3d 4b 4d a1 bb
       0.056012895 0.044334617 0.041908313 -0.004922544
0001f0 b5 58 c0 bc 47 65 2c 3d 21 e9 6d bd cf f2 ce 3c
       -0.023479799 0.042088773 -0.058083657 0.025262265

dense1.weight f4 [50, 768]
000000 a3 58 eb ba 06 0a bc bc 61 b9 38 bb d7 86 c6 bc
       -0.0017955493 -0.022953998 -0.0028186666 -0.024234219
000010 46 9d f5 3c 6b dc cc 3b 02 52 53 bc 01 46 16 3b
       0.02998222 0.006251862 -0.01289797 0.002292991
000020 5c 3f 00 bd e4 e2 aa 3c f1 68 6e bc 32 8a 17 3d
       -0.031310424 0.020860143 -0.014551387 0.036997028
000030 cb 9a e7 ba e1 4d 23 ba 8d c1 e2 bc fe af 00 3d
       -0.0017670033 -0.00062295614 -0.027680183 0.03141784
000040 0d 6f ab 3a 4a eb 36 3c 6a 3a e4 bb 89 12 c5 3c
       0.001307936 0.011164496 -0.0069649713 0.02405669
000050 b2 eb 01 bd b8 55 e8 3a 08 44 19 3c 51 67 29 3d
       -0.031718917 0.0017725741 0.009354599 0.041358296
000060 bf 37 5b 3d 46 1e 1c 3d 95 fc ba 3c 06 44 a3 3b
       0.05351996 0.03811481 0.022825519 0.0049824743
000070 8c 35 f2 bc e7 9e 9c bc 10 e8 e9 3c 6c 0b ba 3c
       -0.029566549 -0.01911874 0.028553039 0.022710524
000080 e4 aa 89 bc 6a 65 02 bd 59 39 50 3c bc 84 97 bc
       -0.01680512 -0.031834997 0.012708985 -0.01849591
000090 16 df c8 3b 92 30 59 bc 6c 20 e7 3c dc 0d 75 3c
       0.0061301095 -0.013256209 0.028213702 0.014956918
0000a0 1f 3a 80 bc 8e 90 7e 3c 46 ef af bc b5 3e f9 bc
       -0.015652714 0.015537394 -0.0214764 -0.030425409
0000b0 70 12 1b 3d a2 e5 d4 b9 47 d5 ac 3c 14 d4 20 bc
       0.03785938 -0.0004060688 0.021097792 -0.009816188
0000c0 f4 64 01 3d 25 1d 43 3c 02 1d bd ba 98 9d b1 3c
       0.031590417 0.011908804 -0.0014428201 0.021681592
0000d0 5f 15 a0 3c a9 58 8d bc 11 fc 6e bb 29 43 f5 3c
       0.01954144 -0.01725419 -0.0036466161 0.029939251
0000e0 7c df 8e 3c 94 ee be bc f2 51 51 bc 2a a5 6e bc
       0.01744055 -0.023307122 -0.012775885 -0.014565745
0000f0 95 aa 06 3d 06 11 6f 3b f3 13 be bc 0a 87 94 ba
       0.032877523 0.0036478653 -0.023202872 -0.0011331749
000100 3c df e0 3c 27 ff 30 bb 39 6f d6 bc c2 41 bb bb
       0.027450196 -0.0027007551 -0.026176082 -0.005714626
000110 b0 20 91 ba 16 48 f8 bb 81 25 2d bc ce 6a 05 3d
       -0.0011072364 -0.0075769527 -0.010568024 0.03257256
000120 91 39 2a 3d e2 7b 85 bc 67 f5 ba 3c cf 66 8a 3c
       0.041558806 -0.016294423 0.022822095 0.016894726
000130 30 8e 17 3d f2 a6 f0 3c c9 a1 3d 3a 7f d8 e1 bc
       0.037000835 0.02937648 0.00072338857 -0.027569054
000140 0c 78 11 3d 60 f2 e6 ba 71 74 79 bc 7f ce d3 bb
       0.035514876 -0.0017619841 -0.015225516 -0.0064638252
000150 fe 48 85 3d 0a 91 a1 bb fa 39 1c 3c 9b 2c f3 bc
       0.06508063 -0.00493062 0.009535307 -0.029684355
000160 43 3d 75 3c c4 89 6b 3c 53 ef fb bb bd 9e f3 3c
       0.014968219 0.014376108 -0.007688442 0.029738778
000170 04 64 f9 bc 69 87 be 3c 88 2c 8f bc fc df ed bb
       -0.030443199 0.023257928 -0.017477289 -0.007259367
000180 df c6 82 3d 7f 83 77 3d fa 9a 11 bc 1f 74 1e bc
       0.06385588 0.06042814 -0.008887047 -0.00967124
000190 2b 8c 78 3c 96 ea 39 3d cf 88 f3 3c e7 64 07 bd
       0.015170137 0.045389734 0.029728321 -0.033055212
0001a0 c4 51 8f 3c 86 25 09 3c f9 a1 c4 bb d4 e3 19 3d
       0.017495044 0.008370763 -0.006000754 0.03757079
0001b0 24 0a 4d bc 64 23 9c bc 45 3f 03 3c 45 84 b1 bc
       -0.012514625 -0.019059844 0.00801069 -0.021669516
0001c0 63 49 96 3c 3c 20 16 bc 9b b9 bb 3c 72 dd 07 bc
       0.01834554 -0.009162959 0.022915652 -0.008292543
0001d0 bf 82 eb 3c de 43 94 3c 06 ad 32 3b d5 fb 9d bc
       0.028748868 0.018098768 0.0027263775 -0.019285122
0001e0 1e 48 7d 3d cb ef ce 3c fe e5 f7 3b 50 3c 91 3b
       0.061836354 0.025260827 0.007565259 0.0044322386
0001f0 ea 64 ff bc 98 03 18 bc 01 00 06 bd 91 75 15 3d
       -0.03117605 -0.009278201 -0.032714847 0.036489073
000200 b5 62 b4 3b 2a c6 3a bc 02 c6 f6 3c b9 de c4 3a
       0.005504931 -0.011399785 0.030123714 0.001501999
000210 cf f5 cf 3c d7 18 8f 3c 5c 4f 89 bc 5f 84 68 bb
       0.025385765 0.0174679 -0.016761474 -0.003547929
000220 9a 70 be bb 94 e3 6e 3b a4 62 e8 3c 0e 3f a2 3c
       -0.005811763 0.0036451565 0.028367348 0.019805457
000230 54 69 5d bc b2 4e 16 3d c0 83 8e 3c 88 9d ed 3c
       -0.013513882 0.036696143 0.017396808 0.02900578
000240 b4 78 f3 3c 02 3a d2 bc 02 70 d9 bc 44 04 1d 3c
       0.029720642 -0.025662426 -0.026542667 0.009583537
000250 da e5 9f ba 57 bf a6 bc 49 86 fa bc 96 c5 a8 3c
       -0.0012199238 -0.02035491 -0.03058161 0.020602029
000260 2f 09 0d bd d6 2b 6f bc 3a f0 cc bc 21 7b 0f 3d
       -0.034432586 -0.014597854 -0.025016893 0.035029534
000270 b8 92 c8 3c f8 1b 71 bc 42 4a ce 3a 28 63 9b 3c
       0.024484023 -0.014716141 0.0015738683 0.01896818
000280 93 78 22 ba 03 7f bb 3b ea 43 2a 3d f3 f9 af bc
       -0.00061977765 0.005721928 0.041568674 -0.02148149
000290 51 11 31 3d aa 7e 8f 3c 5e 4f 2b 39 1b a1 48 3c
       0.043229405 0.017516453 0.00016337397 0.012245442
0002a0 2f 63 13 bb 9c 16 81 bc 43 da d7 bb 8d 3d 65 bc
       -0.0022489538 -0.015757851 -0.006587298 -0.013991726
0002b0 f9 8b 7f 3a 30 b6 bd bc 10 5a fd 3c 9e 5b 11 3c
       0.00097483356 -0.023158163 0.030926734 0.008871941
0002c0 4b 58 03 3d a6 6a 38 bc 6a 5f e8 3c 0c 0d ee bc
       0.032066625 -0.011255896 0.02836581 -0.029058956
0002d0 4f cb ad bc 01 8a 06 bd 17 81 39 3b 29 42 8a bb
       -0.02121511 -0.032846455 0.0028305703 -0.0042193127
0002e0 f2 cf 1c 3d cd 02 f6 3b d1 e6 fd 3c 1f aa b5 bb
       0.03828425 0.007507658 0.03099385 -0.0055439617
0002f0 30 3f 0f bd 42 74 f5 bb 19 ae 06 3d 95 84 07 3d
       -0.03497237 -0.0074906657 0.032880876 0.033085424
000300 a1 83 40 3c ef 33 57 bc ca 68 a0 bc cc c2 6d 3c
       0.011750133 -0.0131349405 -0.019581217 0.014511775
000310 ac 39 76 3c e5 e5 95 39 c5 0d 0b 3d dd 99 df 3c
       0.0150283985 0.0002859078 0.03394868 0.027295047
000320 43 6e 59 bb 5c 5b dc 3c c3 64 0c bd 05 14 d8 3c
       -0.0033177293 0.026899032 -0.03427578 0.026376734
000330 26 fb 03 3d ab 74 f5 3c f3 03 08 bc fe e2 7d bb
       0.032221936 0.029962858 -0.008301723 -0.0038740034
000340 a7 05 3f bc 9b d4 a2 3c 3f fa 2d 3d 54 f5 c6 3c
       -0.0116590625 0.019876769 0.04247498 0.024286903
000350 fa 70 c0 3c 6a 49 2c 3c 58 96 2a 3c 22 89 34 3d
       0.023491371 0.01051555 0.010411821 0.044076093
000360 fb f4 18 bc 8f 88 0e bd c1 4e 90 3c f7 37 1c 3c
       -0.009335752 -0.0347982 0.017615678 0.009534827
000370 32 97 f4 bc 94 d7 09 bd 2d e4 54 3c 52 fe f7 bb
       -0.029857252 -0.033652857 0.0129938545 -0.007568159
000380 0a c7 35 3b 45 00 35 bc fb 4a 99 3c 2f f0 db bb
       0.0027737045 -0.011047428 0.018712511 -0.0067119817
000390 7b e1 1d 3d 97 4e 88 bc 58 0a ae 3b 81 e7 d6 3c
       0.038545113 -0.016639037 0.0053112917 0.026233437
0003a0 fc 08 ec bc cf c9 8b 3c 5a 26 4d bc 37 30 90 bc
       -0.028812878 0.017064003 -0.012521351 -0.017601116
0003b0 2e db a0 3c 8b de c2 3b 54 de a1 3d bf e6 bf 3d
       0.019635763 0.0059469393 0.07903734 0.09370183
0003c0 c7 57 e8 bc 70 cb 48 3b 52 41 f1 bc 9c 46 a6 bc
       -0.028362168 0.0030638836 -0.029450092 -0.020297341
0003d0 e5 b3 41 bb 24 07 a1 bc 81 e6 b1 bc cb 8f 54 3c
       -0.0029556688 -0.019656725 -0.021716358 0.012973736
0003e0 3d 73 68 3c 3b 4f f5 ba 43 30 e4 3c d2 1c f3 bb
       0.014187631 -0.0018715629 0.027855044 -0.007419207
0003f0 cd ea 22 3d b4 cf bf 3c 6f b0 c9 bc 87 d6 b7 bc
       0.039774705 0.02341447 -0.024620263 -0.022441162

dense1.bias f4 [50]
000000 bd 62 0e bc 28 23 39 3d bb 6c 57 bc 23 04 05 bc
       -0.008690533 0.045199543 -0.013148482 -0.008118662
000010 f2 94 fe 3b c8 15 56 bb 7e bd 5d 3d 86 76 0a 3d
       0.0077692205 -0.0032666791 0.054135792 0.03380444
000020 46 7d 97 3b 11 6d 00 3d 97 b0 65 3d e2 92 4f 3c
       0.004623088 0.031354014 0.056076612 0.012669297
000030 32 b9 84 3a 7a c7 87 3c 2b 28 84 ba 9f 3c f6 3c
       0.0010125993 0.01657461 -0.0010082772 0.030058203
000040 1e ee 83 bc 95 09 17 bc 2c b9 2a 3d b7 d0 35 3c
       -0.016104754 -0.009218593 0.0416805 0.011097125
000050 37 ec 8c 3c 93 65 ab 3a 47 15 4d 3a 3e 4a cd 3c
       0.01720248 0.0013076536 0.00078233 0.025059815
000060 f5 f3 20 3c 13 a2 c9 bc 88 43 27 3d 96 07 0a bb
       0.009823789 -0.024613416 0.040835887 -0.002106165
000070 38 7a 17 3c 57 36 63 bc 49 d3 36 3a 5b 14 0c bd
       0.009245448 -0.013867936 0.0006974233 -0.0341991
000080 65 77 32 bb 77 db 92 3b 76 0f 99 3b c6 d1 7d 3b
       -0.002723181 0.0044817287 0.0046710325 0.003872977
000090 5c 96 20 3c 85 c6 61 3b 89 51 63 3d 2d 46 9b 3d
       0.0098014735 0.0034450602 0.05549768 0.07581744
0000a0 f4 4d 0b bd 8e 77 6d 3d 1f 94 ff bb c8 41 61 bc
       -0.03400989 0.057975344 -0.00779964 -0.013748594
0000b0 61 31 e1 3b f0 5e 5c 3d 01 04 54 3d 54 23 0d 3d
       0.0068723415 0.053801477 0.05176163 0.03445752
0000c0 1d c2 19 3c b7 7d 69 3d
       0.009384659 0.057004657

dense2.weight f4 [1, 50]
000000 09 aa a7 3c 4f 01 00 3c 07 95 7d 3d e4 6f fe 3d
       0.020466821 0.007812812 0.0619097 0.12423685
000010 5b ba 0f bd 0c 05 b3 3b 2b 17 d3 3d 69 c9 ff 3d
       -0.03508983 0.005463248 0.10307153 0.12489588
000020 19 69 07 3e a7 10 c0 bd 41 1b fd 3c 23 cd ce 3c
       0.13223685 -0.09378176 0.030896785 0.025244301
000030 b3 d1 37 3d eb c9 c8 3c 41 31 0a 3e 5d f7 a1 3d
       0.04487772 0.024510344 0.13495351 0.07908509
000040 1a e2 3b bd e3 3b c6 bb 3b 4a 0b 3e a2 94 c5 3d
       -0.045869924 -0.0060496195 0.13602535 0.0964749
000050 dc ec 28 3d c6 30 ce 3c 23 20 c4 bd 26 b2 8b bd
       0.04124151 0.025169741 -0.09576442 -0.068210885
000060 3c b4 86 3d a7 f1 09 ba 64 59 f5 3d 49 5d b4 bd
       0.06577346 -0.0005262144 0.119799405 -0.08806855
000070 80 90 ba bd d4 74 f4 3d 9d 42 7a bd e8 89 dd bd
       -0.091095924 0.11936346 -0.061098684 -0.10817319
000080 df b7 fa bd 3a 36 be 3d 8f 2f 86 bd dd d5 82 3d
       -0.12242102 0.09287687 -0.0655204 0.063884474
000090 c9 0c 6d 3d ca 3e 24 3d 57 e9 1a 3d 4b a7 a7 3c
       0.05787352 0.040098943 0.037820186 0.020465514
0000a0 98 f5 22 bd de b0 9f 3c d8 4b 8c bd 46 2d dd 3c
       -0.039784998 0.019493517 -0.068504035 0.026999127
0000b0 f3 bf 43 3d 5a f1 e1 3d 35 3e ee 3d 74 3d 70 3d
       0.04779048 0.11032362 0.11632959 0.058652356
0000c0 24 2c a2 bc 52 2b 03 3d
       -0.019796439 0.032023735
