time_series_forecasting/saved_models/RNNForecastingModel/19-03-2024-203600_NO1_epoch_2.pt (torch, 29291 bytes, 7 tensors)

lstm.weight_ih_l0 f4 [128, 4]
000000 e2 ad a4 3d 45 ab 5a 3d c4 3a 7b 3c a0 a9 ac 3d
       0.08040978 0.05338599 0.015333835 0.08430791
000010 5c 3e 44 be 2a 9e 6a bd 44 46 0c be 11 dd c2 b7
       -0.19164413 -0.057279743 -0.13698679 -2.3229544e-05
000020 7c 94 01 3c 9d bb fe 3c fc ff 1d be c0 67 c1 bd
       0.007908937 0.03109532 -0.15429682 -0.09443617
000030 92 76 ce bd 85 30 a1 3d 20 41 8b be 3f 88 31 3d
       -0.10081209 0.078705825 -0.27198124 0.043342825
000040 10 30 04 3e e0 68 ed 3d 37 7d 2e 3e 5b d1 1e 3e
       0.1290896 0.11592269 0.17039953 0.1550955
000050 c9 32 22 be e0 7a 26 be 37 9d 17 bd 5d bd 32 3e
       -0.15839685 -0.1625781 -0.037015166 0.17455049
000060 f5 66 72 3d 52 45 32 be ea 2c 05 3d 83 49 b8 bd
       0.05918022 -0.17409256 0.032513537 -0.08998396
000070 45 99 e8 bd 68 74 0c be 7e e7 87 3e 8a bc b9 3e
       -0.11357359 -0.1371628 0.26543802 0.36276656
000080 7a c2 ea 3d 38 15 b2 3c ab ae 4a 3e 9d d6 bf bd
       0.11462875 0.021738634 0.19793193 -0.09367106
000090 be aa b8 3c dc ee 14 be 9d 42 9a 3c e4 f1 47 3c
       0.022542354 -0.14544243 0.018830592 0.012203667
0000a0 fb ca 0d 3e 94 23 b6 3c 63 2e 93 3e a4 10 d5 3d
       0.13846962 0.022233762 0.28746328 0.104035646
0000b0 4c 4e c1 bc 14 bc d2 3d 5f b0 c4 3d df 1b 88 3e
       -0.023596905 0.10289779 0.096039526 0.26583764
0000c0 05 5d cd 3c 6b 09 a1 3d d3 27 cb 3d b4 95 ad bc
       0.02506877 0.078631245 0.09919705 -0.021189548
0000d0 6a 79 ca 3d 55 26 09 be 43 aa 6d 3e db 99 58 3c
       0.09886439 -0.13393529 0.23209481 0.013220276
0000e0 79 27 f3 bd 65 1c 40 be 16 d8 53 be 03 2b e9 bc
       -0.11872763 -0.18760832 -0.20687899 -0.028462892
0000f0 74 f7 7f 3d 25 0b d1 bd 69 36 80 be 82 68 b2 bc
       0.06249185 -0.10207204 -0.25041512 -0.021778349
000100 da af 0d be 55 68 1e bd 96 1e 78 be cb 06 27 3d
       -0.13836613 -0.038673718 -0.24230418 0.040777963
000110 a6 82 66 be fa 3b b3 3d 4b dd ee 3d 7f 03 1b 3e
       -0.22510776 0.08751674 0.11663302 0.15138052
000120 84 d6 1f be b0 f8 5f be d4 0b 52 3d 5f 24 81 3e
       -0.15609175 -0.2187221 0.05128081 0.2522306
000130 cf 47 95 bd 18 23 11 3e 4d 1d a1 3e 9f 0f 76 3e
       -0.07289087 0.14173543 0.31467667 0.24029396
000140 8b 57 1e be 93 33 12 3d c8 5a a5 3e 18 0b 59 3d
       -0.15463082 0.035693716 0.32295823 0.052989095
000150 5f 9f a5 3c f9 f9 46 3e c4 56 4f be 83 6d c3 bd
       0.020217596 0.19431295 -0.20247942 -0.09542372
000160 e1 7b f2 3d 1d 6e 58 3d 80 6d f5 3c 3a c2 71 3e
       0.11840034 0.052839387 0.02995944 0.23609248
000170 81 7a f1 3c 80 48 ea 3d ba 48 96 bd 2c 33 7b 3e
       0.02947736 0.114396095 -0.0733809 0.2453124
000180 c1 45 99 3d 6a 25 1a 3e f0 08 1b bc 11 48 4e bf
       0.074840076 0.15053335 -0.00946258 -0.80578715
000190 6c 0c 9a 3c c4 84 6c be 12 06 c1 3e ee 23 52 3e
       0.018804751 -0.23097521 0.37699944 0.20521519
0001a0 50 2e 18 3e 00 23 89 bd d0 ed 94 3d 5c 1d df bd
       0.14861417 -0.06696129 0.07271922 -0.10894272
0001b0 ac 43 03 bd 26 eb ca 3d 53 80 84 3d 12 34 c1 3d
       -0.03204696 0.09908132 0.064697884 0.0943376
0001c0 0a 7b 51 3d 81 6c f0 bd e6 e6 00 bf 1a c3 f9 bd
       0.05114273 -0.117394455 -0.50352323 -0.12195416
0001d0 c6 9c 86 bc 3c 69 35 be 09 30 a1 be 15 c8 51 bd
       -0.016432177 -0.17715925 -0.3148196 -0.051216204
0001e0 a6 19 d6 3d bf 93 0e be 87 6e 0c 3e 8a 1d 5a bc
       0.10454111 -0.13923548 0.13714038 -0.013312707
0001f0 35 e9 51 3e d4 e7 2e be 41 27 b9 3c 20 81 67 3d
       0.20499118 -0.17080623 0.022601726 0.056519628
000200 3f 4e 2e be 5f b9 88 3d 30 75 82 bd 3a 5e 05 be
       -0.17022036 0.06675982 -0.06370008 -0.13024226
000210 3d cb e3 bc 09 1c 90 bd b5 04 3b be c3 1f 1a be
       -0.027806873 -0.07036597 -0.18263514 -0.15051179
000220 5b 06 49 bd f1 53 a7 3d b3 9f 74 3d ca cf 68 be
       -0.049078327 0.081703074 0.059722614 -0.22735515
000230 79 5d 83 be a6 9d 1a 3e 8a 72 d7 bd 61 bf 44 be
       -0.2565725 0.150992 -0.105198935 -0.1921363
000240 cc e7 87 bd 99 03 f9 bd 88 78 c8 3e fe 76 7a 3c
       -0.066360086 -0.12158889 0.39154458 0.015287159
000250 8e 71 79 be 9d 7b b9 3d 7c 40 74 be 2b 47 3f 3e
       -0.24359724 0.090567805 -0.23852724 0.18679492
000260 90 ef ff 3d b1 c4 24 be a5 f7 f8 bd ba 25 73 bd
       0.12496865 -0.16090657 -0.121566094 -0.05936215
000270 21 36 29 3d e4 a4 aa bd c6 97 01 3e 97 b8 12 3f
       0.041311387 -0.08332232 0.12655553 0.5731291
000280 c2 93 ed bd aa ed 83 3d 67 9c 48 bd 72 ec 09 be
       -0.11600448 0.06441815 -0.048977282 -0.13469103
000290 fc 90 0b 3e 37 b7 81 bd f4 81 58 be 93 32 23 bd
       0.13629526 -0.063337736 -0.21143323 -0.039843153
0002a0 15 75 6e 3d 44 ea 47 3d 45 6c c2 3d e1 e4 55 bd
       0.058217127 0.048807397 0.09493307 -0.05222023
0002b0 31 d1 0b bd cc 79 06 3e 5c df 77 3d 46 15 a3 3d
       -0.034135047 0.131324 0.060515746 0.07963042
0002c0 26 48 b8 bd ec 09 b2 bc 31 30 c3 3e 54 12 98 be
       -0.08998136 -0.021733247 0.38122705 -0.29701483
0002d0 e6 7c e4 bd d0 b4 98 bd c5 82 21 bb 0b 7f a6 bd
       -0.11156635 -0.07456362 -0.0024644595 -0.081297
0002e0 65 5c 0e 3e 1e 11 a3 be a2 8b 43 be ad 8d eb 3d
       0.13902433 -0.31848997 -0.19096234 0.11501632
0002f0 b6 21 07 3e b0 95 8d bd 23 f9 00 be 3d 3d e0 bd
       0.13196453 -0.06913316 -0.12595038 -0.1094918
000300 cf b2 a3 3c d5 2b 92 3d 07 be 13 be 05 c8 e3 bd
       0.019982724 0.071372665 -0.14427958 -0.11122135
000310 25 0b 7d be db 31 1c 3e ba 31 33 be 79 ed 87 3c
       -0.24711283 0.15253393 -0.17499438 0.016592728
000320 9d 96 d3 bc 23 4b a1 bd 0e 08 c9 be d9 25 34 3e
       -0.025828654 -0.07875659 -0.39263958 0.17592563
000330 17 dd d2 3d e2 56 44 be 8f a6 28 3e 8c 82 a5 bb
       0.10296076 -0.19173768 0.16469787 -0.005050963
000340 93 43 dd 3c ec 35 c0 bd b0 60 91 be cb 25 91 bd
       0.027009761 -0.09385285 -0.2839408 -0.070872866
000350 a3 8b a7 3b c9 dd 16 3e 06 7e 0f be 81 09 6b bb
       0.0051130815 0.14733042 -0.14012918 -0.003586382
000360 eb 9b 87 3e 38 3f f4 bb b8 85 70 bd cc f7 98 3d
       0.26486143 -0.0074538253 -0.058721274 0.074691385
000370 ed 4c bb bd 29 0c 36 3e be 61 4a be 96 fb 0c 3e
       -0.09145532 0.17778076 -0.19763848 0.13767847
000380 bb c6 18 bd bf 20 55 3d 7f eb e4 bd e2 50 6a be
       -0.0372989 0.052033182 -0.1117773 -0.22882417
000390 ba 62 aa bd 5b 89 2c be 0f 2c 0f 3e a7 09 95 bb
       -0.08319612 -0.16849272 0.13981651 -0.00454827
0003a0 43 26 54 3d b2 b5 30 bd ef 22 9e 3d c3 6a fe bd
       0.0517943 -0.04314203 0.07721507 -0.12422707
0003b0 d5 8d aa 3d 15 22 e7 bb 9e 6c 61 3e 46 7c c2 3d
       0.083278336 -0.0070536234 0.2201409 0.094963595
0003c0 bd 0a 00 be 95 fc 15 3e 40 dc e3 be ef bb 2c 3e
       -0.12504096 0.14647134 -0.44503975 0.16868566
0003d0 a7 18 51 3e 0a 2a 7a 3c e6 02 01 bd 60 9a 03 be
       0.2041956 0.015268812 -0.031496905 -0.12851858
0003e0 ab 7f 9d bc 4e 3c 8f 3d ac d9 68 3e 7a c4 22 be
       -0.019225916 0.06993924 0.22739285 -0.15895262
0003f0 61 60 01 bd 7a f2 95 3c 96 6a ce 3e f5 62 5c bd
       -0.031586055 0.018304098 0.40315694 -0.05380531

lstm.weight_hh_l0 f4 [128, 32]
000000 55 ac 33 3d b1 ab 69 bd e6 1f 05 be c8 e1 19 be
       0.04386552 -0.057048503 -0.1300045 -0.15027535
000010 56 5c 66 bd 9b 23 27 be ae eb b1 bd ef 4a ba 3d
       -0.056240402 -0.16322176 -0.086875305 0.09096324
000020 56 37 9b 3d 17 94 ae bd e3 66 0a bd ec 50 a8 bd
       0.07578914 -0.0852434 -0.033789527 -0.082185596
000030 4c 2a 0c be 68 68 04 be f6 dc d0 bc c1 24 ad bd
       -0.1368801 -0.12930453 -0.025495987 -0.08454276
000040 9e 18 1a 3e c1 2b ab bd 8e f4 e2 bd ee 49 df 39
       0.15048453 -0.08357955 -0.11081801 0.00042588956
000050 79 21 aa bb e6 01 dd 3d b6 f3 4e 3e 57 e0 a1 3d
       -0.0051919785 0.10791378 0.20210156 0.079041176
000060 fd af 71 3d 85 e1 97 bd 3e b9 46 be 72 73 83 3d
       0.059005726 -0.07416061 -0.19406602 0.06418504
000070 e6 ce 0e be 66 09 d4 bd 1d 1c f2 bd 5a 97 0f 3e
       -0.13946113 -0.10353355 -0.118217684 0.1402258
000080 c1 61 f0 bd ce 3c 12 3e 64 f5 e5 bd be ae 57 be
       -0.11737395 0.14281008 -0.11228445 -0.21062753
000090 d9 25 50 3e 69 e4 10 3d a3 f5 09 be 8b ab 2f be
       0.20326938 0.03537408 -0.13472609 -0.17155282
0000a0 eb f5 eb bd ed 30 75 3d 95 4a 64 bd 24 d7 05 be
       -0.115215145 0.059861112 -0.05573519 -0.13070351
0000b0 12 5f ce 3d 49 44 c3 bd 1e fa 04 3e 4d d4 e1 3d
       0.10076727 -0.09534509 0.12986037 0.11026821
0000c0 d8 ed 2c 3e e0 a3 ec 3d 19 8c 27 3e 53 7b 56 3e
       0.16887605 0.11554694 0.16362037 0.20945482
0000d0 47 af 39 3d 01 b5 ba bc 59 db ee bc db e0 87 be
       0.045333173 -0.022791388 -0.029157327 -0.2653874
0000e0 13 59 e9 3d 62 df df 3d 4f 60 73 3d 80 b7 71 be
       0.11393943 0.10931279 0.05941802 -0.23605156
0000f0 a7 f9 31 be da 86 fe bb a3 79 2f 3d b0 1b db 3c
       -0.17380391 -0.0077675404 0.04284061 0.0267466
000100 86 09 03 3e d4 f5 c9 bd d4 52 a6 bd 45 20 99 bd
       0.12796602 -0.09861341 -0.08121267 -0.07476858
000110 4d cb 65 bd 62 cf c5 37 8d 23 03 3d 12 2c 03 be
       -0.056102086 2.35808e-05 0.032016326 -0.1280978
000120 fa 85 a6 be 4f 59 a0 bd 00 18 e7 3d 87 50 f6 bd
       -0.3252409 -0.07829534 0.112838745 -0.12027078
000130 e4 b7 86 bd 31 40 92 3d b5 27 f2 3c ef 1b 6a be
       -0.06578043 0.0714115 0.02955995 -0.22862218
000140 9b b3 49 be 02 c0 8f be 64 c5 3b 3e 07 4d 2c 3e
       -0.1969742 -0.28076178 0.18337017 0.16826259
000150 70 4c b6 bd 3a 23 b9 bd 4b 0a 9e bd 2a f2 84 be
       -0.08901298 -0.09039922 -0.07716807 -0.25966007
000160 8c e3 98 3e 71 14 00 3c 3c 7c dc bd 5e 66 87 be
       0.29861104 0.007817374 -0.10765883 -0.26445287
000170 13 6f 99 3e d6 a5 20 bd bc 46 19 3e 12 91 b4 3d
       0.29967555 -0.039220653 0.1496839 0.088167325
000180 b3 11 59 3e fe 70 87 3e b3 15 5a bd 0b 35 04 be
       0.21198158 0.26453394 -0.05324335 -0.1291086
000190 2f 80 08 be f6 90 e1 bd ae 4f 2b 3e eb be 22 be
       -0.13330148 -0.11013977 0.16729614 -0.15893142
0001a0 98 05 53 be 5a 37 33 3d 1d 12 63 bd 4a 09 28 3e
       -0.20607603 0.04375396 -0.055437196 0.16409793
0001b0 96 b8 05 3e bc 30 27 3d da c6 81 3d 70 98 60 be
       0.13058695 0.04081796 0.06336756 -0.2193315
0001c0 ba ee 9f 3b ad 9d cf 3d 53 41 fb bb b5 35 2c 3e
       0.0048807533 0.10137496 -0.0076676994 0.16817363
0001d0 ed ed c1 bd f9 7d c0 3d 65 19 e6 3d da 59 63 bd
       -0.09469209 0.093990274 0.11235312 -0.05550561
0001e0 42 bc 78 3d 98 1b 20 be 56 33 15 bd bc 74 e1 3d
       0.06072641 -0.15635526 -0.03642591 0.110085934
0001f0 17 97 f0 3c 59 28 35 be b7 10 0f 3d c0 67 3c be
       0.02936892 -0.17691173 0.03492805 -0.18398952
000200 3a 3c 6a 3d c6 e1 dc 3d 4a e1 12 be 2b bf db 3b
       0.057186343 0.1078525 -0.14343753 0.0067061386
000210 7b 70 fa 3d 51 2d 35 3e db 44 2e be d4 20 5a bd
       0.12228485 0.17693068 -0.17018454 -0.053253964
000220 ef 92 51 bc eb cf 0c 3e 7b 54 7d bd 48 77 be bd
       -0.012791379 0.1375119 -0.061848145 -0.09300095
000230 ef 14 d5 bc 80 e6 e3 bb 00 32 a4 3c 57 97 a2 3d
       -0.026010958 -0.006954968 0.020043373 0.07939022
000240 31 39 10 be d6 7a f0 bd 83 1f ab bd 35 82 10 bc
       -0.14084317 -0.11742179 -0.0835562 -0.008820106
000250 53 fe c1 ba 33 da e3 bd b4 a3 b3 3b 28 34 db bd
       -0.0014800526 -0.111256026 0.0054821614 -0.107033074
000260 88 c5 b1 3d 7a 5d b5 3d b1 d5 fb bd 3d e4 07 3b
       0.08680254 0.0885572 -0.12296618 0.0020735406
000270 c4 4d 21 3d 70 4c 90 bd cf d1 a8 3b 56 05 fc 3c
       0.039380804 -0.07045829 0.0051519643 0.030764263
000280 8f be 8a 3d 86 65 db 3d 57 8a 6e 3d 34 82 05 bd
       0.067746274 0.107127234 0.0582374 -0.032594875
000290 a6 fc f5 3d e4 83 76 be 87 37 f1 bd f7 38 a4 3d
       0.120110795 -0.2407375 -0.11778169 0.08018678
0002a0 a3 63 0f be 7a 94 be 3c 04 51 31 bd 7f a2 25 bd
       -0.14002852 0.023264159 -0.043290153 -0.04043817
0002b0 2d 21 fb 3d 4f 9a 2f 3e aa 87 4d bc 24 1f 26 3d
       0.12262187 0.17148708 -0.012544552 0.04055704
0002c0 21 2c 3c 3e 0b 07 e2 3c da a2 03 3c 59 91 82 3c
       0.18376209 0.027591249 0.008034432 0.015938448
0002d0 4b a2 2e 3d d7 7f c2 3c 74 ef 03 be ad 2f 09 be
       0.042635243 0.0237426 -0.12884313 -0.13397093
0002e0 d0 d1 f6 3d 6d cb c0 3d 2a 04 21 be 09 7b 76 3c
       0.12051737 0.094138004 -0.15724245 0.015043982
0002f0 d8 d8 19 be ae d4 8d bd a8 60 2a be 18 08 18 bc
       -0.15024126 -0.06925331 -0.16638434 -0.009279273
000300 9d 4d bc bd 2b 0f 58 bd 84 89 d6 bc 74 0a 42 bd
       -0.09194491 -0.05274884 -0.02618862 -0.04737325
000310 5d 5c b6 3d ec 6d 1d bd cf cc 32 3d aa f3 6e 3d
       0.08904336 -0.038434908 0.043652352 0.058337845
000320 4b d9 f0 bd bc 1e 80 be 9b e6 33 3e bd 35 a4 be
       -0.11760195 -0.25023448 0.17568438 -0.3207225
000330 50 1b 1e be f5 50 ec 3b ca 2a 1a 3d 7a 4b ba 3d
       -0.15440106 0.0072117993 0.037638463 0.09096427
000340 16 fd 3d 3e ad 17 87 3e bd 7f e1 bd bb dc f3 bd
       0.18553576 0.2638525 -0.11010692 -0.11907335
000350 ab 03 20 3d 71 10 2d 3c 7b 60 e0 bd 15 fd 21 be
       0.039065998 0.010563002 -0.10955902 -0.158192
000360 bc 24 76 3b a0 b7 e9 3d 59 f6 b8 ba 51 87 1a 3e
       0.0037558516 0.11411977 -0.0014111503 0.15090682
000370 b0 00 49 be 9d df 77 be f2 8e 8f bd a7 dc cd bd
       -0.19629169 -0.24206395 -0.070096865 -0.10051852
000380 e8 5e 8e bd ea 5a 12 3e b9 8c 1b be 7b dc 0e be
       -0.06951696 0.14292493 -0.151904 -0.13951294
000390 04 93 b5 bd 93 d0 a1 3e b9 8b cb 3d b2 19 6b 3e
       -0.08865932 0.31604442 0.09938759 0.2295902
0003a0 75 d9 4c 3e 7b 6c 61 be 0d 94 dc bd a0 02 a5 3e
       0.20004828 -0.22014038 -0.10770426 0.32228565
0003b0 0d c0 f7 bd 59 05 b0 bd e8 0e 19 bc a4 f3 5a bd
       -0.12097178 -0.0859477 -0.009341933 -0.05345501
0003c0 ad 62 95 bd ee 30 13 be c1 b1 ef 3d 37 c2 8d bc
       -0.072942115 -0.14374134 0.11703826 -0.017304523
0003d0 04 12 a6 bd de d9 60 3c 66 4b 90 bd d0 c3 40 be
       -0.08108905 0.013723819 -0.07045631 -0.18824697
0003e0 ab 86 b2 3c 0e ea 5d 3d 9c 23 93 bd 1c 17 49 3c
       0.02179273 0.05417829 -0.07184526 0.012273576
0003f0 9d 44 a6 3c e3 cd 27 bd 21 2f 6f be ed fa 05 3e
       0.02029639 -0.040967833 -0.23357822 0.13084002

lstm.bias_ih_l0 f4 [128]
000000 cf f2 91 3d c4 fc b4 bc f3 45 9f bd 7e 44 d3 3d
       0.0712639 -0.022093184 -0.07777014 0.10315798
000010 2e 88 58 bd 3d 25 2d 3e 90 f5 89 bd 7a a4 da 3d
       -0.052864246 0.16908737 -0.067362905 0.10675903
000020 43 68 1d 3c 13 2a 16 3e f6 27 13 be 20 b3 27 be
       0.009607377 0.14664488 -0.14370713 -0.16376925
000030 54 cc 0d bd fa d8 12 3e a3 ae 28 3e a1 33 dc bd
       -0.03461869 0.14340582 0.16472869 -0.10752035
000040 cc 79 d3 bd 12 bc c2 3d ef 19 31 bc 71 6f 4c 3c
       -0.10325965 0.09508528 -0.010809406 0.012477742
000050 de 31 1b 3e 19 0e 5f 3c 0b 28 1c be 6e 8e 38 bb
       0.15155742 0.013614201 -0.1524965 -0.0028161067
000060 a9 93 21 3d 53 ba 2b 3e 41 f9 51 3e ac c8 c7 3d
       0.03944746 0.16770296 0.20505239 0.09755072
000070 25 5f 04 3e 84 fc 71 3e 63 e7 fd bd 92 ca 73 3e
       0.1292692 0.23631483 -0.12397649 0.23807743
000080 d0 2c e6 3d 7e 9d b3 3d 30 18 22 3e 0f 9b 5a bd
       0.11239016 0.087702736 0.1582954 -0.05337053
000090 14 ea cd 3d 21 74 b5 3d 9e 72 10 3e 75 2e c4 bd
       0.100544125 0.088600405 0.14106223 -0.095791735
0000a0 f7 c7 86 3e 17 8f 5c 3e 89 b7 4c 3e 45 a8 07 3e
       0.26324436 0.2153896 0.19991888 0.13247783
0000b0 10 73 18 3e 67 ff 3e 3d d8 1c a8 bc 44 ed b6 bd
       0.14887643 0.04663029 -0.020521566 -0.089319736
0000c0 82 f5 45 3e 7c e0 dd 3d 11 df 5c 3e a7 f6 00 3e
       0.19331935 0.108338326 0.21569468 0.1259409
0000d0 09 64 a3 3d 0d c2 3e 3d f8 65 04 3e c1 34 75 3c
       0.079780646 0.04657178 0.12929523 0.014966191
0000e0 ef 27 95 3e bd e0 34 3e 5e 4b f8 3d 82 59 89 3e
       0.2913203 0.17663856 0.1212375 0.26826102
0000f0 3d 4c b3 3b 18 ba be 3d 2d dd 9b bd 21 86 4a bd
       0.005471735 0.09312838 -0.07610545 -0.04944432
000100 91 9a 82 3d 9c 70 ee 3d 76 0b cc bd 38 17 85 3c
       0.063771375 0.11642572 -0.099631235 0.016246423
000110 07 7d 43 bd f9 76 16 be 26 17 fb 3d 95 ae 03 be
       -0.047726657 -0.14693822 0.122602746 -0.12859567
000120 8c a9 c8 bd ee d0 c3 3d 7b 26 0d 3b e4 43 dc 3c
       -0.097979635 0.095613346 0.0021537829 0.026887842
000130 14 ef 07 be dc f4 c3 3d d7 c0 1d 3e 03 9b 17 be
       -0.13274795 0.095681876 0.15405594 -0.14805226
000140 f6 5f 93 bd a6 84 21 3d d6 24 3c 3e bd 63 71 3d
       -0.071960375 0.039433144 0.18373427 0.05893301
000150 ec 7a d0 3d e4 06 55 bc f5 05 34 3e f3 53 96 bd
       0.101796955 -0.013002131 0.17580397 -0.07340231
000160 85 6d 50 be ce 96 df 3d 1f 99 8f bd a1 70 12 be
       -0.20354278 0.109174356 -0.070116274 -0.14300777
000170 32 17 50 bc ee 11 92 bc 93 f1 f9 bd 37 df 40 bd
       -0.012700843 -0.017830815 -0.1220428 -0.047087874
000180 13 b3 34 3e 8e 8f 3e 3d f5 94 10 bb f9 f7 85 bc
       0.17646436 0.046523623 -0.0022061442 -0.016353594
000190 fe 4d 82 bc 99 cf 08 3e 31 e7 a6 3d bd da 63 3d
       -0.01590633 0.13360442 0.08149565 0.055628527
0001a0 8e c4 f6 3c 52 08 9b bd 15 d7 06 be 07 5b 38 bd
       0.030123021 -0.07569946 -0.13167985 -0.045008685
0001b0 e2 e9 02 3e a4 c2 51 bd 91 c2 db 3d b7 d0 1a be
       0.12784532 -0.051211014 0.1073047 -0.15118681
0001c0 72 13 3d 3e 5a a7 0b 3d f7 d8 38 bd 17 f0 88 3e
       0.18464449 0.034095146 -0.04512879 0.26745674
0001d0 ff e1 8b 3c 22 d7 aa 3d 39 92 42 3c a1 93 23 3d
       0.017075537 0.083418146 0.0118756825 0.03993571
0001e0 c7 f7 22 3e 7c 38 7a 3e 08 0b 76 3d ac fb e9 bd
       0.15914832 0.2443561 0.060069114 -0.11424956
0001f0 2f 0a 05 be 13 da 2a 3e b6 0e 6e bd 68 3f 17 bb
       -0.12992166 0.16684751 -0.0581195 -0.0023078565

lstm.bias_hh_l0 f4 [128]
000000 d1 2f 65 3d bf 68 b0 3d a8 00 b8 3d cb 47 7e 3e
       0.055953804 0.08613729 0.089845 0.24832074
000010 10 fd 95 bc b3 d5 87 3d 4a 40 02 3d 56 d4 29 bb
       -0.018309146 0.06632557 0.031799592 -0.0025913916
000020 5b b9 40 bd 43 57 b2 3d 62 97 2e 39 e8 f0 29 3d
       -0.04705177 0.0870805 0.00016650328 0.04148951
000030 61 3b 3a 3e 56 9c 34 3e 79 86 2e be 29 88 ea bd
       0.18186714 0.17637762 -0.17043485 -0.11451752
000040 f5 85 b8 bd 3d 9a 12 be 71 33 39 3e 52 b0 69 3d
       -0.09009925 -0.1431665 0.1808603 0.057052918
000050 4e 24 8b 3e 6c 98 32 be 58 73 23 be 55 e2 04 bd
       0.27176136 -0.17440957 -0.15961969 -0.03244241
000060 64 c2 26 3e 96 d3 d0 3d c4 58 1b 3e e8 22 8a 3d
       0.16285092 0.10196607 0.1517058 0.06744939
000070 82 1c 87 3d 38 2c 78 3e dd 5d 2d 3c 8c ed ef 3d
       0.06597234 0.24235618 0.010581461 0.1171523
000080 da a9 0a bd 17 79 b9 bd 84 ef 44 3e fd d1 fe 3d
       -0.03385339 -0.09056299 0.19231993 0.12442396
000090 9d b3 64 bd 9d 03 1f 3e f0 a7 1d bd 36 53 29 3d
       -0.055835355 0.15528722 -0.038490236 0.04133912
0000a0 02 92 49 3e 95 eb 97 bc 78 ad 0b 3e 89 fe 81 3c
       0.19684604 -0.018544951 0.13640392 0.015868442
0000b0 ad 92 1c 3e 24 97 69 bb f8 ce c8 3d 87 13 8c bc
       0.15290327 -0.0035643065 0.09805101 -0.017099155
0000c0 e7 15 71 3d 28 06 53 3e 37 ce 59 bd 43 aa 68 3e
       0.05885878 0.20607817 -0.053175177 0.227212
0000d0 aa 6c 3a 3e 6c ff 29 3e 77 ab a6 3d 60 cd db bd
       0.18205515 0.16601342 0.08138173 -0.107325315
0000e0 54 d0 95 3e 79 65 5b 3e e5 99 35 3d 55 c7 13 3e
       0.29260504 0.21425427 0.04433622 0.14431508
0000f0 5e 51 c5 3d c7 ba 59 3d 3c 8c 5a 3c d5 0d 6e 3d
       0.0963466 0.05315664 0.013339099 0.05811866
000100 0f a2 ec bc 25 bb e6 3d cf 19 23 be e9 cb c5 bd
       -0.02888587 0.11266164 -0.15927814 -0.096580334
000110 cd 99 11 3e 30 6c 16 3e 8f 84 32 3e 02 19 dd 3d
       0.14218827 0.14689708 0.1743338 0.107957855
000120 b3 a5 8b 3d 54 34 30 be 18 3e d4 bd 17 53 02 3e
       0.06818714 -0.17207462 -0.10363406 0.12727009
000130 05 18 63 3d 94 0b ce 3d 9a f8 62 3e e0 12 bc bd
       0.05544283 0.10060802 0.22165146 -0.091832876
000140 95 a1 e6 3d ae 6f b5 bd a4 3d 99 bd 4d e6 9c 3c
       0.11261288 -0.08859192 -0.0748246 0.019152785
000150 cb 9b fd bd d8 fb 56 39 5d 90 f5 bd f3 e4 54 bd
       -0.12383231 0.0002050245 -0.11990426 -0.051976155
000160 de a8 83 bd eb 8d ad bd 24 74 ac 3d 67 7e 4e 3c
       -0.06428693 -0.08474334 0.084205896 0.012603379
000170 3d ef 08 3d 3c 23 5b bc ce 28 b6 3d 67 9e 9d 3d
       0.03343128 -0.0133751 0.088945016 0.076962285
000180 66 b1 82 bd 38 c4 3a bd 42 60 df 3d 76 19 25 3e
       -0.06381492 -0.045597285 0.109070316 0.16122994
000190 0b 71 05 3e 8d 73 b4 3c 9e f7 e4 3d e8 aa 31 3e
       0.13031404 0.022027755 0.11180042 0.17350352
0001a0 cb 33 c3 bd 09 72 13 3e b1 66 f0 bd e7 93 1f be
       -0.09531363 0.1439897 -0.11738337 -0.15583764
0001b0 35 1d 3e 3e 06 e5 93 3d a8 cb 0f be 2a e9 6d 3d
       0.18565829 0.07221417 -0.14042532 0.05808369
0001c0 71 fa 93 bd f7 ab d4 3c 8e 9b 3d 3e 15 8e cb 3d
       -0.07225502 0.025960905 0.1851637 0.09939209
0001d0 74 c9 b0 3d c9 c9 5d bc ba 56 7e 3c 4c 7a 5d bc
       0.08632174 -0.013536879 0.015523607 -0.013517927
0001e0 4e 46 dd bd 1e cc 6d 3e 77 60 09 3e 41 47 75 bd
       -0.10804425 0.23222396 0.13415705 -0.059882406
0001f0 0d 9a 2c 3d 76 a8 93 bd ed 60 14 bc 64 43 53 3e
       0.0421391 -0.07209866 -0.009056312 0.20631176

dense1.weight f4 [50, 32]
000000 f2 75 29 bd 27 4f ce 3d 3f 11 2f 3d 3c e0 9d bc
       -0.041372247 0.10073691 0.042741057 -0.019271962
000010 2f 55 c6 bd 33 6d 08 be 06 47 bd bc 12 b5 b3 3d
       -0.09684216 -0.13322906 -0.023105156 0.08774771
000020 13 19 47 3d f1 53 7b bd 17 4f 1c 3d c4 fe 53 3d
       0.048607897 -0.06135935 0.038161363 0.051756635
000030 4d 5f e8 3b 30 7c 5c 3d b3 3c 95 bd 36 96 be 3c
       0.007091439 0.053829372 -0.07286968 0.023264986
000040 20 41 36 be 16 97 16 3e 0c f1 69 38 7e df 1a 3e
       -0.1779828 0.14706072 5.577602e-05 0.15124318
000050 b1 b3 dc bd 0b d8 16 3e 2b ff 94 3c 69 14 02 be
       -0.10776461 0.14730851 0.01818808 -0.12703098
000060 d3 81 91 3d 48 bc ba 3a 6b 07 fb 3c 4f 8c e3 3d
       0.0710484 0.0014246786 0.030643186 0.11110746
000070 69 bd d7 3b e8 fe 1d 3e d8 a4 74 bc 33 03 35 3e
       0.0065838587 0.1542927 -0.01493188 0.17677002
000080 8b 11 95 3d ed 1a a6 3b 59 d8 48 be ce 6a 86 bd
       0.07278737 0.005069128 -0.1961378 -0.0656334
000090 6c ab 19 3e 1f b4 18 3e d6 07 eb bd e6 78 8b 3e
       0.15006799 0.1491246 -0.11476104 0.27240676
0000a0 a9 7f 5e bd 6c 3f 58 3d f3 ae f3 bd d6 8d 41 bd
       -0.054320965 0.05279486 -0.11898603 -0.047254406
0000b0 02 5a 24 3d 80 7e 30 3d e8 10 84 3d ab 5d 3d be
       0.0401249 0.04308939 0.06448537 -0.18492763
0000c0 f3 50 91 3d 21 7f a6 bd ed fe 3d 3e 77 59 3e 3e
       0.07095518 -0.08129717 0.18554278 0.18588816
0000d0 aa 36 22 3e ae d2 11 3d 01 70 a3 bc 46 d8 e7 3d
       0.15841165 0.03560131 -0.019950869 0.11320548
0000e0 5d d7 3d 3e d6 59 4b 3e bb 7b 5b bd b3 24 f6 3c
       0.18539186 0.19858488 -0.053584795 0.030046796
0000f0 a2 6a cc 3d ef 0f cc bc fe 9f 9e bd 46 45 19 3e
       0.09981276 -0.024909941 -0.0774536 0.14967832
000100 d8 7b b5 3a 51 bb 17 be c8 af 0d 3c fe 80 d5 bb
       0.0013846112 -0.1481755 0.008647867 -0.006515621
000110 41 61 05 3d 65 16 14 be 03 24 00 bc fc 40 5f be
       0.03256345 -0.14461668 -0.007821086 -0.21802133
000120 f0 a5 a8 bd bb 88 2d 3d 87 2e 0e 3d 4e 80 17 be
       -0.08234775 0.042366724 0.03471234 -0.14795038
000130 ce e7 45 bd 4d 42 79 be 4b ee 19 3d aa 81 23 3e
       -0.04831677 -0.24341698 0.03758077 0.15967432
000140 4e d0 89 3d 1d 15 d4 3d 31 a1 33 be e5 af 1a be
       0.06729184 0.103555895 -0.17541958 -0.15106161
000150 2b bb 8b be f8 1f 3d bd 4c 3a 81 3e 33 3f 0e 3d
       -0.27291235 -0.046173066 0.2523979 0.03472824
000160 bd cc 0e be 67 a3 2d be 17 97 9b 3c cc f2 19 3d
       -0.13945289 -0.16956864 0.018992944 0.037585065
000170 c4 99 1e be 17 dd ad 3d e5 33 31 3d dc fb 85 bd
       -0.15488344 0.08489435 0.04326238 -0.06542179
000180 ce f4 a1 3d c1 d8 8d bd 8a ee 84 bd 4e b7 c8 3d
       0.07908021 -0.06926108 -0.0649081 0.098005876
000190 b4 a3 86 3d 61 e1 05 3e 6a cb 73 bd 6b 84 fb 3d
       0.06574193 0.13074256 -0.059520163 0.12281116
0001a0 a5 7d e2 bc 31 cb d8 ba a9 83 15 bd 3a 01 51 bd
       -0.027647803 -0.0016540048 -0.036502514 -0.05102656
0001b0 ce f8 eb 3d f6 8a ae 3c 7a ec 72 3d e1 df b5 bd
       0.11522065 0.021306496 0.059307553 -0.08880592
0001c0 9c 45 90 bd 43 e4 66 3d 06 40 4c bd 8a 10 89 3d
       -0.07044527 0.05637003 -0.049865745 0.06692608
0001d0 d2 2f 47 3e 19 14 48 be 80 b1 10 3e 21 f1 d5 3d
       0.19451836 -0.19538917 0.14130211 0.10446382
0001e0 23 a7 ef 3d 9a c6 59 3e 8e e1 96 3c 03 8f 40 be
       0.11701801 0.21267167 0.0184181 -0.18804555
0001f0 27 c1 4f 3e cf 5a a3 3b 9f 25 a2 3c 1a 51 99 3e
       0.20288526 0.0049851905 0.01979333 0.29944688
000200 64 24 3f bd 5a fa dc bd 2a 74 40 3e 38 80 57 be
       -0.046665564 -0.10789938 0.18794313 -0.21045005
000210 8f c8 cf bd da 79 43 be 7d b9 10 3e 91 6d 3d be
       -0.101456754 -0.19089451 0.14133258 -0.18498828
000220 8a f4 12 3e a1 36 40 3d 4f b5 4a 3e 7f 5b a0 bd
       0.14351097 0.0469271 0.19795726 -0.078299515
000230 53 af 7c bd 2f 71 0a be 7f 39 d4 bd 43 75 22 3c
       -0.06169064 -0.13519739 -0.10362529 0.009915653
000240 2d e6 18 3d 7d 83 85 3d a9 0d f2 bb 46 d8 2b be
       0.037328888 0.0651922 -0.0073868823 -0.1678172
000250 b8 52 c8 bd 42 0d 3e be 55 00 13 3e ee 51 58 b9
       -0.09781402 -0.18559745 0.14355595 -0.00020629886
000260 1c dd 18 be 62 97 8f be 09 48 08 bd fd 99 ed 3b
       -0.14928097 -0.28045183 -0.033271823 0.007251023
000270 43 be 26 3d e4 b1 d4 ba ec f2 32 3e 32 8c ea bd
       0.04070879 -0.0016227332 0.1747548 -0.114525214
000280 15 20 c7 bd dd 00 06 3e 39 8c de bd fd c8 59 bd
       -0.09722916 0.13086267 -0.10866589 -0.053170193
000290 c2 aa 48 3e 8d b7 45 3d 77 eb ea 3c cb dc 57 3e
       0.19596389 0.04827075 0.028676732 0.2108032
0002a0 ef b5 98 bd 6c cc ba 3d 45 c5 1b bd 1d c2 97 bd
       -0.07456576 0.09121022 -0.038029928 -0.07410071
0002b0 5b e4 44 3e 6a f3 3d 3e df b3 a8 3c 6e c8 0a 3e
       0.19227736 0.18549886 0.020593582 0.1355302
0002c0 42 17 0c bc 30 74 49 bd ad bd 67 3e d8 43 02 3e
       -0.008550467 -0.04918307 0.2263095 0.12721193
0002d0 6d 73 9d 3e f0 11 16 3e 42 25 67 3d 16 67 9a 3d
       0.30752125 0.1465528 0.056432016 0.07539193
0002e0 26 c3 ce bc d2 0d 54 3e 49 67 45 3d 96 26 05 be
       -0.025239538 0.20708397 0.048194204 -0.13003
0002f0 39 71 a6 3d f7 b7 27 be 4d b5 b1 3d 85 3d 25 3e
       0.08127064 -0.16378771 0.086771585 0.16136749
000300 46 dd 0a be 2e 11 07 3d 82 3a 42 3e 34 29 ae bc
       -0.13560972 0.03297537 0.18967631 -0.021259882
000310 13 d2 c9 bc 2d d3 b0 3d c9 a2 08 bd 90 9a 3a 3c
       -0.024636304 0.086340286 -0.03335837 0.01138939
000320 fe d6 97 bc a1 64 fe 3c 8d a4 bd 3d 9e e2 18 be
       -0.018535133 0.031053843 0.09259901 -0.14930198
000330 83 a1 8e 3c 9e 9d 9f bb ea 52 da bd d4 f2 bc bd
       0.017411 -0.0048710844 -0.10660346 -0.09226003
000340 08 8a c6 3c e6 d8 9a bc 25 7d d0 3d e1 d7 f2 bd
       0.02423574 -0.018902253 0.101801194 -0.11857582
000350 bc 32 1a 3c 6d b5 35 3d 27 70 b4 bd 06 94 a5 bd
       0.00941151 0.044362474 -0.08810454 -0.08084874
000360 5b 02 2e 3e 2a 9b fe bd 7e 91 12 be fe e0 69 3d
       0.16993086 -0.12431939 -0.14313313 0.057099335
000370 87 41 01 3e a0 a7 03 3e 34 73 81 bd ba 86 28 3d
       0.12622653 0.12856913 -0.063208014 0.04114411
000380 1a 0c d8 bd 09 06 27 bd 2b a2 76 be dc 65 95 bd
       -0.10549183 -0.04077724 -0.240853 -0.07294819
000390 b3 22 a2 3d 61 78 5b 3d 6f 93 5c bd fa 74 5c 3e
       0.079167746 0.0535816 -0.05385154 0.21528998
0003a0 a2 88 2d 3d 85 8d 5a 3d 9b 37 7d 3d d5 70 e9 bd
       0.04236663 0.05335762 0.061820608 -0.11398474
0003b0 63 e1 1d 3e 0e 83 e9 3d 31 6f 15 bd e1 59 12 bd
       0.1541801 0.1140195 -0.036482994 -0.035730246
0003c0 94 b9 3b 3d eb 42 bb bd a2 3d 02 3e 80 4a a9 3d
       0.045831278 -0.09143623 0.12718824 0.08266163
0003d0 49 b6 d2 3d b8 63 17 3e 98 2a 25 3e d3 c1 aa 3e
       0.102886744 0.14784133 0.1612953 0.33351
0003e0 c7 ce 2b 3e ef 82 89 3e 43 01 ce bd d9 4a 8d 3d
       0.16778098 0.26857707 -0.100588344 0.06899042
0003f0 74 c2 fe 3d 07 da 43 be d1 78 3f be 78 4c 13 3e
       0.12439433 -0.1912614 -0.18698432 0.1438464

dense1.bias f4 [50]
000000 ff dd 3b be 70 07 11 3a ec 7a e1 bc 81 71 a0 3d
       -0.18346404 0.00055324193 -0.027524434 0.07834149
000010 67 e6 8d 3b f9 69 04 bc f7 b5 23 bd 11 cf d6 3d
       0.0043304446 -0.0080819065 -0.039968457 0.104887135
000020 aa 8f e5 bb 76 d0 3f 3d b6 f1 41 be 8e 3f 6f bd
       -0.0070056515 0.046829663 -0.18939862 -0.05841022
000030 e1 0f dc 3d a9 33 68 3d 9b 41 da 3d 4d 3f 9d bb
       0.10745216 0.056689892 0.106570445 -0.004798806
000040 c5 e5 51 bd 7f 6d 95 3c 6b e3 00 bc d4 9b 72 3d
       -0.051244516 0.018240688 -0.007866721 0.05923064
000050 0b c3 b3 3c 70 7d 81 bb 11 67 c6 3d 1e 9a 22 3e
       0.02194359 -0.003951721 0.09687627 0.15879104
000060 6f 96 17 bd d6 ff b4 bb a5 d3 03 bd c3 7a 5b bb
       -0.0370087 -0.005523662 -0.03218426 -0.003348992
000070 56 b8 07 3e 07 02 99 bd 61 e9 03 3d da 97 00 3d
       0.13253912 -0.0747109 0.03220499 0.031394817
000080 eb 56 1e be 28 cd 39 3d b8 26 ee 3d e9 54 ac 3c
       -0.15462844 0.045361668 0.11628479 0.021036582
000090 20 8b cb bd 73 64 95 bd 4f 65 c5 3d 36 7c d6 3d
       -0.09938645 -0.0729455 0.09638464 0.1047291
0000a0 37 d5 8f 3d 64 db 23 be 33 30 ea bc e3 a6 df 3c
       0.070230894 -0.1600166 -0.028587436 0.027301257
0000b0 bc 44 61 3d 37 6a 12 3e 6c f1 61 bb 83 99 23 3d
       0.05499719 0.1429833 -0.0034476174 0.039941322
0000c0 6a 6a cf bd cd b7 09 3e
       -0.10127719 0.1344902

dense2.weight f4 [1, 50]
000000 ce 5c 2a bd d8 e9 0b 3e d5 71 01 be 74 d3 25 3e
       -0.04159241 0.13663423 -0.1264108 0.16193944
000010 5c 49 fa bd 95 3b e4 3d 4d 65 eb bd d2 dc ea 3d
       -0.122210234 0.11144177 -0.11493931 0.114678994
000020 50 23 d5 bd 91 e8 07 be d5 94 d6 bc 7e 46 14 be
       -0.10407126 -0.13272311 -0.026194016 -0.14480016
000030 42 49 f3 3d be 73 03 3e 44 25 0a be 8f 35 10 3e
       0.11879207 0.12837121 -0.13490778 0.14082931
000040 cb 79 2d 3e 75 0a be bd 0a 9e ac bd 73 d6 c7 3d
       0.16940992 -0.09279338 -0.08428581 0.097577
000050 96 ab 19 be 8a 34 11 be a8 5d 08 3e ef 88 cf 3d
       -0.15006861 -0.14180198 0.13316977 0.1013354
000060 1b 8f fe 3d c5 9b a6 bd e3 5e dc bd 51 88 04 be
       0.12429639 -0.081351794 -0.10760286 -0.12942626
000070 bb 90 dc 3d 1a 34 15 3e 68 d5 bf bd 9e e2 2a 3e
       0.10769793 0.14570656 -0.09366876 0.1668801
000080 e7 ba 1c bd 8c 81 d4 bd da db 23 3e 53 b9 0f 3e
       -0.03826418 -0.103762716 0.16001835 0.1403554
000090 1b 96 5e bd 20 8d 1e be 22 d8 18 3e f1 a6 03 3e
       -0.05434237 -0.15483522 0.14926198 0.12856652
0000a0 40 c3 0c 3e 64 88 db bc 0d 5b ea bd ab 0e ee 3d
       0.13746357 -0.026798435 -0.11443148 0.116238914
0000b0 b4 8c e1 3d 15 5f 01 3e 25 8c 2f 3e fd 59 0f be
       0.11013165 0.12633927 0.17143305 -0.13999172
0000c0 23 b8 af 3b 07 dd bd 3d
       0.005362527 0.09270673
