time_series_forecasting/saved_models/RNNForecastingModel/19-03-2024-195428_NO1_epoch_1.pt (torch, 29291 bytes, 7 tensors)

lstm.weight_ih_l0 f4 [128, 4]
00000000: df99 80bb 477a 383d fe10 24be 2c7b 73bd
00000010: bf63 c6bd 5255 393e 6c95 10bd 6a85 dabd
00000020: fe0d 2abe bcfa 07be 75d1 1b3e 5ea6 16be
00000030: 50e7 5f3e 3f05 ddbd 69ca 783d 44f6 31bb
00000040: 0151 f2bd 518c 3bbe 4fe3 9ebd 1e61 acbd
00000050: d0eb cfbc c728 f93d 705f c2bd 76f0 96bd
00000060: 7b74 013d db60 243e f10e 32bd accb 223d
00000070: 6cac a33d 585d 90bd ad20 03be b7bf 3fbe
00000080: 456a 933b 1724 60be 92a4 dcbc 5e17 f23c
00000090: c7d6 9b3d c3e9 0e3d 9a83 2bbe a5f1 953c
000000a0: b152 0a3e 46bb 1d3d 0f4c c23c 3940 66bd
000000b0: 5f80 e3bd 557c c1bd ccc6 66bd 7612 143d
000000c0: 1889 323e b12d dd3c 9288 2b3e c555 043e
000000d0: e29c 093d 9779 103e 6c95 38bd 2421 11bc
000000e0: 465e a6bb b15b 353b a0d6 02bc 81ea 22bd
000000f0: e54e 513e 18c8 04be ff6f 2a3c 0e7d d9bd
00000100: 0661 473d a7d5 913c ab80 0f3e 7969 3fbe
00000110: d776 b23c ef7b a73c d783 b7bd 4f89 ce3d
00000120: 549a 243e 7d3b ce3d 9be2 dfbd 1905 a83d
00000130: d018 cd3b 79d4 cc3d fc2a 6b3e 6128 afbc
00000140: 1b65 3ebd f63d 8fbd 0a91 27be 1efd 0e3e
00000150: f58a 423e ec68 2bbe befc 0d3e ed46 1b3d
00000160: 0557 34be 3f8f 05be 06e0 03be 4a74 663d
00000170: 2ca0 4cbe 0e18 243d 0f61 f53b c898 39be
00000180: 2caf 42be 39da 8abd d899 18bd 3b9d 913d
00000190: d1a5 3c3e 424f 1ebe 2bbd d8bd 7d5e 223d
000001a0: f0f3 42ba 36c2 c83c 525f 2ebe ebd6 e63d
000001b0: 2b6c 9ebc 29d1 f03d d4a1 c63d f611 063e
000001c0: aca7 c5bb 5f21 1a3e fe9d debd bee7 d83d
000001d0: ff32 403e f29a 98bb a953 17be 3c30 0fbe
000001e0: 0380 1e3e ddfa d9bd 9380 253b 7798 c1bd
000001f0: 7a87 4ebe b913 273d 61ea 433d 7919 06bd
00000200: c889 b03d 50be 1b3d 921f d9bd 7813 93bd
00000210: ff2c 15be b5ec 293e 6f59 51bd 95e6 233c
00000220: 16ef c23d a600 e4bd cf11 05be 3342 6cbd
00000230: 12a8 263d a701 0a3d 526b 813e 505f af3c
00000240: 046c 963d 66aa 3fbe f3f6 adbc be31 023d
00000250: c7fc 17be 257d d33d 26a9 aebb a32e aa3d
00000260: c2bf 9ebd dc9b c83d 3a20 ca3d 1889 c83d
00000270: 99b8 6fbd 583a 0fbe 07ef 1abe 614c 49be
00000280: 7f17 5e3e b059 e2bd a628 253c 187a 30be
00000290: bef2 b9bd ac1f 2c3e 0b0b 01be 0a89 29be
000002a0: 1a00 26be 1fc5 96bc 84fb 073e bfa1 583d
000002b0: 38f0 5cbe 0a5f 423e 2216 b03d 24c7 453d
000002c0: 209c 793b 2ef7 2abd 8d26 633b 4b7c b4bd
000002d0: a487 c9bd 34bc 1ebe 828c 4bbe 4007 973c
000002e0: c9ee ce3c 4d52 013e 533c 743c 9c37 b33d
000002f0: 73c8 923d 0f12 4fbe f007 54bd 16d0 0bbe
00000300: faa6 17bc 0665 283e 86bc 2b3d fd12 943d
00000310: 9720 9a3d 7b3f 8a3d c57b 0fbd b466 c23d
00000320: d77a ffb9 0f6d 0fbe 562d 73bd 27ac f73c
00000330: 3f37 653e 7373 4cbe b2c0 5abd f3f0 9b3d
00000340: 81d4 04bd 433a f53d 201a 1abe 2cac f93c
00000350: b0e3 fa3d 0daa a23d 050b d83b dea3 463c
00000360: 73d9 2c3c 0600 e73d 1dd2 9abc b77c 4bbc
00000370: 80e7 d5bc cbb1 023d 370f a4bd 2a3c a6bd
00000380: f713 7d3c d657 673c 518f 853d 3ccd d0bd
00000390: fd35 173e ac3c 46be 501e e8bd b682 19bd
000003a0: c9bf fbbd 5280 1b3e df8f 043d 2b3a 773d
000003b0: e1c8 ae3d fb9f a83d 5ee9 153e 9430 52bd
000003c0: 2af4 be3b 8d63 2dbe 5a13 7abe f73f 3a3d
000003d0: c72e f9bc fd92 04be 48fa 53bd accc 59bd
000003e0: 9dab 91bd 76cd 20be f713 2dbe d642 d8bd
000003f0: 3e45 c33c 3b87 01be 972b 99bc 8415 21be
-0.003924593 0.045038488 -0.16022107 -0.059443638 -0.09686994 0.18098953 -0.03529875 -0.10669978
-0.166069 -0.13279241 0.1521662 -0.14711902 0.21865582 -0.10792016 0.06073991 -0.0027154842
-0.118318565 -0.18315245 -0.077581994 -0.08416961 -0.025380999 0.12165981 -0.094908595 -0.07370083
0.031605225 0.16052572 -0.04347128 0.039745018 0.07991871 -0.07049054 -0.12805434 -0.18725477
0.0044987523 -0.21888767 -0.026933942 0.029552158 0.07609325 0.0348909 -0.16749421 0.018303702
0.13508107 0.038508676 0.023717908 -0.05621359 -0.11108469 -0.094475426 -0.05634193 0.03615042
0.1743511 0.026999326 0.16751316 0.12923343 0.03359688 0.14108883 -0.045064375 -0.008857999
-0.0050771562 0.002767306 -0.007985741 -0.03977442 0.20440252 -0.12966955 0.0104026785 -0.106195554
0.048676513 0.017802073 0.14013927 -0.18692578 0.021785183 0.020444838 -0.08960693 0.10084783
0.16074497 0.1006994 -0.109318934 0.08204097 0.0062590614 0.100014634 0.22965616 -0.021381559
-0.04648314 -0.0699424 -0.16363922 0.13963744 0.1899832 -0.16739243 0.13865945 0.037909437
-0.1761132 -0.13042925 -0.12878427 0.056263246 -0.19982976 0.040062003 0.007488377 -0.18124688
-0.19012135 -0.06779904 -0.03725609 0.071100675 0.18422629 -0.15459922 -0.10582956 0.039640892
-0.0007436862 0.02450667 -0.1702855 0.11271461 -0.019338688 0.11758644 0.09698835 0.13092789
-0.006031951 0.15051793 -0.10869978 0.10591076 0.18769453 -0.004657143 -0.14778008 -0.13983244
0.1547852 -0.106435515 0.0025253638 -0.094529085 -0.20168868 0.040790293 0.047830943 -0.032739136
0.0862003 0.038023293 -0.10601725 -0.07181448 -0.14567946 0.16594203 -0.05111068 0.0100037055
0.09518258 -0.11132936 -0.12995075 -0.05768032 0.040687628 0.033692982 0.2527719 0.021407753
0.07344821 -0.18717346 -0.021235919 0.03178572 -0.1484252 0.10326604 -0.0053302227 0.083096765
-0.07751419 0.09795353 0.09869428 0.097917736 -0.058525655 -0.139871 -0.15130244 -0.19658042
0.2168865 -0.11052263 0.010080492 -0.17234075 -0.090795025 0.16808957 -0.12601869 -0.16556183
-0.16210976 -0.018404542 0.1327954 0.052888628 -0.21576011 0.18981567 0.085979715 0.04828562
0.0038087443 -0.041739635 0.003466043 -0.088127695 -0.098403245 -0.15501481 -0.19877818 0.018436074
0.025260346 0.12629052 0.014906961 0.08750841 0.07167139 -0.20221733 -0.051765382 -0.13653597
-0.009256119 0.16444787 0.041927837 0.07230184 0.07525747 0.06750389 -0.035030145 0.09492245
-0.00048728913 -0.14006446 -0.059369408 0.030233456 0.22384356 -0.19965915 -0.053406425 0.07614317
-0.032429222 0.11974003 -0.15049028 0.030477606 0.12250459 0.07942591 0.0065931105 0.01212403
0.010549891 0.11279301 -0.018899018 -0.012419871 -0.026111364 0.031907838 -0.080107145 -0.08116944
0.0154466545 0.014120063 0.06521476 -0.10195395 0.14766689 -0.19359082 -0.11333907 -0.03747817
-0.122924395 0.15185669 0.03236377 0.060358208 0.08534408 0.08233639 0.14639804 -0.05131586
0.0058274465 -0.16932507 -0.24421445 0.045471158 -0.030417813 -0.12946697 -0.05175236 -0.053173706
-0.07112811 -0.15703377 -0.16902147 -0.10559623 0.023836728 -0.12649243 -0.018697543 -0.15730864

lstm.weight_hh_l0 f4 [128, 32]
00000000: 13d5 8dbc 1d60 ef3c d8ae 353d 6540 b23d
00000010: d9f7 363d e8e9 303e 020a 12be 1a59 ea3d
00000020: 0d69 3fbd f848 183e 9dd1 35be 674f 523e
00000030: 0874 d53d 238c 133d c009 42bb 4b55 ef3d
00000040: 2d0e b0bd fe4f 0cbb 1256 08be 2545 283d
00000050: cc80 5c3c 6f93 fd3d 4d03 1e3e d071 993c
00000060: 7fd2 19be 40c2 64bd 18d9 7d3d 2ded fb3c
00000070: 76cc 71bd 79b5 40be 9675 99bc 725f 12be
00000080: 1107 0abd 438e 47be 0a36 b9bd afa5 99bd
00000090: 3b9c 613d ef59 18bd 3ac8 2dbd 8269 f0bd
000000a0: d0a5 93bd 938d 843d 6cde 17bc 1131 513e
000000b0: e319 dd3d f2f5 213c b366 b23c c1d5 383e
000000c0: b315 e73d 6c66 d0bd dd51 223e 0d3b 683d
000000d0: ec02 a0bd 68bf 04be 2f2f 8d3d c32b 0b3e
000000e0: 8af8 6abd a399 863d 6540 83bd 3a33 f23c
000000f0: a155 c93d a8a1 a6bd e654 a6bd 6cb0 fbbd
00000100: a529 34be 75f8 0abe 337c 2b3e 3b03 453e
00000110: 6f62 3bbe 177e 8fbc 4547 88bb e6a6 14bd
00000120: c840 423e fde3 13be a493 8f3d ee10 c9bd
00000130: 2396 4b3d 3f80 1a3e 5d15 333d a116 313e
00000140: 6720 c43d d81d 34be e371 0fbe 9cc4 813d
00000150: ab30 253e fd49 b8bd d85e bbbd c950 f13d
00000160: b545 163d 7d87 9f3c 250b 0c3e c3e4 243d
00000170: fc47 dbbd 1810 da3c a441 8a3d 3948 0bbe
00000180: 2ebc 083e b17b dc3d b268 033d d292 d43d
00000190: 6834 673c bc19 11be a4a5 90bc 6c00 d43d
000001a0: 81d2 88bc 8b70 1cbe 9108 28be 9ac6 353e
000001b0: 7df3 3dbd 5fc4 83bc 76bf 0bbe 2e36 b1bd
000001c0: 13df 3d3d db12 a33c 3848 2c3d 3a7f ff3d
000001d0: 108b 49bd 6a23 2dbe 1641 a03d 627b 2f3e
000001e0: b0f4 d5bd 88b4 c9bd ea20 613c 5cef 0b3c
000001f0: e01d c0bd 964b dcbd 4597 43be 8dab 973d
00000200: 1561 c73d a2dd 0abe e194 0bbd c443 303b
00000210: 5f58 f6bd 4d4f 313e d001 6bbd f312 673e
00000220: 51c0 613d b5e4 ddbd 8512 52be 86d4 a1bd
00000230: 2953 fe3d ab02 81bd e8d1 7e3b 0f44 7bbd
00000240: d9aa 2a3a 92bb 463e 9dda ea3d 475c c23d
00000250: d5d2 1c3e 6909 04bc 7f8f 11bd 9449 5a3e
00000260: e056 d5bd e6c6 87bd c793 8dbd d429 e73d
00000270: 8420 11bd f504 6f3d e316 d03d 275b 0bbe
00000280: 3dda 59bd b77c 303d a39c a4bb d29c a93d
00000290: 0963 ae3d 4e76 ad3b c652 04bb a7bb 2a3e
000002a0: 33a2 1f3c 8147 8b3b 5813 f2bc 1377 133e
000002b0: 5205 bcbd 9e32 23be a4bc 403e 79a3 3d3e
000002c0: 6655 523e 22a5 f6bd 2007 373e c54b 363c
000002d0: 51e3 833d 4459 a4bd a6a6 dc3d d0a0 d83d
000002e0: 0cba 583e e874 603e 8954 3fbd 1bfe 543e
000002f0: 3da3 96bc a72b 0bbe afe5 5dbc 504d 67bc
00000300: a1f4 babd 3389 4f3d 1404 30bd 062a b53d
00000310: 8a35 153e 9ef3 86bd 0c98 f93d 0654 973d
00000320: 377a 683d 8151 3dbd 0e5f dabd ba64 db3d
00000330: 8e14 0ebe 380e 1bbe a5f7 4e3d ddc0 7b3d
00000340: 3ca0 553e cbbc 563d 9312 74bd 65ee 1dbe
00000350: 69d3 8fbd 5871 07bd 028e 8dbb a06a 433e
00000360: d74d 54bd d9b3 0fbc fed6 083e 3dde 523e
00000370: 7a6e 343e 234d fbbd af9e 16bd 29fc 93bd
00000380: 99ac e0bd 69d1 e43d ad2d e8bd 2c4f 7a3e
00000390: 7b1f a43d 6882 eabd 872a 2d3b 9d58 f13d
000003a0: c4e2 b93d ef7a 973d 939a 70bd 0ef4 3c3e
000003b0: bc1c a23d 772e f13d 8c89 853b b5ad 793d
000003c0: 40ff 243c 4366 04bd 1e32 d93c 0f10 563d
000003d0: e78d b2bd 69ba f73d 51f5 36bc 1049 e0bd
000003e0: 1081 4e3d e3d1 753e e563 ba3c 16ae 51bd
000003f0: 1f39 8abd 4e56 15be ccac 203d 238a 753d
-0.017313516 0.029220635 0.044356197 0.087036885 0.04466996 0.17276728 -0.1426163 0.11442776
-0.046731044 0.14871585 -0.17755742 0.20538102 0.10422522 0.036022317 -0.0029607862 0.1168619
-0.08596454 -0.0021409984 -0.13314083 0.041081566 0.013458442 0.12381636 0.15430947 0.018731028
-0.15021704 -0.055849314 0.061974615 0.030752743 -0.05903288 -0.18819226 -0.018732827 -0.14294222
-0.033698145 -0.19487862 -0.0904351 -0.07502305 0.055080634 -0.037195142 -0.04242728 -0.11738874
-0.072093606 0.06472316 -0.009269338 0.20428874 0.10795953 0.009885298 0.021777486 0.1805029
0.11283436 -0.101757854 0.15851541 0.05669694 -0.07813057 -0.1296364 0.06893765 0.13590913
-0.05736593 0.06572273 -0.06408767 0.029565442 0.098307855 -0.08136302 -0.08121662 -0.12289509
-0.17594011 -0.13571341 0.16746597 0.19239514 -0.18299268 -0.017516179 -0.0041588866 -0.03629198
0.18970025 -0.1444244 0.07010582 -0.09817682 0.04970373 0.15087985 0.043721545 0.17293788
0.09576493 -0.1758951 -0.14008288 0.063363284 0.16131847 -0.08998487 -0.091489494 0.11782987
0.03668757 0.019473786 0.13676126 0.040257227 -0.10707089 0.026619002 0.06750801 -0.1360177
0.13353035 0.1076578 0.032082267 0.10379566 0.014111616 -0.14169973 -0.017657109 0.10351643
-0.016701939 -0.15277307 -0.16409518 0.17751542 -0.046374787 -0.016084848 -0.13647255 -0.08652912
0.04635532 0.019906452 0.04206106 0.124754384 -0.049204886 -0.1690804 0.07824914 0.1713691
-0.10447061 -0.09848887 0.0137407575 0.008540954 -0.09380698 -0.107566044 -0.19100673 0.074057676
0.09735314 -0.13561109 -0.03407753 0.002689586 -0.12028574 0.17315407 -0.057374775 0.22565822
0.055115048 -0.10834638 -0.20514877 -0.07901864 0.12418205 -0.06299337 0.0038882438 -0.061344203
0.00065104436 0.1940749 0.114674784 0.09490257 0.15314801 -0.008058884 -0.03553724 0.2131713
-0.10416961 -0.06629734 -0.06912952 0.11287275 -0.0354314 0.058354337 0.10160615 -0.1360899
-0.053186644 0.043087687 -0.0050235554 0.08281864 0.08514983 0.005293644 -0.0020190938 0.16673146
0.009743261 0.0042504673 -0.02955024 0.14400892 -0.09180702 -0.15937278 0.1882196 0.18519391
0.2054039 -0.12043215 0.17873812 0.011126463 0.064398415 -0.080248386 0.10773973 0.105775476
0.21164721 0.21919596 -0.04671148 0.20800059 -0.018388385 -0.13590871 -0.01354353 -0.014117554
-0.091286905 0.050667953 -0.04297264 0.08845906 0.14571205 -0.06589435 0.12187204 0.07389073
0.05675718 -0.046220306 -0.106626615 0.107125714 -0.13875028 -0.15142143 0.05052914 0.061463226
0.20861906 0.05242614 -0.059588026 -0.15422972 -0.07022745 -0.033067077 -0.004319907 0.19083643
-0.051832046 -0.008770906 0.13363263 0.2059259 0.17620268 -0.12270572 -0.036772426 -0.0722583
-0.109704204 0.11172754 -0.11336837 0.24444264 0.08013817 -0.11450654 0.0026423053 0.1178448
0.09076455 0.073964946 -0.058741163 0.18452474 0.07915637 0.117764406 0.0040752348 0.060956676
0.010070622 -0.032324087 0.026513156 0.05226141 -0.08718472 0.12096102 -0.011166886 -0.109514356
0.050416052 0.24005847 0.022752712 -0.051191412 -0.06749176 -0.14583704 0.039227292 0.05994619

lstm.bias_ih_l0 f4 [128]
00000000: 7202 97bd 4898 91bd 4bb1 953c 18bb 17bd
00000010: cca7 9dbd dcde cebb c35a c63c 4c57 9abc
00000020: 6457 3f3d 5362 c43d bf86 47bd bbd1 a53d
00000030: 5866 4c3e e98f ca3d cba1 9bbc 9a48 493d
00000040: f1b7 9bbd e8ff 6d3d 8023 a43c 9bc0 2b3e
00000050: 6cf4 a0bd 262c e53d efef 1dbd d480 133c
00000060: cf0e 143e c77d f93d 3857 d2bd 572a 093a
00000070: ed5c 273c ca1c 1fbd d519 263c 90e0 70bd
00000080: 812d d53d 8188 153e f939 bf3d 8fda 583e
00000090: 1f0c fb3d ffbd 4abc deb9 6c3e bd83 163e
000000a0: f87b 073c f36e f43d a407 183e b5c2 b93d
000000b0: 8389 44bd d650 093e 01ec b5bd a6d1 6ebd
000000c0: 03f7 8bbd 921c 573d fab0 283e c407 3d3e
000000d0: 5fad bb3d 98d7 643e 203c fabc f609 87bc
000000e0: 8352 933d 2964 283e de08 1bbc 1908 de3c
000000f0: 4bfc d33d 48ea ce3c 436a 93bd 2e8c 11be
00000100: 7555 c2bd 85bb cd3d 0b73 263d 6f26 9d3d
00000110: 4de5 49bd c5bd 053d cae5 28be 0336 4cbd
00000120: 927f ed3d 6b6b 1dbe 1244 94bc 269c 323e
00000130: 0c20 19bd c1a4 41bd 1747 013e 4644 003e
00000140: 959d e43d a8c9 94bb 2cb8 c9bd bdf8 953d
00000150: c306 aaba 6a3b 14be 3084 273e ea36 fa3d
00000160: 860c dd3d e793 f43d ab23 213e c4fc 353e
00000170: 071d 06bd f83d 2bbe a19a 99bb 425e f63b
00000180: ff3f 7d3d 8080 ee3d 8caa 053e 98a4 7dbc
00000190: 48de 273e 318b 97bd ea73 173e 4bb8 583d
000001a0: 2041 243e 7a42 e1bd d12e 3c3e 4fdd bbbc
000001b0: 5232 b4bd fd61 573e ff39 453d deea 593e
000001c0: 0ff1 5b3e 527f 81bd 4cbb adbd 6533 b3bd
000001d0: 23dd 3a3e aff6 5e3e 3c6e 083b d2cb 4e3d
000001e0: b6c4 1b3e e24a fe3d a5a9 10bd 25f6 b2bd
000001f0: 1179 b43b c576 ffbd ecec f3bd bcbe 37bd
-0.07373513 -0.071091235 0.018273016 -0.03704366 -0.0769802 -0.006313188 0.0242132 -0.018840455
0.0467142 0.09589066 -0.04871249 0.080966435 0.19960916 0.0989073 -0.018998047 0.049141504
-0.076034434 0.05810538 0.020036459 0.16772692 -0.0785912 0.11190061 -0.038558897 0.009002883
0.14458774 0.12182193 -0.10270542 0.00052324444 0.010215026 -0.038845815 0.010137995 -0.05880791
0.1040907 0.14602853 0.09337229 0.21177123 0.12258171 -0.0123744 0.23117778 0.14698692
0.008269303 0.119352244 0.14846665 0.090703405 -0.047982704 0.13409743 -0.08882905 -0.058305405
-0.06834223 0.05251748 0.16473761 0.18459994 0.09163927 0.22347867 -0.030546248 -0.016484242
0.07193472 0.16444458 -0.009462563 0.02710347 0.103508554 0.025258198 -0.07198002 -0.1421363
-0.09488956 0.10045532 0.040637057 0.07673346 -0.049290944 0.03265168 -0.16493908 -0.049856197
0.11596598 -0.15373008 -0.018098865 0.17442378 -0.037384078 -0.047276262 0.12624775 0.12526044
0.11162869 -0.004540641 -0.09849581 0.07322834 -0.0012971986 -0.1447579 0.1635902 0.12217505
0.10793404 0.11942273 0.15736263 0.17772204 -0.032742526 -0.16722858 -0.0046876227 0.0075185606
0.06182861 0.11645603 0.1305334 -0.015481137 0.16393387 -0.073995955 0.14790311 0.05291013
0.16040468 -0.109990075 0.18377234 -0.022932677 -0.0879866 0.21033473 0.048151013 0.21281001
0.21478675 -0.063231125 -0.0848299 -0.08750037 0.1824842 0.2177379 0.0020817658 0.050487347
0.15211758 0.124166265 -0.035318036 -0.087383546 0.0055075963 -0.12473825 -0.11910424 -0.044859633

lstm.bias_hh_l0 f4 [128]
00000000: fee1 053e e441 403e fefe 813d dd62 123d
00000010: ac7d e8bd 987b 5dbd feb8 3a3c 744e 8ebd
00000020: 8853 0f3d 6eed a23d 2820 363e 5d69 a93d
00000030: af15 b33d 3e28 2d3e 002e 3b3e 750c 053e
00000040: b48b 8bbd 231f 403e cc95 13be 6cc6 4f3d
00000050: ffb2 523c 8708 9bbd bed4 703d 73f5 58bd
00000060: cc05 78bd 845d 003e 9206 06be 12fe f13d
00000070: b4fa a8bd 3045 dfbc 8b2c 123e 2714 f0bd
00000080: 4c99 8dbc 4483 c43d a3cf 2b3e 0179 c2bd
00000090: 1909 5ebc cb40 c9bd db74 ee3c ba20 94bc
000000a0: 1c21 3b3e d09a 1d3e a18e 953d 2b13 013d
000000b0: 76d0 393a edb8 223e 5f2d af3d 591d 4d3e
000000c0: 676d 153e ad50 d63d 6bd3 80bc ea5c 04be
000000d0: dfa0 763e 5abc e2bd 1f6d cabd 2e76 cfbd
000000e0: abfe c53d 8ca5 0ebe 60c5 64bd 9537 403e
000000f0: 23c5 fd3d 1b11 0d3d 5516 acbd bc89 893d
00000100: 8006 1d3e a02a 17be 7467 383d 1c52 d9bb
00000110: c4be 8b3d af36 5ebd f345 09bd 99cb f23d
00000120: b408 cbbc 425c 8b3b 8478 62bc 27d3 ef3d
00000130: 8711 1c3e 8d00 933d 30f4 883d b2f8 bf3d
00000140: 1d0a 50bd 71c8 0e3e d6e9 0c3e 7abe 18be
00000150: 55ef 423c 79c3 363e c3de bbbc 57fc 343e
00000160: 26ad 1a3d 527d 1a3e 51e9 8b3c 6d78 25be
00000170: b877 1a3e 3c83 4dbe 77c5 d93d a649 2dbe
00000180: 771c b4bd 25b9 483d 0a79 c8bd e95b 6e3c
00000190: f0d2 5e3d 408f 423e dc4d 8bbd c61a 2f3d
000001a0: d5fa 05bc 24c9 b53c f479 f53d 723c 87bd
000001b0: b51a d538 5762 1a3e 0657 94bc 0abb 613e
000001c0: aa2e 723c cca6 afbd bea6 b7bc c3df 873d
000001d0: 9ae6 75bd 5f77 233e 6a01 29bd 5bdd 463e
000001e0: 1be8 debd 26b1 cb3c c073 f0bd 9526 c7bd
000001f0: 2092 363e b5ad 09be 7619 ad3c 8a9d 813d
0.1307449 0.18775135 0.06347464 0.035738815 -0.11352095 -0.054072946 0.011396645 -0.069485575
0.03499177 0.07955442 0.17785704 0.082720496 0.0874437 0.16909882 0.18279266 0.12993033
-0.06813756 0.18761878 -0.14412612 0.05072634 0.012860059 -0.07569986 0.058796637 -0.052968454
-0.060552403 0.12535673 -0.13088444 0.11816038 -0.08250943 -0.02725467 0.14274804 -0.11722594
-0.017285012 0.095953494 0.16778426 -0.09495736 -0.013551974 -0.098268114 0.029108455 -0.018082011
0.18274349 0.15391088 0.07302595 0.03151242 0.0007088253 0.15890856 0.08553576 0.20030726
0.14592515 0.104646064 -0.015725812 -0.12926069 0.24084805 -0.110710815 -0.098840944 -0.10129963
0.09667715 -0.13930339 -0.055852294 0.18771203 0.123911165 0.03444014 -0.08402697 0.06715724
0.15334511 -0.14762354 0.045020536 -0.0066321027 0.06823495 -0.05425137 -0.033513974 0.118552394
-0.024784423 0.0042529413 -0.0138226785 0.11710196 0.15241061 0.071778394 0.066872 0.09373607
-0.050790895 0.1394365 0.13761076 -0.14916411 0.0118978815 0.17848004 -0.02293337 0.17674385
0.037762783 0.15086868 0.017079027 -0.1615922 0.15084732 -0.20069593 0.106333666 -0.16922626
-0.08794492 0.049004693 -0.09788711 0.01454828 0.054400384 0.18999958 -0.0680196 0.042750143
-0.008177479 0.022190638 0.11986151 -0.06603326 0.00010161606 0.15076576 -0.018107902 0.22044006
0.014781633 -0.08576736 -0.022418376 0.06634476 -0.060034372 0.15963505 -0.041261114 0.19420378
-0.10884114 0.024864744 -0.117408276 -0.09724156 0.1782918 -0.1344517 0.021130305 0.06328876

dense1.weight f4 [50, 32]
00000000: 9aee 1cbe 0144 50bc 9cc6 913d e869 743d
00000010: 9bb1 983c cffe d63d 83a4 0e3e e9a7 c63d
00000020: 2996 e73d b86b e9bd e7d7 74bc 24ae 96bd
00000030: 5bcf ce3d 783a fc3d 0711 2a3e 0c07 29bc
00000040: 80f9 423e bd26 ab3b 1a1b 063e e974 8b3d
00000050: 5e17 34bd f330 4ebd 75bf c13d 6a3f 9c3d
00000060: da60 10bd c162 1abd dc88 8f3d 3596 39bd
00000070: eaab 94bd 39b2 fdbd 6e3b 383e 7bf0 a13d
00000080: 3e71 e93d 3389 f9bd 8756 53be e609 533e
00000090: 1252 553e a72b 8dbd 6c34 053d dc38 1f3e
000000a0: ca07 2ebd 8d54 713d 65d6 10bd 2e24 8b3c
000000b0: 13d1 32bd ebd0 5a3d 845f b9bd b759 9e3d
000000c0: c52b 49be b61d fa3d afba b43d 6963 443e
000000d0: 3c76 85bc f561 aa3d 2973 3fbe 7e23 cb3d
000000e0: 153a a6bd 330b 2c3e a079 f83d 50cd 103e
000000f0: 572b 3d3e 075b 5dbe 0b62 6ebe 4169 dbbd
00000100: cff5 0abe e638 a3bb 62f1 e03d ea40 323c
00000110: e608 d33d baa0 ab3a 69eb cbbd 5dd7 cd3d
00000120: 4f67 0abe 543c 24be 8bcf 113e 66ae 00be
00000130: ea8e 0dbd ec41 123e d9bd 9abd afe4 7ebd
00000140: 24e4 a9bd cc2a 21be ed77 8abd 6dc4 ed3d
00000150: 49d6 15bd 575b f5bd b6f6 85bd 718b 1cbe
00000160: e60d b9bb 79fe 0dbe 43eb a2bc d740 ea3d
00000170: 18a8 d9bb bba4 09be 1093 8c3d 0c45 443e
00000180: 95e3 33be 2b49 cdbd 905a 4a3e ace4 40bd
00000190: 59b0 8cbc 2018 833c b7f6 0f3e 9cd5 29be
000001a0: 8120 87bd 3fe3 0fbe 4298 f0bd 9a92 023d
000001b0: df7e 21bc 17a4 1b3e bd01 88bd 361c f2ba
000001c0: e49a 8d3c 5db7 1cbd e049 9a3d 8aff 173e
000001d0: 4d27 473e c062 f63c 15c9 d43c cd4c 263d
000001e0: b079 17be e52d 5c3c f670 0abe 5865 04be
000001f0: 8b9e e53d 05af 963d 3bdf eabd 47bd 453d
00000200: 7d63 eabc 67e4 cdbd 22fc 463e e01c 16be
00000210: b8bd 4abe f5c4 0bbe 0f59 6c3d 305e 19be
00000220: 7b7a b23d 56bf 0bbe 9078 89bd 7869 e5bd
00000230: 9f03 27be 270b c9bd 145b e53d a434 153d
00000240: a9bc 383e 6ec6 19be 229f 55bd b0ce 2c3d
00000250: ff37 d93d 49be 5abc 729b 223e fbfa b2bd
00000260: bc6c 03be 5a31 243d 4067 0d3d 2b0e 0a3e
00000270: b9b9 2bbd cc0f 84bd 8ef8 e43d 367d 08be
00000280: d344 57be ce23 29be c207 6e3e 1554 56bd
00000290: df41 41be 208a 3e3e 4366 2bbe 1e64 19bd
000002a0: 2ccd b9bc 35b5 813c f242 253e 39e5 eb3d
000002b0: efd6 19bd dd20 63be 6596 cbbd 3f51 22be
000002c0: d110 d63d eecc 8d3d f77a 3fbd 5976 30bd
000002d0: 50a8 8f3b f638 35bb 243c 633e 9742 ddbd
000002e0: deb4 913d 6b55 463e d369 113c 5f90 6d3e
000002f0: 3ddd ad39 74f3 bf3c 58f9 593e 50d2 3ebd
00000300: c45f 27bd cf27 f4bd 617c 9d3d 27c3 24be
00000310: bbfc 1b3e 1a2b 3cbd 7068 ae3c bdd8 0abe
00000320: e1fa 7dbb 240b 03bc 3ac3 a03d f7f8 9bbd
00000330: 1c28 13be 0332 d63d 84b8 4bbd 5435 2abd
00000340: cba6 0e3e fd80 ef3d f28a 3fbe 9250 eabd
00000350: fffb 46be a5cc d63d eb1f 983d 79bd aebc
00000360: 86eb 6d3d 4f0a 9f3c 8411 2b3d 1828 ec3d
00000370: 6791 05be f467 c43b 7829 433d 071b 043e
00000380: 549a ad3d 42d0 f9bd 7cba d03d dc9f 3d3d
00000390: daef 933a 8b68 c1bd 9ac5 5c3d ea70 c43d
000003a0: f42f 40be 8b59 89bd 6f33 663d 4c6c 013e
000003b0: 4f1a 7a3c 46f6 30bd 6c99 80bd 8c68 cb3b
000003c0: 909e bf3d a261 b33a 0149 27bd cd6b 28bd
000003d0: a8f3 8b3e 7139 c33d 622c 173e f07b 003e
000003e0: 4562 3c3d 4453 19be c094 d03d 0658 753e
000003f0: 89ce 3f3e 0305 e23c 2626 273d b49e c83d
-0.15325394 -0.012711526 0.0711796 0.059671313 0.018639376 0.1049782 0.13929944 0.09699995
0.11307938 -0.11397499 -0.014944053 -0.073574334 0.10098144 0.123158395 0.16608058 -0.0103166215
0.19040489 0.005223124 0.13096276 0.06809408 -0.043967597 -0.05033965 0.09460346 0.07629283
-0.035248615 -0.037691835 0.07008526 -0.045309264 -0.072593525 -0.12387509 0.1799142 0.07907196
0.11398552 -0.12184372 -0.20638476 0.20609245 0.20832089 -0.06893092 0.032520697 0.15549034
-0.042487897 0.058918525 -0.035360713 0.016985025 -0.04365642 0.053421896 -0.09051421 0.077319555
-0.19645603 0.12212698 0.088246696 0.19178547 -0.01629173 0.08319465 -0.18696274 0.09918879
-0.08116547 0.16801147 0.12132573 0.1414082 0.18473564 -0.21616755 -0.23279588 -0.10713435
-0.13570331 -0.004981148 0.1098354 0.0108797345 0.103044316 0.0013094165 -0.0995701 0.10050843
-0.13515972 -0.16038638 0.14239328 -0.12566528 -0.03456012 0.1428296 -0.07555742 -0.06222981
-0.082954675 -0.15738982 -0.06761155 0.11609731 -0.03658131 -0.11980312 -0.06541197 -0.15287568
-0.005647409 -0.13866605 -0.019887572 0.114381485 -0.006642353 -0.13441746 0.068639874 0.19166964
-0.17567284 -0.10023721 0.1976111 -0.04709308 -0.017173933 0.016002715 0.14058958 -0.16585392
-0.065979965 -0.14051531 -0.11747791 0.03187809 -0.009856909 0.15199314 -0.066409566 -0.0018471542
0.017285772 -0.038260806 0.07533622 0.14843574 0.19448586 0.030076385 0.02597479 0.040600587
-0.14792514 0.0134386765 -0.13519654 -0.12929285 0.1121188 0.07357601 -0.11468359 0.048276212
-0.028611893 -0.1005333 0.19432119 -0.14659452 -0.19798934 -0.13649352 0.05770212 -0.14977336
0.087147675 -0.13647208 -0.067124486 -0.11201757 -0.16309975 -0.0981658 0.111990124 0.036427155
0.18040718 -0.15017101 -0.052153714 0.0421893 0.106063835 -0.013351032 0.1587961 -0.08739277
-0.12834448 0.040086128 0.034522295 0.13481967 -0.041925166 -0.064483255 0.111802205 -0.13329014
-0.21022348 -0.16517565 0.23245147 -0.05232628 -0.18872784 0.18607378 -0.16738228 -0.037448995
-0.022680841 0.015833477 0.16138819 0.1151833 -0.037558492 -0.22180505 -0.09940795 -0.15851305
0.10452426 0.06923853 -0.046748128 -0.043081615 0.004384078 -0.002765236 0.2219091 -0.10803717
0.07114576 0.19368522 0.008875328 0.23199604 0.00033161967 0.023431517 0.21286523 -0.04658729
-0.040862814 -0.119216554 0.07689739 -0.1609007 0.15233128 -0.045939542 0.021290034 -0.13559242
-0.0038754272 -0.007998262 0.078497365 -0.07615846 -0.1437077 0.10458758 -0.049736515 -0.041554764
0.13930814 0.116945244 -0.18705347 -0.11441149 -0.19432066 0.104882516 0.07427963 -0.021330582
0.05808594 0.019414095 0.04176475 0.11531085 -0.13043748 0.0059938375 0.04764697 0.12900935
0.084767014 -0.12197925 0.10191819 0.046295032 0.0011286691 -0.09443768 0.053899385 0.09591849
-0.18768293 -0.06706532 0.056201395 0.12638968 0.0152650615 -0.043203615 -0.06279263 0.0062075313
0.09356415 0.0013685713 -0.040841106 -0.04111843 0.27334332 0.095324405 0.14763024 0.12547278
0.045992155 -0.1497317 0.10184622 0.2395936 0.1873113 0.02759028 0.040807866 0.09795895

dense1.bias f4 [50]
00000000: 1858 1abe cc94 d4bb 5eea be3c bee3 35be
00000010: ecd6 fb3d 9fc8 ed3a d053 0b3c d569 d93d
00000020: e809 393e f539 c6bd caa2 223a 49c7 11be
00000030: 9828 bbbd 6d04 00be d347 a83d 8f33 94bd
00000040: e274 f8bd 53a3 173e 84a2 043e 8354 073e
00000050: 5957 b4bd 9459 0bbe 475f 3e3e 06e6 743b
00000060: b5b6 95bd 4152 b7bd bbfb 853d 69fe e73c
00000070: 656e ea3d 140d e7bd f77e 28be a6fe b33a
00000080: 6064 a1bd f01f 123e a604 79bc c3e3 123e
00000090: 5e0e 22bc a8b7 e63b 6cd2 0e3d 0893 373e
000000a0: 318f 033e bc2e 123e aee7 213e 1bf6 ef3d
000000b0: 566c 173e 4fab 223d 681f 20bd 1d7d 8f3c
000000c0: c891 1f3e 31f1 263e
-0.15072668 -0.0064874645 0.023305114 -0.17762658 0.122968525 0.0018141455 0.008503869 0.10615889
0.18070185 -0.09679023 0.0006204067 -0.14236178 -0.09138602 -0.12501688 0.082168244 -0.072363965
-0.121316686 0.14808397 0.1295262 0.13215832 -0.08805723 -0.1360839 0.18591033 0.003736855
-0.07310239 -0.089512356 0.065421544 0.028319554 0.11446837 -0.11281791 -0.16454683 0.0013732507
-0.07880473 0.14269996 -0.015198862 0.14344697 -0.009891121 0.0070409365 0.034868643 0.17927182
0.12847592 0.1427564 0.15811035 0.11716863 0.1478742 0.039714154 -0.03909245 0.017515713
0.15582955 0.16302945

dense2.weight f4 [1, 50]
00000000: 2fad 42bc 84cd dc3d d996 e5bc f302 f3bd
00000010: f281 11be 3e1b 8abd caf1 f03c 6ed4 94bd
00000020: 08d0 abbd 2622 003e 6590 14bd d634 fdbd
00000030: e73c dcbd a196 ad3d 7874 0dbe 4350 06be
00000040: e24e bd3d 61ca b23d 863f 5ebd 4c42 003e
00000050: 6d7f d8bd d6ce d03d db6b 76bd a149 06be
00000060: 02ab 3f3e e06c b1bd 0d43 8bbd 09eb e83d
00000070: 3ecd 2e3e 29e9 a3bd 8026 f3bd bfb2 f23d
00000080: af6b ffbd 423d 2a3d bfa3 da3d 9c8f babd
00000090: f4a9 0f3e 9f1c 903d 1ad3 983c f929 963d
000000a0: 83e1 803d a8ef e43d 75b8 b83d 48cc 9dbd
000000b0: 47f8 1a3e 5e2c b23d 029d cc3d fc79 e2bd
000000c0: 5f5d 833d e65c a53d
-0.0118821105 0.107813865 -0.028026031 -0.11865797 -0.14209726 -0.06743477 0.029412169 -0.0726708
-0.08389288 0.12513027 -0.036270518 -0.12363593 -0.10753804 0.08475996 -0.1381396 -0.13116555
0.09243561 0.08730007 -0.0542598 0.1252529 -0.105711795 0.10195701 -0.060161453 -0.13114025
0.18717578 -0.086633444 -0.06799898 0.113729544 0.17070481 -0.08003456 -0.11872578 0.11850499
-0.12471711 0.041562326 0.10675763 -0.091094226 0.14029676 0.07036709 0.018655349 0.073322244
0.06293013 0.11178523 0.090195574 -0.07704979 0.15133773 0.086998686 0.09990884 -0.11058423
0.064142935 0.080743596
